baseline/checkpoints/loo_model50.pth (torch, 253185 bytes, 18 tensors)

layer1.0.weight f4 [6, 1, 5, 5]
000000 b0 09 09 3d 43 fd 22 bd 41 9a d3 bd e5 1f fe bd
       0.033456504 -0.03979231 -0.10332156 -0.12408427
000010 33 e4 8c 3e e0 1a 14 bc 33 d5 49 3e d2 c4 7c 3e
       0.27517852 -0.009039611 0.19710235 0.24684456
000020 c4 5a 0d be 7f 6a 9c bb 91 95 d6 3d 50 92 90 be
       -0.13804156 -0.0047734375 0.10477746 -0.28236628
000030 37 42 01 bf 31 e0 0d bf bf f9 21 bf 2f c5 7a 3e
       -0.5049166 -0.55420214 -0.6327171 0.24489282
000040 fa 92 b9 3d d3 c3 f3 3d 67 75 1f be 82 a1 71 bd
       0.09061237 0.11902585 -0.15572129 -0.058991916
000050 e8 14 7b 3e 1e 4d 77 3e 10 68 49 3e 21 c1 6a 3e
       0.24519694 0.24150512 0.19668603 0.22925235
000060 85 fc b3 bd 3d 70 0b 3e 59 f9 20 3e f0 73 35 be
       -0.08788399 0.13617034 0.15720119 -0.17720008
000070 a4 96 57 be d8 1c 36 3c 8c 4d 40 3d 6f 79 ca 3d
       -0.21053559 0.011115275 0.046948954 0.09886443
000080 19 30 9e be 0e fa a0 be 43 7d b4 be 34 47 50 be
       -0.3089607 -0.31440777 -0.35251817 -0.20339662
000090 b1 58 0b be 81 6c e7 bd d9 e6 7a be 49 86 72 bd
       -0.13608052 -0.11299992 -0.24502124 -0.059210096
0000a0 28 53 d7 3d 6f fa e1 bd 52 61 03 bd f8 54 8e be
       0.10513908 -0.110340945 -0.032075234 -0.277992
0000b0 ab ac b9 bd de e7 1c be 59 73 8e 3d 51 32 16 3e
       -0.09066137 -0.15322825 0.069555946 0.14667632
0000c0 4e ce c1 bd d7 9a 90 3c f2 9f 90 bc 2f 54 6b 3e
       -0.094631776 0.017651958 -0.017654393 0.22981332
0000d0 2c 93 6a be c0 10 91 bd 37 6d f7 bc b7 40 b3 3c
       -0.22907704 -0.07083273 -0.030203445 0.021881444
0000e0 7d bd c3 3e 30 b7 95 be a9 e8 06 be 09 c7 98 bd
       0.38230506 -0.29241323 -0.1317469 -0.07459838
0000f0 6a ad 9d 3d 41 92 ba 3e a3 94 33 be 2e 36 81 bd
       0.07699092 0.36439708 -0.17537169 -0.06309162
000100 f6 fc e1 bd 01 9b a2 be 87 b1 80 3e 5d 43 c4 3e
       -0.110345766 -0.31758884 0.25135443 0.38332644
000110 5c 8e aa bc 35 eb b8 3d d9 1d ea be 4e f6 10 bf
       -0.020819835 0.09029237 -0.45725897 -0.5662583
000120 64 a7 6c 3e 0d 94 03 3f 74 5b c4 3e 13 99 94 3d
       0.2311073 0.5139778 0.38351023 0.07255759
000130 c1 42 4a 3d 85 86 17 be 37 7b 74 3e ce db 2d be
       0.049380068 -0.14797409 0.23875128 -0.1697838
000140 fe 51 9d be 29 b7 67 3e e6 b8 9f 3e 2d 19 12 be
       -0.30726618 0.22628464 0.31195754 -0.14267416
000150 27 77 c1 bd 6b 25 e8 bd 6e 05 91 3a 10 f9 d9 3e
       -0.09446555 -0.11335262 0.001106424 0.42572832
000160 c6 d6 05 3e 96 5c fb be dd 37 03 be 78 77 f4 bc
       0.13070211 -0.49094075 -0.12814279 -0.029842123
000170 09 c3 26 3f cb c3 93 3d 20 ce 18 bf 38 c4 14 be
       0.6514135 0.07215079 -0.5968952 -0.14527977
000180 4f f7 80 3e b2 bb de 3e c0 c5 60 be 79 63 8f be
       0.2518868 0.43502575 -0.21950436 -0.2800558
000190 74 fc 21 3e f3 df fd 3e cd f8 0c be 41 e8 6d be
       0.1581896 0.49584922 -0.13766785 -0.23233129
0001a0 7a f5 9b be 8e c2 36 3e bc 78 1e bb d8 a9 ab be
       -0.3046072 0.17847654 -0.002418085 -0.33528018
0001b0 f3 a5 e6 be 01 17 f6 3e 9c 1d 17 be e0 ee 12 3d
       -0.45048484 0.48064426 -0.14757389 0.03587234
0001c0 da 3c 29 bf 3d cc e9 3d 77 88 12 3f 44 8b 62 be
       -0.6610848 0.114159085 0.5723948 -0.22123438
0001d0 8f ed e5 bc 15 dd 46 bc f5 a9 85 3e d1 75 6f bc
       -0.028067378 -0.012137671 0.2610623 -0.014615492
0001e0 34 23 53 3e 3d d2 be bd cf 03 cd be 5c d6 aa 3e
       0.20618898 -0.093174435 -0.40041968 0.33366668
0001f0 ec 36 83 be 78 96 ac be c8 27 29 be 6f 01 e4 be
       -0.2562784 -0.3370855 -0.16519082 -0.44532344
000200 de 89 5c bd 4b d7 28 be 86 79 a1 be 42 6c 76 be
       -0.053842418 -0.16488378 -0.31538028 -0.24064735
000210 82 d3 b4 be e0 b2 61 bd 48 0f 71 bd ef dc 65 be
       -0.35317618 -0.05510223 -0.058852464 -0.2244756
000220 b2 63 69 3b 26 ae 8c 3e ab 22 43 3e 04 d2 0c bd
       0.0035612402 0.27476615 0.19056194 -0.034379974
000230 05 78 4b 3e 8f 89 69 3e 87 be bb 3e 1a 1f 08 be
       0.19870003 0.2280638 0.36668798 -0.13293114
000240 65 9a 2b be 60 a2 11 be 10 5b 7f 3e 91 60 a4 3e
       -0.16758116 -0.14222097 0.24937081 0.32104924
000250 8c 79 40 be d1 b0 0e be
       -0.18796366 -0.13934638

layer1.0.bias f4 [6]
000000 6a a9 3f be ad da 2c be 7c 1a 26 bd 57 a4 e0 3d
       -0.1871697 -0.16880293 -0.0405526 0.10968845
000010 cc a9 dd 3d de 7a 45 be
       0.10823402 -0.19285151

layer1.1.weight f4 [6]
000000 de 5a 82 3f 23 99 c0 3f 2f 61 2a 3f 80 ae 30 3f
       1.018398 1.5046734 0.6655454 0.69016266
000010 2a 7f 2a 3f 90 98 90 3f
       0.66600287 1.1296558

layer1.1.bias f4 [6]
000000 ac 80 83 be 3a a1 0e bf cd ec 86 bc d4 8a b3 3b
       -0.25684106 -0.5571476 -0.016470337 0.005479196
000010 c5 c2 1f 3e 32 14 da be
       0.15601642 -0.42593533

layer1.1.running_mean f4 [6]
000000 7f 91 b5 be 0a 9e 41 bf b0 5b c0 3d 6f d5 11 3e
       -0.35462567 -0.75631773 0.09392488 0.14241575
000010 6a e1 c3 3b 85 13 19 bf
       0.005977799 -0.5979541

layer1.1.running_var f4 [6]
000000 fa ed 23 3e 88 b9 dd 3e 6c 52 a3 3d 5f 9f 2f 3e
       0.1600875 0.43305612 0.07974705 0.17150639
000010 ed d9 af 3d 2a 03 8a 3e
       0.08586488 0.2695554

layer2.0.weight f4 [16, 6, 5, 5]
000000 a3 42 d0 3d 00 de 6d be d2 0c 87 bd b2 d9 9d 3c
       0.1016896 -0.23229218 -0.06594242 0.019268844
000010 56 db 47 3d 1f 89 69 bd 09 36 d9 bd 71 d5 a2 3c
       0.04879316 -0.057015534 -0.106060095 0.019877167
000020 c7 d6 c7 bb 97 7f c6 bd fa b7 c0 3b 7f 7a f2 bd
       -0.0060986015 -0.096923046 0.0058813067 -0.118397705
000030 ee eb 0f 3d 40 2f 43 bd 32 fa c5 3d 53 98 95 bd
       0.03513711 -0.047652483 0.096668616 -0.07304444
000040 36 7e 71 be 48 63 a3 3d f4 13 f6 bd 97 1b 52 bd
       -0.23583302 0.07977921 -0.120155245 -0.051295843
000050 b6 28 68 bd f7 01 64 be 00 96 f5 3d 09 60 0d 3d
       -0.05667945 -0.22266375 0.11991501 0.034515414
000060 4f 87 5d 3d 86 08 e3 3c 1f be 57 3e ce 9a 0d bd
       0.05408412 0.027714025 0.21068619 -0.03457146
000070 97 87 1f 3e da d4 b9 3d 58 34 3e bc aa c9 8e 3c
       0.15579067 0.09073801 -0.011609159 0.017430145
000080 4f 91 b2 bd b3 16 63 3c 46 d6 9a b9 e0 bf a8 bc
       -0.08719122 0.013860392 -0.00029532815 -0.020599306
000090 76 69 fe bc 45 fe 24 bc aa ba 0d bd 0f 1a 21 bd
       -0.031056147 -0.010070388 -0.034601845 -0.039331492
0000a0 3d fd 95 bd d0 ac 16 3d eb b8 5e 3b 96 e7 92 3d
       -0.07323692 0.0367859 0.0033984731 0.07173078
0000b0 5d c5 2d bd a5 83 cd 3c d1 00 ca bd 71 16 45 3b
       -0.04242455 0.025087187 -0.09863437 0.003007319
0000c0 cb 69 a7 bc b0 33 0a 3d 0d 4a f9 bc b7 34 7a bd
       -0.020436188 0.0337407 -0.030430818 -0.06108543
0000d0 cf d7 99 3c ac 4e 47 3d e3 8e ac bd 5b cd 8c bd
       0.018779663 0.04865901 -0.08425691 -0.06875106
0000e0 7f 7a 38 bd 2f a0 85 bd 8c 3b aa 3d 09 01 21 be
       -0.045038696 -0.06524693 0.08312139 -0.15723051
0000f0 a6 ed 14 be 57 88 0c be dd 03 e3 3d 88 00 f7 3d
       -0.1454378 -0.13723885 0.11084721 0.12060648
000100 46 20 d2 bd 35 82 8f 3d a0 ac b6 3d fe 3e a2 3d
       -0.10260062 0.07007257 0.08919644 0.07922171
000110 f8 2a 42 bd 88 eb 1c 3d 13 0d cd bc d3 b2 59 bd
       -0.04740426 0.038310558 -0.025030648 -0.053149056
000120 4a 15 b1 bd 3b 64 83 bd 2f d8 ec bd 38 7f 28 3e
       -0.08646639 -0.06415602 -0.11564671 0.1645478
000130 bb ce a7 3d 75 44 9b 3d 30 46 96 bc 0c 81 c7 bd
       0.081937276 0.075814165 -0.018344015 -0.097414106
000140 f6 57 92 3d dc 39 a0 bd 95 d5 7f bd e7 e1 25 3e
       0.071456835 -0.07823536 -0.062459547 0.16199456
000150 41 0e 51 bc ba f7 2b 3e b4 dc bb bd 77 65 1a bd
       -0.012759746 0.16793719 -0.09172955 -0.03769442
000160 17 c0 f1 3d 8a a0 b4 bd 3a 40 95 3e 69 87 dd bd
       0.11804216 -0.08819683 0.29150563 -0.10816843
000170 88 1d 2e 3c 32 8f 97 3b 41 47 a4 3c ad 5a 74 3e
       0.010627158 0.0046252245 0.020053508 0.23862715
000180 1f 11 a3 bc e1 3d cc 3d fb 12 cd bd e1 c4 08 be
       -0.019905625 0.0997274 -0.10013386 -0.13356353
000190 88 ff a5 bd d6 0e b7 3e b7 cb 8e 3c 5b 24 15 be
       -0.08105379 0.35753506 0.017431123 -0.1456465
0001a0 86 e2 28 be 43 c6 e8 bd 34 38 85 3d aa 29 92 3d
       -0.16492662 -0.113659404 0.065048605 0.07136853
0001b0 5e 72 b9 bd 0d 82 66 bd a1 22 bf bd 2e fc 65 bd
       -0.09055017 -0.05627637 -0.09332777 -0.0561487
0001c0 b1 6e 55 bd f3 3e 18 3b a0 04 70 3c 53 9f c6 3d
       -0.052107517 0.002323088 0.01464954 0.096983574
0001d0 c4 67 34 bc fc 4e 82 3d f3 07 63 bd 83 84 cd 3c
       -0.011011068 0.06362721 -0.055427503 0.0250876
0001e0 d8 dc 7b 3e ee ae 3d 3e ae 42 1f 3d 02 a0 c8 3d
       0.24595964 0.18523762 0.03888195 0.09796144
0001f0 d1 50 ad bb 98 6d 8e be 1e 50 0e be 14 f3 3f 3e
       -0.005289175 -0.27817988 -0.1389775 0.1874507
000200 24 a6 1b 3e d9 9c df 3d 1d ec d7 3d 47 71 ab 3d
       0.15200096 0.10918588 0.10543082 0.08371215
000210 93 c1 0c be db 2c e1 bd bf eb 5c 3d 42 18 b4 bd
       -0.13745718 -0.109948836 0.053935762 -0.08793689
000220 44 e2 a7 bd a0 85 c2 bd aa 70 fa bd b5 99 30 3d
       -0.081974536 -0.09498143 -0.1222852 0.043115336
000230 fd 9c ea 3c 45 90 cd bd ee 29 89 3c 7c 64 6b bd
       0.028639311 -0.10037283 0.016743626 -0.057468876
000240 35 8a 6c 3d 4c 3d 99 3d d7 6f 72 bd 42 6c a3 3d
       0.057748992 0.074823946 -0.05918869 0.07979633
000250 a6 c6 23 3d 83 89 be 3c a6 39 96 bd 2e 97 c8 3d
       0.039984368 0.02325893 -0.07335214 0.0979446
000260 11 75 70 bd 6e c5 d2 3b 96 18 2c bc c0 f7 40 3d
       -0.058705393 0.006432227 -0.010503909 0.047111273
000270 be d8 99 3d d7 1c 7a bc 50 7c ae 3b ad 47 e8 3c
       0.075120434 -0.015265665 0.005324878 0.02835449
000280 9d 3e e0 bc 25 9c 59 bc 87 bd e0 3c 8a 28 cd b8
       -0.027373606 -0.013281857 0.027434124 -9.782713e-05
000290 8c 4e 17 bc 6a d9 b4 bc c0 6b 74 bd 3a f4 bd 3b
       -0.009235036 -0.022076327 -0.05967307 0.0057969363
0002a0 01 01 db bd a0 4f 5b bd fc ca c8 3c 24 f1 c5 3c
       -0.10693551 -0.053542733 0.024510853 0.024162836
0002b0 5a 1a 67 3d 05 a7 14 be 23 ec bb bd 01 eb c3 bc
       0.056421615 -0.14516838 -0.09175899 -0.02391577
0002c0 7a 62 04 3e 51 ce d7 3d 9c ae 97 3c ee a0 69 3d
       0.12928191 0.105373986 0.018515877 0.05703824
0002d0 04 09 c1 3c 2e f1 16 3e 8d be 30 3e 9e 40 d2 3d
       0.02356387 0.1474044 0.1726019 0.10266231
0002e0 a0 f9 4b ba 06 5c b0 bd d2 fd e6 3d 45 1f 5f 3e
       -0.00077810325 -0.08611302 0.11278881 0.21789272
0002f0 2a d0 9b 3c 8d 2d 05 3e 69 cf 60 3d a1 a0 04 3e
       0.019020159 0.13005657 0.0548853 0.129519
000300 cf 05 10 3e c9 2d c6 3d f3 0e 17 3d 87 84 56 3d
       0.14064716 0.096767016 0.03687949 0.05237248
000310 cd 0e 09 3c 7b 09 19 3e ab b9 0a 3c 3e fb 08 3d
       0.008365345 0.14945023 0.008467118 0.03344273
000320 23 71 68 bd 1c 27 94 bc 12 67 8c bd 1b 96 c8 3c
       -0.05674852 -0.018085055 -0.068555966 0.024485638
000330 cb 23 06 bc bd bc 1b bd 6b 05 3a 3d 25 f9 f8 3d
       -0.008187245 -0.03802179 0.045415323 0.121568955
000340 0b 79 b5 bc 4d 32 0d 3e 43 d7 31 3c 4c f4 98 bd
       -0.022152444 0.1378872 0.010854545 -0.07468471
000350 da 97 9d 3c 57 ca 62 bd 21 8d bd bb bd 18 93 3d
       0.019237448 -0.055368748 -0.005784646 0.07182453
000360 e8 ab 48 bc 5a 20 2a 3d 38 73 69 bd 82 ac 93 bc
       -0.012248017 0.04153476 -0.056994647 -0.018026594
000370 4e 4a cd 3d 7a 75 e3 3c a6 d6 0c 3e 9f 8a ae 3d
       0.10023938 0.027765978 0.13753757 0.085225336
000380 b9 66 16 be 56 9a 9b bd 11 7b 03 3e dd 25 a8 bc
       -0.14687623 -0.075977966 0.12839915 -0.020525867
000390 56 b9 7d 3d 23 32 03 bd 78 f9 82 3a 26 4c d3 3d
       0.06194433 -0.032030236 0.000999256 0.103172585
0003a0 31 76 cb bd 96 fb 8f 3d 51 4a 41 bc ca 75 00 bd
       -0.099346526 0.07030408 -0.011797504 -0.031362332
0003b0 1b 16 59 bd 77 52 08 be 9e 90 bd ba 1a c6 9c 3d
       -0.052999597 -0.13312708 -0.0014462655 0.076549724
0003c0 39 50 a6 bc 6e ad be bc 78 78 9a bd 9c a8 e8 3c
       -0.020301925 -0.023276057 -0.07542509 0.028400712
0003d0 b2 4b ea 3d ea f9 c5 bd e1 78 81 bc 7a 54 2d 3e
       0.11440219 -0.09666808 -0.01580471 0.16926757
0003e0 41 28 b0 3c 09 c5 7a 3d 99 fe a3 3d c6 b4 a0 3d
       0.02150357 0.061223064 0.08007545 0.0784698
0003f0 a0 40 87 3c ba 59 ba 3d d8 76 2a bd fd af be bd
       0.016510308 0.09099145 -0.041617244 -0.09310911

layer2.0.bias f4 [16]
000000 a9 bb a5 bd 09 63 49 bc f0 82 47 3a 46 dc dc bc
       -0.08092434 -0.012291678 0.0007610759 -0.026960503
000010 a7 b8 5b bd d8 b5 68 bd 52 39 5e 3d 98 8b d8 bc
       -0.053642895 -0.056814045 0.054253884 -0.026433751
000020 8a 2e ac bb 0f 45 c4 3c 34 46 4d bd 75 79 ee 3b
       -0.0052545713 0.023958711 -0.05011578 0.0072776624
000030 51 ed 46 3d 7a 8a 43 bd a9 99 c2 3c 28 c4 36 bb
       0.048566166 -0.047739483 0.023754911 -0.0027887914

layer2.1.weight f4 [16]
000000 c2 1c c0 3f c5 a7 b8 3f d5 db ca 3f 63 ee ab 3f
       1.5008776 1.4426199 1.5848337 1.3432125
000010 10 64 c1 3f a8 c5 ac 3f 07 5c be 3f 08 26 bf 3f
       1.5108662 1.349782 1.4871835 1.4933481
000020 dd f2 ce 3f 5a 8c b8 3f 57 01 b9 3f 07 b4 c9 3f
       1.6167866 1.4417832 1.4453534 1.5758065
000030 9c 36 d3 3f 44 4c be 3f 7a 31 b5 3f d8 3f ac 3f
       1.650104 1.4867024 1.4155724 1.3456984

layer2.1.bias f4 [16]
000000 43 ba 06 be 00 21 c1 bc 06 7f 24 bd 0f 1d 9c bd
       -0.1315699 -0.023575306 -0.0401602 -0.0762273
000010 ea 2d fb bd 2e 32 34 bd 63 3e 9e bd 7e 5c 7f bd
       -0.12264617 -0.043993168 -0.07726743 -0.062344067
000020 9d 6d 39 be 55 76 0d be f8 dc 1b be ec 90 03 be
       -0.1810822 -0.13814671 -0.15221012 -0.12848252
000030 de b3 24 be 24 1a 32 be e5 80 06 be 49 d6 17 be
       -0.16084239 -0.17392784 -0.13135107 -0.14827837

layer2.1.running_mean f4 [16]
000000 05 c7 65 be 90 ff e3 3e 48 3b 20 3e cc 1b fd 3d
       -0.22439201 0.44530916 0.15647614 0.123588175
000010 d4 2d 06 3e 25 f6 6a be cb 77 8c bf d1 74 93 3e
       0.1310342 -0.22945459 -1.0974058 0.2880006
000020 7c e0 8b 3e 1c b8 49 3f 58 9a 94 be ec 15 7c 3b
       0.27319705 0.78796554 -0.29024005 0.0038465215
000030 8e 9e 82 3e ab bc de be 74 aa 93 3e d0 d2 13 3c
       0.25511593 -0.43503317 0.28840983 0.00902243

layer2.1.running_var f4 [16]
000000 aa 62 15 3f 18 74 c9 3e df 96 f6 3e aa 7b b7 3e
       0.58353674 0.39346385 0.4816198 0.35836536
000010 c1 ef e7 3e e3 47 a7 3e 1e c2 6f 3f 2b 75 07 3f
       0.45300105 0.32672033 0.93655574 0.5291316
000020 e8 42 d1 3e 1e 0b dc 3e da 38 e2 3e b0 a4 fa 3e
       0.40871358 0.42977232 0.44184 0.48953772
000030 26 13 23 3f c7 62 24 3f 13 54 d4 3e 32 75 88 3e
       0.63701093 0.6421322 0.41470394 0.26651913

fc1.weight f4 [120, 400]
000000 3c 6a 4a 3b 76 ad 83 3d 42 de c5 3c a9 f0 d9 3b
       0.0030886075 0.064295694 0.024153832 0.0066510034
000010 3b e4 09 bc 17 e9 9a bc 62 77 52 3d 80 37 59 bc
       -0.008416231 -0.018909974 0.051383384 -0.013257861
000020 1f 93 e1 bc 10 9b 89 3d 82 a9 67 bd 2e 9a a1 3c
       -0.027535973 0.06719029 -0.05655814 0.019726839
000030 7a 2f eb bc 10 40 4c 3d a2 f7 7a 3d cc 97 ea 3c
       -0.028709162 0.049865782 0.061271317 0.028636836
000040 26 67 5e 3b a7 60 8a 3c 2b 9a 7e 3d 83 74 8d 3c
       0.0033935993 0.01689179 0.062158745 0.017267471
000050 fd f5 4e bd a8 3f 2c bd b3 fb 6b bd aa 64 b4 3d
       -0.05052756 -0.042052895 -0.057613086 0.08808263
000060 61 b6 92 3a 53 87 1c 3b fd 3a 9e 3a 0a ec df 3b
       0.0011193269 0.002388437 0.0012072023 0.006833558
000070 15 62 4d 3d 4d 55 28 bd 65 ac 07 bd 3a 69 85 bd
       0.050142366 -0.041096974 -0.033123393 -0.06514211
000080 58 b7 a3 bb bc a0 b4 bc 08 51 b4 bc af c4 ed bb
       -0.0049962215 -0.0220493 -0.022011295 -0.0072561125
000090 a2 6f aa ba 42 81 33 bd db 47 95 bd 77 c2 91 3c
       -0.001300324 -0.04382444 -0.07289096 0.017792923
0000a0 5e 9c c4 3a fe fb 48 3c fa ef 79 bc 61 42 d0 bc
       0.0015000214 0.012267111 -0.015254969 -0.025422277
0000b0 d2 a7 1e 3d 53 79 8e bc c1 ce 3b 3d c8 ad 94 3d
       0.038734265 -0.017391836 0.045851473 0.07259709
0000c0 62 96 c1 bc 13 8c f6 3c 1d 40 b0 3d 01 94 16 3c
       -0.023631278 0.03009609 0.08605979 0.00919056
0000d0 7a a1 b5 3c cd e2 53 bc 0b a5 70 3d 5f 6f ce bd
       0.022171725 -0.0129324915 0.058751147 -0.10079836
0000e0 b6 7d a6 bb 39 0a 10 3c c1 6e 0e 3d b1 59 8b 3c
       -0.005080904 0.0087915 0.034773592 0.017010542
0000f0 aa dd 81 bd 19 9b 94 3c fd 48 1f 3c de 58 96 3d
       -0.06341107 0.018140363 0.009721992 0.07341169
000100 cc 8b 55 3b 61 d8 4d bc 50 04 1a 3d fa b1 30 bd
       0.0032584546 -0.012563796 0.03760177 -0.04313848
000110 5f cf 97 bd 52 14 aa bc a5 3f 19 bd 1e 0b 7e ba
       -0.074126 -0.020761643 -0.03741421 -0.00096909876
000120 f6 95 e0 bc d2 11 35 3c 2d ea 83 bc 1b 6a 46 3d
       -0.027415257 0.011051612 -0.016102875 0.048441034
000130 c4 73 b8 3c f2 a5 2d 3d 2e 74 4c 3d d8 ae 79 3d
       0.022516139 0.042394586 0.049915485 0.06095776
000140 fd 26 36 3d c2 2a 12 bd 6f c1 e0 3a 15 31 a2 3c
       0.044470776 -0.03568531 0.0017147491 0.019798795
000150 96 1c 4e bc 69 37 5a bd e4 ab 12 bc fb fb 83 3c
       -0.012580058 -0.0532755 -0.008952115 0.016111365
000160 71 ac 12 bd d2 35 ba 3c 9e ef 33 3c bc 4a 8d 3a
       -0.035808984 0.022730742 0.010982422 0.0010779719
000170 1f 90 a1 3a c8 95 a8 3c 07 7f bc bc 90 09 d2 bc
       0.0012326277 0.020579234 -0.02300979 -0.025639325
000180 93 51 b4 3c 60 9f 15 3d 47 19 50 bc 91 d9 75 bc
       0.022011554 0.036528945 -0.012701339 -0.015005485
000190 83 b7 88 3c 37 93 ef 3c 27 95 d6 3c cf 04 1a 3d
       0.016689068 0.029245002 0.026194168 0.037602242
0001a0 e4 4a 4d 3d e5 aa 56 bc 2a 15 91 bb a6 10 a1 3c
       0.05012025 -0.013102268 -0.004427572 0.019661259
0001b0 e3 97 0d bd ad 62 b2 bc d1 46 94 bd 8a 7f 84 3c
       -0.03456868 -0.021775568 -0.0724007 0.016174097
0001c0 fb 07 a2 bd d2 8f d3 bb e0 5c 0c bd bd bd 56 bc
       -0.079116784 -0.0064563537 -0.03426826 -0.013106761
0001d0 23 67 0e 3d db ab c5 bc bd c8 63 3d 7b cc 0c 3d
       0.034766328 -0.024129799 0.05561136 0.034374695
0001e0 7d 77 60 3c 0f 4b c0 3c 94 77 18 3c 15 8e c8 3b
       0.013700363 0.02347329 0.009305853 0.006120453
0001f0 b0 25 98 3d 8a e5 c3 bc 7a 3d 42 3d 01 cb 7c bc
       0.07429063 -0.023913164 0.04742191 -0.015429259
000200 54 50 b7 3c cf 90 4a 3d 80 97 6b 3b 73 c5 2f bd
       0.02237717 0.049454506 0.0035948455 -0.04291291
000210 98 40 8b bd b3 fc 9e bc 2e ff 2a bd f8 79 bc 3c
       -0.0679943 -0.019407606 -0.041747265 0.023007378
000220 2b 4f 8f 3d 4a ac 09 3d 27 a0 6f ba a0 1c 8b bd
       0.06997522 0.033611573 -0.0009140991 -0.06792569
000230 a0 66 8b bd 2c 80 60 3d 54 85 03 bd bc 6d 2e bc
       -0.068066835 0.054809734 -0.032109573 -0.01064628
000240 40 47 75 bd e2 18 cf bd 00 04 ae 3b 24 25 b2 bc
       -0.059882402 -0.10112168 0.0053105354 -0.021746226
000250 f8 5f 33 3c a8 23 f0 bc 4f 69 0b bb 04 f1 43 3d
       0.010948174 -0.029313877 -0.0021272486 0.047837272
000260 88 e9 6e bc 2b 20 66 3c e1 1e 90 bc 88 75 d4 bc
       -0.014582045 0.014045755 -0.01759285 -0.02593495
000270 c7 a4 26 bd 9b 18 98 3c 2f 25 28 bd 63 48 c5 bd
       -0.040684488 0.01856642 -0.041051086 -0.09632947
000280 4e 21 81 3d 17 16 8a 3b 55 b5 64 bd 91 90 67 bd
       0.063051805 0.004214059 -0.055836994 -0.056534354
000290 2f 68 87 bd 7b f7 10 bd 75 70 19 3d b1 9f b4 3c
       -0.06611668 -0.035392266 0.037460763 0.022048803
0002a0 2e d8 1c 3d a7 ca 8b bc 1b e4 9c 3a 54 68 4a bd
       0.038292103 -0.017064406 0.0011969836 -0.0494159
0002b0 d5 32 e4 3c 8e b7 47 3c 85 97 61 3d a7 b7 7f bc
       0.02785627 0.012189759 0.05507614 -0.015607751
0002c0 b8 b0 33 3b f2 75 02 3c 6c 91 35 3d 40 95 4c bc
       0.0027418565 0.007962691 0.04432814 -0.012486756
0002d0 7a f9 e6 bb 38 20 41 bc ea 7d b8 bc f8 ac b7 3d
       -0.007048783 -0.011787467 -0.022520978 0.08968538
0002e0 14 ad 54 bd b0 90 70 3d 64 37 16 3c 39 87 22 3d
       -0.051922873 0.058731735 0.00916848 0.03967974
0002f0 ca 95 6b 3d 09 9b 7a bd 06 02 44 3d d9 b7 5b ba
       0.057515897 -0.06118301 0.047853492 -0.00083815824
000300 10 69 a0 3c 5f eb a2 3b f2 79 e3 3b 95 34 4c 3d
       0.019581348 0.004971906 0.0069420272 0.049854834
000310 1a 97 82 3a 4c dc d0 3c 3a f4 1f bd b3 a3 81 bb
       0.0009963245 0.02549567 -0.039051272 -0.003956282
000320 34 cd 95 bd 2d 64 c6 bc 53 33 21 3c c5 8d dc 3c
       -0.0731453 -0.02421769 0.009838897 0.02692307
000330 c6 28 af 3d 86 08 9e 3d a1 5e 9a bc bf be df 3c
       0.08552699 0.077164695 -0.01884395 0.027312635
000340 d0 5c 12 bd 25 cb 42 3d 8f 1f 38 3d 91 7d e1 3c
       -0.035733044 0.047557015 0.04495197 0.027525695
000350 17 ce 9c bc 9e 1e 16 bb 80 46 a9 bc 4d a9 87 3d
       -0.01914124 -0.0022906433 -0.0206635 0.066240884
000360 58 68 4a bd 15 7e 35 39 70 28 1b 3d 16 6d 4c 3c
       -0.049415916 0.00017308474 0.03788036 0.01247718
000370 88 6a b4 bc b3 ee 08 be 2d c9 81 bd 3b b4 ce 3d
       -0.022023454 -0.13372307 -0.06337199 0.1009297
000380 d3 c8 c3 bc 01 96 6f 3d 1a b5 dd 3c 87 07 0a bc
       -0.023899471 0.058492664 0.027063895 -0.008424646
000390 13 08 b8 bc b1 1a a2 3c da d6 b5 3c f8 81 19 bc
       -0.022464788 0.019788118 0.022197176 -0.009369366
0003a0 dd 8d b8 bb f7 6b 14 3c 71 73 89 3c 7a 21 be bc
       -0.005632146 0.009058944 0.01677868 -0.023209322
0003b0 a3 bb 70 bb 62 73 df bb 2a 24 db bc 94 5c 20 bc
       -0.0036732934 -0.0068191746 -0.026750643 -0.009787697
0003c0 f2 94 08 bc d5 42 85 3d 3e 5e 2e 3d 2e c0 08 3d
       -0.008336293 0.06506888 0.042570345 0.0333864
0003d0 66 20 99 bd ae 77 ea bc 95 19 1a 3d 45 e8 2a 3d
       -0.07476883 -0.02862152 0.037622053 0.041725416
0003e0 64 5b bd bc bc 35 ce bc dd 30 b9 3b ae a1 64 3c
       -0.023114868 -0.025172107 0.005651577 0.013954563
0003f0 25 35 d0 3c be 1b e1 bc 91 37 c4 ba 37 8c 63 bc
       0.025415966 -0.027479049 -0.0014970173 -0.01388841

fc1.bias f4 [120]
000000 27 3c 38 bc 6c 2d 27 3d bc 6a 30 3d 52 14 92 3c
       -0.01124481 0.040814802 0.04307054 0.017831955
000010 a1 a2 a4 3c b5 f0 5f bc f6 08 73 bc bf 40 9c bc
       0.020097079 -0.013668229 -0.014833679 -0.019073842
000020 e5 95 08 3d af 1b 1a 3d 17 08 40 bd cc a8 ab ba
       0.033346076 0.037624057 -0.046882715 -0.001309657
000030 30 77 f0 3c d3 75 52 3d 0e 4d 4b 3b 9e 85 e2 3a
       0.029353708 0.051381897 0.003102127 0.0017282253
000040 52 a8 e1 bc cb 65 9f bc 24 a7 11 bb 8f d2 05 bc
       -0.027546082 -0.019457718 -0.0022224868 -0.008167877
000050 47 a7 e7 bc 64 48 32 3d f9 f5 11 3d c2 c9 0f 3d
       -0.028278006 0.04352607 0.03563497 0.03510452
000060 92 e8 39 bd ff c7 af 3c 4e f7 d0 3c b1 c7 99 3c
       -0.045387812 0.02145767 0.025508549 0.018771978
000070 bf ea 2e 3d a1 af 6f bb c7 72 cf bc aa cb c9 bc
       0.04270434 -0.003657319 -0.025323285 -0.024633247
000080 4c b4 06 bd 1e a7 42 3d d9 87 8a bc 98 8b 20 3d
       -0.03288679 0.047522657 -0.01691048 0.039195627
000090 8d 99 f5 3c fa 38 64 3c ef 8a ab 3c 7f 4d 03 bd
       0.029980445 0.0139296 0.020940272 -0.032056328
0000a0 72 e0 4e 3a 34 60 95 3a fa 14 1a 3c d2 60 f5 3c
       0.00078917213 0.0011396469 0.009404415 0.029953394
0000b0 a7 33 92 3c f1 4d 43 3d 67 10 1b bc cb df 6c 3d
       0.017846895 0.047681753 -0.00946436 0.057830613
0000c0 00 1a 10 bd 0a 8f 01 bd ac ca 81 3c 23 84 da 3c
       -0.035181046 -0.031630553 0.015843712 0.026674336
0000d0 b0 12 17 3d 7a fe d5 3c 6c 0c 20 3d 82 de 63 3c
       0.036883056 0.02612232 0.039074346 0.01390803
0000e0 ec a2 a4 bc 7a eb 7c bc 30 1f e2 3c d2 07 87 3b
       -0.020097218 -0.015437001 0.027602762 0.0041208053
0000f0 1e 79 12 3c 7c 3a 62 ba fc b0 1b bc 2a 5f 59 3c
       0.008940009 -0.00086299307 -0.009502646 0.013267318
000100 66 a6 57 3c 3b c6 0e 3b 6f 10 72 bb 46 aa 07 3d
       0.013162231 0.0021785635 -0.0036936065 0.03312137
000110 14 29 ba bb f3 03 28 3c 41 a3 c1 bc c7 99 fa 3c
       -0.0056811664 0.010254848 -0.023637416 0.030590905
000120 13 35 76 bc ff 29 18 bd 6c 8b 7f 3b e4 48 94 3b
       -0.015027302 -0.037149426 0.0038993014 0.004525291
000130 d7 6f 24 3c 52 39 3d bd f2 e2 3e 3b 8b c6 32 3d
       0.01003643 -0.046197243 0.002912697 0.043646377
000140 9f 50 02 3d 2b 73 9f 3c a3 32 20 3d 43 a8 34 bb
       0.031815168 0.019464096 0.03911079 -0.0027566112
000150 dc b7 50 bd 49 a3 48 bc 52 99 ec bc 0f b7 27 3c
       -0.050956592 -0.012245961 -0.028881703 0.010236516
000160 b9 64 de 3c 2c 3a 69 3d ed b4 e5 3b 34 17 ab 3c
       0.027147638 0.056940243 0.0070100934 0.020885088
000170 16 3f 32 3c d6 03 60 3d 19 69 35 3b 21 2c 57 3c
       0.010879299 0.05469116 0.0027681051 0.01313308
000180 82 45 eb bc 04 d3 72 3c 49 3c 0e bd 33 e2 91 3c
       -0.028719667 0.014820818 -0.03472546 0.017808056
000190 cb 04 a2 3b fa 9f 0f 3d b2 dc 9f bc f2 51 48 3d
       0.004944419 0.035064675 -0.019514415 0.048906274
0001a0 5e f9 ee 3b 59 c8 90 3c 23 79 43 3b 1b 96 b2 3c
       0.0072929105 0.017673658 0.0029826842 0.021800091
0001b0 12 1d 0a 3d 99 37 31 3d fd 51 c1 bc 0e ee 3a bd
       0.03371913 0.043265913 -0.023598665 -0.045637183
0001c0 47 eb f5 bc 26 17 72 3a e7 a3 26 bd e8 a4 e0 3b
       -0.030019416 0.0009235017 -0.040683653 0.006855596
0001d0 3c b7 11 3d ee cc 85 3c 9a b6 5d 3c 93 d8 6c 3d
       0.035575137 0.01633307 0.013532305 0.05782373

fc2.weight f4 [84, 120]
000000 cb 09 ae bd cf f7 fc 3d 41 26 a2 bd 8c 5c e8 bd
       -0.084979616 0.12351953 -0.079174526 -0.11345777
000010 7e f8 6d 3d 1f cb ed bd 72 6a 06 be a6 bd c7 3c
       0.05809831 -0.11611008 -0.13126543 0.024382424
000020 6d 13 fb ba c3 4a 05 3d b6 c1 4d 3e 15 e7 80 bd
       -0.001915557 0.032542 0.20093426 -0.062940754
000030 3d fe 00 bd dc 75 48 bc 46 52 05 be f2 f5 23 3e
       -0.03149246 -0.012235131 -0.13019666 0.1601179
000040 30 4e 39 3e d0 aa 06 3d d8 4a 5e bd 1c ab 45 bc
       0.18096232 0.032877743 -0.054270595 -0.012064721
000050 ee f5 97 bd a4 52 f3 3d 89 56 90 bd 1a 99 0f 3d
       -0.07419954 0.11880997 -0.07047755 0.03505812
000060 e9 55 c5 bd 9d 2d ab 3d 93 bb 8e bd 69 98 1b 3e
       -0.09635527 0.083583094 -0.06969371 0.15194859
000070 5f 63 2a 3d ea 91 70 3b 1c 82 3e bc 35 ba a5 3d
       0.041598674 0.0036708065 -0.0116277 0.08092157
000080 ef 51 b1 bb 43 5a 8a 3d 6c c4 eb bd 6c 46 51 3e
       -0.0054113786 0.06755497 -0.11512074 0.2043702
000090 29 93 35 bd 6f 23 83 bd 29 77 46 3d 20 c7 b4 bc
       -0.044329796 -0.06403243 0.048453484 -0.022067606
0000a0 54 1f 0a 3d 18 f4 5a bd aa 6d f6 3b 6c ca d6 3d
       0.033721283 -0.053455442 0.007520397 0.10487828
0000b0 bd ba 65 bd e3 49 9f bd bd c8 c3 3c 8d 1a 39 bd
       -0.05608629 -0.07777765 0.02389943 -0.045191336
0000c0 f5 44 3e 3d b3 fb 91 3d 87 84 e6 bd 18 9d 00 3e
       0.04645248 0.07128086 -0.11255746 0.12559927
0000d0 1d 90 c4 bd 50 a5 d1 bd 15 27 02 3e 7c a1 f8 bd
       -0.095978 -0.10236609 0.12710221 -0.12140176
0000e0 24 1e d9 bb 16 5b 4e 3d 54 7d 88 3d f8 54 0b 3e
       -0.0066259075 0.050379835 0.066645294 0.13606632
0000f0 30 3c 7c 39 8c 0d f9 bb 57 07 05 3e e6 e0 e2 bd
       0.00024055014 -0.007600492 0.12991081 -0.11078052
000100 62 71 73 3d 8e 4a 85 bc 98 4e 0f be 0b 9e aa bd
       0.059434302 -0.016270902 -0.13994825 -0.083309256
000110 88 ac ab bc 65 81 81 3d 0b 7f 1e 3e 9d 81 8a bc
       -0.020956293 0.06323508 0.1547815 -0.016907508
000120 5e c1 a3 bd 58 d6 05 bd 98 dd 95 3d ac 4b 08 3e
       -0.07995866 -0.032675117 0.07317656 0.13310117
000130 ff e3 41 3d 9e c6 4e bc 5d 0b 25 be f8 4b 49 bd
       0.047336575 -0.012620596 -0.16117616 -0.049144715
000140 ad f3 10 3d e4 09 85 bb 8a 62 b6 3d e7 14 56 3c
       0.035388637 -0.004060017 0.089055136 0.013066507
000150 7e e9 6d bc ae 3f 5f bd a5 b5 ae bd 50 df 08 3e
       -0.014521001 -0.05450409 -0.0853074 0.13366437
000160 54 a9 ee bc 16 de 1e 3d a2 a3 05 be dd 56 b6 3d
       -0.029133476 0.038786016 -0.13050702 0.089032866
000170 6e ce 0b 3e 72 1b 00 3e 4e fa bb bd bc 07 d9 3c
       0.13652965 0.1251047 -0.09178601 0.026492946
000180 42 e3 a8 3d ea 8d 84 bc b9 ef 08 be bc 4c a6 3d
       0.08246471 -0.016180951 -0.13372697 0.08120105
000190 30 57 03 3d 6b fd e8 bd 4c a8 c7 3d 39 0e 79 3e
       0.03206557 -0.11376461 0.09748897 0.24321832
0001a0 15 17 a7 3d 7c 24 93 3d c1 98 94 3c 66 17 1b bd
       0.081586994 0.07184693 0.018139245 -0.03786411
0001b0 cb 89 d3 3d 07 fa e8 3d 6a 52 5b bc 15 3a 02 3d
       0.10329016 0.11375814 -0.013386348 0.031793673
0001c0 2b ce 59 bd 96 3d e4 bd 9f e1 26 bd 88 5a 46 bc
       -0.053175133 -0.11144559 -0.040742513 -0.012106545
0001d0 19 3b ae bc c0 9b 5f bc 79 e2 90 bc 03 8b ab bd
       -0.021268414 -0.013647974 -0.017686116 -0.08376124
0001e0 e3 cb c1 bd b8 8d fe 3c be ca 4b 3d 86 15 f0 3d
       -0.094627164 0.031073436 0.049753897 0.11722855
0001f0 46 3b 0a bd 49 1e a3 3d e3 1b 0c 3e e9 6c 2c 3b
       -0.033747934 0.07964761 0.13682513 0.0026310033
000200 31 42 09 3e 64 f0 1c 3e 5c 7b 1c be 4f b5 4f 3b
       0.13404156 0.15326077 -0.15281433 0.0031693762
000210 c8 80 20 3d b5 1e 7c 3d ea 57 47 3d 61 66 ba bd
       0.039185315 0.061552722 0.048667826 -0.091015585
000220 e9 3d d5 3c 0c 16 36 3d a4 13 27 bd e3 f5 53 3c
       0.026030498 0.04445462 -0.040790215 0.012937042
000230 fe da d6 3c db 0d 6a 3c 60 d0 ca bc 78 e8 18 3d
       0.02622747 0.01428553 -0.024757564 0.037331074
000240 cf 4d dc bc e5 39 8f 3d 60 c3 12 bd df 28 95 bd
       -0.02689257 0.069934644 -0.035830855 -0.07283186
000250 4a f0 bb 3d 74 ae 97 bc c8 db 00 3e d2 62 a2 3d
       0.09176691 -0.018515803 0.1258384 0.07929005
000260 c1 8e e1 3c fd d9 66 bd a9 bd bd 3d fe b5 80 3d
       0.02753389 -0.056360234 0.092646904 0.06284712
000270 47 9e cc 3d 94 d2 65 bc 8a c7 26 3e dc 2a a6 bc
       0.099911265 -0.0140272565 0.16287056 -0.020284109
000280 77 ee 18 3d 4f 83 c6 3d 93 c2 9b bd 14 e0 9a 3d
       0.037336793 0.09693014 -0.076054715 0.07562271
000290 06 2c 9f 3d 7f 4a fd 3d 12 c0 88 bd b3 0c 28 3e
       0.07772069 0.123677246 -0.066772595 0.16411094
0002a0 8a 97 bc bd 6e d3 f5 bc c7 28 73 bc 32 74 52 3c
       -0.09208591 -0.030008044 -0.014841265 0.012845086
0002b0 9d 12 87 bd 55 ac 01 bd 4f 75 f8 bd b9 b9 f0 3b
       -0.06595347 -0.03165849 -0.1213175 0.0073463586
0002c0 fb 0f 99 3d 88 a9 d4 bd bd f4 1e 3d 58 16 dd bd
       0.07473751 -0.10383898 0.03880762 -0.10795277
0002d0 7c f5 c9 3d 6b 7b 87 3b ff d1 bf bc 8a 92 24 3d
       0.098612756 0.0041345856 -0.023415564 0.040178813
0002e0 0d 33 ff 3c e9 0b b9 3d 9a 43 ec 3d ae f5 62 bc
       0.031152273 0.09035475 0.115363315 -0.01385252
0002f0 bc f0 88 bd 31 06 8f bd 4f 6b 96 3d fd d3 16 bd
       -0.066865414 -0.06983603 0.07344686 -0.03682326
000300 04 b3 a9 3d c0 fa 7f 3d 32 70 9c bd fc fc 27 3d
       0.08286098 0.062494993 -0.07638587 0.04101275
000310 6d ec 34 3d 0b d5 07 bd 28 83 31 3e ff cc bb bc
       0.044170786 -0.033162158 0.17335188 -0.022924898
000320 2b c8 02 bd 6d 64 4a bd 8a 7f d7 bc 0d eb 8f 3c
       -0.031929176 -0.04941218 -0.026305933 0.017568136
000330 d5 04 d6 bc 9e f2 5d bd 31 67 c9 bb 12 62 82 3d
       -0.026125351 -0.054186456 -0.0061463346 0.06366362
000340 ec 90 06 3d a3 75 29 3d e1 b9 64 ba bb ed 41 3d
       0.032853052 0.041371953 -0.0008725208 0.047345858
000350 d2 aa a1 bd 8b 20 3e 3d ce 58 94 3c 9f 44 82 bc
       -0.078939095 0.046417754 0.018108752 -0.015901862
000360 41 c9 82 3c d1 46 8d 3b 53 63 32 3e 65 8e a7 bd
       0.015965106 0.0043114205 0.17420702 -0.081814565
000370 0f fb a8 bd 8c 80 53 3d 1d 33 b9 bd ef 6d c1 bd
       -0.082510106 0.051636264 -0.09042952 -0.09444796
000380 ae 5b ad 3d 16 52 20 bd d6 71 c6 3c 77 57 72 3d
       0.08464752 -0.039140783 0.024224203 0.059165444
000390 4f 2e 81 3c 5c 53 ac bd 64 05 68 3b 12 5e 2b 3d
       0.015769152 -0.08414337 0.0035403604 0.04183776
0003a0 02 9c b6 bd 95 9e 42 3d 05 f6 83 bd bc 44 df bc
       -0.08916475 0.047514517 -0.06443409 -0.027254455
0003b0 d1 24 a0 3d 9a 25 c0 bd 5a aa ea 3d c1 c4 7c 3d
       0.07819522 -0.09382172 0.11458273 0.061711077
0003c0 ee 4d 14 bd 88 e3 cf 3d 6f 9b 4f 3d 9c b5 97 bd
       -0.036207132 0.1015082 0.050685342 -0.07407686
0003d0 82 69 9a bd 8c bf cd bc 00 62 8d 3d 24 1c 60 bd
       -0.07539655 -0.02511575 0.06903458 -0.054714337
0003e0 6d 1a 06 3e dd f0 3b 3e 4d ab 94 3d 29 8a c2 bc
       0.13096018 0.18353601 0.072592355 -0.02374752
0003f0 93 43 e1 bd 35 95 ce bc 53 da e1 bd be 76 ca bc
       -0.10999217 -0.025217632 -0.1102797 -0.024714824

fc2.bias f4 [84]
000000 3a 4f 84 bd 9f 4b 63 3c a3 e7 9f 3d 91 f8 25 3d
       -0.06460424 0.01387301 0.07807853 0.040520255
000010 c3 6e 52 bd ee 17 11 bd aa 72 2f bd c2 ad 5b 3d
       -0.05137516 -0.03542321 -0.04283396 0.053632505
000020 73 b1 6c 3c 4b f5 2a 3d 12 18 80 bd 7e 14 93 3d
       0.014446604 0.041737836 -0.06254591 0.07181643
000030 ad 9d 54 3d da 0b 22 bd 85 22 50 3d 5b 2e 8e bd
       0.051908184 -0.039562084 0.05081417 -0.06942435
000040 7d c5 cb ba cf 32 90 bd ce de b9 3c bc ad 9e bd
       -0.0015546527 -0.07040941 0.02268925 -0.07747981
000050 03 8b ad 3d d4 c9 b4 3d cc 31 a8 3b 09 de ab 3d
       0.0847378 0.08827558 0.0051328894 0.08391959
000060 28 84 a3 3d b8 d2 f6 3b 45 02 38 bd 0b 37 6d 3d
       0.07984191 0.007532444 -0.04492404 0.05791382
000070 cf ae 95 3d 2d 57 0a 3d cd 42 67 3d 3f a9 05 bd
       0.07308733 0.033774544 0.05646019 -0.03263211
000080 56 ec be bc d2 85 f4 3c 3d bd aa bc 10 80 48 3d
       -0.023306053 0.029848967 -0.020842189 0.048950255
000090 be 30 9a 3d 39 be b0 3d 3b 99 92 bd c4 16 48 bd
       0.07528828 0.08630032 -0.07158133 -0.048849836
0000a0 f4 3f 10 3d 21 4c a1 3c ff da ab bd 4d 2b 01 3c
       0.03521724 0.019689621 -0.083913796 0.007883859
0000b0 31 c7 3b bd 87 69 42 bc a8 e8 42 3c 99 24 02 bc
       -0.04584426 -0.01186598 0.01189629 -0.007943296
0000c0 4d 33 88 3d 44 90 9f bd 3f 62 9b 3b 7d d4 b5 bd
       0.0665041 -0.07791188 0.0047419365 -0.088784195
0000d0 51 e4 76 bd e3 0d 9d bc 09 02 9e bd 11 57 07 3d
       -0.060276333 -0.01917166 -0.07715232 0.033042017
0000e0 e2 ba ab 3d 57 ed 8c 3d be 15 74 3d e0 30 a9 bd
       0.083852544 0.068812065 0.059591047 -0.08261275
0000f0 5f 09 7f 3d 8b e6 58 bc 18 bc 6b bc 44 2f 96 3c
       0.062264796 -0.0132385595 -0.014388107 0.018333085
000100 6e eb 8a bc 80 70 ab 3d cd 86 c0 bc 1f d3 af 3d
       -0.016957965 0.08371067 -0.023501778 0.0858519
000110 0e 3e 41 bc 22 9e 49 3c e2 52 94 3d 5c f9 e7 3b
       -0.01179458 0.012305768 0.07242371 0.0070792865
000120 11 a5 d2 bc 0f aa ab bd b5 9f 34 bc fc 1f 53 bd
       -0.025713475 -0.083820455 -0.011024405 -0.051544175
000130 eb cc 18 3d 86 d7 24 bd f4 fd 2e bd ef 14 87 bc
       0.0373048 -0.0402446 -0.042722657 -0.016489474
000140 87 19 90 bc b4 a6 1a bd 9e 8c c3 3d 6a 36 7b bd
       -0.017590297 -0.037756637 0.09548305 -0.06133119

fc3.weight f4 [10, 84]
000000 18 d7 5b be 1d eb 21 3e e6 5a 83 3d cb cf 9d 3d
       -0.2146877 0.15812345 0.06413822 0.07705649
000010 c8 67 6b be ef d4 f0 bd c0 de 03 3e 7f 97 1d be
       -0.22988808 -0.11759364 0.12877941 -0.15389822
000020 28 50 ae 3c a7 36 e5 3e 90 41 c7 bd 32 f6 cd 3d
       0.021278456 0.4476826 -0.09729302 0.10056724
000030 be 9c 11 3e ba d3 44 bd 35 20 00 be 02 9f 36 3e
       0.14219949 -0.04805348 -0.12512286 0.17834094
000040 8a fa c1 3d 41 88 10 be 08 41 80 bc 3a 4a 9a 3c
       0.09471615 -0.14114477 -0.01565601 0.018834222
000050 1b 57 7b be af 24 dd bc bd 4e 85 3d 9e c1 bb bd
       -0.24544947 -0.026995031 0.06509159 -0.09167789
000060 58 f0 9d 3e 47 ff a3 3e 08 ed 05 be 8e c8 32 3d
       0.3084743 0.320307 -0.13078701 0.043648295
000070 8a cb cc 3e 0b db b4 be eb d2 a2 3e 0f da 8e 3e
       0.39999038 -0.35323367 0.31801543 0.2790074
000080 76 1a 2b 3e 82 0b f5 bc 13 0d 23 bd 55 2a 02 be
       0.16709313 -0.029912714 -0.03980739 -0.12711461
000090 b9 c0 17 3e 4b b1 7d 3e 9d c3 f3 bd ff e3 86 be
       0.14819612 0.24774663 -0.11902545 -0.26345822
0000a0 9c 42 b0 bd 58 56 b4 3e 87 94 1b 3e f4 de 0b be
       -0.08606455 0.35222125 0.15193377 -0.13659269
0000b0 37 f1 52 be 95 be 44 be 1d ad e7 bc ad 54 0e 3e
       -0.20599829 -0.19213326 -0.028280789 0.13899489
0000c0 b0 d4 37 bd 71 10 e0 bd bd 5a 5c be f3 0a c0 bb
       -0.04488057 -0.10940636 -0.21518989 -0.0058606802
0000d0 47 83 c0 3d 58 bd 59 bb eb d8 15 be fe 3d e9 bc
       0.09400039 -0.003322443 -0.14633529 -0.028471943
0000e0 3c d3 3f bc b3 34 6a 3c 97 89 86 3e 77 0f a7 3d
       -0.011708077 0.014294791 0.26276848 0.081572466
0000f0 09 a1 29 bd 21 86 1f 3e c4 ed f6 bd 14 f0 2b 3c
       -0.04141334 0.1557851 -0.12057069 0.010494251
000100 26 32 f3 3d 7b a7 bd be 9a 2f 69 3d 68 76 a2 bd
       0.118747994 -0.3704184 0.056930162 -0.079327404
000110 1c 97 3d 3d a1 89 2e 3e 43 44 ef 3c 67 b8 1f be
       0.046286687 0.17044689 0.029207354 -0.15597688
000120 7c f8 1f 3e 87 62 be bd f4 f9 9b bc 0c ca 2a bd
       0.15622133 -0.09296136 -0.019040085 -0.041696593
000130 ab 26 71 bd 83 91 89 3c ce ce 91 bd fd d0 18 bb
       -0.058874767 0.016793018 -0.07119523 -0.0023317926
000140 f8 db 81 bd 5b 65 6e 3c bd 32 7f be ca 4c 1b 3d
       -0.06340784 0.014550532 -0.24921699 0.03791503
000150 5c 19 09 be 30 3f 21 bd aa b8 0f bd 66 63 16 be
       -0.1338858 -0.0393669 -0.03508822 -0.14686355
000160 d0 d2 8b bd 42 98 d3 3d 5b bc 9c 3d db ef fb 3c
       -0.06827319 0.10331775 0.076531135 0.03075402
000170 34 bb 94 bd 49 38 11 3d 6a 82 b2 3c ed bc 51 3d
       -0.07262269 0.03545407 0.021790702 0.051205564
000180 a3 82 c5 bd 87 70 d2 3d 5a 9c b7 3e e6 c1 3d be
       -0.096440576 0.10275369 0.35861474 -0.18530998
000190 d5 1f 34 3d 61 67 18 3e 73 ef d5 bd e6 4a c2 3d
       0.04397567 0.14883186 -0.10446062 0.09486942
0001a0 f7 c4 c6 3d 06 e1 6d 3e 0e ea 1c 3d cd 66 2f be
       0.09705537 0.23230371 0.03830915 -0.17129059
0001b0 9b e3 3f be d9 eb cc bc 56 01 db 3e c9 c7 15 be
       -0.18739168 -0.025014805 0.42774457 -0.14626993
0001c0 e8 02 88 3e 02 aa 9e be 37 1e bc be 2d 4f eb bd
       0.26564717 -0.3098908 -0.36741802 -0.11489711
0001d0 78 6a c6 3e 84 08 c3 3d db b4 03 3d e9 16 ba 3e
       0.38753104 0.095231086 0.0321549 0.36345604
0001e0 0e fa a7 3d 1f c3 60 3e c4 58 44 bb dc dd 81 be
       0.08201991 0.21949433 -0.0029960135 -0.25364578
0001f0 6a 02 0b be fb a4 4b 3e 89 1f 4b 3c e4 0d a7 3e
       -0.1357514 0.19887154 0.012397655 0.32627785
000200 9b 66 08 be a4 68 51 3d 0e 34 b4 3e f4 e6 08 be
       -0.13320391 0.051125184 0.35195965 -0.13369352
000210 3d 36 b0 3b d3 9d a8 3d 83 63 68 3e 83 db ac bd
       0.0053775595 0.082332276 0.2269421 -0.08440306
000220 52 b9 d2 bd 48 d2 99 bd 42 9e d2 3d 6a 62 36 3e
       -0.10289253 -0.07510811 0.102840915 0.1781098
000230 a6 c4 8f 3b 4d 03 bd 3d 3f 1b 8d be 78 c0 21 3c
       0.004387456 0.09229145 -0.2755985 0.009872548
000240 41 b5 d0 bd 1a 08 22 be 57 ee 3d be 58 1e 38 bd
       -0.101908214 -0.15823403 -0.1854795 -0.044950813
000250 c0 aa 86 bd 75 10 85 3d b8 78 7f bc d1 6a a4 be
       -0.06575537 0.064972796 -0.015592746 -0.32112744
000260 99 6b b6 3c a4 2e b0 bc 94 b2 50 3d 90 eb 27 be
       0.022268103 -0.021506615 0.050951555 -0.16398454
000270 25 d4 15 be f5 e8 05 bb 39 3b 1c 3e 85 68 00 be
       -0.14631708 -0.0020433043 0.15256967 -0.12539871
000280 53 30 fe bc 19 71 20 3d 3c 56 9f 3e b6 77 50 be
       -0.031028902 0.03917036 0.3112048 -0.20358166
000290 9e 9c ee 3c c2 fe 8a b9 45 6f 2e bd 3c 89 02 3d
       0.029127415 -0.0002651122 -0.042586584 0.03186916
0002a0 07 c6 d4 bd 3c 8d 15 3e 14 9b 83 bc ca 7b 1c bd
       -0.10389333 0.14604658 -0.016065158 -0.038203992
0002b0 89 f1 8e 3e 31 f1 de 3c fe df 77 bd 0c de 00 3e
       0.27918652 0.027214618 -0.06051635 0.12584704
0002c0 86 ca 86 3c df 76 ef bd 3f a8 bc 3d fc 7d 56 3c
       0.016453993 -0.11692595 0.09211778 0.01309156
0002d0 63 9e 20 be 4d e8 30 3e 2d 3d d4 bd 5f 67 99 bd
       -0.1568542 0.17276116 -0.10363231 -0.074904196
0002e0 0d 46 50 3e f3 18 32 be 2c 2c 32 3d dd 08 46 be
       0.20339222 -0.1739233 0.043499157 -0.19339319
0002f0 0d 1c 6b 3e d8 8b 6f be 9e e2 c0 bd 2c 9d e8 bb
       0.2295992 -0.2339319 -0.09418224 -0.0070988145
000300 36 e4 27 be 1b 6f b7 3d 97 f6 c3 bc 00 b9 5f be
       -0.1639565 0.089567386 -0.023921294 -0.21847916
000310 4d 76 92 3e fe 71 67 3d 37 08 b3 3e 8b 00 35 3e
       0.2860588 0.056505196 0.34967205 0.17675988
000320 f3 b9 00 be 80 62 5c bd 53 c2 29 bd 4a 59 73 be
       -0.12570934 -0.053804874 -0.041445088 -0.2376453
000330 82 36 61 be 28 9e 40 bd 30 29 22 3d c6 12 35 3e
       -0.2199345 -0.04702583 0.03959006 0.17682943
000340 ed 53 9d bd f2 a2 1a be de 6e a8 3e 4b 36 4c be
       -0.07682023 -0.15101221 0.32897085 -0.19942586
000350 73 78 0d be 72 1f 30 3e 56 db ae 3d fe 12 87 be
       -0.13815479 0.17199495 0.08537929 -0.26381677
000360 dd ea 83 3d d2 b3 90 3d 7f a7 da 3d 26 7a 99 3c
       0.06441281 0.07065548 0.106764786 0.018735003
000370 98 9a 15 bc b6 89 0a 3d 95 48 0b be d8 3c fd 3d
       -0.009131096 0.033822738 -0.13601907 0.12365121
000380 7e 98 0b 3d c2 73 e0 bd 1e ba 81 3c c8 60 01 be
       0.034080975 -0.10959579 0.015835818 -0.12634575
000390 81 f3 9c 3e 78 fc e0 be a4 35 2b be fd bc a4 bc
       0.3065453 -0.43942618 -0.16719681 -0.020109648
0003a0 45 8b 95 3e 05 6f b7 3e 32 f0 80 3c 7c b5 60 3e
       0.29207817 0.3582689 0.015739534 0.21944231
0003b0 eb 4e bc bc f5 e3 1a 39 63 38 5f bd 7b 42 85 3e
       -0.02298685 0.00014771505 -0.054497134 0.26027283
0003c0 79 69 26 3e 8d ef a7 3d 7e 48 41 3c 5d 2e 91 3c
       0.16251172 0.081999876 0.011797069 0.017722303
0003d0 d1 7b f0 bd 05 f5 85 3b d1 e5 bd be 75 6c 8c be
       -0.11742366 0.0040880465 -0.37089399 -0.27426496
0003e0 3c 7d c9 3e 0f e5 8e bd a1 3b c3 be 2b 6b da 3d
       0.3935336 -0.06977283 -0.3813143 0.10664972
0003f0 a9 11 b1 bb d4 51 6b 3e f3 d9 b8 3b fe 1e 5c 3e
       -0.0054037166 0.22980434 0.005641216 0.21496198

fc3.bias f4 [10]
000000 4b 10 12 bd 0a fa 4e bd 82 d4 c0 3d 66 85 8d 3d
       -0.03566007 -0.050531425 0.09415533 0.06910209
000010 46 89 a6 bd cf 21 32 3b 4a d3 6b bc 83 78 b4 3d
       -0.081316516 0.0027180796 -0.014393637 0.08812048
000020 a7 a6 b1 3b 69 67 33 3d
       0.005421478 0.04379979
