models/default/rs/adam_epochs10_lr0.0001_batch128_dropout0/bezier_478.pth (torch, 173803 bytes, 19 tensors)

coeff_layer.binom f4 [2]
0	0x3f800000	1.0
1	0x3f800000	1.0

coeff_layer.range f4 [2]
0	0x00000000	0.0
1	0x3f800000	1.0

coeff_layer.rev_range f4 [2]
0	0x3f800000	1.0
1	0x00000000	0.0

net.network.0.weight_0 f4 [128, 90]
0	0x3d0f4dbe	0.03498625
1	0x3d6cc951	0.057809178
2	0x3d426451	0.04745895
3	0x3db9df7a	0.09075828
4	0xbd661015	-0.05616768
5	0x3caf0d7c	0.021368735
6	0xbd88214a	-0.066469744
7	0xbdfca29d	-0.123357035
8	0xbd8eafca	-0.06967123
9	0x3de10c86	0.10988717
10	0x3d908ee7	0.070585065
11	0xbd7378da	-0.059441425
12	0x3c7959a8	0.01521913
13	0x3d56568a	0.052328624
14	0x3d2dec43	0.042461645
15	0x3d12fb9e	0.035884492
16	0x3d299521	0.041401986
17	0xbd96c8f9	-0.07362551
18	0xbda2382f	-0.079208724
19	0xbdd6c820	-0.104873896
20	0x3c997c39	0.018735992
21	0xbd6fdaac	-0.05855815
22	0xbdc64abb	-0.096822225
23	0xbd0ec3b3	-0.034854602
24	0x3dec6ba1	0.11543966
25	0xbd7b4929	-0.061349068
26	0xbdbf9d35	-0.09356157
27	0x3d833564	0.06406668
28	0x3e04f4df	0.12984036
29	0x3be40ad5	0.006959299
30	0xbd5ca1b0	-0.053865135
31	0x3c9e11a7	0.019295527
32	0xbde12989	-0.1099425
33	0xbde02925	-0.10945348
34	0x3d823169	0.063570805
35	0x3d9553c9	0.072913714
36	0xbd26fbf1	-0.040767614
37	0xbd46dbdd	-0.04854952
38	0x3ccbe5f2	0.02488992
39	0xbd266df0	-0.04063219
40	0x3da5b0b6	0.080903456
41	0xbc8f18ee	-0.017467942
42	0x3c4826f4	0.012216318
43	0xbe104e58	-0.14092386
44	0xbb68d480	-0.003552705
45	0x3da545e9	0.08069975
46	0xbe1cbd26	-0.1530653
47	0xbe03c90d	-0.12869664
48	0xbde6c146	-0.11267333
49	0x3dc967e4	0.09834269
50	0x3de1f3f6	0.1103286
51	0x3daa8d0a	0.08327682
52	0x3d34e049	0.044159207
53	0x3c680abf	0.014162718
54	0xbddc299b	-0.10750123
55	0xbaab7117	-0.0013079968
56	0xbd967a5d	-0.07347558
57	0x3cb67843	0.022274142
58	0xbbe1c0eb	-0.0068894527
59	0xbe0f4dd1	-0.13994528
60	0x3dee1556	0.11625163
61	0x3dbdf4d1	0.09275211
62	0x3cfa2794	0.03053645
63	0x3d1c47d0	0.038154423
64	0xbb844e0b	-0.0040376238
65	0xbd831dbe	-0.06402157
66	0x3c7bcccd	0.0153686525
67	0xbccc483f	-0.024936793
68	0x3d98bc06	0.074577376
69	0xbdcb661f	-0.099315874
70	0xbdbd59ae	-0.09245621
71	0x3cde262e	0.027117815
72	0x3cde3203	0.027123457
73	0x3c636c51	0.013880805
74	0xbdbc0984	-0.091815025
75	0x3daf444d	0.08557949
76	0x3c1fe14e	0.009758307
77	0xbdace43a	-0.08441968
78	0xbd65808f	-0.056030806
79	0xbe0338a9	-0.12814583
80	0x3c512c7d	0.0127669545
81	0x3d6eb181	0.05827475
82	0x3d9e1bb9	0.077201314
83	0x3cf11297	0.02942781
84	0xbd9b90b7	-0.075959615
85	0xbda2cd11	-0.079492696
86	0xbdcd65d8	-0.10029191
87	0x3d04e3b1	0.032443706
88	0xbde8daa3	-0.11369827
89	0xbd2b3542	-0.041798837
90	0x3d8525b8	0.06501335
91	0xbdeeaceb	-0.11654075
92	0xbdd837a8	-0.105574906
93	0xbddd1f7d	-0.107970215
94	0x3cbbec0a	0.0229397
95	0xbdee46d6	-0.11634605
96	0xbcd9b985	-0.02657772
97	0xbe0af7a5	-0.13571031
98	0x3dd81bbc	0.10552165
99	0x3d70f78f	0.05882984
100	0x3daebeee	0.08532511
101	0xbd0b5275	-0.034014184
102	0xbda8ee88	-0.08248621
103	0x3ce0fda7	0.0274647
104	0x3d44c568	0.048039824
105	0x3da7034c	0.08154926
106	0xbd54ab71	-0.05192131
107	0xbd376bc7	-0.04478052
108	0xbb28c8f5	-0.0025754545
109	0xbe11aa8d	-0.14225216
110	0x3d6d54f2	0.05794234
111	0x3dad1d03	0.08452799
112	0xbc61e8e7	-0.013788438
113	0xbe0ea687	-0.13930713
114	0xbd3480db	-0.0440682
115	0x3d960da3	0.0732682
116	0x3c975bc7	0.01847638
117	0x3d45658c	0.048192546
118	0xbd15a2b2	-0.03653211
119	0x3d034efe	0.032057755
120	0xbdc9a801	-0.09846497
121	0xbe20720d	-0.15668507
122	0xbdd83451	-0.105568536
123	0xbe06c23d	-0.13160034
124	0x3d9e495f	0.07728838
125	0xbdad661c	-0.084667414
126	0x3d3a90c5	0.04554822
127	0x3ce8362a	0.02834614
128	0x3db1f9bc	0.08690211
129	0x3d05c731	0.032660667
130	0xbdd4cb8a	-0.103903845
131	0xbe15cfdd	-0.14630075
132	0xbde26aae	-0.11055504
133	0x3dc654c2	0.09684135
134	0xbd614400	-0.05499649
135	0x3d95250a	0.07282455
136	0xbe239ca9	-0.1597773
137	0xbc3ba7ab	-0.011453549
138	0xbd629c2b	-0.055324715
139	0x3bc26920	0.005932942
140	0x3d25e8d4	0.040505245
141	0xbe209957	-0.15683495
142	0xbd9d1381	-0.07669736
143	0xbcbfe70f	-0.023425607
144	0x3d7f8e2d	0.06239145
145	0x3d2e76dd	0.042593826
146	0xbe01e96f	-0.12686704
147	0x3bdb4b89	0.006692354
148	0x3d5920b0	0.05300969
149	0x3d1d8474	0.038456395
150	0x3dcd900a	0.10037239
151	0x3cc1a19e	0.023636635
152	0xbe24c49e	-0.16090629
153	0xbdbf1650	-0.09330428
154	0xbd8f8d8f	-0.07009422
155	0xbc5abacd	-0.013350201
156	0xbd3e514a	-0.046464242
157	0xbde9ff21	-0.11425615
158	0x3d715519	0.058919046
159	0xbe042303	-0.12903981
160	0x3cfa9317	0.030587716
161	0x3d8b8b2c	0.06813654
162	0xbcc57d5c	-0.024107628
163	0xbd6da100	-0.05801487
164	0x3cc4f94d	0.024044657
165	0xbcfc49f0	-0.030796975
166	0xbc396bd4	-0.011317212
167	0xbd8b58e3	-0.06804063
168	0x3d88ae8a	0.06673916
169	0xbde45162	-0.11148335
170	0x3d98ddb2	0.0746416
171	0x3da71c17	0.081596546
172	0xbdfc8705	-0.123304404
173	0xbd111bb3	-0.035426807
174	0x3ca74dcd	0.02042284
175	0xbddf1f8f	-0.10894691
176	0xbdf4724d	-0.11935864
177	0xbd5be221	-0.05368245
178	0xbde23c24	-0.11046627
179	0xbc3a0937	-0.011354736
180	0x3bee4727	0.0072716656
181	0x3d9e97dc	0.077438086
182	0xbcd3c2ab	-0.02584966
183	0xbdb8d3ee	-0.090247974
184	0xbdae595a	-0.08513136
185	0xbd8a815e	-0.06762956
186	0x3bd64e3a	0.006540087
187	0xbd932881	-0.0718546
188	0xbc8ffaf2	-0.017575715
189	0x3da3d486	0.0799952
190	0xbc8780e5	-0.016540954
191	0x3da6a78b	0.08137425
192	0x3db17bfc	0.08666226
193	0xb8f3ef7e	-0.00011631752
194	0xbd946280	-0.0724535
195	0x3d856202	0.06512834
196	0xbd3364c0	-0.043797255
197	0xbc84bcde	-0.01620334
198	0x3c4b20ed	0.012397987
199	0xbe0788c6	-0.13235769
200	0x3cd4ef26	0.025992941
201	0x3d8e3f5f	0.06945681
202	0x3d37dcd6	0.04488834
203	0x3d576cb0	0.052593887
204	0xbc8183de	-0.01580995
205	0xbb52bb12	-0.003215496
206	0xbc4af7b8	-0.012388162
207	0x3e0034cd	0.12520142
208	0x3b872a25	0.004124897
209	0xbd5f16e4	-0.05446519
210	0xbe112e04	-0.1417771
211	0xbcb9e141	-0.022690417
212	0xbceba16e	-0.0287635
213	0x3d2d0e0e	0.04224973
214	0xbcd5e4b3	-0.026110029
215	0x3da7c32f	0.08191525
216	0x3d166981	0.03672171
217	0xbb3075b1	-0.0026925618
218	0x3bb0cf62	0.0053958157
219	0x3da9db7b	0.08293816
220	0x3c0df5e5	0.008664583
221	0xbd4461a8	-0.047944695
222	0xbd8d41d5	-0.06897322
223	0x3d3c17c8	0.045921117
224	0xbcecf327	-0.028924538
225	0x3d0bc4df	0.034123298
226	0xbc0f7076	-0.00875484
227	0xbe146379	-0.14491071
228	0x3d69c56c	0.05707304
229	0x3dcf4e19	0.10122318
230	0xbc77c08d	-0.015121591
231	0xbc11f4ea	-0.00890849
232	0xbe1dc553	-0.15407304
233	0xbd75d584	-0.060018077
234	0xbca919dd	-0.020642215
235	0xbdba8bfd	-0.09108732
236	0xbdb9ff17	-0.09081858
237	0xbd4220e7	-0.04739466
238	0xbdca2eeb	-0.0987223
239	0xbd2bc0d1	-0.04193193
240	0xbb60893a	-0.003426148
241	0xbdb86d57	-0.0900523
242	0xbe2bc1c2	-0.16773131
243	0xbd185ac4	-0.037195936
244	0x3c893728	0.016749933
245	0xbca64f92	-0.020301614
246	0x3d8b68e6	0.06807117
247	0xbda96fc0	-0.08273268
248	0x3d65b1fe	0.05607795
249	0xbd3727a3	-0.044715535
250	0xbd91fc0a	-0.07128151
251	0xbcb3952e	-0.02192172
252	0xbd4c97c7	-0.049949434
253	0x3d1c40e8	0.038147837
254	0xbdeb6422	-0.11493708
255	0xbda60202	-0.08105852

net.network.0.weight_1 f4 [128, 90]
0	0x3e071c25	0.1319433
1	0x3d2ba9af	0.04190987
2	0x3d109950	0.03530246
3	0x3dbc9f05	0.09210018
4	0xbdc99caa	-0.098443344
5	0x3c3fd261	0.011707873
6	0xbd71891d	-0.058968652
7	0x3d87fa16	0.06639497
8	0x3d312368	0.043246657
9	0xbc966e29	-0.018363075
10	0xbd4972d3	-0.04918177
11	0xbc5d6a62	-0.013514133
12	0x3d127ba8	0.03576246
13	0x3d0c77b1	0.034293834
14	0x3ddc8c17	0.107689075
15	0x3d6f7fc9	0.058471475
16	0xbdd26922	-0.10273959
17	0x3c22255f	0.009896605
18	0x3db24403	0.087043785
19	0xbe0bbab8	-0.13645446
20	0x3d85d921	0.06535555
21	0xbe2358fe	-0.15951917
22	0xbe0b7f4d	-0.1362278
23	0xbc65b119	-0.014019274
24	0x3d07c2cf	0.03314477
25	0x3d514acd	0.051096726
26	0xbdb4d0f8	-0.0882892
27	0x3cb3c1d1	0.021943005
28	0x3d9b2b49	0.07576615
29	0x3d330fb6	0.043716155
30	0xbdd1eb4d	-0.10249958
31	0xbb84d7d2	-0.004054048
32	0xbd952ff2	-0.072845355
33	0xbe1ddc07	-0.15415965
34	0xbd8754d1	-0.06607974
35	0x3cfd1f61	0.030898752
36	0xbe200871	-0.1562822
37	0xbceb90b0	-0.028755516
38	0x3dfc18f1	0.12309445
39	0x3deda072	0.11602868
40	0x3c84edc7	0.016226662
41	0xbdfa8708	-0.122327864
42	0x3d2b019f	0.041749593
43	0xbdaeba22	-0.08531596
44	0x3d9d4be7	0.07680493
45	0xbd94d9c9	-0.07268102
46	0xbd540495	-0.051762182
47	0x3d201331	0.039080802
48	0x3d225c7e	0.03963899
49	0xbd5b64d3	-0.05356295
50	0x3dcfb66c	0.10142216
51	0x3d4a1965	0.049340624
52	0x3d0964b3	0.0335433
53	0x3d09fdc2	0.033689268
54	0x3ca88cfa	0.020575035
55	0xbdfecc0c	-0.124412626
56	0x3ce6f230	0.028191656
57	0x3b1f22fd	0.002428233
58	0xbe22a765	-0.15884168
59	0xbe1ea6c5	-0.15493305
60	0xbd899d5f	-0.06719469
61	0xbbe00625	-0.00683667
62	0x3d2b4677	0.041815247
63	0xbc78da84	-0.015188817
64	0xbd822a4a	-0.06355722
65	0x3d518138	0.051148623
66	0xbd85979e	-0.06523059
67	0xbd6d34b2	-0.057911582
68	0xbd4ce9ad	-0.050027538
69	0xbd17425b	-0.036928516
70	0x3d16a877	0.036781754
71	0x3db371eb	0.087619625
72	0x3d71c879	0.059029076
73	0x3d262272	0.040560193
74	0xbd2151a9	-0.039384518
75	0x3c5d9dcd	0.013526392
76	0xbe199117	-0.14996754
77	0xbe1cfa2e	-0.15329811
78	0xbd7979cf	-0.06090718
79	0xbceb8c12	-0.028753314
80	0xbdca3af3	-0.09874525
81	0x3cf960cf	0.03044167
82	0xbd7880e9	-0.060669813
83	0xbdbb02e2	-0.09131409
84	0x3d22e263	0.03976668
85	0xbe0cfcd2	-0.13768318
86	0x3d902f80	0.0704031
87	0x3d9eebdf	0.077598326
88	0x3db3b3be	0.087745175
89	0xbe130133	-0.14355926
90	0x3df5e087	0.12005716
91	0x3dafc6be	0.08582829
92	0x3d1c62af	0.03818005
93	0x3d31893c	0.043343768
94	0xbd9dc178	-0.07702917
95	0x3d44c3a7	0.04803815
96	0xbde60c7f	-0.11232852
97	0x3c170afb	0.009218927
98	0x3e043e06	0.12914285
99	0xbdb13d15	-0.086542286
100	0xbd9c8dbc	-0.07644221
101	0xbd3a7b9c	-0.04552804
102	0x3d3dc7d8	0.046333164
103	0x3daa1aba	0.08305879
104	0xbdb3e631	-0.0878414
105	0xbc81be83	-0.015837913
106	0x3dfada7e	0.12248705
107	0xbd4ed324	-0.05049433
108	0xbccd15d1	-0.025034817
109	0xbe0ff44d	-0.14058037
110	0x3d7ab2b2	0.061205573
111	0xbe009b00	-0.12559128
112	0x3c7ed222	0.015553029
113	0x3d779540	0.06044507
114	0x3dbea8fb	0.09309574
115	0xbd973105	-0.073823966
116	0x3d9e3c4c	0.077263445
117	0xbcd611f3	-0.026131606
118	0x3e1480f1	0.14502312
119	0xbe1b70de	-0.15179774
120	0xbe331d56	-0.1749166
121	0xbdfac650	-0.12244856
122	0x3cc0f242	0.023553018
123	0xbe252c13	-0.16130094
124	0xbd7d5167	-0.06184521
125	0x3d373e10	0.04473692
126	0xbdac7c7d	-0.08422182
127	0xbd129d01	-0.03579426
128	0xbb78d11b	-0.0037966433
129	0x3d42db91	0.047572676
130	0xbdc5f6f3	-0.096662425
131	0xbe2b4663	-0.16726069
132	0x3d139aed	0.03603642
133	0xbcb2eecc	-0.021842383
134	0x3d58cd71	0.0529303
135	0x3c3c491c	0.01149204
136	0x3d56128c	0.05226378
137	0xbd0bf7f2	-0.034172006
138	0x3dce0a22	0.100605264
139	0x3a9bbb13	0.0011881314
140	0x3d90fc22	0.070793405
141	0xbe0b327c	-0.13593477
142	0x3ba223a8	0.004948098
143	0x3d6d7a89	0.057978187
144	0xbde3104d	-0.110870935
145	0xbd8e58fa	-0.06950565
146	0xbdd935c4	-0.10605958
147	0x3d06d9e1	0.03292263
148	0x3d9b26f9	0.07575793
149	0xbd99e0f0	-0.075136065
150	0xba7aec47	-0.0009571951
151	0x3b6f6f1a	0.0036534728
152	0xbe2ca7c4	-0.16860873
153	0xbb1cd385	-0.0023929786
154	0xbdc167b0	-0.09443605
155	0xbd2d6faa	-0.04234282
156	0xbb13814d	-0.002250749
157	0xbc9eebe3	-0.019399589
158	0xba83751c	-0.0010029408
159	0xbb8e19b5	-0.0043365606
160	0x3d4b44e0	0.04962623
161	0x3db7faa0	0.0898335
162	0xbdd724a9	-0.10505039
163	0x3cca3ceb	0.024687251
164	0xbdb7d8ea	-0.0897692
165	0x3cc10cf3	0.023565745
166	0xbde2cf98	-0.110747516
167	0xbc6bc484	-0.014390115
168	0xbd2a44b2	-0.04156942
169	0x3d83183f	0.06401109
170	0x3c775b0f	0.015097394
171	0x3deb924f	0.115025155
172	0xbdd8265f	-0.10554194
173	0x3dc004c0	0.09375906
174	0xbdc37b1e	-0.09544967
175	0xbd9b5972	-0.0758542
176	0xbdf5df5f	-0.12005495
177	0xbd8b0dde	-0.06789754
178	0xbdf67214	-0.120334774
179	0xbd0e6993	-0.034768652
180	0xbd21c52e	-0.039494686
181	0x3d1f73af	0.038928684
182	0xbcd109ff	-0.025517462
183	0xbd206dd4	-0.03916724
184	0xbc6ee5c8	-0.014581151
185	0xbcbde384	-0.023179777
186	0x3d6636d3	0.05620463
187	0xbd340917	-0.04395398
188	0x3c9037bf	0.017604707
189	0xbd069550	-0.03285724
190	0x3d183e52	0.03716881
191	0x3d8ac63e	0.06776093
192	0xbcbceb69	-0.023061471
193	0x3d762b07	0.060099628
194	0x3de2daa4	0.11076859
195	0x3cc591c4	0.024117358
196	0xbdd3b226	-0.103367135
197	0xbd570a71	-0.052500192
198	0x3cb966a0	0.022631943
199	0xbc98f976	-0.01867364
200	0xbd62efc5	-0.055404443
201	0x3da68ae9	0.08131964
202	0xbdd3b04c	-0.1033636
203	0x3d2851b7	0.041093554
204	0xbda9878c	-0.08277807
205	0xbda2e014	-0.07952896
206	0x3cef7921	0.029232563
207	0x3dd4bc54	0.10387483
208	0x3cfc36db	0.030787876
209	0x3d9439f4	0.07237616
210	0xbca07340	-0.019586205
211	0xbe11e0d7	-0.14245926
212	0x3d99c0f3	0.07507505
213	0x3cc19930	0.023632616
214	0xbc9a82dd	-0.018861229
215	0x3cfd281f	0.03090292
216	0xbda2a8df	-0.07942366
217	0xbd191c1c	-0.037380323
218	0x3e01ef45	0.1268893
219	0x3d112bce	0.035442166
220	0xba3bf9a9	-0.0007170686
221	0xbd8d75fe	-0.06907271
222	0xbd9dc4b3	-0.07703533
223	0xbdcb11d3	-0.09915509
224	0xbd19020f	-0.03735548
225	0xbd6150c9	-0.055008683
226	0x3da6dd4c	0.08147678
227	0xbd031c5f	-0.03200948
228	0xbd5e5121	-0.05427659
229	0xbc6afc08	-0.0143423155
230	0xbd4535d1	-0.048147026
231	0xbc2d6454	-0.010583002
232	0xbbd3aaeb	-0.006459584
233	0xbd8c2f8b	-0.068450056
234	0x3dab93b7	0.08377784
235	0xbdfe7729	-0.12425072
236	0x3d235e27	0.039884713
237	0xbd34621c	-0.044038877
238	0xbbeeb15b	-0.007284326
239	0x3c02126c	0.007938962
240	0x3e0deb56	0.13859305
241	0x3c7dfa73	0.015501606
242	0xbcf42370	-0.029802054
243	0xbcacea69	-0.02110787
244	0xbdb2d900	-0.08732796
245	0xbdbb4ae6	-0.09145145
246	0x3d9641d8	0.073367774
247	0x3d4ab748	0.049491197
248	0xbd9273e9	-0.07151014
249	0x3ce067a0	0.027393162
250	0xbde580ed	-0.11206231
251	0xbcaab1b5	-0.02083669
252	0xbcd08b51	-0.025457056
253	0xba1a6e00	-0.0005891025
254	0xbc095a82	-0.008383395
255	0x3c68cc76	0.014208904

net.network.0.bias_0 f4 [128]
0	0x3e088235	0.1333092
1	0x3e140a86	0.1445714
2	0x3e2383c7	0.15968238
3	0x3cdf091f	0.027226029
4	0x3d6cdb19	0.057826135
5	0x3df1b890	0.11802781
6	0xbc4ca7be	-0.012491165
7	0xbd495117	-0.0491496
8	0xbd57a6fe	-0.05264949
9	0x3d05705c	0.032577857
10	0x3d75adc1	0.059980158
11	0x3e1553da	0.14582768
12	0xbc8d70e3	-0.017265743
13	0x3d740cde	0.059582584
14	0x3d5da9f9	0.054117177
15	0x3dd950cf	0.10611116
16	0x3e136b0c	0.14396304
17	0x3d626507	0.05527213
18	0xbc343d8b	-0.011001001
19	0xbcd54671	-0.026034566
20	0x3d4b66f2	0.049658723
21	0xbbf87963	-0.00758283
22	0x3dabb811	0.08384717
23	0x3bcbe82c	0.0062227454
24	0x3d0f9381	0.03505278
25	0x3def14a8	0.11673862
26	0xbd33d866	-0.043907546
27	0x3d366e5a	0.044538833
28	0x3dc29057	0.09500187
29	0x3e17a411	0.1480868
30	0x3e0380af	0.12842058
31	0x3dca7172	0.09884919
32	0xbd981e1b	-0.07427617
33	0x3d97b5e9	0.074077435
34	0x3dbcb812	0.09214796
35	0x3e0b8e74	0.1362856
36	0x3e09e499	0.1346611
37	0xbc7b14a2	-0.015324743
38	0x3d30729f	0.04307806
39	0x3e0d3f76	0.1379374
40	0x3d9a4956	0.07533519
41	0x3e14be32	0.14525679
42	0x3e2d5e4a	0.169305
43	0x3dacb56c	0.08433041
44	0xbcdd7b2a	-0.027036268
45	0x3d15aa70	0.036539495
46	0x3dc965a0	0.098338366
47	0x3d5aae14	0.05338867
48	0x3cf3f462	0.029779617
49	0x3d9294fe	0.07157324
50	0xbd42676b	-0.04746191
51	0x3dbd8cc3	0.09255364
52	0x3dcddb2d	0.1005157
53	0x3e0a76a5	0.13521822
54	0xbd3b5e8a	-0.045744456
55	0x3db5000a	0.08837898
56	0xbd34de02	-0.044157036
57	0x3de378f4	0.11107054
58	0x3e0f0a8a	0.13968864
59	0xbd441452	-0.04787094
60	0xbd3bbbb4	-0.045833305
61	0x3e31a21d	0.17346998
62	0x3d16853d	0.03674816
63	0x3d43089a	0.047615625
64	0xbb997f80	-0.0046843886
65	0x3dc033f8	0.09384912
66	0x3c9671f2	0.01836488
67	0xbcfa6392	-0.030565057
68	0x3da713ab	0.08158048
69	0x3d88f5bb	0.06687494
70	0x3da52016	0.080627605
71	0x3d7ed010	0.062210143
72	0xbd3a3ff4	-0.045471147
73	0x3d91b522	0.071146265
74	0xbd4110b1	-0.04713506
75	0x3cd7b647	0.026332034
76	0x3d9f2cae	0.07772194
77	0x3cfdbc7f	0.030973671
78	0x3dbe56c1	0.09293891
79	0x3d9760a4	0.073914796
80	0xbd3791a2	-0.04481662
81	0x3d518a02	0.051157005
82	0x3d98528a	0.07437618
83	0x3e00f61b	0.12593882
84	0xbd202744	-0.039099947
85	0x3dcdf9d7	0.10057419
86	0x3e13c454	0.14430362
87	0x3e17e73d	0.14834304
88	0x3d4d7882	0.050163753
89	0x3d11a32c	0.035556003
90	0x3dc5d04d	0.09658871
91	0x3e189ef0	0.1490438
92	0x3d7bf54a	0.061513223
93	0x3c8f9958	0.017529175
94	0xbdb124bb	-0.08649584
95	0xbca6b94f	-0.020352034
96	0x3decaf98	0.11556929
97	0x3e092cc5	0.13395984
98	0x3dfa6ebf	0.122281544
99	0x3e069a05	0.13144691
100	0x3df2c1a0	0.11853337
101	0x3e0db59b	0.13838808
102	0xba902ba6	-0.0010999336
103	0x3d826886	0.063675925
104	0x3cf2a3d8	0.029619142
105	0xbc93a640	-0.01802361
106	0x3ce62c0c	0.028097175
107	0x3de5bcef	0.11217677
108	0x3ddc2d74	0.10750857
109	0x3e00e454	0.125871
110	0xbd7aca4e	-0.06122809
111	0x3db46754	0.08808771
112	0xbd456a1b	-0.048196893
113	0x3db87aef	0.09007823
114	0x3d559e48	0.052152902
115	0x3e1d4274	0.15357381
116	0xbcc7eba7	-0.02440436
117	0x3de0f623	0.10984447
118	0xbd1b3110	-0.037888587
119	0xbd1ce422	-0.038303502
120	0x3ae5b8ce	0.001752639
121	0x3ac9cfc3	0.0015397001
122	0xbd61cb84	-0.05512573
123	0x3dc37d77	0.09545415
124	0x3d23b687	0.039968994
125	0x3c029704	0.007970575
126	0x3dd27794	0.10276714
127	0x3da995cc	0.082805246

net.network.0.bias_1 f4 [128]
0	0xbb022c89	-0.001986297
1	0xbc831814	-0.016002692
2	0x3e0b943f	0.1363077
3	0x3ddd4355	0.10803858
4	0x3d229165	0.03968944
5	0xbd14bcdc	-0.036312923
6	0x3d780724	0.060553685
7	0x3d349156	0.044083916
8	0x3dc8bdba	0.098018125
9	0x3df337e1	0.118758924
10	0x3da3af55	0.07992426
11	0x3d984fd6	0.074371025
12	0x3d2271f0	0.03965944
13	0x3d03e945	0.032204885
14	0x3e2999ae	0.1656253
15	0xbd4d302a	-0.05009476
16	0x3decd3ad	0.115638115
17	0x3e0220ab	0.12707774
18	0x3be23d18	0.0069042556
19	0x3e143af6	0.14475617
20	0x3da3495e	0.07972978
21	0x3e0cd68f	0.13753723
22	0xbd6669c2	-0.056253202
23	0xbd434646	-0.04767444
24	0x3c9aa7d7	0.01887886
25	0x3d457e76	0.048216306
26	0x3dda6c4c	0.10665187
27	0xbd5d7740	-0.054068804
28	0x3bc6e8e5	0.0060702437
29	0x3d4149af	0.04718941
30	0xbc173440	-0.009228766
31	0xbbff1bb3	-0.0077852844
32	0xbcb503e8	-0.02209659
33	0x3d51793c	0.05114101
34	0x3da190e7	0.07888966
35	0x3e28a368	0.16468585
36	0x3d644a5c	0.055734977
37	0xbd658b20	-0.056040883
38	0x3da7bffd	0.08190916
39	0x3ded136e	0.115759715
40	0x3b892abc	0.0041860025
41	0xbb73b938	-0.0037189256
42	0x3e1e4c56	0.15458807
43	0xbd509012	-0.050918646
44	0x3a19f486	0.00058729236
45	0x3dc7c6bf	0.09754705
46	0x3d30255d	0.043004382
47	0x3daaff94	0.08349529
48	0x3dfd6879	0.12373442
49	0x3c478129	0.01217679
50	0x3d7cbe6f	0.06170505
51	0xbd8ac2ef	-0.06775462
52	0xbc8add04	-0.016951092
53	0xbb11fa6f	-0.0022274514
54	0xbd0be4bc	-0.034153685
55	0x3d625733	0.05525894
56	0x3d2ee625	0.04269995
57	0x3c49a32e	0.0123069715
58	0x3da0d426	0.07852964
59	0x3cb136ef	0.02163264
60	0x3d02ece2	0.03196419
61	0xbcd5a69e	-0.026080426
62	0x3dcca679	0.0999269
63	0x3e0fd7e1	0.14047195
64	0x3bb7823f	0.0056002433
65	0xbd2f827a	-0.04284904
66	0x3ddc04a4	0.10743073
67	0x3d99e5ed	0.07514558
68	0x3999eeb2	0.00029360276
69	0x3e157fd3	0.14599542
70	0x3dca53dd	0.09879277
71	0x3e0af3d3	0.13569574
72	0xb86eb142	-5.6908706e-05
73	0x3dc9583f	0.09831285
74	0x3d83aa1a	0.06428929
75	0x3deea7cb	0.11653098
76	0x3cc45609	0.023966806
77	0xbd742304	-0.059603706
78	0x3de2ae73	0.1106843
79	0x3cd935ea	0.026514966
80	0x3dd0fd80	0.10204601
81	0xbc111206	-0.008854395
82	0xbd1e24b3	-0.038609218
83	0x3d90a044	0.07061818
84	0x3d6fd781	0.05855513
85	0xbd76e3a2	-0.06027568
86	0x3d808597	0.0627548
87	0x3df35d81	0.11883069
88	0xbcf91d80	-0.030409575
89	0x3debe449	0.11518151
90	0xbc153c30	-0.009108588
91	0xbd225987	-0.03963616
92	0xbd6b0070	-0.057373464
93	0x3d70c3e9	0.058780584
94	0x3ddfbb97	0.10924452
95	0x395ea854	0.00021234277
96	0x3db3e347	0.08783584
97	0x3dbd2a3f	0.092365734
98	0xbd40ab46	-0.04703834
99	0x3cbf8a8d	0.023381496
100	0x3e09f090	0.13470674
101	0x3dbbc095	0.091675915
102	0xbbba7ebe	-0.0056913784
103	0x3a7859a7	0.00094738085
104	0x3d882667	0.0664795
105	0x3d694799	0.056953046
106	0x3db77019	0.08956928
107	0x3dead7b4	0.11466923
108	0x3d7b368f	0.061331328
109	0x3c7b4a0b	0.015337477
110	0xbd5dd82e	-0.054161243
111	0x3c20d4b0	0.009816334
112	0xbcfa697e	-0.03056788
113	0x3ccbaaf1	0.024861785
114	0x3d132e59	0.035932872
115	0x3d14f7c3	0.036369096
116	0x3db15f72	0.08660783
117	0x3d5b6612	0.05356414
118	0x3e0b9441	0.13630773
119	0x3e0dab73	0.13834934
120	0x3c5177b2	0.012784885
121	0x3e02b5cb	0.12764661
122	0x3d946fa4	0.07247856
123	0x3d5cfb4f	0.053950604
124	0x3ca70651	0.020388754
125	0x3e0e1934	0.13876802
126	0xba8a1c33	-0.0010536968
127	0xbd5334cf	-0.051564034

net.network.2.weight_0 f4 [64, 128]
0	0xbd9c9c40	-0.0764699
1	0xbda79280	-0.081822395
2	0x3d7c87bd	0.061652888
3	0xbcb8f97f	-0.022579907
4	0x3cc9e7da	0.024646688
5	0xbd236cb2	-0.03989858
6	0xbd8d51ff	-0.06900405
7	0x3cf3cf78	0.029762015
8	0xbd9646a2	-0.07337691
9	0xbd791947	-0.060815122
10	0x3dbb2457	0.09137791
11	0x3cc2f8e3	0.023800319
12	0xbd4c525b	-0.049883228
13	0x3d92c7f4	0.07167044
14	0xbdc4f188	-0.09616381
15	0xbcd99922	-0.026562277
16	0xbcab6586	-0.020922434
17	0x3d3037ba	0.043021895
18	0xbaf3265e	-0.0018550863
19	0x3d874ed5	0.06606833
20	0x3deb2b35	0.114828505
21	0xbd0aafa8	-0.033858925
22	0x3c95bf73	0.018279767
23	0x3d1baf4d	0.038008977
24	0x3c75e268	0.015007593
25	0x3d8ecd81	0.069727905
26	0x3d9a24ff	0.07526588
27	0x3da4649e	0.08027004
28	0x3c728f9d	0.014804748
29	0x3cc88c98	0.024481103
30	0x3d7a5eed	0.061125685
31	0x3aa77897	0.0012777027
32	0x3da4fb20	0.08055711
33	0xbd732d8e	-0.059369616
34	0x3d9800e0	0.07422042
35	0x3d054944	0.032540575
36	0x3c1315eb	0.008977394
37	0xbcbc2fc2	-0.022971991
38	0xbcf5dd47	-0.03001274
39	0xbd5eb48c	-0.0543714
40	0xbaff59fc	-0.0019481773
41	0xbcc68cb9	-0.024237024
42	0xbd5bf530	-0.053700626
43	0x3bdb32f8	0.0066894256
44	0xbac3cf26	-0.0014939054
45	0x3c345700	0.011007071
46	0xbd3f6240	-0.046724558
47	0x3d2f403e	0.042785875
48	0xbce1ba9a	-0.027554799
49	0xbc363beb	-0.011122684
50	0x3cdd313a	0.027001012
51	0x3ca24bfc	0.019811623
52	0x3ccd7726	0.025081228
53	0x3b3263be	0.0027220096
54	0x3e0f1d2e	0.13975975
55	0x3c99e483	0.01878572
56	0xbd125c50	-0.035732567
57	0x3dbc612b	0.09198221
58	0x3d8373d4	0.06418577
59	0xbb8c8f1d	-0.0042895214
60	0xbc6a72d9	-0.014309608
61	0xbbf675e4	-0.007521378
62	0x3d78e18f	0.060761984
63	0xbd991b46	-0.07475905
64	0xbd57657d	-0.05258702
65	0x3d1e9d4b	0.038724225
66	0x3c42cb1a	0.0118892435
67	0xbd867f84	-0.065672904
68	0xbdcf9d97	-0.1013748
69	0xbd41c12d	-0.047303367
70	0x3d29c33a	0.04144595
71	0x3d3790dd	0.044815887
72	0xbc9a6065	-0.018844793
73	0x3c3da770	0.011575565
74	0xbd501907	-0.050805118
75	0x3cdb9d26	0.026808333
76	0x3c8ce936	0.017201047
77	0xbda260b7	-0.07928603
78	0xbda5da12	-0.08098234
79	0x3d9b226b	0.07574924
80	0x3d04d0a5	0.03242554
81	0x3d3d8032	0.046264835
82	0x3d85786f	0.065171115
83	0x3ce40eb7	0.027839048
84	0xbd169492	-0.03676278
85	0x3d34a368	0.04410115
86	0xbbe8a42e	-0.00709965
87	0xbd39f3dc	-0.045398578
88	0x3cddc3be	0.027070876
89	0xbbb7a338	-0.005604174
90	0x3bc8c100	0.006126523
91	0x3cd04da4	0.025427647
92	0xbd6d231e	-0.05789482
93	0xbdbf4343	-0.09339001
94	0x3d16918e	0.036759906
95	0x3c98df6e	0.018661227
96	0xbd5f7181	-0.054551605
97	0x3da04943	0.078264736
98	0xbc32af32	-0.010906028
99	0x3df0581a	0.11735554
100	0x3d959ac2	0.07304908
101	0xbda4fcf6	-0.08056061
102	0x3c2966d3	0.010339457
103	0xbd5cfb18	-0.0539504
104	0x3d169979	0.036767457
105	0xbceb9aa9	-0.028760271
106	0x3bed9aa0	0.0072510988
107	0xbd11d5d9	-0.03560433
108	0x3d9e4f0a	0.07729919
109	0x3cd8c91e	0.026463088
110	0x3dc4dfcb	0.096129976
111	0x3d1f9b89	0.03896669
112	0xbc9e7b89	-0.019346016
113	0x3d8b9db4	0.06817189
114	0xbd5f426a	-0.054506697
115	0xbced8b71	-0.028997155
116	0xbe026593	-0.1273406
117	0xbccaa9f0	-0.024739236
118	0xbc90c345	-0.017671237
119	0x3cd4e092	0.02598599
120	0x3c1bc08f	0.009506359
121	0xbd68b389	-0.056811843
122	0xbd84139b	-0.06449052
123	0xbc2b4898	-0.010454319
124	0xbdb62d3b	-0.08895346
125	0x3d3d1d35	0.046170432
126	0xbcc99cee	-0.024610963
127	0x3db82feb	0.089935146
128	0x3d880399	0.06641311
129	0x3d681097	0.056656446
130	0x3dcfeea2	0.101529375
131	0xbc3de2d6	-0.011589726
132	0x3de8e3cb	0.11371573
133	0x3da922a3	0.082585596
134	0x3d4f2151	0.050568882
135	0xbd1dcf15	-0.038527567
136	0x3dbc34a0	0.09189725
137	0x3c91b431	0.017786117
138	0x3d633a37	0.05547544
139	0x3d085126	0.033280514
140	0xbcb3ace4	-0.021933027
141	0x3cf66535	0.030077556
142	0x3dd9a577	0.10627263
143	0x3ce063ef	0.027391402
144	0xbc26c695	-0.010179182
145	0x3deeaeba	0.1165442
146	0xbd2697be	-0.040672056
147	0x3de1f2fd	0.110326745
148	0x3d2dbe10	0.042417586
149	0x3e0c8957	0.13724266
150	0x3d3b0c15	0.04566582
151	0xbc217c2a	-0.009856263
152	0x3c5d611a	0.01351192
153	0x3db897aa	0.090133026
154	0xba89c114	-0.0010509812
155	0x3d07d2af	0.033159908
156	0x3d81850b	0.06324204
157	0x3dc5761f	0.096416704
158	0x3a4e9ec2	0.0007881933
159	0x3a5704f3	0.00082023366
160	0x3ca7e8e0	0.020496786
161	0x3ac353e2	0.0014902318
162	0x3d1b9384	0.03798248
163	0x3da981c8	0.08276707
164	0x3ae98fae	0.0017819309
165	0x3d3760d7	0.044770088
166	0x3c214533	0.009843159
167	0x3cc40ecd	0.023932839
168	0x3d9cd972	0.07658662
169	0x3ccfd071	0.025367947
170	0x3d0c814f	0.034303006
171	0xbce5f529	-0.028071003
172	0x3dc35ccb	0.09539183
173	0xbb91bb81	-0.004447401
174	0x3def56cd	0.11686478
175	0x3bcfb279	0.0063384143
176	0x3cd8cc04	0.02646447
177	0x3cf147e6	0.02945323
178	0xbcfab4b6	-0.030603748
179	0x3ddb7594	0.107157856
180	0x3dc54251	0.096317895
181	0x3d8a128d	0.067418195
182	0xbdebd40d	-0.11515055
183	0xbc161871	-0.009161101
184	0x3d4c587a	0.049889065
185	0x3de4e1a7	0.11175852
186	0x3dea60ef	0.1144427
187	0x3cda4325	0.026643345
188	0x3dd3d8f5	0.10344116
189	0x3dbcc1dd	0.09216664
190	0x3cf7f965	0.030270288
191	0x3dc06fa1	0.093962915
192	0x3d129bb8	0.035793036
193	0xbd13a8de	-0.036049716
194	0x3e0a54fd	0.13508983
195	0x3e0af36c	0.1356942
196	0x3d0bb65a	0.03410945
197	0x3dc990c5	0.09842066
198	0x3bee637a	0.007275042
199	0x3dab4a40	0.083637714
200	0xbc971163	-0.018440908
201	0xbced45a8	-0.028963879
202	0x3da80972	0.082049266
203	0x3e01b4bb	0.126666
204	0x3da74ee6	0.081693456
205	0x3d5993da	0.053119518
206	0x3dc247fa	0.09486385
207	0x3dd78b70	0.105246425
208	0x3d71dbbf	0.059047457
209	0xbd428b3f	-0.047496077
210	0xbc369f7a	-0.011146421
211	0xbc91dbd6	-0.017805021
212	0x3d954fea	0.07290633
213	0x3dffa457	0.12482517
214	0xbd0a94ee	-0.033833437
215	0x3c93f090	0.018059045
216	0x3dd86e31	0.10567892
217	0x3d54bf07	0.05193999
218	0xbc33a714	-0.0109651275
219	0xbd63070a	-0.055426635
220	0xbcd6214a	-0.02613892
221	0x3dbb2dbb	0.09139582
222	0x3c476243	0.0121694235
223	0x3dc914d5	0.098184265
224	0x3d24b483	0.040211212
225	0x3c65d745	0.014028375
226	0x3e04ca71	0.1296785
227	0x3d64f0aa	0.055893578
228	0x3d432f2c	0.04765241
229	0x3dec1248	0.11526924
230	0x3d74b34b	0.0597413
231	0x3c8c073e	0.017093297
232	0xbcd6f908	-0.026241794
233	0x3ca38812	0.019962344
234	0x3df41c6d	0.11919484
235	0xbcf921bb	-0.030411592
236	0xbd15354a	-0.036427774
237	0x3db59118	0.08865565
238	0x3d1a96db	0.037741523
239	0xbd156758	-0.03647551
240	0x3dbd0c16	0.09230821
241	0x3bdff03d	0.0068340586
242	0xbb9d6a54	-0.004803935
243	0x3df6648c	0.120308965
244	0x3cdb0461	0.026735486
245	0x3d654165	0.05597057
246	0x3ddd5677	0.108075075
247	0x3dc3da7f	0.09563159
248	0x3ddf20de	0.10894941
249	0xbcaa36dd	-0.020778114
250	0xbc6664a1	-0.014062078
251	0x3df084d2	0.117440835
252	0xbce319d8	-0.027722284
253	0x3d95d63a	0.07316251
254	0x3df92932	0.121660605
255	0xbb980cb6	-0.004640187

net.network.2.weight_1 f4 [64, 128]
0	0x3cba055f	0.02270764
1	0xbd5b86b3	-0.053595256
2	0xbc8fc2b0	-0.017548889
3	0xbbc64ff2	-0.0060520107
4	0x3dcca8df	0.09993147
5	0xbd8e7ad5	-0.06957022
6	0xbd893bd5	-0.06700865
7	0xbc768d6b	-0.015048365
8	0xbcb4549a	-0.022012997
9	0x3d92486c	0.071427196
10	0xbd8a2993	-0.06746211
11	0xbd09bc57	-0.03362688
12	0x3d1c9434	0.038227275
13	0x3d8b7847	0.068100505
14	0xbd6c7f44	-0.057738557
15	0xbc2adb38	-0.010428242
16	0x3d061f7d	0.032744873
17	0xbd87cc27	-0.06630736
18	0xbc5af305	-0.013363604
19	0xbd79f8ff	-0.061028477
20	0x3ca440ad	0.020050371
21	0x3d04e2c1	0.032442812
22	0xbd0816ad	-0.03322475
23	0xbd2fe6de	-0.04294478
24	0x3d15672e	0.036475353
25	0x3c21dc88	0.009879239
26	0xbd9fcdb6	-0.07802908
27	0x3c32c498	0.010911129
28	0x3ddf77ff	0.10911559
29	0x3d85eae0	0.065389395
30	0xbd8043ca	-0.0626293
31	0x3d0131a8	0.031541497
32	0x3db26932	0.08711471
33	0x3cd255d8	0.0256757
34	0x3dc66450	0.09687102
35	0x3d9cf094	0.07663074
36	0xbd55c990	-0.052194178
37	0x3daaf71b	0.08347913
38	0xbd05d238	-0.032671183
39	0xbc868104	-0.016418941
40	0xbc929546	-0.017893445
41	0x3db66919	0.089067645
42	0xbdcff157	-0.10153454
43	0x3d8508ad	0.064957954
44	0x3c095270	0.008381471
45	0xbd2951f4	-0.041337922
46	0xbce4832b	-0.027894577
47	0xbd071783	-0.032981407
48	0xbcb5f63e	-0.022212144
49	0x3d238a4c	0.039926812
50	0x3c24fb5c	0.010069694
51	0x3da6763f	0.081280224
52	0x3cf28418	0.029604003
53	0x3d7d402b	0.061828773
54	0x3e335596	0.17513117
55	0xbd73edb5	-0.059552867
56	0x3c4eeae6	0.012629246
57	0xbd13316c	-0.035935804
58	0xbdbb6cc3	-0.09151604
59	0x3d2af8c0	0.041741133
60	0x3d90b98f	0.070666425
61	0xbd7e52bf	-0.06209063
62	0xbc83a474	-0.016069628
63	0xbd7a67b3	-0.06113405
64	0x3d55b044	0.052170053
65	0xbcfa7cad	-0.030577028
66	0xba6c2aab	-0.00090090436
67	0xbdc6ba17	-0.097034626
68	0xbd825e03	-0.063655876
69	0x3d8b2420	0.06794
70	0x3dd7d593	0.10538783
71	0x3d3047a4	0.04303707
72	0x3dca78dd	0.09886334
73	0xbd2cd466	-0.042194746
74	0x3ad43976	0.0016191441
75	0x3bce44c8	0.0062948205
76	0x3d40aef3	0.047041845
77	0xbc82aaad	-0.015950525
78	0xbd4655a9	-0.048421536
79	0xbd3ed31f	-0.04658806
80	0x3d14d801	0.03633881
81	0xbaead991	-0.0017917623
82	0xbd2ceed8	-0.042219967
83	0xbd5c13db	-0.053729873
84	0xbceae630	-0.028674215
85	0xbc655d71	-0.013999329
86	0x3c928177	0.017884
87	0x3cb825af	0.022478906
88	0x3d12ed47	0.035870817
89	0xbd02cc29	-0.031932984
90	0xbccb7e61	-0.024840536
91	0x3e01c2ae	0.1267192
92	0x3cf08d93	0.029364383
93	0x3b09d6e7	0.0021032633
94	0x3c292da0	0.010325819
95	0x3dac13f5	0.08402244
96	0xbc8dcbd7	-0.017309112
97	0x3ccc2160	0.024918258
98	0x3da355cb	0.07975348
99	0x3d936862	0.07197644
100	0x3dbc4dad	0.09194503
101	0x3c8be281	0.017075779
102	0xbca02ac8	-0.01955165
103	0x3da3a68f	0.07990753
104	0x3da72f87	0.08163362
105	0xbd051db0	-0.032499015
106	0xbca9a96e	-0.020710673
107	0x3dd5e459	0.104439445
108	0xbdb4354f	-0.0879923
109	0xbd152157	-0.03640875
110	0xbcc32005	-0.023818979
111	0xbd98c201	-0.07458878
112	0xbda67b9f	-0.081290476
113	0x3d0e4176	0.034730397
114	0x3d958a1f	0.07301735
115	0x3d7ca78b	0.06168322
116	0xbdd6776d	-0.104719974
117	0x3daa82c1	0.083257206
118	0x3d02a427	0.03189483
119	0x3c8b9115	0.017036954
120	0xbc7466cd	-0.014917088
121	0x3d72b340	0.059252977
122	0x3da8988b	0.0823222
123	0xbc7f36e0	-0.015577048
124	0xbd8a8816	-0.067642376
125	0xbd138121	-0.03601182
126	0x3cf2e8dd	0.029652053
127	0x3cb9f81e	0.02270132
128	0x3debc24a	0.11511667
129	0xbd032848	-0.032020837
130	0x3dbf2ea8	0.09335071
131	0xbd173c9a	-0.03692303
132	0xbc567c81	-0.0130912075
133	0x3b804be0	0.003915295
134	0x3e0d99a4	0.1382814
135	0x3d892c00	0.066978455
136	0x3debe1ba	0.11517663
137	0x3ba3b933	0.0049964427
138	0xbbc3f678	-0.005980309
139	0x3d464cb4	0.048412994
140	0x3c401e9b	0.011726047
141	0x3d91e518	0.07123774
142	0x3d43a543	0.047765028
143	0x3de3a52d	0.11115489
144	0x3dcc8f0d	0.09988222
145	0x3d43339e	0.047656648
146	0x3d10c670	0.035345495
147	0x3d3cc130	0.046082675
148	0x3dc1dae6	0.0946558
149	0x3b8c42b8	0.0042804144
150	0x3da8e22a	0.08246262
151	0x3cb5fd33	0.022215461
152	0x3d9842a6	0.07434587
153	0x3daae119	0.08343715
154	0x3dde651d	0.108591296
155	0xbcba6e2e	-0.022757616
156	0x3c48f77a	0.012266034
157	0x3db897ae	0.090133056
158	0x3d319376	0.04335352
159	0xba9ecb37	-0.0012115006
160	0xbcf39edd	-0.029738838
161	0x3cf1bb56	0.029508274
162	0x3ac4758c	0.0014988645
163	0x3d20d391	0.039264265
164	0x3d77c167	0.060487177
165	0xbcca7925	-0.02471597
166	0x3dbd1d1b	0.09234067
167	0x3c0f983f	0.008764326
168	0x3cbbdd13	0.022932565
169	0x3bda50d1	0.006662466
170	0x3c324c6b	0.010882477
171	0x3d102f90	0.03520161
172	0x3d8f6c23	0.07003047
173	0x3dd29ab7	0.10283416
174	0x3dd1cad1	0.10243762
175	0x3d606b98	0.05479011
176	0xbcdaf874	-0.0267298
177	0xbc96e7b8	-0.018421039
178	0x3d1c0dbc	0.038099036
179	0xbcde4162	-0.027130786
180	0x3dda39ff	0.10655593
181	0x3d194d68	0.037427336
182	0xbdd8ccea	-0.10585959
183	0x3d9c562c	0.076336235
184	0x3ba95634	0.005167747
185	0xbcb41eab	-0.02198728
186	0x3d6fd80b	0.058555644
187	0x3d98d75f	0.07462954
188	0x3db0b95f	0.08629107
189	0x3dc49c72	0.09600152
190	0x3a6b1f72	0.0008969224
191	0xbd1d2e84	-0.03837444
192	0xba9cecfc	-0.0011972482
193	0xbcb5fb16	-0.022214454
194	0x3cc7713a	0.024345983
195	0x3dadb65a	0.084820464
196	0x3ddb5f54	0.10711542
197	0x3e052d3b	0.13005535
198	0xbd4b9c89	-0.04970983
199	0x3d7ccbe1	0.06171787
200	0xbd0bc725	-0.034125466
201	0x3dfb5eb6	0.12273924
202	0xbbece534	-0.0072294716
203	0x399fb79c	0.00030463643
204	0x3dd454bb	0.103677236
205	0xbccaecee	-0.02477118
206	0xbc8dcade	-0.017308649
207	0xbd285d05	-0.041104335
208	0x3d270bb1	0.040782634
209	0x3df1b3c3	0.11801865
210	0x3d352a03	0.04422952
211	0xbc74d410	-0.014943138
212	0x3d0b6204	0.03402902
213	0x3dacd5c0	0.08439207
214	0xbcf2f2b3	-0.029656744
215	0xbcad5dd7	-0.02116291
216	0x3dffd3fc	0.12491605
217	0x3da2540b	0.07926186
218	0x3c94a6d8	0.018145964
219	0x3d0a85c1	0.033818964
220	0x3ce1bc6e	0.02755567
221	0x3da6af3c	0.08138892
222	0xbcd3e6d7	-0.025866909
223	0x3dc3c53e	0.09559105
224	0x3de847c9	0.11341817
225	0x3e08ce94	0.13360053
226	0xbc793e92	-0.015212672
227	0xbdb53448	-0.088478625
228	0x3d22cb73	0.039744806
229	0xbbfac9f8	-0.007653471
230	0x3dcbec52	0.09957184
231	0x3dd8e60a	0.105907515
232	0x3c6c4e2e	0.014422936
233	0x3dbde805	0.0927277
234	0x3d557eb3	0.052122783
235	0x3dc62097	0.09674185
236	0xbcbd845a	-0.0231344
237	0x3deadd2c	0.114679664
238	0x3dbc0c2c	0.09182009
239	0x3da09961	0.07841755
240	0x3db4020f	0.08789455
241	0x3e03fc02	0.12889102
242	0x3d12b185	0.035813827
243	0x3db9bc5b	0.09069129
244	0x3dd142c2	0.10217811
245	0x3dad5ecd	0.084653474
246	0x3bac72d9	0.0052627143
247	0x3d108f68	0.035293013
248	0x3db14fbf	0.086577885
249	0x3da74686	0.08167748
250	0x3ba5872d	0.0050515146
251	0x3d8e6a80	0.06953907
252	0x3cb45f98	0.022018239
253	0x3d52a9ab	0.05143134
254	0x3df7af3c	0.1209397
255	0xbd9b8bbe	-0.07595013

net.network.2.bias_0 f4 [64]
0	0x3c83377d	0.01601767
1	0x3d52f4ce	0.051502995
2	0x3d8819aa	0.0664552
3	0x3da74ef0	0.08169353
4	0x3c99a104	0.018753536
5	0xbc3f067d	-0.011659262
6	0x3d345ea8	0.044035584
7	0xbdbb4488	-0.09143931
8	0x3d51ae40	0.05119157
9	0x3b1e5819	0.0024161397
10	0x3c6cb926	0.01444844
11	0x3d413071	0.047165338
12	0x3da70281	0.081547745
13	0x3b8080f1	0.003921621
14	0xbd257edc	-0.040404186
15	0xbd37d226	-0.044878148
16	0x3db585ef	0.088634364
17	0xbcef7b11	-0.029233487
18	0x3db3fc30	0.08788335
19	0xbd67f09d	-0.05662595
20	0x3da28f17	0.079374485
21	0x3d9f1bb9	0.077689596
22	0x3d71ba54	0.059015587
23	0xbd6e530b	-0.058184665
24	0x3dca896f	0.09889495
25	0x3cac8c68	0.021063045
26	0x3d8a4b89	0.067526884
27	0x3c383c9c	0.011244919
28	0x3d5c0856	0.053718887
29	0x3d1cdc0f	0.0382958
30	0x3be111c7	0.0068685743
31	0x3dea562a	0.11442216
32	0xbb3c4659	-0.0028728454
33	0x3d8707b1	0.06593264
34	0x3c78c7be	0.015184341
35	0x3d906f29	0.07052452
36	0x3dc75df3	0.09734716
37	0xbd3ff2fe	-0.046862595
38	0x3d5caa4f	0.053873356
39	0xbcc5a79e	-0.024127778
40	0x3c09361e	0.008374719
41	0xbda1fc37	-0.07909434
42	0x3d37f0a3	0.044907223
43	0xbcd0925d	-0.025460416
44	0x3d904cf9	0.07045931
45	0x3c99063d	0.018679732
46	0x3db5b3ac	0.0887216
47	0xb9fbe3af	-0.00048044088
48	0xbbeb17fb	-0.0071744896
49	0xbd064708	-0.032782584
50	0x3deac038	0.11462444
51	0x3d0aaba7	0.033855107
52	0x3d65abdd	0.056072105
53	0xbd6373ba	-0.055530287
54	0x3c3877c4	0.011259023
55	0x3da3791a	0.07982083
56	0xbc94e778	-0.01817678
57	0x3b521fb4	0.0032062354
58	0x3da6c275	0.081425585
59	0x3d8ff166	0.07028465
60	0xbd1a8747	-0.037726667
61	0x3daac601	0.083385475
62	0x3d15be79	0.036558602
63	0x3da5651f	0.08075928

net.network.2.bias_1 f4 [64]
0	0xbd0ef325	-0.03489985
1	0x3d13a096	0.03604182
2	0x3da35997	0.07976072
3	0x3daf145f	0.08548807
4	0x3db7ea48	0.089802325
5	0x3d8d2644	0.06892064
6	0xbd00b006	-0.03141787
7	0xbd272fa4	-0.040816918
8	0xbc8ff37d	-0.017572159
9	0x3dd954c8	0.10611874
10	0x3d31b5be	0.043386213
11	0x3cd0ab7d	0.025472397
12	0xbd6baea0	-0.057539582
13	0x3de30c4f	0.11086332
14	0xbcc2ff11	-0.023803266
15	0x3a2e8cfd	0.0006658582
16	0x3d5c4773	0.053779077
17	0x3dbd019a	0.09228821
18	0x3ce42d91	0.027853759
19	0x3d8d3bf6	0.06896202
20	0x3dae084e	0.08497678
21	0xbce96b3b	-0.028493514
22	0xbbad899f	-0.0052959467
23	0x3dcede6c	0.10101017
24	0x3cc8b552	0.024500523
25	0xbc8fe7ea	-0.01756664
26	0xbc8525ec	-0.016253434
27	0x3df5d38c	0.1200324
28	0x3d60676e	0.05478614
29	0xbd1047b2	-0.035224624
30	0xbc67f44b	-0.014157365
31	0xbbb1c589	-0.0054251594
32	0x3d983e9b	0.07433816
33	0x3df3330e	0.11874972
34	0xbca974e2	-0.020685617
35	0x3c557608	0.013028629
36	0x3cd49496	0.025949758
37	0x3cf17e39	0.029479133
38	0x3b8a8118	0.004226815
39	0x3dde3840	0.108505726
40	0x3d8df823	0.06932094
41	0x3ce7a185	0.02827526
42	0x3d54c67f	0.051947113
43	0x3d5cca9b	0.053904157
44	0xbcb9a4cd	-0.022661591
45	0x3deddc98	0.116143405
46	0xbccf059d	-0.025271231
47	0x3c1bfd0c	0.00952078
48	0xbc0d2fb0	-0.008617327
49	0x3dd72035	0.1050419
50	0x3c09fd10	0.008422151
51	0x3d1e97e9	0.03871909
52	0xbd20f517	-0.039296236
53	0xbd7d5346	-0.061846994
54	0x3d462aa3	0.048380505
55	0xbd81148a	-0.06302746
56	0xbd78bfd9	-0.060729835
57	0x3b78bf89	0.003795596
58	0x3c1aad07	0.009440667
59	0xbd791df6	-0.06081959
60	0x3d97c76a	0.07411082
61	0x3d9ce004	0.07659915
62	0xbd89fa20	-0.06737161
63	0x3dab142e	0.08353458

net.network.4.weight_0 f4 [16, 64]
0	0x3bd76b84	0.006574096
1	0x3d9ca3a0	0.076483965
2	0x3dd878f4	0.10569945
3	0xbcbc74a5	-0.02300484
4	0x3de778c9	0.11302335
5	0x3d0a1215	0.03370865
6	0x3e0bab13	0.13639478
7	0xbdc45152	-0.09585823
8	0x3e26a64f	0.16274379
9	0x3e26e38f	0.16297744
10	0x3d72238c	0.05911593
11	0xbda336ad	-0.07969413
12	0xbd445c7e	-0.04793977
13	0xbdf4feba	-0.11962648
14	0x3d0ba014	0.03408821
15	0xbdc07c5b	-0.09398719
16	0x3d67bc08	0.056575805
17	0x3ca0d7ba	0.019634116
18	0x3d728622	0.05920995
19	0x3d993435	0.07480661
20	0xba1c7051	-0.0005967664
21	0x3d0e3ea7	0.03472772
22	0xbd765b51	-0.06014568
23	0x3d6d487a	0.057930447
24	0x3b0a1039	0.0021066798
25	0x3d00939b	0.031390768
26	0x3d7d1b81	0.061793808
27	0x3ddb89e9	0.10719664
28	0x3db6f39f	0.08933186
29	0x3d7d7172	0.061875768
30	0xbd9845b6	-0.07435171
31	0x3e19ac0e	0.1500704
32	0x3e4b1a1e	0.19834182
33	0x3d6bfaf7	0.057612386
34	0xbb71e679	-0.0036911054
35	0xbc39229c	-0.011299755
36	0x3cb4f763	0.02209062
37	0xbb3d24e7	-0.0028861107
38	0x3d080462	0.033207305
39	0x3d66af94	0.056319788
40	0x3caa2eec	0.020774327
41	0x3c479527	0.012181557
42	0x3dbdc34a	0.09265764
43	0x3e15d9a0	0.14633799
44	0x3d888550	0.06666052
45	0x3d4f6d08	0.05064109
46	0xbe0296bb	-0.12752812
47	0xbd003a37	-0.031305518
48	0xbdcf44b9	-0.1012053
49	0x3dc25d1b	0.09490415
50	0x3d82454e	0.06360875
51	0x3d09f77f	0.033683296
52	0x3cea0aa8	0.028569534
53	0xbb0b097b	-0.0021215368
54	0x3d58476c	0.05280249
55	0x3d929561	0.07157398
56	0x3d4fdbd7	0.050746765
57	0xbdfca406	-0.123359725
58	0xbd9aa48f	-0.07550918
59	0x3c9ded10	0.01927808
60	0x3c88aeed	0.016684974
61	0x3e02ffd5	0.12792905
62	0xbdac30b2	-0.084077254
63	0xbccbc9c9	-0.024876492
64	0xbe0892d6	-0.13337263
65	0x3d1e687e	0.03867387
66	0xbd7ead24	-0.06217684
67	0x3dabac47	0.08382469
68	0xbdd07c56	-0.10179965
69	0x3db6b2b0	0.08920801
70	0xbde8e8ce	-0.11372529
71	0xbddfccb2	-0.109277144
72	0x3cebc587	0.028780712
73	0xbca6f506	-0.020380508
74	0x3d3f356c	0.046681806
75	0x3e1ff128	0.15619338
76	0x3df94d74	0.12172976
77	0xbd47ed12	-0.048810072
78	0x3d8ace0d	0.06777582
79	0x3e332798	0.17495573
80	0x3e246cdc	0.16057152
81	0x3c25daea	0.010122994
82	0xbd837f34	-0.064207464
83	0x3dae4701	0.08509637
84	0xbbfd7505	-0.007734897
85	0x3e1186d6	0.14211592
86	0x3da15e85	0.07879356
87	0x3ddc3893	0.10752978
88	0x3dc5a83e	0.0965123
89	0x3c84bd8a	0.01620366
90	0x3d559cfe	0.052151673
91	0x3af96674	0.0019027726
92	0x3d56127b	0.052263718
93	0xbd64b0c7	-0.05583265
94	0x3c8da4a3	0.017290419
95	0xbe10faf8	-0.14158237
96	0xbe22f08c	-0.15912074
97	0xbc59ce97	-0.013293884
98	0x3d33b0b4	0.04386969
99	0x3c8c0bc9	0.017095463
100	0xbd764d9d	-0.06013261
101	0xbabf4200	-0.0014591813
102	0x3e20bc07	0.15696727
103	0x3da343fa	0.0797195
104	0x3e09f9f9	0.13474263
105	0x3dd28a15	0.10280243
106	0xbe3d943b	-0.18513577
107	0xbdf53664	-0.11973265
108	0x3d4a2580	0.04935217
109	0x3d82530b	0.063634954
110	0xbd23ff67	-0.040038493
111	0xbd36d816	-0.04463967
112	0x3dbdf446	0.09275107
113	0x3d800bca	0.062522486
114	0x3d09bea0	0.03362906
115	0x3d5d17a1	0.053977612
116	0xbc6e12e0	-0.014530867
117	0x3dd050f0	0.101716876
118	0x3dcaeea4	0.09908798
119	0x3e1ab14f	0.151067
120	0x3d539b66	0.05166187
121	0x3de505e0	0.11182761
122	0x3e1d8699	0.15383376
123	0x3dd0c850	0.101944566
124	0x3db499a9	0.08818371
125	0x3cfe60d3	0.031052029
126	0x3e2407bc	0.16018575
127	0xbd013e99	-0.03155384
128	0xbc7c2c09	-0.015391358
129	0xbccd8e0c	-0.025092147
130	0xbd8ae912	-0.06782736
131	0xbda59dd9	-0.08086748
132	0x3e3556de	0.17708918
133	0x3d03c949	0.032174382
134	0x3db4e73b	0.08833166
135	0x3d32256a	0.043492712
136	0x3e1d84d5	0.15382703
137	0x3e038f8c	0.12847728
138	0xbbc7936f	-0.0060905735
139	0x3d8987c7	0.067153506
140	0xbd5e5a98	-0.054285616
141	0xbdd3d173	-0.10342684
142	0x3d240553	0.04004414
143	0x3e071d3f	0.1319475
144	0xbd07c33f	-0.033145186
145	0xbdaec5fd	-0.08533857
146	0x3e45e002	0.19323733
147	0x3d33c572	0.04388947
148	0xbcaf52e5	-0.021401832
149	0x3ddfc9a1	0.109271295
150	0xba5636da	-0.00081716257
151	0xbd94494b	-0.07240542
152	0xbcc7a637	-0.02437125
153	0x3e6d0022	0.23144582
154	0x3bd36fc0	0.0064525306
155	0x3e6bb22f	0.2301719
156	0xbdcf726b	-0.10129245
157	0x3d892558	0.06696576
158	0x3de9550a	0.11393173
159	0x3e08c981	0.13358118
160	0x3e09beb1	0.13451649
161	0x3e151147	0.14557372
162	0xbc85b57b	-0.016321888
163	0xbdd24d16	-0.10268609
164	0xbda63fcb	-0.08117636
165	0x3aebced8	0.0017990721
166	0x3d8ef56b	0.069804035
167	0xbdc2cc0e	-0.095115766
168	0x3d517d84	0.05114509
169	0x3d50fb1f	0.051020738
170	0x3e200179	0.15625562
171	0x3e52be44	0.20580393
172	0x3daeeeb3	0.08541622
173	0x3dcb3bfc	0.099235505
174	0xbc0c3aa9	-0.008558908
175	0xbdb5e66a	-0.088818386
176	0x3d12ee8c	0.035872027
177	0xbd415b66	-0.047206305
178	0x3c911c87	0.017713798
179	0xbd7dd880	-0.06197405
180	0x3db36b3d	0.087606885
181	0x3d67cbb0	0.056590736
182	0x3cfc09fb	0.030766478
183	0xbcd6a8ff	-0.02620363
184	0xbdbab3b7	-0.09116309
185	0x3c93606b	0.017990312
186	0xbc89296c	-0.016743384
187	0x3db7eb39	0.08980412
188	0x3c10a929	0.008829393
189	0x3da9ce2c	0.08291277
190	0x3dcc0496	0.09961812
191	0xbd5400d2	-0.051758595
192	0xbe105bb4	-0.14097482
193	0x3ddac670	0.1068238
194	0x3df48528	0.1193946
195	0xbd1f35cf	-0.038869675
196	0x3dab63c8	0.08368641
197	0x3d368270	0.04455799
198	0x3cf91abc	0.030408256
199	0xbd9605ce	-0.07325326
200	0x3d6073e3	0.05479802
201	0x3c5485be	0.01297134
202	0x3d9b5f1d	0.07586501
203	0xbd29caed	-0.04145329
204	0xbbce6f2f	-0.006299875
205	0x3d6545d0	0.05597478
206	0xbe1af06c	-0.15130776
207	0xbc4e2c64	-0.012583826
208	0xbb2854d0	-0.0025685318
209	0x3cb3dd09	0.021955984
210	0x3d02712c	0.03184621
211	0x3dc06e5e	0.09396051
212	0x3e22d4d6	0.15901503
213	0x3d6be868	0.057594687
214	0x3de4bbd6	0.11168639
215	0xbd4f4814	-0.05060585
216	0x3e157cad	0.14598341
217	0xbe02d520	-0.12776613
218	0x3cbd69bd	0.023121709
219	0xbcb74e4f	-0.022376208
220	0x3d329e30	0.04360789
221	0xbd979358	-0.074011505
222	0x39f36fe6	0.00046431943
223	0xbd899d2b	-0.067194305
224	0xbd2edb8a	-0.042689838
225	0xbc0b0bd6	-0.008486709
226	0xbd640896	-0.05567225
227	0x3dd67f4d	0.104734994
228	0x3e0abab6	0.13547787
229	0x3d2ff933	0.042962264
230	0x3b1bd558	0.0023778286
231	0x3ddb9ef1	0.10723675
232	0x3c93612b	0.01799067
233	0x3c1e1ba2	0.009650143
234	0xbdcd6419	-0.10028858
235	0xbdcd3822	-0.10020472
236	0xbdad8c36	-0.08474009
237	0x3dcd90b8	0.100373685
238	0x3c3f3a8f	0.011671676
239	0x3e26ceb9	0.16289796
240	0xbcea684f	-0.028614191
241	0x3d8c71cb	0.06857642
242	0x3d919a4e	0.071095094
243	0x3b8b7681	0.00425607
244	0xbe0b3ddf	-0.1359782
245	0xbd355890	-0.044273913
246	0x3b57eed3	0.0032948747
247	0xbd170577	-0.036870446
248	0x3c501b08	0.012701757
249	0xbcf9a40a	-0.030473728
250	0x3d47d355	0.048785526
251	0x3af20a11	0.0018466135
252	0xbc6340ba	-0.0138704125
253	0xbbd4865c	-0.0064857434
254	0xbd447fc0	-0.047973394
255	0x3d345d01	0.044034008
