models/default/rs/adam_epochs10_lr0.0001_batch128_dropout0/model_419.pth (torch, 86819 bytes, 8 tensors)

network.0.weight f4 [128, 90]
00000000: 32bd 3bbc 4a43 e43d 8861 5dbd d1ad 95bc
00000010: ea4f 8abd 8a3d 8ebd 9ca8 0abe a1cc 213d
00000020: 8305 5cbc 0f29 483c f13f 713d 9e16 2d3d
00000030: e53d fb3d c2c4 0f3e 0991 c2bb 9f8f f3bd
00000040: d8b0 383d f952 ebbd e2a2 c1bd 07ad a13d
00000050: 923c dc3d 618c 9d3d 31e1 34bd 3024 15bd
00000060: cae6 02bc 4820 613d 871b 633d ad68 933d
00000070: fd9d 973d f3b7 25bd d621 55bd a5de 8f3b
00000080: 15ed 8abd 52aa 973d c6a1 93bc 7952 743d
00000090: bc44 9e3c 0320 433b 2c14 5c3d 587d abbd
000000a0: 327a dfbd 18c6 cabd 5f37 943d b406 28bd
000000b0: ba58 37bd 13dd a03c 8071 de3c f8f5 9ebd
000000c0: e656 c93c 1028 50bd 5008 8abd e2c4 b9bd
000000d0: 13a6 a3bd 74d7 e83c 31e1 c7bb 3162 5dbc
000000e0: 4a28 5bbd c5a1 853d f33d 8abd b1ab aabd
000000f0: bedd fa3d f4b6 09bd 64e0 8abd f428 94bd
00000100: 09a0 b7bc 226d 423d 2fa6 cb3d 317f 0dbe
00000110: 723f 5abd 84d5 93bd abb6 00be d9c1 fcbc
00000120: 3885 073c 69cd 173c e841 713d f7a4 06bd
00000130: abb5 9f3d 9c0e f43c b3b3 63bd d7d1 f4bc
00000140: 1e4c 7dbd f8b0 d43d 1ed6 943c 2b10 b8bd
00000150: 515d 76bd ce05 a8bc 0449 1e3d 91e1 b63d
00000160: d7b6 9d3c eadc 89bd 4a18 8c3d 7e11 a03d
00000170: d36b 3bbd 88e4 c7bd 1843 aabd 545d cebd
00000180: 2f0b 85bd 29a0 b7bd e079 e33d 60dd 70bd
00000190: 0071 76bb 06c4 013e 70c8 cc3d 4651 dd3d
000001a0: 34ef 1ebd 57dc fb3c 5762 82bc 14b0 193d
000001b0: 4fb7 e9bd 8146 563d 0302 93bd 6d58 20bd
000001c0: 5e41 a93c bec7 ce3d 811a 693d ad3c 7f3d
000001d0: ef1f bfbd 7603 5dbd fc9c c93d a7af 793d
000001e0: 3c86 823d b911 b8bc a589 f63c 566d cfbd
000001f0: 2bc9 d1bb 38e5 c03d 1c43 703d 8462 cbbd
00000200: f73c 983c 3974 8f3b 1569 9a3d 3abb 47bd
00000210: 97df b5bb 6cde 31bd 1984 bdbd 2b25 6ebd
00000220: 5372 3b3d 1834 bb3b 6ee9 d33c 7cdb 55bc
00000230: f3a6 6cbd 6cfe 4dbc 2265 f8ba 213e ae3d
00000240: 9d43 393d 0b77 8d3d 6dd5 9f3d 3385 b5bc
00000250: d28a 80bd bdb3 963d 93a9 3e3d b519 aabc
00000260: 1cae ecbd 7f6b f33c f905 91bd 9224 36bc
00000270: abdf 553a 7e0b 8d3d bb74 dcbd 50fb b4bd
00000280: 30c2 74bd bc2d 6a3d fea4 efbd b38d 95bd
00000290: 6cf0 c7bd ad05 cdba 23ca 84bd f597 9ebd
000002a0: 59d2 3f3d e831 533c eb21 abbd 7da4 023e
000002b0: 2050 c2bd 9519 b1bd 362b 0cbd 7059 753d
000002c0: 647f ba3d db35 1b3b 2e09 bf3d 6382 3dbd
000002d0: 3cb2 65bd 86e1 b3bd 9954 00be ea67 43bd
000002e0: 806c 013d cdde a9bd e477 18bd 27d9 9b3d
000002f0: 92ab 043e bfd3 f23c b845 993c 03a3 e83d
00000300: 4f2b 79bc 0feb d53d 8dc6 09bd a3c2 9fbd
00000310: e984 7c3d ac4a d0bd 7259 9c3a 1b1b 99bb
00000320: 68b4 22bd 976d 093d 713b dc3d 1cb4 edbd
00000330: e9c3 7a3d c389 92bd 74d1 073e 913b b33d
00000340: 6e75 4b3d 2ebe acbc 52f7 aebd 1cce 8e3c
00000350: 243b f3bd 2290 2bbd c644 873c 6e0e 743d
00000360: 5c7d dc3c 8762 1fbd c878 ff3a ade8 b9bd
00000370: 6007 d53d 57ee ebbd c1eb 523d ef39 13be
00000380: 64e9 9cbc f0a6 19bd 9290 6fbd 0b49 dbbd
00000390: 02f1 563d 7160 d93d ca1f 5cbd 98b9 ef3b
000003a0: 8b39 593d 7e9f 0bbe ab08 84bd 0b99 02bd
000003b0: 5cc1 11be 5ed4 a8bd 8157 1bbd ce3a a83d
000003c0: 5943 a63d 9887 94bd 9210 263d a8a3 e6bc
000003d0: 19b6 aaba 1f54 9abd 6086 b1bd 206a afbd
000003e0: e7a8 d8bc c522 09be cd2f b3bd b9c2 4ebc
000003f0: 1fca 9ebd 188a d2bd e7d1 973c 1204 d7bd
-0.011458682 0.11145647 -0.05404809 -0.018271359 -0.06753524 -0.069453314 -0.13540882 0.03950179
-0.0134290485 0.01221682 0.05889887 0.042257898 0.12267665 0.14039901 -0.0059376997 -0.11892628
0.045090526 -0.11490435 -0.094548956 0.078943305 0.1075374 0.07692791 -0.04416007 -0.036411464
-0.007989595 0.054962426 0.055446174 0.071977 0.07403181 -0.04045863 -0.05203422 0.004390555
-0.06783501 0.07405533 -0.018021476 0.059648965 0.019319884 0.002977372 0.053730175 -0.08373517
-0.10911979 -0.09901065 0.07237124 -0.041022018 -0.04476235 0.019636666 0.02715373 -0.077617586
0.02457757 -0.050819457 -0.06739867 -0.090707555 -0.079906605 0.028423049 -0.006099843 -0.01351218
-0.05350522 0.06524996 -0.06750097 -0.08333529 0.12249325 -0.033621743 -0.0678108 -0.07234374
-0.022415178 0.04746736 0.099438064 -0.13818051 -0.053283162 -0.07218459 -0.12569682 -0.030854153
0.008271508 0.009265282 0.058900744 -0.032872166 0.07798322 0.029792123 -0.055591296 -0.029885216
-0.06184017 0.103853166 0.018168505 -0.08987459 -0.060147587 -0.02051058 0.038643852 0.08929742
0.019252224 -0.06731589 0.0684057 0.07815836 -0.045757126 -0.09760386 -0.08313578 -0.10076395
-0.06496274 -0.08966095 0.1110723 -0.05880487 -0.0037603974 0.12672433 0.09999168 0.10806517
-0.03880234 0.030744715 -0.015916033 0.037521437 -0.114119165 0.05231333 -0.07178118 -0.03914683
0.020661052 0.100966915 0.05691004 0.062313724 -0.09332263 -0.05395838 0.098443955 0.06095853
0.063732594 -0.022469388 0.03009493 -0.10128276 -0.006402155 0.0941872 0.05865775 -0.099309
0.018583758 0.0043778685 0.07539574 -0.048762538 -0.0055503356 -0.04342501 -0.09253711 -0.058140915
0.045763325 0.005712997 0.025868144 -0.013052817 -0.057776403 -0.012572866 -0.0018951038 0.08507944
0.045230497 0.06907471 0.078043796 -0.02215824 -0.06276478 0.07358501 0.046548437 -0.020764211
-0.11556646 0.029714344 -0.07081217 -0.0111171175 0.00081586343 0.068869576 -0.10764452 -0.088369966
-0.059755504 0.057172522 -0.11701392 -0.073024176 -0.09762654 -0.001564195 -0.06483867 -0.07743827
0.046831463 0.012890317 -0.08356079 0.1275806 -0.09487939 -0.086474575 -0.034220897 0.059899747
0.09106329 0.0023683223 0.09327923 -0.046266925 -0.05607818 -0.087832496 -0.12532271 -0.047706522
0.031597614 -0.08294449 -0.03722371 0.07609778 0.12956074 0.029641984 0.018710002 0.11359217
-0.0152080795 0.104452245 -0.03363662 -0.07800796 0.06165019 -0.101704925 0.0011928512 -0.0046724207
-0.03972283 0.03355178 0.10753525 -0.11606619 0.06122199 -0.07155182 0.13263494 0.08751596
0.049672537 -0.021086778 -0.08543266 0.017432265 -0.118765146 -0.041885503 0.016512286 0.059584074
0.026915245 -0.038912322 0.0019490952 -0.090775825 0.10401797 -0.11520069 0.051494364 -0.14377569
-0.019154258 -0.03751272 -0.058487482 -0.10707291 0.052475937 0.10614098 -0.053741254 0.0073158257
0.053033393 -0.1363506 -0.06446966 -0.031884234 -0.14233917 -0.08243631 -0.037925247 0.08214341
0.08118314 -0.07252425 0.040543146 -0.02815421 -0.001302424 -0.07535576 -0.08668208 -0.085651636
-0.026447726 -0.1339217 -0.08749352 -0.012619668 -0.07753395 -0.102802455 0.018532706 -0.10498823

network.0.bias f4 [128]
00000000: 0bdf 82bd a6f4 91bd 9773 f53d 1b36 bfbb
00000010: 6859 223d 4c59 f33d 5e4b 38bd cdff 86bc
00000020: 2f97 0f3d bd37 df3c 766a fd3d db04 b93d
00000030: 10dc f23d 228c 9d3d 66be 0ebb 96ae b7bc
00000040: 7fe9 f13c 0065 813d cb9d 853d aa64 c83d
00000050: 708c 8c3d 2a3d 6c3d 1909 bf3d cd90 8b3d
00000060: 10b8 e93d 7111 613a cf3a adbd 90e9 933d
00000070: 8bbb 103e b831 1f3d 2c19 e03d 6ebe ca3d
00000080: 4498 e63d 95be 9f3c d344 34bd c7c7 393d
00000090: 47c5 653c 1817 7dbb 0db6 a03d 0fde 0b3d
000000a0: a40a 033e b377 c23d adca cdbc 69a6 873d
000000b0: 5e8b b73d cbde 62bd 3b2d 21bb 692b ee3c
000000c0: 342b bb3d db91 c73d 4f9e 083d 952a 843d
000000d0: c52b 4a3b f184 ce3d b047 053e f88b a33d
000000e0: 67c6 febc f9b3 6f3d 91c3 48bd 9bc9 f23d
000000f0: 7aa0 fcbc 5a28 8d3d 0c93 563d c97a d13c
00000100: 8baf 89bd 51fa d63d 6c6f e83d 5afd e73c
00000110: f162 ea3d 2b46 adbd 64e3 97bc d7e8 093e
00000120: a384 ddbc 42f2 fcbc b535 303d 6a9c fa3d
00000130: 8807 313b 3f7d fe3d e969 6abd 2a8d da3d
00000140: 5ded 483d 8d00 67bd f50a ed3d b983 903d
00000150: 45d4 f03b f49b b93d f241 fa3c 9023 fb3d
00000160: 7396 ca3d c703 e03d 6cb4 3a3c 25cd 1cbd
00000170: 6853 b83d 28ca 753d 1462 bc3c 2877 023e
00000180: ec23 dbbc a17e b63b dbb5 ca3d 3ae0 db3c
00000190: 5234 ff3d c62e 8dbc bb8b 123d b430 983d
000001a0: 3caa 15bc a597 073e 026f 493d 1e40 bb3d
000001b0: a78c 543d 4364 c73d 0f26 883c 2571 8a3c
000001c0: 66b1 f03d 1938 2c3b f544 9fbc 7fe0 c83d
000001d0: ec47 eb3d aced e73d d918 aebb 95b6 663d
000001e0: e144 a03c f9f7 27bd 7cbd d13d 9447 72bd
000001f0: fed2 ed3d 87ec d13d 3f90 c43d 5e0d e93d
-0.06390198 -0.07126741 0.11984938 -0.0058353073 0.039636046 0.118822664 -0.04499375 -0.016479397
0.03505629 0.027248258 0.123738214 0.09034129 0.1185838 0.07692744 -0.0021780967 -0.022422116
0.029530285 0.06318092 0.06524237 0.09784825 0.06862724 0.057675518 0.09327907 0.06814728
0.1141206 0.0008585668 -0.084584825 0.07222283 0.14134042 0.038865775 0.10942301 0.09899603
0.11259511 0.019500056 -0.04401095 0.04535654 0.014024085 -0.0038618501 0.078472234 0.03414732
0.12797028 0.09495487 -0.025121057 0.06623537 0.08962129 -0.055388253 -0.002459361 0.029073434
0.091391 0.097446166 0.0333541 0.064534344 0.0030848843 0.1008395 0.13015628 0.07985681
-0.031100465 0.058521245 -0.04901463 0.118548594 -0.03083824 0.06892462 0.05238633 0.025571244
-0.06722935 0.10496963 0.11349377 0.02831905 0.11444653 -0.08460649 -0.018541045 0.13467728
-0.027040785 -0.030877236 0.04301997 0.12236865 0.0027012546 0.124262325 -0.05722991 0.10671456
0.049054492 -0.05639701 0.115743555 0.07056374 0.0073495233 0.09062949 0.030549023 0.122626424
0.09891977 0.109382205 0.011395555 -0.03828158 0.090002835 0.060007244 0.022995986 0.12740767
-0.026750527 0.0055692946 0.098979674 0.026840318 0.12461151 -0.017234217 0.03577779 0.074311644
-0.009134825 0.13241442 0.04917813 0.09143089 0.05189195 0.0973592 0.01661971 0.016899655
0.11752586 0.0026278554 -0.019442061 0.09808444 0.114883274 0.11324629 -0.0053130207 0.056326468
0.019564094 -0.04100797 0.102412194 -0.059150293 0.11612509 0.10250192 0.09597825 0.11379503

network.2.weight f4 [64, 128]
00000000: 80fa 7b3c 4b1d 863d f811 d5bc 6d22 dd3d
00000010: 8514 44bc defb 6db9 2ada c53d 92e9 fcbb
00000020: 2dc2 c33d cab4 2fbd 54c5 873d 79eb f03d
00000030: ee1d e43d 1010 69bd 6584 cb3c 0a95 6bbd
00000040: e4fe a5bd abd4 623d b61a e33d 988d 39bd
00000050: e826 a2bd 467d cb3d 123b d5bb ddc1 783d
00000060: cdf1 07bd e9ce 9b3c bf08 a2bd 5bb1 853d
00000070: 4b12 6f3d 9260 d8bb b3e5 0f3d 00eb 5bbd
00000080: fad3 ce3b 1548 d53c e3d1 19bb 1ef3 aa3d
00000090: 5634 b0bd b7f3 393c 0e98 c93c 4d2b 97bc
000000a0: 6d30 c1bc d3f2 803d 118d a73d ee6f 30bc
000000b0: b7b1 bebc 7d23 9d3d 54e9 bd3c 3d12 f2bc
000000c0: 0d53 7e3d 1097 b33d 78a7 fb3d 3d5f ce3d
000000d0: 5d32 a53d f14c 31bd ffe5 cabb ca7f 6f3d
000000e0: 02ce 5cbd 5584 8abd 77be 1fbd bcb3 143d
000000f0: b359 623d 9968 163c 05b6 503d 66a7 31bd
00000100: 69c0 2bbd ec38 bb3c 3e66 f13d 9c39 c63d
00000110: e68a 2fbb 5697 e13c 236e b6ba 5e05 5f3d
00000120: 8ec7 44bd bf3f 3abd d0c0 d83d 0934 163c
00000130: 5a98 933d 3bd4 be3d 126c d23d 7864 ac3d
00000140: f07a ccbd e4c7 a33c 4fe5 363c d128 80bd
00000150: 9e5c 053d cbe6 1f3d 866c 153d e0cd b93d
00000160: cb75 f23c f72b d13d 8d64 a93d b023 86bc
00000170: 6eca 90bd bd41 783d 0a8f 6a3d 360f 9e3c
00000180: b8da 923d cefe 5ebd cd5a bbbd e20b 1a3d
00000190: 6fea 023c 940e a23d ca4e d03c e503 123d
000001a0: c60f ddbc 99c7 c33d 9b4a 063e 4fd1 973d
000001b0: bbe3 d23d 813e 3f3d fb31 303d 1c8e 913d
000001c0: 7a5a 403d c6ce 583d c87c 9e3d 4019 043c
000001d0: 3659 38bd af1e 40bc 3427 c1bd 1904 563d
000001e0: b59f 14bd fe88 a93d 2d4a 403c 0b3c a5ba
000001f0: 3fd7 d33d ecb9 943d f1b1 ac3d 4004 f43c
00000200: c0bc b53d 1f7e 7d3d 03cd 08ba eba8 0dbd
00000210: b64e 233d 99c7 fbbc f178 923d d729 6dbd
00000220: 9287 963d c2cd bb3d 1dc0 853d 4d65 e93d
00000230: 8a94 ef3d a32a 5c3d 7660 aa3d 5a82 a33c
00000240: f5bc 433d ac46 a6b8 4795 8b3c 6800 783d
00000250: e03b 0abd 5e99 21bd f275 a33d 8391 783d
00000260: 6d20 0e3d aae1 1cbd ca87 16bd 7853 7b3b
00000270: 1aed 433d 0971 3ebc 93fb 3f3d 8f5f 11bc
00000280: 8069 603d 56ae adbc 24d3 a03d ce6e 473d
00000290: e562 8fbc ad9e 6abb e8aa cf3c ccaa 77bd
000002a0: 6a35 f0bc 9c6b 3cbd 5d3e 96bd 2f48 df3c
000002b0: cb3f 06bd 0169 d73d fe5e acbb bce3 e43d
000002c0: be61 e93d ab29 53bc e061 cd3d 1c13 813d
000002d0: f3e8 8dbc 9571 c13d 2cd1 923d 09f8 f73c
000002e0: de0c 3dbd 4617 3e3d c66a 7bbd 382d a13d
000002f0: 9f30 b03d 4a86 de3c 2911 a83d 9212 2abd
00000300: 1914 c93d 2c75 583d eafb ad3d 4339 14bc
00000310: 20d3 873d 9a9e ddbd 51e9 933c 9f99 bd3d
00000320: d527 873d 0f41 b1bd e141 51bd 1a2f 8ebd
00000330: 49a3 cb3d 4714 9b3d b444 953d 16bd 9a3d
00000340: e8b4 3e3d 3e5f db3c fd52 023e bda4 3dbc
00000350: d215 81bc 09a7 903c e58d 24bc d75a 613c
00000360: d554 483d 0e58 d13b 7649 bbbc c662 dbba
00000370: 77eb 403b 9750 0dbd 9c40 193c 4edc a83d
00000380: b981 353d 0f1f 27bd 5984 263d a43b ec3d
00000390: a4b2 de3d 80e3 203c 7857 a4bd a168 04bd
000003a0: 6d93 f5bb ce1d 693d ca01 1bbc 2c77 ee3d
000003b0: 5522 6a3d 5134 aa3d d2bb ee3d c6d7 c93d
000003c0: f8f8 d03d aad2 7e3d d0fc 9bbc 34a9 513d
000003d0: 92e0 893c c0fb 8f3d ca8e 42bd eefa 4f3d
000003e0: 832d b2bd 7aca 9a3d 3cea 5f3d f454 223d
000003f0: f557 83bc fda6 04bc 1120 e33c ef43 453d
0.015379548 0.06548556 -0.026009545 0.10797582 -0.011967783 -0.00022695909 0.09660752 -0.0077182734
0.095585205 -0.042897023 0.06629434 0.11763663 0.11138521 -0.056900084 0.024843404 -0.05751518
-0.08105257 0.055378597 0.11089079 -0.04530105 -0.07917577 0.099360034 -0.006507286 0.060731757
-0.033189584 0.01901956 -0.079118244 0.065279685 0.058367055 -0.006603309 0.035131168 -0.05369091
0.0063118907 0.026035348 -0.002347105 0.08347152 -0.08603732 0.01134961 0.024608638 -0.018453265
-0.023582662 0.06296315 0.08181203 -0.010768874 -0.0232781 0.076727845 0.023182549 -0.029549712
0.062090922 0.08769047 0.122878015 0.10076759 0.08066247 -0.043286268 -0.0061919685 0.05847148
-0.0539074 -0.067635216 -0.039 0.03630422 0.055261325 0.009180211 0.050954837 -0.043372534
-0.041931543 0.02285429 0.11787079 0.09678957 -0.002678567 0.027537983 -0.0013918321 0.054448478
-0.048041873 -0.04547095 0.10583651 0.00916768 0.07206793 0.093178235 0.10274519 0.084176004
-0.09984386 0.019992776 0.01116307 -0.06257785 0.03255903 0.03903846 0.03648045 0.09072471
0.029597184 0.10213464 0.08271132 -0.016374439 -0.070698604 0.060609568 0.05726532 0.019294363
0.071706235 -0.05444222 -0.09148178 0.03760899 0.007990464 0.07912937 0.025428195 0.035648245
-0.02698506 0.095595546 0.13114397 0.07412969 0.102973424 0.046690468 0.043016415 0.07107183
0.046961285 0.05293157 0.07738644 0.008062661 -0.045006953 -0.011726066 -0.094313055 0.05225
-0.03628512 0.08278082 0.011736435 -0.0012606395 0.10343789 0.07262024 0.08432377 0.029787183
0.08873892 0.061887857 -0.00052185374 -0.03458492 0.039869986 -0.030734824 0.07151974 -0.05790123
0.07350077 0.091701046 0.06530783 0.11396275 0.116982535 0.0537516 0.0831918 0.019959617
0.047787625 -7.9286605e-05 0.017038954 0.060547262 -0.033748507 -0.039452903 0.07981481 0.060685646
0.034698892 -0.038301148 -0.036750592 0.0038349312 0.04783354 -0.011623629 0.04687078 -0.008872881
0.054788113 -0.021201294 0.07852772 0.048689656 -0.017503211 -0.0035800145 0.02535005 -0.06046562
-0.029322345 -0.04600106 -0.073361136 0.0272561 -0.03277568 0.10518075 -0.0052603474 0.111762494
0.11395596 -0.012888352 0.10028434 0.06302473 -0.017322993 0.09445492 0.071688026 0.03026964
-0.04615485 0.046408914 -0.061381124 0.07869953 0.08603024 0.027163643 0.08206398 -0.041521616
0.098182864 0.05284612 0.084953144 -0.009046855 0.06632066 -0.108212665 0.01805559 0.092578165
0.06599394 -0.08654987 -0.051088218 -0.06942578 0.099432535 0.07572227 0.07288495 0.075555965
0.046559244 0.026778813 0.1272697 -0.011574921 -0.015757475 0.017657774 -0.010043596 0.013754568
0.048909027 0.0063886708 -0.022862177 -0.0016737811 0.0029437223 -0.034500685 0.009353783 0.08245145
0.044313166 -0.040801104 0.04065356 0.11534813 0.10873917 0.009819865 -0.08024496 -0.032326344
-0.007494381 0.05691319 -0.009460876 0.11643824 0.057161648 0.0831076 0.11656918 0.09855609
0.10203737 0.062212624 -0.019041449 0.051186755 0.016830716 0.070304394 -0.047499456 0.050776415
-0.08700087 0.075581506 0.054666743 0.0396318 -0.016033152 -0.008096454 0.027725251 0.04816049

network.2.bias f4 [64]
00000000: be81 723d caf6 a13d 17f9 1b3b 6993 793d
00000010: f7c6 a03d f9de 963c 08ed 20bd fe81 a93d
00000020: 2225 a43a 5f33 d3bb 6192 393d 7025 973d
00000030: a3b4 88bd 93a1 32bb f06f 6e3d b1c0 973d
00000040: 9120 c13d a9c7 b3bc a479 92bc b580 c13c
00000050: 730c 563d 2b19 7c3d 2806 c03d c6cc 84bd
00000060: 2d7a 1d3a fb2c 9dbc 9737 5b3d 4017 65bd
00000070: 2e06 d3bb 14dd 293b ebe1 5b3d 9121 9f3d
00000080: ce3a 873d 17ef 103d a3ed 09bd 4923 2a3b
00000090: ef2a bf3d 0613 603d a805 21bd c5a7 b63d
000000a0: b6c6 863d 4a6f 933d 1624 10bd 325a 07bd
000000b0: 08fe d33d 9573 77bc a9e4 9bbc 906d 793c
000000c0: b26a 263c 20bc c53d 6ce8 fb3d 72f7 b8bd
000000d0: f042 4f3d 2137 1e3d 55e4 d73d 80c5 963d
000000e0: 4409 a03c d2e3 e0bb 4476 343d 2d7c 093d
000000f0: af5a 0abc 8874 ac3d ea33 5cbd efdc b93c
0.059205763 0.079083994 0.0023799592 0.060931597 0.078504495 0.018416869 -0.03928855 0.08276747
0.0012523273 -0.006445333 0.045305613 0.073801875 -0.06675079 -0.002725695 0.05821222 0.074098
0.0943004 -0.021945791 -0.017880268 0.023620943 0.052257966 0.06154744 0.09376174 -0.0648437
0.00060072803 -0.019186487 0.05351981 -0.055930376 -0.0064399457 0.0025919126 0.05368225 0.07770074
0.06603013 0.035384264 -0.033673894 0.0025960973 0.09334361 0.054705642 -0.039312035 0.08918718
0.0658087 0.07198961 -0.035190664 -0.033045 0.10351187 -0.0151032405 -0.019029932 0.015223876
0.010157274 0.096550226 0.1230019 -0.090315714 0.050600946 0.038626794 0.10541598 0.07361889
0.019535668 -0.006863096 0.0440581 0.03356569 -0.008444472 0.08420664 -0.053760447 0.022688357

network.4.weight f4 [16, 64]
00000000: bc9d eebd b480 c63d 2d4c 143d 6070 94bd
00000010: 0eb5 a13d 10a9 34bd 7204 8fbd e4f3 ee3d
00000020: 4d13 403d 3bd6 263d b551 833c 0e9e ae3d
00000030: 109f 093c 8455 a0bd 5d03 2ebd 6eab dcbc
00000040: 940a 7dbc 9138 f2bd 2828 d93c f10d c33d
00000050: 0ec1 dabd 8c7f 443d cbe2 aa3c bcf4 bfbd
00000060: 818d 80bd a085 a23d 392a f1bd 60d9 48bd
00000070: 2c01 12bd ccf3 68bd f362 e1bd fb34 4c3d
00000080: 8c33 adbd 5c76 c1bd 28a0 9ebc fdc2 823d
00000090: 829d d6bd 3f19 bbbd 837b b2bd 75d4 a6bd
000000a0: 4ec7 a13d ca2d eebd 7adc 293d 248a 2bbd
000000b0: 0a3f f2bd 72d4 13bb 02b6 a63d 9d7a 97bd
000000c0: 93e6 d9bd 4975 c83d f8f2 7b3d 3644 cabd
000000d0: 6149 223c a086 04bc 1683 9ebd 666d eabc
000000e0: 36ff 4a3d 9da6 903d 30d2 fa3c 79b0 fabd
000000f0: f537 ecbd 8a35 b7bd c4a0 ab3d 0493 8fbd
00000100: 3e4f 1c3e 5914 f23c b506 433e 1e69 233e
00000110: 8bc3 ad3c 8d1a 4fbc 51b5 d6bd 36a4 373d
00000120: 61d3 8e3d 9095 7e3d 7c79 803b b94c 17be
00000130: 5e19 81bd 439c e5bd 55e9 a93d 17c9 403c
00000140: ff37 d13d 4782 c7bc ad0f f9bc d9d6 283d
00000150: cef2 ecbd c4ec b9bd 85ad 0a3e f1e7 a83c
00000160: c9b3 e9bd a6e9 2a3e 6472 1c3d 3254 bd3b
00000170: ce58 13be 8908 aabd 296f d6bd 2c5b c63d
00000180: 1ca1 333e 3216 d4bc a38e 7c3d 9cf4 2c3e
00000190: 54ed 0c3e 75ef d73d 1669 0f3e 75ab ad3d
000001a0: 69d5 dcbc 7ed9 e53d b40b e93c 044c 463d
000001b0: da6c 5d3d 9c9d c93c d871 f63d fef3 993d
000001c0: 6fe6 a6bc ccdd 183e a8bf 8d3d 00ec e0bd
000001d0: bac9 4cbd fb10 af3d 4756 32bd 1714 f73d
000001e0: 1a99 a43d 4b35 043e 12ef 933d d043 013e
000001f0: 7703 d4bd 16c0 813d e788 07be dc3e 013d
00000200: 73fd 0b3e 33b2 98bc 502e a63d 489a 59bd
00000210: 6a46 5f3d 8620 5b3d 3026 6dbd 31d5 e43d
00000220: b806 c83d 633a 123e 92d4 ed3d 8cf5 e9bc
00000230: ccfd 4abd 4696 c1bd 1087 073e 26ab bfbb
00000240: 93e9 083d af97 a6bd c1be ab3d 0c49 0a3e
00000250: 2f88 0f3d f218 11be 9bbd 163e c734 dbbd
00000260: 865f dd3c 4ff6 2a3e 903d 1b3e 8433 e83c
00000270: 08a7 a53d 6e12 a6bd a427 8fbd 391e debc
00000280: a39e 273e aa29 82bd 2a1f 1dbe 67b5 9c3d
00000290: 26df c93d 85f6 05bd 98d1 c13d 55db 4bbd
000002a0: bc02 e4bd 6670 bb39 d75e 2fbd 98f0 09bd
000002b0: 7b4f 8a3d 6b18 a3bd 87bf 81bd e1ff 133e
000002c0: 9146 b83d 71a9 9a3d 00b4 ae3d 4421 e13c
000002d0: 88ab 97bd 60df 973d 3a3f 203e 5fad 6f3d
000002e0: bbf5 c73d d7dd d13b eba5 313e df2c ef3c
000002f0: 0b0e a5bd 7d32 21be 9238 27be e424 2bbd
00000300: 9a9c 223e 3d03 5d3c 254f 193e 6e6a c73d
00000310: 912e cd3d 931c 82bd be97 91bc d9ce 163e
00000320: aa47 20bd ba37 debc d03e e63c e0b4 903d
00000330: 70d5 d1bc 0794 57bd 76bc 433d b2ea c9bc
00000340: bb9b 8fbc 9bd9 53bd 3e47 293e 12b2 c13d
00000350: 2666 803d bbfc 03be b48f 913c c1eb d1bd
00000360: 61bf fe3b 0905 d8bc e550 efbc 413d afbd
00000370: 0182 9dbc 91bf a03d dde5 9abb 300c 0b3d
00000380: 43fe cb3d 10e8 d3bd 5805 d1bd 1ab7 f43d
00000390: 347f 46bd 5377 1c3e a1bf 19bd 00ce 203e
000003a0: 2f1d ccbd 2f68 9c3d 343d b93d d098 7cbd
000003b0: b31e da3d a8e7 dfbc d07b a93d 2fbc 9dbd
000003c0: 63bd 2cbd c976 993c ac98 923d 5d4b 24bb
000003d0: b639 233e 18f3 063e ed85 2dbd f33f 9e3d
000003e0: 087a 143e a795 dd3d 5a97 30bd 11f4 1f3e
000003f0: 5497 993d e348 05be 3f09 0fbe 0cd0 8d3b
-0.11651179 0.09692517 0.03620546 -0.07247996 0.078958616 -0.044106543 -0.0698327 0.11667612
0.046893407 0.04073165 0.016030172 0.0852624 0.00839974 -0.07828811 -0.042483676 -0.026937213
-0.015444417 -0.118271954 0.026508406 0.095241435 -0.106813535 0.0479732 0.020860096 -0.09372851
-0.0627699 0.07935643 -0.117756315 -0.04903543 -0.03564565 -0.056873128 -0.11005201 0.049855214
-0.084570974 -0.094464034 -0.019363478 0.06384847 -0.10479261 -0.09135675 -0.08714964 -0.08145992
0.078993425 -0.11629827 0.04147003 -0.041879788 -0.1182843 -0.0022557047 0.08140184 -0.073964335
-0.10639682 0.09787995 0.06151101 -0.098762915 0.00990519 -0.008088738 -0.077398464 -0.028616618
0.049559794 0.07063029 0.030617803 -0.12240691 -0.115341105 -0.08945759 0.08380273 -0.07010463
0.15264603 0.029550718 0.19045527 0.15958068 0.021211406 -0.012640608 -0.10483802 0.044834338
0.06973911 0.062154353 0.003920732 -0.14775361 -0.063036665 -0.11211445 0.08296458 0.011766694
0.102157585 -0.024354113 -0.030402983 0.04122052 -0.11569749 -0.090783626 0.13542755 0.02061841
-0.114112444 0.16690692 0.03819503 0.005777859 -0.14389345 -0.08302409 -0.10470421 0.096853584
0.17541927 -0.02588949 0.061659466 0.16890186 0.13762408 0.1054372 0.14004931 0.084799685
-0.02695723 0.11223124 0.028447963 0.048412338 0.054058887 0.024611287 0.12033433 0.07517241
-0.020373551 0.14928359 0.06921321 -0.109825134 -0.04999707 0.08548161 -0.04353931 0.12064379
0.08037014 0.12910955 0.072233334 0.12623525 -0.10352223 0.063354656 -0.13235818 0.031554088
0.13670902 -0.01863966 0.08114302 -0.05312565 0.05451051 0.053497814 -0.057897747 0.111734755
0.097669065 0.14280085 0.1161281 -0.028559469 -0.049558446 -0.094524905 0.13235116 -0.00584926
0.03342588 -0.081344 0.08385993 0.13504428 0.035041984 -0.14169672 0.14720766 -0.10703426
0.027023088 0.16695522 0.15160203 0.028344877 0.08088499 -0.08108984 -0.06989983 -0.02711402
0.16369109 -0.06355603 -0.1534392 0.07651787 0.09857015 -0.032705802 0.09463805 -0.04976972
-0.11133334 0.00035751163 -0.042815056 -0.033676714 0.06753441 -0.07963642 -0.06335359 0.14453079
0.089978345 0.0755185 0.08530426 0.027481683 -0.07405764 0.07415652 0.15649119 0.05851495
0.09763666 0.006404619 0.17348449 0.0291962 -0.08059319 -0.15741916 -0.16330174 -0.04178323
0.15880051 0.013489542 0.14971597 0.09737097 0.100186475 -0.06353106 -0.017772552 0.14727344
-0.039130844 -0.027126182 0.028106123 0.07065749 -0.02561447 -0.052631404 0.047787152 -0.024648044
-0.017530313 -0.051721197 0.16531083 0.09457792 0.06269483 -0.12889378 0.017768718 -0.102500446
0.007774279 -0.026369588 -0.029213378 -0.08556605 -0.01922703 0.078490384 -0.004727109 0.03394717
0.09960606 -0.10346997 -0.10206097 0.11948986 -0.048461154 0.15279894 -0.037536267 0.15703583
-0.09966504 0.07637059 0.09044877 -0.06166917 0.10650387 -0.027332142 0.082755685 -0.07701909
-0.0421728 0.018733399 0.07158026 -0.0025069334 0.15939984 0.1317867 -0.04236405 0.07727041
0.14499676 0.108195595 -0.04311309 0.15620448 0.07499567 -0.13016085 -0.13968371 0.0043277796

network.4.bias f4 [16]
00000000: 70e5 40bd 1327 013e 99de b63d 7ae0 f13d
00000010: 2c17 ec3d fb72 e7bc 71d9 f2bc 2460 b93d
00000020: 3bd9 e93d 5799 10bd 0972 31bd 878a 25bd
00000030: 14ce 9cbc 59dd fc3d 1812 92bd 5738 cebc
-0.04709381 0.12612562 0.08929176 0.11810394 0.11527857 -0.02825307 -0.0296447 0.090515405
0.114183865 -0.035302486 -0.043321643 -0.040415313 -0.019141234 0.12346906 -0.07132357 -0.02517335

network.6.weight f4 [2, 16]
00000000: d82c b83c 3106 913d 896a 97be bd4b 1bbe
00000010: 7945 573c ca71 4bbd 9b43 053d 82c0 1dbd
00000020: 3509 6dbe 9c45 9abd 10b2 533e e383 cc3d
00000030: 190b 923e c306 5f3e 5057 693e 0f9d 91bd
00000040: c685 753e 23e7 973e 3e3e da3d 6a1e 893d
00000050: f715 083e 250d 2c3e 41f7 9dbe 19aa 1cbe
00000060: 4e10 233e 56c7 38be 675e 033e 561c fdbb
00000070: 4b2f df3b ed30 d9bd 4e93 10be 1f0d 773e
0.02248232 0.07081259 -0.29573467 -0.1516561 0.013139122 -0.049669065 0.032535177 -0.038513668
-0.23148043 -0.07532808 0.20673394 0.09986093 0.28524092 0.21779923 0.22787213 -0.07110035
0.23976812 0.2966853 0.10656403 0.06695254 0.13289629 0.16801889 -0.30852702 -0.15299262
0.15924188 -0.1804479 0.1282898 -0.007724325 0.0068110577 -0.10605035 -0.14118692 0.24126099

network.6.bias f4 [2]
00000000: 7b7c ea3b 265a 843e
0.0071559525 0.25850028
