models/default/rs/adam_epochs10_lr0.0001_batch128_dropout0/model_647.pth (torch, 86819 bytes, 8 tensors)

network.0.weight f4 [128, 90]
-0.07038826 0.007867303 -0.032048766 -0.07088579 -0.00883751 0.058143687 0.06990167 -0.058533046
-0.095174745 -0.074883625 -0.103648484 0.045384884 0.08655217 0.042228147 0.061661545 -0.06499407
-0.028060228 0.12329124 -0.1308231 -0.119846694 0.04389414 -0.06719885 0.03567823 0.09008242
-0.010049571 0.045799427 -0.0041146944 0.061382588 0.14175884 0.0017004509 0.009309093 0.006884123
-0.11906253 -0.126366 -0.0043409807 -0.10165474 0.008557304 -0.09245917 0.051214408 0.11238755
-0.07262626 -0.10356347 0.07985061 -0.062389992 0.02190509 -0.11524836 0.023226349 -0.07420686
-0.09777287 0.117587134 -0.043717828 -0.0075965715 -0.054228447 -0.06830118 -0.12568147 -0.13959014
-0.025903102 0.007315275 0.08242396 -0.012183972 0.019811366 0.031389963 -0.005087031 -0.094656825
0.08303338 -0.04388168 0.10131339 -0.037414994 -0.05491285 -0.036713127 0.06088925 0.055077463
-0.07765692 -0.08562507 0.004256704 -0.038488306 -0.03788553 -0.10706096 0.075623915 -0.069221795
-0.11236195 -0.012314632 0.075737104 -0.06532908 -0.027695013 -0.014174049 -0.08100959 0.020317184
-0.13760364 0.046660777 0.13158748 0.09025377 -0.00255513 -0.052007906 -0.03077693 -0.059008952
-0.058489233 -0.08695351 -0.009506122 0.053913444 0.037841313 -0.058547076 0.12831424 0.010767582
0.0016092067 -0.063431755 0.051397767 -0.08054847 -0.106931165 -0.14571095 0.11470437 0.08434362
0.078428276 -0.018167803 -0.068495095 0.08729355 0.053823832 -0.0055603846 -0.057901733 0.067227505
0.006534981 -0.047873594 -0.09924806 0.07305936 -0.013642193 -0.098863035 0.04074508 0.081414066
0.086923726 0.019618705 0.045868505 -0.04306198 -0.13092656 -0.09945892 -0.035150696 0.032260083
0.065807976 0.0007115428 0.06438841 0.026673675 -0.10212939 0.053494982 -0.047726594 0.022497633
0.092776336 -0.08643464 0.0015394508 0.03321474 0.0107860435 0.07586274 0.017925194 -0.05901651
-0.037627563 -0.04818663 -0.06350113 -0.07449773 0.06025435 -0.1176849 0.031737346 -0.07834144
0.023201436 0.10809173 -0.104527816 -0.070594974 -0.047704186 -0.07289558 -0.13245472 -0.07061045
-0.12271939 -0.14554702 0.06256968 -0.009480393 0.06784832 -0.07604317 -0.10186548 0.0072699157
-0.0040578144 0.019984676 0.032356143 -0.10413778 0.11996214 -0.07231697 -0.04870962 0.09356345
-0.019380921 -0.06790145 -0.0075382176 -0.061605357 -0.059230637 0.059430744 0.07316222 0.066988386
0.01634114 -0.06609722 -0.07430759 -0.07043562 -0.0028233565 -0.030977627 0.04194417 0.03403892
-0.11648038 -0.07169539 -0.0972864 0.0557573 0.07999544 -0.073673144 -0.062595814 0.008914478
0.1412765 -0.051287178 -0.07694849 0.0069121732 0.02378538 -0.016736628 -0.09546597 -0.05933214
-0.11091565 0.06541149 0.12692621 0.033816773 0.09891262 -0.06735003 -0.11636481 0.006142209
-0.04346717 0.08288882 0.039191406 -0.009987435 -0.096332096 0.11426427 0.11246459 -0.016307795
0.0021878139 -0.100770995 0.084629975 0.04928478 -0.08572719 -0.09252717 0.028184133 -0.11948329
0.118505396 0.026059551 -0.11103876 -0.09358544 0.00026784715 0.0052723694 0.06716587 0.048431277
-0.10230792 -0.06667256 -0.048910245 -0.08160435 0.093111664 0.009753939 -0.09295978 -0.04751108
00000000: b827 90bd dce5 003c 9145 03bd 922c 91bd
00000010: 34cb 10bc 1328 6e3d 9b28 8f3d 59c0 6fbd
00000020: faea c2bd 965c 99bd a845 d4bd 80e5 393d
00000030: 4442 b13d 6cf7 2c3d d190 7c3d 9c1b 85bd
00000040: 90de e5bc 1e80 fc3d 7ef6 05be 2f72 f5bd
00000050: 57ca 333d 8d9f 89bd 5623 123d 227d b83d
00000060: f5a6 24bc 2e98 3b3d 8fd4 86bb 4f6c 7b3d
00000070: 3b29 113e aae1 de3a 2a85 183c 3694 e13b
00000080: 0ed7 f3bd 1766 01be c93e 8ebb 5c30 d0bd
00000090: ef33 0c3c 3c5b bdbd 33c6 513d 722b e63d
000000a0: 14bd 94bd 1619 d4bd b788 a33d a68c 7fbd
000000b0: 4e72 b33c 5507 ecbd 2f45 be3c c4f9 97bd
000000c0: 243d c8bd 86d1 f03d 7711 33bd a9ec f8bb
000000d0: a61e 5ebd 7de1 8bbd a5b2 00be b8f0 0ebe
000000e0: be32 d4bc f9b4 ef3b e5cd a83d 489f 47bc
000000f0: 724b a23c c392 003d 1cb1 a6bb 70db c1bd
00000100: 680d aa3d 47bd 33bd 657d cf3d 7740 19bd
00000110: 4cec 60bd 8160 16bd 0267 793d e898 613d
00000120: 970a 9fbd 325c afbd d27b 8b3b eaa5 1dbd
00000130: dc2d 1bbd c742 dbbd b6e0 9a3d 28c4 8dbd
00000140: 061e e6bd 4fc3 49bc 0e1c 9b3d 41cb 85bd
00000150: a7e0 e2bc 453a 68bc 5be8 a5bd 3970 a63c
00000160: f8e7 0cbe 5f1f 3f3d debe 063e f8d6 b83d
00000170: f873 27bb 3e06 55bd e61f fcbc 5fb3 71bd
00000180: 6892 6fbd af14 b2bd 91bf 1bbc 58d4 5c3d
00000190: 7eff 1a3d 0fcf 6fbd cf64 033e 836a 303c
000001a0: 04ec d23a 82e8 81bd 7786 523d 99f6 a4bd
000001b0: bafe dabd 4035 15be 20ea ea3d 59bc ac3d
000001c0: 019f a03d a5d4 94bc 2847 8cbd f6c6 b23d
000001d0: 6176 5c3d e333 b6bb 5e2a 6dbd 93ae 893d
000001e0: 6523 d63b 1a17 44bd 9142 cbbd 25a0 953d
000001f0: 8183 5fbc b478 cabd 50e4 263d 6bbc a63d
00000200: 1105 b23d 68b7 a03c 9de0 3b3d c261 30bd
00000210: 9d11 06be 1eb1 cbbd 2dfa 0fbd 2623 043d
00000220: 55c6 863d d486 3a3a 12de 833d c082 da3c
00000230: 3729 d1bd 8e1d 5b3d f67c 43bd f54c b83c
00000240: 8501 be3d a504 b1bd 66c7 c93a 2e0c 083d
00000250: f2b7 303c ed5d 9b3d dbd7 923c 4cbb 71bd
00000260: 5c1f 1abd 585f 45bd e10c 82bd 4492 98bd
00000270: 44cd 763d c804 f1bd 05ff 013d 7a71 a0bd
00000280: f010 be3c 325f dd3d ae12 d6bd 1994 90bd
00000290: 7765 43bd 474a 95bd 36a2 07be 369c 90bd
000002a0: 4e54 fbbd 470a 15be 8824 803d a653 1bbc
000002b0: 0ff4 8a3d 86bc 9bbd d99e d0bd 7938 ee3b
000002c0: 6af7 84bb e7b6 a33c e087 043d 3046 d5bd
000002d0: b6ae f53d eb1a 94bd bd83 47bd 329e bf3d
000002e0: bdc4 9ebc ea0f 8bbd 2703 f7bb e655 7cbd
000002f0: d39b 72bd a76d 733d 13d6 953d 3531 893d
00000300: dbdd 853c fb5d 87bd 942e 98bd 8d40 90bd
00000310: 1008 39bb cbc4 fdbc a6cd 2b3d 656c 0b3d
00000320: 448d eebd 08d5 92bd 183e c7bd c461 643d
00000330: a6d4 a33d f2e1 96bd 3c32 80bd 080e 123c
00000340: c9aa 103e 8112 52bd 2c97 9dbd 837f e23b
00000350: 8fd9 c23c 411b 89bc aa83 c3bd 4206 73bd
00000360: bf27 e3bd 76f6 853d f2f8 013e 7583 0a3d
00000370: b392 ca3d d0ee 89bd ac50 eebd 9544 c93b
00000380: a20a 32bd 9dc1 a93d 2b87 203d 57a2 23bc
00000390: c349 c5bd 6303 ea3d d653 e63d ed97 85bc
000003a0: 6d61 0f3b 0661 cebd 7b52 ad3d d6de 493d
000003b0: bd91 afbd e37e bdbd 69e2 e63c a8b3 f4bd
000003c0: f5b2 f23d d77a d53c 4a68 e3bd b9a9 bfbd
000003d0: d66d 8c39 d7c3 ac3b 428e 893d e05f 463d
000003e0: d186 d1bd a08b 88bd 1c56 48bd 2e20 a7bd
000003f0: 54b1 be3d fcce 1f3c b261 bebd fa9a 42bd

network.0.bias f4 [128]
-0.015998494 -0.0028691345 0.05397689 0.0125075625 -0.029718805 0.0032729055 0.13567911 -0.016190138
0.13677078 0.11664029 -0.02051546 0.04616638 0.12174546 -0.012727207 0.07297022 0.11484609
0.13154279 0.07338147 0.023166444 -0.02439558 0.013944532 0.016865233 0.009853777 0.02184166
-0.010252728 0.14812037 0.08125379 0.12592752 -0.022480523 0.0007134998 -0.007205179 0.08509979
0.12447619 0.10804515 0.11151076 0.07050243 0.14254887 -0.008038607 0.056837887 0.08304384
-0.024489967 0.13513412 0.09257774 0.12205299 0.12030455 0.052425347 -0.015527815 -0.043529175
0.14163302 -0.004294232 0.11963197 0.09200649 0.09900685 -0.038818717 0.121522546 0.10722456
0.16252904 0.02351619 0.07601644 -0.00023317055 -0.036595125 -0.032448657 0.14185973 -0.04660405
-0.019445168 0.14691587 0.033799335 0.14662597 0.024284286 0.07713107 0.010131386 -0.012769174
0.026775032 0.025549568 0.13481957 0.12759237 0.010730062 -0.028074391 0.11038805 0.093270116
0.0905654 0.078576736 -0.0073201456 0.08219172 0.039451733 -0.05113843 0.07089179 0.029904589
-0.0580106 0.027157038 0.12467981 -0.033044983 -0.045454506 -0.0069180583 0.13365287 -0.004314824
0.16618939 0.013609524 0.04442718 0.080563955 0.08955303 0.049245995 0.13135749 0.019728169
0.15635455 0.05946402 0.11057404 0.12299579 0.03305311 0.108635336 0.16455917 0.104299664
0.12484725 0.07199052 -0.023847789 -0.01806889 0.08284234 0.08244299 0.13937312 0.071062535
0.14722753 -0.05221373 0.0022655965 0.019784126 -0.024566457 0.13356255 0.03782553 0.0068091955
00000000: 460f 83bc 1708 3cbb df16 5d3d 85ec 4c3c
00000010: da74 f3bc 3e7e 563b 77ef 0a3e 2ea1 84bc
00000020: a40d 0c3e 1be1 ee3d 0a10 a8bc f518 3d3d
00000030: af55 f93d c685 50bc 6971 953d 6d34 eb3d
00000040: 27b3 063e 0649 963d 8ec7 bd3c 3dd9 c7bc
00000050: 9b77 643c f528 8a3c bc71 213c 48ed b23c
00000060: 0ffb 27bc deac 173e 6368 a63d 25f3 003e
00000070: 1329 b8bc 290a 3b3a 6c19 ecbb cc48 ae3d
00000080: 5fed fe3d c746 dd3d c15f e43d 9463 903d
00000090: 55f8 113e 5db4 03bc d8ce 683d e412 aa3d
000000a0: 2f9f c8bc 9960 0a3e 6699 bd3d ebf6 f93d
000000b0: 3b62 f63d f6bb 563d 6068 7ebc a64b 32bd
000000c0: 3f08 113e a1b6 8cbb 9b01 f53d e66d bc3d
000000d0: 1ac4 ca3d 6000 1fbd d0e0 f83d 8d98 db3d
000000e0: 036e 263e 06a5 c03c 82ae 9b3d 3e7f 74b9
000000f0: c5e4 15bd e2e8 04bd ad43 113e e3e3 3ebd
00000100: 794b 9fbc 1d71 163e 2c71 0a3d 1e25 163e
00000110: d7ef c63c e5f6 9d3d 1dfe 253c cc35 51bc
00000120: 5057 db3c 544d d13c 240e 0a3e 93a7 023e
00000130: 24cd 2f3c 44fc e5bc 2113 e23d 6704 bf3d
00000140: 5a7a b93d d7ec a03d d5dd efbb 2254 a83d
00000150: 2498 213d 8876 51bd b72f 913d 78fa f43c
00000160: 869c 6dbd 7078 de3c 2158 ff3d 2d5a 07bd
00000170: 812e 3abd e1b0 e2bb 4cdc 083e 5e63 8dbb
00000180: 8d2d 2a3e 7bfa 5e3c 46f9 353d b7fe a43d
00000190: 9467 b73d 2bb6 493d 9482 063e f89c a13c
000001a0: 681b 203e 8b90 733d a474 e23d 37e5 fb3d
000001b0: b362 073d 347c de3d 3382 283e 109b d53d
000001c0: eaaf ff3d c46f 933d 705c c3bc 3505 94bc
000001d0: 3fa9 a93d dfd7 a83d d4b7 0e3e 3c89 913d
000001e0: d0c2 163e 10de 55bd 677a 143b 5212 a23c
000001f0: 983f c9bc 9fc4 083e f1ee 1a3d ac1f df3b

network.2.weight f4 [64, 128]
0.053922135 -0.021633327 -0.0022572638 0.005666806 -0.072827145 -0.028583659 -0.054799594 -0.09415913
-0.030222366 -0.07773988 -0.047708526 0.073929854 0.009810504 -0.085768566 0.08528565 -0.08259095
0.020188788 -0.032860465 -0.06886654 0.07221604 -0.026195787 -0.043968264 -0.016359951 0.06738791
-0.008846941 -0.008681328 0.040169008 -0.08584707 0.043158107 0.015747357 0.035958644 -0.023951456
-0.05199314 0.016691767 -0.025877332 -0.07692323 -0.012417693 0.076848224 0.056306303 0.020208362
-0.098577976 0.08746689 -0.05024795 -0.037755836 0.016148249 0.06252383 -0.084178135 -0.016278762
-0.037169036 -0.08951611 -0.07117467 -0.05453951 0.005397534 -0.0660679 -0.06413924 -0.013198384
0.032772228 0.05570749 -0.08482093 0.06501263 0.023973804 -0.0031832382 -0.07351003 -0.07315527
-0.014655497 0.022913441 -0.050768036 -0.08141727 -0.023123562 -0.04640278 -0.09924436 -0.058211144
-0.041954003 -0.015614018 -0.09153273 -0.03445833 -0.070702195 -0.036807638 -0.012426903 0.060762845
0.005434207 0.043136213 0.047687832 0.029836353 0.05005789 0.0123125035 -0.06972886 0.072792254
0.06094662 -0.06194433 0.06869536 0.069493495 0.07930363 0.062951855 -0.040798854 -0.0048590326
0.054838955 -0.08590494 0.011502656 -0.034080494 0.046704505 0.010148329 -0.00833559 0.05525948
-0.0460042 -0.082413875 -0.08397375 -0.025020558 0.012941017 -0.0763547 0.07262418 -0.047378294
-0.062878974 0.026887367 -0.01133849 -0.06669636 0.06839426 0.08067488 -0.013097181 -0.020614745
-0.033326343 0.088487506 -0.044237815 0.0347053 -0.061141357 -0.033990707 -0.08614104 0.03830919
0.0030106409 0.07244916 -0.011633403 0.013264446 -0.0753454 0.047418013 0.06261336 -0.0060894717
0.1103016 0.0074853026 0.044109706 0.08384809 0.01690936 -0.06605207 0.12608366 0.08093266
0.07954465 0.09844972 0.006282103 0.12946889 0.018566152 0.07376025 -0.052499592 0.073346294
0.07350144 0.0017976383 0.12874687 0.11962001 0.07677589 0.03337316 -0.0037785242 -0.020520091
-0.033367008 0.054921247 -0.026572172 0.060215577 0.017898213 0.04933051 0.027394224 0.085987225
0.10655513 0.097841725 0.03366791 -0.032562207 0.0584799 0.022246085 0.085482046 0.0029510872
-0.017308597 0.0912857 0.012213476 0.09710251 0.064127296 0.11600363 0.11231357 0.091848135
0.09894715 0.015027194 0.11469202 0.01904666 0.10413547 0.071169406 0.07969332 0.11895197
0.031073423 0.036808047 0.12916581 -0.023059549 0.005941108 -0.0011878613 -0.046747696 -0.022583017
-0.028128056 0.096401155 0.03729494 -0.027489379 0.029497921 0.04723575 0.011698836 0.08576132
-0.008852707 -0.025490351 0.010166984 0.0909774 0.0258099 -0.016794184 -0.0055595823 0.12518014
0.053469803 -0.015572786 -0.014089961 -0.0140650505 0.13124399 0.018338965 0.10416993 -0.02019427
0.025982805 -0.0062073153 0.01845154 -0.023526503 0.037707876 0.08257012 0.113807835 0.04874195
0.10312207 0.123702765 0.08775924 0.077910855 0.104597 0.11162616 0.103279054 0.11249531
0.07043246 -0.0100019835 0.10837795 0.12011434 0.024048017 -0.007946829 0.061156016 0.0501565
-0.002737994 0.135896 0.09416684 0.053745337 -0.007560525 0.01472739 0.0031107147 -0.012526611
00000000: 75dd 5c3d 6038 b1bc 9aee 13bb 9db0 b93b
00000010: 6626 95bd 4728 eabc 8a75 60bd 80d6 c0bd
00000020: e594 f7bc 1636 9fbd 046a 43bd 8968 973d
00000030: 3cbc 203c 6ea7 afbd 3eaa ae3d 7225 a9bd
00000040: f562 a53c b298 06bd e709 8dbd 01e6 933d
00000050: 8c98 d6bc 1118 34bd 4e05 86bc ac02 8a3d
00000060: c3f2 10bc 213c 0ebc 4288 243d 97d0 afbd
00000070: 8ec6 303d 9a00 813c 5f49 133d d835 c4bc
00000080: c2f6 54bd 2cbd 883c b3fc d3bc ed89 9dbd
00000090: 9473 4bbc 9a62 9d3d 70a1 663d 028c a53c
000000a0: 40e3 c9bd d721 b33d cbd0 4dbd dda5 1abd
000000b0: 5549 843c 7e0c 803d 9665 acbd 0a5b 85bc
000000c0: 8f3e 18bd 3954 b7bd 06c4 91bd d264 5fbd
000000d0: ccdd b03b 9b4e 87bd 6f5b 83bd 093e 58bc
000000e0: 2c3c 063d 892d 643d 99b6 adbd 5725 853d
000000f0: b664 c43c e09d 50bb 6d8c 96bd 6ed2 95bd
00000100: 9c1d 70bc f8b4 bb3c 25f2 4fbd 19be a6bd
00000110: a06d bdbc d710 3ebd a140 cbbd cf6e 6ebd
00000120: f6d7 2bbd f0d1 7fbc 8375 bbbd 2e24 0dbd
00000130: 50cc 90bd 9bc3 16bd 359a 4bbc 76e2 783d
00000140: 6f11 b23b 99af 303d 5154 433d 5e6b f43c
00000150: 8109 4d3d 62ba 493c 01ce 8ebd 1b14 953d
00000160: 2aa3 793d 56b9 7dbd 27b0 8c3d 9b52 8e3d
00000170: f169 a23d e7ec 803d b31c 27bd 8538 9fbb
00000180: d09e 603d eeee afbd a375 3c3c fd97 0bbd
00000190: 394d 3f3d 2d45 263c 0092 08bc c457 623d
000001a0: e66e 3cbd 9bc8 a8bd 6efa abbd eaf7 ccbc
000001b0: 8f06 543c da5f 9cbd fcbb 943d be0f 42bd
000001c0: b1c6 80bd e542 dc3c 13c5 39bc 1a98 88bd
000001d0: 4a12 8c3d df38 a53d 8f95 56bc 41e0 a8bc
000001e0: 3481 08bd f038 b53d b632 35bd 2527 0e3d
000001f0: 5c6f 7abd d739 0bbd b76a b0bd 19ea 1c3d
00000200: 2c4e 453b 3a60 943d 079a 3ebc 1e53 593c
00000210: b04e 9abd 6439 423d 6f3b 803d 318a c7bb
00000220: cee5 e13d 4547 f53b 61ac 343d 8cb8 ab3d
00000230: 8085 8a3c 4f46 87bd 131c 013e 06c0 a53d
00000240: 4ee8 a23d 02a0 c93d 19da cd3b 7e93 043e
00000250: 0b18 983c 9d0f 973d d009 57bd 9536 963d
00000260: ec87 963d bb9e eb3a 38d6 033e 56fb f43d
00000270: ae3c 9d3d 4bb2 083d 1ea1 77bb c019 a8bc
00000280: d8ab 08bd 1af5 603d e2ad d9bc 9ca4 763d
00000290: 469f 923c ca0e 4a3d da69 e03c 121a b03d
000002a0: 9339 da3d 3e61 c83d 5de7 093d f35f 05bd
000002b0: 9f88 6f3d 6c3d b63c 3611 af3d 0767 413b
000002c0: c2ca 8dbc fff3 ba3d 081b 483c aedd c63d
000002d0: 2c55 833d 5093 ed3d a804 e63d e01a bc3d
000002e0: cea4 ca3d 9f34 763c a6e3 ea3d be07 9c3c
000002f0: fa44 d53d 44c1 913d 4036 a33d 179d f33d
00000300: b18d fe3c 09c4 163d 0b44 043e 61e7 bcbc
00000310: a0ad c23b 03b2 9bba 837a 3fbd 0500 b9bc
00000320: cf6c e6bc f86d c53d 94c2 183d 6831 e1bc
00000330: a0a5 f13c 467a 413d 7aac 3f3c a2a3 af3d
00000340: f20a 11bc 24d1 d0bc 6c93 263c 5c52 ba3d
00000350: 496f d33c f593 89bc 282d b6bb 392f 003e
00000360: 2703 5b3d 0025 7fbc 94d9 66bc 1971 66bc
00000370: d364 063e 993b 963c 0b57 d53d 746e a5bc
00000380: e4d9 d43c bc66 cbbb af27 973c a7ba c0bc
00000390: 9373 1a3d 861a a93d 1514 e93d a4a5 473d
000003a0: aa31 d33d e057 fd3d 1ebb b33d ba8f 9f3d
000003b0: f436 d63d 429c e43d f883 d33d f163 e63d
000003c0: e53e 903d 5cdf 23bc 42f5 dd3d 82fe f53d
000003d0: 5900 c53c 6b33 02bc bb7e 7a3d e770 4d3d
000003e0: eb6f 33bb 5228 0b3e 8bda c03d 1224 5c3d
000003f0: 48be f7bb 274b 713c 22dd 4b3b 6a3c 4dbc

network.2.bias f4 [64]
-0.028590083 0.031207496 0.07835565 0.030404164 -0.05052272 0.062982365 0.037887607 0.07722953
0.07406583 -0.052947536 0.059193105 0.105138436 0.014621255 0.09322882 0.029190833 0.012756546
-0.05071954 0.0012984743 0.022847632 0.089133635 0.113906085 -0.008617044 0.07417831 0.055601854
0.088453196 -0.04635797 0.02073558 0.028892167 -0.014584705 0.0587126 0.06829389 0.044851784
0.032551732 0.017354572 0.11153292 -0.01729644 -0.08972369 0.117860734 0.060542226 0.028121253
0.059309393 0.026843289 0.013856908 -0.005396878 0.011530724 0.06048211 -0.004555505 0.005053175
0.041848075 0.059680004 -0.033164077 -0.05161839 -0.091350645 0.04119325 -0.030432584 0.059678935
0.017573925 -0.059697054 0.012566684 -0.044184126 0.0053597316 0.11707547 0.013059723 0.095128715
00000000: c035 eabc dda6 ff3c ed78 a03d 2712 f93c
00000010: e9f0 4ebd e6fc 803d 0930 1b3d 842a 9e3d
00000020: d3af 973d 84df 58bd 7874 723d d252 d73d
00000030: fd8d 6f3c c0ee be3d 9d21 ef3c d500 513c
00000040: 4bbf 4fbd 9131 aa3a f52a bb3c b28b b63d
00000050: 9847 e93d 812e 0dbc ccea 973d c5be 633d
00000060: f326 b53d dbe1 3dbd aadd a93c 44af ec3c
00000070: b0f4 6ebc a07c 703d abdd 8b3d 81b6 373d
00000080: f754 053d 2d2b 8e3c 5f6b e43d 44b1 8dbc
00000090: 0ec1 b7bd f860 f13d 20fb 773d 8b5e e63c
000000a0: 68ee 723d 75e6 db3c 1608 633c 4bd8 b0bb
000000b0: 5deb 3c3c 17bc 773d 5846 95bb 1b95 a53b
000000c0: e368 2b3d 0573 743d 0ed7 07bd ce6d 53bd
000000d0: 0c16 bbbd 41ba 283d c14d f9bc e671 743d
000000e0: 31f7 8f3c e684 74bd 7ee4 4d3c 6afa 34bd
000000f0: b0a0 af3b 44c5 ef3d 73f8 553c d8d2 c23d

network.4.weight f4 [16, 64]
-0.09778269 0.045581423 0.070420615 0.016971659 0.0909384 -0.10954526 0.14993203 0.15574203
0.026404038 -0.07443518 -0.15294988 0.084330544 -0.1160142 0.07086965 -0.15598845 0.11421682
-0.050208077 0.1577044 0.15110669 0.13409682 0.05709363 0.14868778 0.100831375 -0.14685404
-0.16505863 -0.106844574 0.028069852 0.12323544 0.07559775 0.043507572 0.11173203 0.0072654625
0.0074743293 0.08672791 0.09871279 0.15216006 -0.11946102 0.14407055 -0.080209516 -0.10394806
0.107373096 0.10066591 -0.102056235 -0.046560556 -0.059708137 0.03808345 0.13525419 0.17623056
0.060044654 0.14864661 0.17913415 0.109171376 -0.09976045 0.10699792 0.08851706 -0.051121525
-0.14375664 -0.062295042 0.09744201 0.11629252 0.13786879 0.034101073 0.044166345 0.069308974
0.044415794 -0.061675806 -0.05339771 0.05756623 -0.07580126 0.121218145 -0.12385886 0.074757166
-0.03964428 -0.022493409 0.044166707 -0.103395246 0.07947207 -0.052929703 -0.10715532 0.060277674
-0.053722102 -0.07649479 0.0631072 0.04761688 0.04646205 -0.085866645 0.036941163 -0.072924465
-0.093060106 -0.11736319 0.015055463 0.062421564 -0.0802652 0.042468403 0.073698215 0.015500774
0.046503842 0.033290487 -0.07464894 0.024201015 -0.12680754 0.04449478 -0.10059265 -0.06413126
-0.07096119 -0.05569477 0.02411015 0.060672868 -0.04872001 -0.10458275 -0.05768486 0.0032010598
0.016627515 0.05137735 0.10668224 -0.0015154645 -0.050712403 0.11311681 -0.1177483 0.08467704
0.09087599 0.09620912 -0.015012566 0.009865912 -0.10794867 0.017523283 -0.06643612 -0.08494088
0.11260668 -0.053902917 0.090837486 0.06504745 -0.09701807 -0.122282416 -0.04006156 -0.11491858
-0.06328138 -0.005528376 -0.058102973 0.11729435 0.0024317154 0.08314121 0.03737167 -0.014186449
-0.03292496 -0.021474676 0.007637504 0.0032176187 -0.04424752 0.055060375 -0.03041863 -0.057950344
-0.08732084 0.112343095 0.07210865 0.08444151 -0.09558171 0.08832604 0.05680905 0.011830924
-0.05003125 -0.0039844024 0.02204699 0.044497937 -0.10060155 -0.08118458 -0.08039215 0.07654344
0.0020527854 0.051889174 -0.07999899 -0.056284506 0.10254681 -0.12762682 -0.081646174 0.058519416
-0.105218 0.08577102 0.007854396 -0.08981689 -0.12820736 0.11512787 -0.07125165 -0.05675578
-0.044898838 -0.056971904 0.10356866 -0.060449388 -0.034933183 -0.113310784 -0.12479078 -0.11462773
-0.014754079 0.06136064 0.00055993785 -0.12587517 0.080635786 0.06321084 -0.06464209 0.044598307
0.03696703 0.036061607 -0.07623634 0.030996649 0.17000705 0.0014076289 0.043440703 0.04896925
0.013655155 -0.1576865 0.012022844 0.0833475 0.039950397 -0.15186158 0.03256656 0.018672653
0.10665084 0.06149399 -0.0019806277 -0.012533186 0.059482474 0.024837544 -0.06878746 -0.05152584
0.16862534 -0.12469983 0.051634148 0.0058185114 0.07274084 0.072048575 0.09606654 0.047481593
-0.028616054 0.124342114 0.113342576 0.05639094 -0.078005254 -0.010740981 -0.0515446 0.076335676
-0.08150722 0.00053744833 -0.15457264 -0.00035632838 0.016114688 0.13853647 -0.0072191902 -0.024515823
0.057804674 0.074387275 0.017155202 0.041134268 0.073769726 0.023833927 -0.023908341 -0.11219801
00000000: 4a42 c8bd 96b3 3a3d af38 903d 2608 8b3c
00000010: e93d ba3d 4459 e0bd c887 193e d77a 1f3e
00000020: 484d d83c 7971 98bd e59e 1cbe 7eb5 ac3d
00000030: da98 edbd 1b24 913d 70bb 1fbe 82ea e93d
00000040: fca6 4dbd 437d 213e b6bb 1a3e ad50 093e
00000050: 03db 693d 9c41 183e ae80 ce3d e860 16be
00000060: 2105 29be 54d1 dabd bff2 e53c dd62 fc3d
00000070: fed2 9a3d ff34 323d c3d3 e43d 1e13 ee3b
00000080: 38eb f43b 679e b13d ee29 ca3d d9cf 1b3e
00000090: fba7 f4bd 3b87 133e e344 a4bd b8e2 d4bd
000000a0: 6de6 db3d ee29 ce3d dc02 d1bd 48b6 3ebd
000000b0: 8590 74bd 64fd 1b3d 1380 0a3e c975 343e
000000c0: 62f1 753d d136 183e f16e 373e 3e95 df3d
000000d0: 354f ccbd ba21 db3d 6f48 b53d ce64 51bd
000000e0: f134 13be 1629 7fbd ad8f c73d c62a ee3d
000000f0: 7a2d 0d3e 91ad 0b3d c5e7 343d ddf1 8d3d
00000100: 56ed 353d c59f 7cbd 8fb7 5abd 91ca 6b3d
00000110: b13d 9bbd 3841 f83d b7a9 fdbd 491a 993d
00000120: 0a62 22bd 1944 b8bc 26e8 343d e3c0 d3bd
00000130: 41c2 a23d d1cc 58bd 4074 dbbd b9e5 763d
00000140: b50b 5cbd 4da9 9cbd 593e 813d eb09 433d
00000150: fe4e 3e3d dada afbd 9e4f 173d 6c59 95bd
00000160: 4c96 bebd 1d5c f0bd 30ab 763c c1ad 7f3d
00000170: 1562 a4bd 59f3 2d3d 17ef 963d f5f6 7d3c
00000180: d07a 3e3d 9b5b 083d 8be1 98bd 3541 c63c
00000190: d6d9 01be 2940 363d 8503 cebd 4057 83bd
000001a0: 1a54 91bd 3320 64bd a682 c53c 1d84 783d
000001b0: a28e 47bd 7b2f d6bd f646 6cbd dfc8 513b
000001c0: 6d36 883c 0e71 523d 387c da3d 8da2 c6ba
000001d0: cfb7 4fbd c9a9 e73d 0526 f1bd 286b ad3d
000001e0: 311d ba3d 4909 c53d 44f7 75bc a2a4 213c
000001f0: 3114 ddbd fd8c 8f3c a90f 88bd 7cf5 adbd
00000200: 559e e63d 4ec9 5cbd 0109 ba3d 9937 853d
00000210: 69b1 c6bd 346f fabd 9717 24bd 6f5a ebbd
00000220: ab99 81bd 6127 b5bb 62fd 6dbd 0538 f03d
00000230: 6a5d 1f3b f045 aa3d 0913 193d 486e 68bc
00000240: 53dc 06bd a9eb afbc 0744 fa3b afde 523b
00000250: e33c 35bd fd86 613d 7e30 f9bc 575d 6dbd
00000260: 45d5 b2bd 2314 e63d b3ad 933d acef ac3d
00000270: 58c0 c3bd 48e4 b43d 9bb0 683d 7ed6 413c
00000280: 91ed 4cbd 978f 82bb e49b b43c 7843 363d
00000290: 2f08 cebd 1a44 a6bd a4a4 a4bd cfc2 9c3d
000002a0: 0688 063b be89 543d 83d6 a3bd 958a 66bd
000002b0: 1004 d23d 9bb0 02be 1c36 a7bd 0eb2 6f3d
000002c0: 897c d7bd b7a8 af3d b9af 003c ebf1 b7bd
000002d0: ca48 03be 29c8 eb3d 63ec 91bd c078 68bd
000002e0: d8e7 37bd 5f5b 69bd ce1b d43d c799 77bd
000002f0: 1916 0fbd 7c0f e8bd 4f92 ffbd f1c1 eabd
00000300: 18bb 71bc 4b55 7b3d cbc8 123a 6ce5 00be
00000310: 6024 a53d af74 813d 1263 84bd b7ac 363d
00000320: be6a 173d 56b5 133d cc21 9cbd afec fd3c
00000330: 5416 2e3e 3080 b83a e1ee 313d fb93 483d
00000340: dfb9 5f3c 9278 21be 76fb 443c 18b2 aa3d
00000350: 07a3 233d 9a81 1bbe 8364 053d 64f7 983c
00000360: c16b da3d 1fe1 7b3d 6bcd 01bb fe57 4dbc
00000370: e5a3 733d 1b78 cb3c 71e0 8cbd c20c 53bd
00000380: 1fac 2c3e a062 ffbd 547e 533d 36a9 be3b
00000390: 26f9 943d 348e 933d 89be c43d 0f7c 423d
000003a0: 376c eabc 14a7 fe3d 2720 e83d 30fa 663d
000003b0: 38c1 9fbd f1fa 2fbc 6e20 53bd e155 9c3d
000003c0: 42ed a6bd 8ce3 0c3a 4a48 1ebe 96d1 bab9
000003d0: f302 843c 81dc 0d3e f58e ecbb 68d5 c8bc
000003e0: 98c4 6c3d 5b58 983d 1189 8c3c 687c 283d
000003f0: 9514 973d 5e3f c33c 6ddb c3bc 12c8 e5bd

network.4.bias f4 [16]
0.1389899 0.052862562 0.08061089 -0.0042827125 0.11702574 0.067035526 -0.022436867 -0.115808286
-0.09675453 -0.1003195 -0.07237851 -0.11517962 -0.024331769 0.021107707 0.007017769 0.031231904
00000000: 5e53 0e3e 6a86 583d 5317 a53d ff55 8cbb
00000010: 31ab ef3d ec49 893d 85cd b7bc e52c edbd
00000020: 3d27 c6bd 4f74 cdbd 2f3b 94bd 4be3 ebbd
00000030: 6b53 c7bc 12ea ac3c 50f5 e53b 0dda ff3c

network.6.weight f4 [2, 16]
-0.17214908 0.13797212 -0.20085427 0.21563198 0.1781956 -0.06873185 0.22893651 -0.09484119
0.025799744 0.14773363 0.07914693 0.06746816 -0.015106842 0.19453566 0.26181668 0.046097595
0.12359453 -0.031892583 -0.23066378 0.12638026 0.31535986 0.06924922 -0.042919558 0.24874198
-0.22728157 -0.01468437 0.0024832266 -0.1648187 0.2520934 0.029059831 -0.31081468 0.19554389
00000000: d947 30be 9048 0d3e beac 4dbe a1ce 5c3e
00000010: e878 363e 49c3 8cbd 556e 6a3e 193c c2bd
00000020: fc59 d33c 7c47 173e c917 a23d bf2c 8a3d
00000030: b082 77bc 5b34 473e d60c 863e d5d0 3c3d
00000040: 211f fd3d cca1 02bd 2033 6cbe d469 013e
00000050: d976 a13e 89d2 8d3d 6bcc 2fbd 38b6 7e3e
00000060: 80bc 68be b696 70bc a1bd 223b 3cc6 28be
00000070: 6312 813e e20e ee3c 1a23 9fbe a83c 483e

network.6.bias f4 [2]
0.043286227 -0.19397302
00000000: e64c 313d dda0 46be
