models/default/rs/adam_epochs10_lr0.0001_batch128_dropout0/model_601.pth (torch, 86819 bytes, 8 tensors)

network.0.weight f4 [128, 90]
0	0xbc7cf591	-0.015439407
1	0xbdc7203a	-0.097229436
2	0xbde6af78	-0.11263937
3	0x3c7286f3	0.014802682
4	0x3d87b446	0.06626181
5	0xbd97f653	-0.074200295
6	0xbd9d43bc	-0.07678935
7	0xbd45e724	-0.048316136
8	0x3d5305b2	0.051519103
9	0x3d1e5347	0.03865364
10	0xbdfd1941	-0.123583324
11	0x3d6eec4d	0.058330823
12	0xbbadd150	-0.005304493
13	0x3c40c1f8	0.011764996
14	0x3ca9a815	0.02071003
15	0x3d0b0a30	0.033945262
16	0x3db36b6b	0.08760723
17	0x3b0740cf	0.0020637994
18	0x3d6a19bd	0.057153452
19	0x3cc76ba8	0.024343327
20	0x3d3d9211	0.046281878
21	0xbda5b853	-0.08091798
22	0x3d30d53d	0.04317211
23	0x3dbff887	0.09373575
24	0x3d312a8f	0.043253478
25	0xbde059b1	-0.10954607
26	0x3ba7a7b6	0.0051164282
27	0xbdca9afd	-0.09892843
28	0x3d802788	0.0625754
29	0xbdd752b5	-0.10513822
30	0x3e0ff77f	0.14059256
31	0x3c18d7de	0.0093288105
32	0x3d53f09e	0.051743142
33	0xbd0b6a6f	-0.03403705
34	0x3a8472e7	0.0010105044
35	0x3db5b28d	0.088719465
36	0xbdc70b5d	-0.09718964
37	0x3d2a802e	0.041626148
38	0xbcc8d3ad	-0.024514997
39	0x3db44c97	0.08803671
40	0xbdf22bc9	-0.118247576
41	0x3d12051e	0.03564941
42	0xbd63e153	-0.055634808
43	0xbd5bdbf4	-0.05367656
44	0x3bc29413	0.005938062
45	0x3d3e1eda	0.04641614
46	0x3d5fd1bf	0.05464339
47	0xbc0b02a1	-0.0084845135
48	0x3d0459bc	0.03231214
49	0xbc1b1fa2	-0.009467991
50	0x3d37cc69	0.044872675
51	0xbddf93c8	-0.10916859
52	0x3d64f0ac	0.055893585
53	0xbe0344ec	-0.1281926
54	0xbe0dd269	-0.13849796
55	0x3d5e514e	0.054276757
56	0xbc083008	-0.008312233
57	0xbd58f175	-0.052964646
58	0xbd7b924e	-0.061418824
59	0x3d2f771a	0.042838193
60	0xbdf184ad	-0.11792884
61	0xbd16a2d7	-0.03677639
62	0xbd9f4883	-0.077775024
63	0xba8f6d8e	-0.0010942684
64	0xbdb45d58	-0.088068664
65	0xbdf577d5	-0.11985747
66	0xbdd06a13	-0.10176482
67	0x3d7813ae	0.060565643
68	0xbde1fc76	-0.11034481
69	0xbe12c913	-0.14334516
70	0x3d6a1dc5	0.057157297
71	0xbdcaea8c	-0.099080175
72	0x3d780248	0.06054905
73	0xbd407be0	-0.046993136
74	0x3d059099	0.032608602
75	0xbe13b07e	-0.14422795
76	0x3d3f511a	0.046708204
77	0x3d3872a9	0.045031223
78	0x3d8b7927	0.06810217
79	0xbd6864c0	-0.056736708
80	0x3cbb3795	0.022853652
81	0xbdc1abb9	-0.094565816
82	0xbb21779f	-0.002463795
83	0x3d27ec09	0.040996585
84	0x3b4f6eba	0.0031651692
85	0xbe08b073	-0.1334856
86	0x3d9cfb73	0.07665148
87	0x3da30bbc	0.079612225
88	0x3d92f964	0.07176474
89	0xbdd552d1	-0.104161866
90	0x3d565364	0.05232562
91	0x3ba6cdf4	0.0050904695
92	0x3c67534c	0.014118981
93	0x3d5ed88d	0.054405738
94	0x3d582090	0.05276543
95	0xbbe6b0bd	-0.007040112
96	0xbd168fdd	-0.036758292
97	0xbdb3d3a1	-0.087805994
98	0x3bc8bd1c	0.006126059
99	0x3da9a7d3	0.08283963
100	0xbca5b7de	-0.020229276
101	0xbce46464	-0.027879901
102	0x3d493e38	0.049131602
103	0xbd88e184	-0.06683639
104	0xbd3fc2d8	-0.046816677
105	0xbe1876c9	-0.14889063
106	0xbd405585	-0.046956558
107	0xbca1c163	-0.019745534
108	0xbd92857b	-0.07154366
109	0x3dae1e10	0.08501828
110	0xbdcbcbcd	-0.09950981
111	0xbca2a4cd	-0.019853974
112	0xbd9cf0e5	-0.076631345
113	0xbd7186e4	-0.058966532
114	0x3dd97449	0.10617883
115	0xbdd5f064	-0.104462415
116	0xbdd66a08	-0.104694426
117	0x3dc11159	0.09427137
118	0x3e362ede	0.17791316
119	0xbdf434cc	-0.11924133
120	0xbd5cb5a2	-0.053884156
121	0x3b8f5fed	0.004375449
122	0xbe0e2021	-0.13879444
123	0xbe149e3b	-0.14513485
124	0xbd8c26b2	-0.06843318
125	0x3c3b60fb	0.011436696
126	0x3d86a82e	0.065750465
127	0x3cc72b8b	0.024312755
128	0x3db3cb60	0.08779025
129	0xbc8635ce	-0.016383078
130	0x3d94f8ee	0.07274042
131	0xbdf544af	-0.11975991
132	0x3d399364	0.04530658
133	0xbde6fc99	-0.11278648
134	0x3d10d1ee	0.035356455
135	0xbe14f1e9	-0.14545406
136	0xbc802c48	-0.015646115
137	0x3b974b8f	0.0046171616
138	0x3ca3fd82	0.020018343
139	0x3d85f7e0	0.06541419
140	0x3dd2cbc9	0.10292775
141	0x3d2b4fe6	0.041824244
142	0xbe048487	-0.1294118
143	0xbdf29e08	-0.11846548
144	0xbdabf72b	-0.08396753
145	0xbdcb4f44	-0.09927228
146	0x3b9170d2	0.004438498
147	0xbe13d511	-0.14436747
148	0x3c093e69	0.008376696
149	0x3c87f8d8	0.01659815
150	0xbc7f0460	-0.015565008
151	0x3d882a4c	0.066486925
152	0xbd1fcc75	-0.039013345
153	0x3d169cb8	0.036770552
154	0xbe07e6e1	-0.13271667
155	0xbe0c9523	-0.13728766
156	0xbc63a9b5	-0.013895442
157	0xbd3664ea	-0.044529833
158	0xbc03eaf0	-0.008051619
159	0x3da653ae	0.081214294
160	0x3bff56ad	0.007792315
161	0x3d1a78e3	0.037712943
162	0xbd684036	-0.05670186
163	0x3cbfcfa1	0.023414435
164	0xbd8cd2c9	-0.068761416
165	0x3d448a06	0.047983192
166	0x3cd5a789	0.026080864
167	0xbdcb1a26	-0.09917097
168	0xbe03b5b5	-0.12862284
169	0xbd9da7ba	-0.07698007
170	0x3d1255e3	0.03572644
171	0x3cc166f5	0.023608664
172	0xbd90bd11	-0.070673116
173	0x3d4ac3ef	0.049503263
174	0xbda6434e	-0.08118306
175	0xbcf03e92	-0.02932671
176	0xbe116055	-0.14196904
177	0x3ce779dc	0.02825635
178	0xbcc09fcb	-0.023513695
179	0x3d105fa9	0.03524748
180	0xbbe5862f	-0.0070045213
181	0x3d54246f	0.05179256
182	0x3d97fd4c	0.074213594
183	0x3d9da9f9	0.07698435
184	0x3d7720d8	0.060334057
185	0xbd3ec6fa	-0.046576478
186	0xbdd2e846	-0.10298209
187	0x3d686f20	0.056746602
188	0x3d121656	0.035665832
189	0x3d05a121	0.032624368
190	0xbdc63238	-0.09677547
191	0x3d23b806	0.03997042
192	0x3da19f2f	0.0789169
193	0x3dc064b4	0.093942076
194	0x3d0c285e	0.034218185
195	0x3ce99880	0.0285151
196	0x3d277702	0.04088498
197	0x3ce9a227	0.028519703
198	0x3bfebf52	0.007774272
199	0x3d7dd96c	0.061974928
200	0x3d64795b	0.055779796
201	0x3ced4ecd	0.02896824
202	0xbd9326ab	-0.0718511
203	0x3d6f847b	0.058475953
204	0x3d818f8d	0.06326208
205	0x3d2cd810	0.04219824
206	0xbe21b166	-0.15790328
207	0xbdcdb156	-0.1004359
208	0x3d9ce8bc	0.07661578
209	0x3d0fb484	0.035084262
210	0xbe0e2225	-0.13880213
211	0xbc9e469a	-0.019320775
212	0x3d804e78	0.06264967
213	0xbde38117	-0.11108606
214	0x3db91796	0.09037702
215	0xbd4986db	-0.049200874
216	0x3d90acc4	0.070642024
217	0xbcb30344	-0.021852143
218	0x3c5a5919	0.013326907
219	0x3cbe6517	0.023241563
220	0xbdff097a	-0.124529794
221	0x3d775809	0.06038669
222	0x3cb04a5b	0.02151983
223	0xbda93878	-0.08262724
224	0x3d8bd0e2	0.068269506
225	0xbddb0c4d	-0.106957056
226	0x3d01e51c	0.031712636
227	0xbd9f03ad	-0.07764373
228	0xba61fc0b	-0.0008620626
229	0xbd395bf7	-0.04525372
230	0x3dc7c716	0.097547695
231	0xbd2d90c7	-0.0423744
232	0xbd73dcfe	-0.059536926
233	0x3c966be4	0.018361993
234	0xbe0d3343	-0.13789086
235	0xbdadbc41	-0.08483172
236	0x3c97cf59	0.018531488
237	0x3d86d5ba	0.06583734
238	0x3d72d2b2	0.059282966
239	0xbd90df81	-0.0707388
240	0xbdf7ae3a	-0.12093778
241	0x3dcfd222	0.101475015
242	0x3b1e7d43	0.0024183549
243	0xbe0505af	-0.1299045
244	0x3d2e3c0d	0.042537738
245	0xbd132034	-0.035919383
246	0xbd167c6d	-0.036739755
247	0xbdf639ae	-0.1202272
248	0x3b2ae98d	0.0026079149
249	0xbd2b7120	-0.04185593
250	0x3d7ed4e9	0.062214766
251	0xba0c74d9	-0.0005357988
252	0x3dc786e8	0.09742528
253	0xbbb67659	-0.0055683074
254	0xbdbf5d9b	-0.09344026
255	0xbdda0f92	-0.10647501

network.0.bias f4 [128]
0	0x3e101857	0.14071785
1	0x3e0f5cfe	0.14000317
2	0x3ba2f811	0.0049734195
3	0xbc44ee17	-0.012019656
4	0xbd37f61f	-0.044912454
5	0x3d5a0810	0.053230345
6	0xbcb9248f	-0.02260044
7	0x3d61df5a	0.055144645
8	0x3ce5e980	0.028065443
9	0x3df19d1d	0.11797545
10	0xbd454cc4	-0.048168913
11	0xbbc705a3	-0.00607367
12	0x3e10186d	0.14071818
13	0xbcce9bcb	-0.025220772
14	0x3d0c1077	0.03419539
15	0xbc4b4b5f	-0.012408107
16	0x3dfad2e1	0.12247253
17	0x3e1e1c78	0.15440547
18	0x3dd26c1a	0.10274525
19	0xbd178f89	-0.03700212
20	0x3cbfb428	0.023401335
21	0xbc1e687d	-0.009668467
22	0x3db77a69	0.08958895
23	0x3dab4973	0.08363619
24	0x3dd4e4ec	0.10395226
25	0xbcd13416	-0.025537532
26	0x3df93515	0.12168328
27	0x3e09495e	0.13406894
28	0x3e1a1c80	0.15049934
29	0x3da9e18c	0.08294973
30	0x3dabfe29	0.083980866
31	0x3de75edb	0.11297389
32	0x3dbf0ee1	0.0932901
33	0x3e0420f7	0.129032
34	0x3cfd1e5b	0.030898264
35	0x3c9e54cc	0.019327544
36	0x3d91a6e0	0.07111907
37	0x3dc2042b	0.09473451
38	0xbd219775	-0.03945108
39	0xbd5bc4d4	-0.053654507
40	0xbcc2cbb8	-0.023778781
41	0xbd26e10e	-0.040741973
42	0xbd3b4e13	-0.045728754
43	0x3e172cc7	0.14763175
44	0x3de532ec	0.11191353
45	0x3d953491	0.07285417
46	0xbd696964	-0.056985274
47	0xbd0891a6	-0.033342026
48	0xbcf57644	-0.02996362
49	0x3decab68	0.11556131
50	0x3d8c8dae	0.06862961
51	0x3dfc66fb	0.123243295
52	0x3e16d9d8	0.14731538
53	0x3d62723f	0.055284735
54	0x3d15738d	0.03648715
55	0x3d1d3f9e	0.03839075
56	0x3e0196f6	0.12655243
57	0x3cec7987	0.028866543
58	0x3bfb1a1b	0.007663024
59	0x3d27b4d4	0.040943936
60	0xbd57c1e9	-0.05267516
61	0x3d71b22c	0.05900781
62	0xbcb924ba	-0.02260052
63	0x3ce48994	0.027897634
64	0x3dcde7d2	0.10053982
65	0x3c9aa615	0.018878022
66	0x3e173104	0.14764792
67	0xbc0422ca	-0.008064935
68	0x3bfbfd4f	0.007690109
69	0x3de24871	0.11048973
70	0x3e1dd32c	0.15412587
71	0xba267c2a	-0.00063508993
72	0x3df88c3b	0.12136122
73	0x3d9ccf5b	0.076567374
74	0x3e10ffd2	0.14160088
75	0x3c4335bd	0.011914668
76	0x3e178736	0.14797673
77	0xbc8e14ff	-0.017343996
78	0xbd4ca4bb	-0.049961787
79	0xbc63ecac	-0.013911407
80	0xbb4a44d9	-0.003086379
81	0x3d614797	0.054999914
82	0xbd46c690	-0.048529208
83	0x3db25896	0.08708303
84	0xbcb389f3	-0.021916365
85	0xbd82e99c	-0.06392214
86	0x3e0f3524	0.13985115
87	0x3dcbeba9	0.09957058
88	0x3dec3a1e	0.115345225
89	0x3dd59eb0	0.10430658
90	0x3dff903f	0.12478685
91	0x3dd0b4ec	0.10190758
92	0xbd45989b	-0.04824124
93	0x3c8d2bde	0.017232832
94	0x3e00de32	0.12584761
95	0xbb8d3765	-0.004309582
96	0x3d9af572	0.07566346
97	0x3b896e49	0.004194055
98	0xba417267	-0.0007379413
99	0xbd26d906	-0.040734313
100	0x3d99b114	0.07504478
101	0x3d6b79c0	0.057489157
102	0x3cea5de5	0.028609226
103	0x3dfe0c29	0.12404663
104	0xbd1e5c83	-0.038662445
105	0x3d5fb1e8	0.054613024
106	0x3d674c9e	0.056469552
107	0xbdac3821	-0.08409143
108	0x3e16e09f	0.14734124
109	0xbde1041e	-0.109871134
110	0x3df2ebd6	0.118613884
111	0x3dce13ed	0.10062394
112	0xb93ba02f	-0.00017893383
113	0x3d87c88a	0.06630047
114	0x3d657fba	0.056030013
115	0x3e0d1367	0.13776933
116	0x3d8170ba	0.06320329
117	0x3e0474ba	0.12935153
118	0xbd278ebd	-0.04090761
119	0x3df122ee	0.117742404
120	0x3dfc6dcf	0.12325632
121	0x3d3cb6f5	0.04607292
122	0xbd8beced	-0.068322994
123	0xbc36e20b	-0.011162291
124	0x3ce03e06	0.027373325
125	0x3e189c5d	0.14903398
126	0x3d85b479	0.06528563
127	0xbca970a7	-0.0206836

network.2.weight f4 [64, 128]
0	0x3dad6dd3	0.08468213
1	0x3b222c72	0.002474573
2	0x3d004751	0.031318013
3	0xbcddd0be	-0.027077075
4	0x3c2436dd	0.010022846
5	0xbd132dfe	-0.035932533
6	0x3d518500	0.05115223
7	0x3d5ba1cb	0.053621095
8	0x3ddd557c	0.108073205
9	0x3dcf33c5	0.10117296
10	0x3d311acb	0.043238442
11	0xbbbcf2db	-0.0057662553
12	0x3dcaeca0	0.09908414
13	0x3ceb23a9	0.028703528
14	0x3d849b48	0.0647493
15	0x3d6c1bf2	0.05764384
16	0x3dbea911	0.093095906
17	0x3d80a522	0.062814966
18	0x3c69976f	0.014257296
19	0xbca4c5c7	-0.020113839
20	0x3d854a1d	0.065082766
21	0x3d9bf25b	0.07614585
22	0x3df3df2a	0.119077995
23	0xbd85638a	-0.06513126
24	0xbc483902	-0.012220623
25	0xbcefd657	-0.02927701
26	0x3d363183	0.04448081
27	0xbd1e3cfd	-0.03863238
28	0x3d80a4ea	0.06281455
29	0x3d13e35e	0.036105506
30	0xbd8f94d4	-0.070108086
31	0x3d0c3a41	0.034235243
32	0x3db4a27b	0.08820053
33	0x3da180c7	0.078858905
34	0x3da8fc5e	0.0825126
35	0xbd03122e	-0.03199976
36	0x3d81f66b	0.063458286
37	0xbd5139ef	-0.05108064
38	0xbb96ec30	-0.0046057925
39	0xbd42fe16	-0.047605596
40	0xbd38440c	-0.04498677
41	0xbb04e813	-0.0020279929
42	0x3b215ddc	0.0024622595
43	0xbdace54e	-0.08442174
44	0x3dbc79ee	0.09202944
45	0x3db11ef7	0.08648484
46	0xbd92e931	-0.07173384
47	0xbc5635b1	-0.0130743245
48	0x3ddc2592	0.107493535
49	0x3d64cd7f	0.05586004
50	0x3d672c7e	0.056438915
51	0x3db1056b	0.086436115
52	0xbc06a863	-0.008218857
53	0x3c91365b	0.017726114
54	0x3d06fcde	0.032955997
55	0x3d924605	0.071422614
56	0x3dace30a	0.08441742
57	0xbab88fad	-0.0014080905
58	0x3c7b867e	0.01535189
59	0x3dbd57b0	0.09245241
60	0xbbd31939	-0.0064422158
61	0xbbb6b267	-0.0055754664
62	0x3decebb6	0.11568396
63	0xbc6e1d67	-0.014533377
64	0x3c761607	0.0150199
65	0x3ccddd0e	0.025129821
66	0x3d398355	0.045291264
67	0x3ddb5be5	0.10710887
68	0xbd5ab32c	-0.053393528
69	0x3de814f8	0.113321245
70	0x3ccc313a	0.024925817
71	0xbcbfe4bd	-0.0234245
72	0xbca34b62	-0.019933406
73	0x3d58d24c	0.05293493
74	0x3d03f4b4	0.03221579
75	0x3d8b54e9	0.06803305
76	0xbc0f8284	-0.008759145
77	0xbc5f4d5f	-0.013629287
78	0x3db3e604	0.087841064
79	0xbd250418	-0.040287107
80	0x3db7241b	0.089424334
81	0xbd6d2816	-0.057899557
82	0x3d14a740	0.036292315
83	0x3d3b1fc9	0.04568461
84	0x3dc43ce6	0.09581928
85	0x3d8bbe8e	0.06823455
86	0x3c3b70fe	0.011440514
87	0xbd53b350	-0.051684678
88	0x3d3b7e85	0.045774955
89	0x3dd2a693	0.10285678
90	0x3d32657d	0.043553818
91	0x3d99cb36	0.075094625
92	0x3c974bc3	0.018468743
93	0x3d2a7f17	0.04162511
94	0x3daacc2e	0.083397254
95	0x3de71ea1	0.11285139
96	0x3d883209	0.066501684
97	0xbd144511	-0.03619868
98	0x3c69e92c	0.014276784
99	0xbd051dd1	-0.03249914
100	0xbb38d20b	-0.0028201367
101	0x3d9b1db9	0.075740285
102	0xbced48cd	-0.028965378
103	0xbd318a6f	-0.04334491
104	0x3e011049	0.12603869
105	0x3dfc529a	0.123204425
106	0x3c3546c6	0.011064237
107	0x3c7b7df5	0.015349855
108	0xbcf0f8d9	-0.029415535
109	0x3d8c1170	0.068392634
110	0x3d47192c	0.04860799
111	0xbd360250	-0.0444358
112	0xbc2228b9	-0.009897404
113	0x3dca4312	0.09876074
114	0xbcef8aee	-0.029241052
115	0x3da70269	0.081547566
116	0x3c907dc9	0.017638104
117	0x3dd2971d	0.10282729
118	0x3d5d3210	0.05400282
119	0xbd4f4ea2	-0.0506121
120	0xbd52f910	-0.051507056
121	0x3d8a458e	0.06751548
122	0x3d3eb0c1	0.046555284
123	0x3e006ff5	0.12542708
124	0xbcbb0ecd	-0.022834206
125	0xbd0bd1eb	-0.03413574
126	0x3d83b4ab	0.06430944
127	0xbdbe8ec8	-0.09304577
128	0x3c50ea81	0.012751223
129	0xbcc74706	-0.024325859
130	0xbb663473	-0.0035126477
131	0x3de690ed	0.11258111
132	0xbc91bea1	-0.017791094
133	0xbd30930c	-0.043108985
134	0x3cc5639c	0.024095349
135	0x3c56cb06	0.013109928
136	0xbd41614e	-0.047211938
137	0x3d8fec89	0.070275374
138	0x3dc66caa	0.09688695
139	0xbcdf04a0	-0.027223885
140	0x3d1803e2	0.037113078
141	0xbd16ffd3	-0.036865067
142	0x3c0b0513	0.0084850965
143	0x3e0371c0	0.12836361
144	0x3dd6e00a	0.10491951
145	0xbce74e24	-0.028235503
146	0x3d3adfc8	0.04562357
147	0x3ddbdd1e	0.10735534
148	0x3d869c6a	0.06572802
149	0xbb88dd99	-0.004176807
150	0x3e087a23	0.13327841
151	0xbc3cd8c1	-0.0115262875
152	0x3cd47b6b	0.025937757
153	0xbc48b3d8	-0.012249909
154	0xbc18796a	-0.009306291
155	0xbd8afb31	-0.06786192
156	0x3dc1a0da	0.09454508
157	0x3de85e55	0.113461174
158	0x3c937965	0.018002221
159	0x3c6ae4fc	0.014336821
160	0x3d9e63ff	0.077339165
161	0x3d385768	0.045005232
162	0x3c937419	0.017999696
163	0x3c33235f	0.010933726
164	0x3c2700e5	0.010193084
165	0xbc8ca92a	-0.017170507
166	0xbce3863d	-0.02777397
167	0x3da95b96	0.08269422
168	0x3d82f7fa	0.06394954
169	0x3d24a706	0.04019835
170	0xbdd594cc	-0.104287714
171	0x3c4f557d	0.012654659
172	0x3d84cded	0.0648459
173	0x3dcb7db3	0.099360846
174	0xb78692c3	-1.6042386e-05
175	0xbd69cf3b	-0.057082396
176	0x3cb619ff	0.022229193
177	0x3de83fd2	0.11340298
178	0x3d320a90	0.043467104
179	0x3d225576	0.039632283
180	0x3ddcbfa7	0.10778742
181	0xbce2a9fc	-0.027668945
182	0x3c2a6262	0.010399433
183	0x3d9914bd	0.07474659
184	0xbcfa4b29	-0.030553417
185	0x3d1fe890	0.03904015
186	0x3da00391	0.0781318
187	0x3d888203	0.06665423
188	0xbd31dc07	-0.043422725
189	0x3d821443	0.06351521
190	0x3c95b0fb	0.018272867
191	0xbb9e1137	-0.0048238295
192	0x3dc9552b	0.098306976
193	0xbd915648	-0.07096535
194	0x3db35b1f	0.08757614
195	0x3d68833a	0.056765772
196	0xbcd9e93b	-0.02660047
197	0x3de15a31	0.11003531
198	0x3da944af	0.082650535
199	0xbde73178	-0.11288732
200	0xbc05cc93	-0.00816645
201	0x3d90f79f	0.0707848
202	0x3c630068	0.013855077
203	0x3c08a475	0.008339991
204	0xbbb7fb3c	-0.0056146663
205	0xba9a56c7	-0.0011775129
206	0x3d485c36	0.048916064
207	0xbd1fb305	-0.038989086
208	0x3da170c1	0.07882834
209	0xbdab0a60	-0.08351588
210	0x3c74a8fe	0.014932869
211	0x3d1b39cd	0.03789692
212	0xbc7866f9	-0.015161269
213	0x3d6d024d	0.057863522
214	0x3d4384e4	0.047734156
215	0x3d66c25f	0.05633771
216	0xbd18a483	-0.037266266
217	0x3dcd3109	0.10019118
218	0x3c8da072	0.01728842
219	0x3dca0ba4	0.098655015
220	0x3c2a10f7	0.010380021
221	0x3d240937	0.04004785
222	0x3deb89f5	0.115009226
223	0x3d828ba9	0.06374294
224	0xb8ff9f88	-0.000121890625
225	0xbd9f0029	-0.077637024
226	0xbdbd54c0	-0.092446804
227	0xbb738673	-0.0037158995
228	0x3d5639cb	0.05230121
229	0x3d9154e2	0.07096268
230	0x3d8ecfee	0.06973253
231	0x3d447554	0.047963455
232	0x3d10cb73	0.035350274
233	0x3de25fc3	0.11053421
234	0x3c9822c3	0.018571263
235	0xbd177ce5	-0.036984343
236	0xbb962854	-0.004582444
237	0x3bf7329d	0.0075438754
238	0x3d13b305	0.0360594
239	0x3df5f2bc	0.120091885
240	0xbd0fc2c2	-0.035097845
241	0xbbfeafd2	-0.0077724243
242	0x3de5ff59	0.11230344
243	0x3d08cbf0	0.033397615
244	0x3d97c17e	0.074099526
245	0x3daf6378	0.08563894
246	0xbb90ca62	-0.004418657
247	0x3dd5ca63	0.10438993
248	0x3d05fcbe	0.032711737
249	0x3d7afb12	0.061274596
250	0x3d6fcd13	0.058545183
251	0x3bf5b79d	0.007498695
252	0x3da99968	0.08281213
253	0x3cb69b1d	0.02229076
254	0xbd8b756a	-0.06809504
255	0xbd579430	-0.052631557

network.2.bias f4 [64]
0	0xbc618051	-0.013763503
1	0xbd4beb7b	-0.04978512
2	0x3d9a5597	0.07535856
3	0x3cd59057	0.026069803
4	0xbd22d425	-0.039753098
5	0xbc4ce67f	-0.012506126
6	0x3afbe4c4	0.0019217958
7	0x3c544577	0.012956015
8	0xbc227e81	-0.009917856
9	0x3d14c566	0.036321066
10	0xbcec23e1	-0.028825702
11	0xbc281120	-0.010257989
12	0x3d56e0b8	0.052460402
13	0x3d6e2f31	0.058150474
14	0xbd358e9e	-0.044325463
15	0x3dc4b494	0.09604755
16	0x3d38fe0b	0.04516415
17	0xbd14912a	-0.03627125
18	0x3d9524d1	0.07282413
19	0xbd8990d1	-0.06717075
20	0x3d2d5218	0.04231462
21	0x3d40e4cc	0.047093198
22	0x3cb0090c	0.021488689
23	0x3da0692d	0.07832561
24	0xbc9b9d9a	-0.018996049
25	0x3d1ebdc7	0.038755205
26	0x3ce990ed	0.028511489
27	0x3d9ad045	0.075592555
28	0xbd4418d6	-0.047875248
29	0xbc2ca071	-0.010536299
30	0x3d6e98c0	0.058251143
31	0x3dbac342	0.09119274
32	0x3ca038a3	0.019558256
33	0x3db673fa	0.089088395
34	0x3d2c4b3f	0.042063948
35	0x3d6c8bd2	0.05775053
36	0x3db5e550	0.088816285
37	0xbbb38483	-0.005478443
38	0x3d712f0c	0.058882758
39	0x3da1e99e	0.07905887
40	0x3cafce83	0.021460777
41	0xbdbb23ca	-0.091376856
42	0xbcbef69c	-0.023310952
43	0x3c8c3b46	0.017118108
44	0x3d953cf6	0.07287018
45	0x3dad3be3	0.08458688
46	0x3d8082d3	0.06274953
47	0x3d369e01	0.044584278
48	0x3dba9ad8	0.09111565
49	0xbc56a931	-0.013101862
50	0x3d71be3a	0.059019305
51	0xbbb84bd6	-0.0056242747
52	0x3d8a17f4	0.0674285
53	0x3da0c744	0.07850507
54	0xbd3a5dea	-0.04549972
55	0x3dd3d34b	0.10343035
56	0x3c96ddf0	0.018416375
57	0xbd9b94dc	-0.07596752
58	0x3d2a822c	0.041628048
59	0x3da79e47	0.08184486
60	0xbd00b67e	-0.031424038
61	0xbc41772b	-0.011808197
62	0x3da74c3c	0.081688374
63	0x3d87e045	0.06634573

network.4.weight f4 [16, 64]
0	0xbd76ab07	-0.060221698
1	0xbd95e815	-0.07319657
2	0xbd490a87	-0.049082305
3	0xbd55d43f	-0.052204367
4	0xbd55909f	-0.052139875
5	0x3c2a8d44	0.010409657
6	0x3d0d380d	0.034477282
7	0xbd90b38c	-0.07065496
8	0xbbff4d06	-0.0077911643
9	0xbd266345	-0.040622015
10	0xbd03f03b	-0.032211524
11	0x3d87bbdb	0.066276275
12	0xbd57ea51	-0.052713696
13	0x3d20a859	0.03922305
14	0x3c36be65	0.011153792
15	0xbb990eea	-0.0046709673
16	0x3e0a2920	0.1349225
17	0xbd65878a	-0.056037463
18	0xbdf43882	-0.119248405
19	0xbdbbcf1b	-0.091703616
20	0x3da247df	0.079238646
21	0x3bca141a	0.006166947
22	0x3e02e0ce	0.12781069
23	0xbd8c4ab2	-0.068501845
24	0xbd5acc3d	-0.053417433
25	0xbd9fd0bf	-0.07803487
26	0x3d9bffe8	0.076171696
27	0x3e1020ce	0.14075014
28	0xbc2affef	-0.010436996
29	0x3e141c0c	0.14463824
30	0x3d5acf39	0.05342028
31	0x3da4049a	0.0800869
32	0x3d0e3685	0.034719963
33	0x3e28e644	0.1649409
34	0xbd4376ac	-0.047720596
35	0xbd944d93	-0.072413586
36	0xbdbabab1	-0.0911764
37	0x3d5031f7	0.0508289
38	0xbe0f8c6d	-0.14018412
39	0x3d8cefd4	0.06881681
40	0xbd61e424	-0.055149212
41	0xbd45b21b	-0.048265558
42	0x3cd99715	0.0265613
43	0xbde920e6	-0.11383228
44	0x3cf55dae	0.029951897
45	0xbbc0d73f	-0.0058850343
46	0xbc74e7d1	-0.014947847
47	0x3dcc0775	0.0996236
48	0x3e2bac18	0.16764867
49	0x3c02ad85	0.007975941
50	0x3dd83b43	0.10558178
51	0xbe0ed2f9	-0.13947667
52	0xbd0e34b4	-0.03471823
53	0x38e20a60	0.00010778452
54	0xbd1f20a2	-0.03884948
55	0x3df2d7f2	0.118575945
56	0xbd2128e5	-0.03934564
57	0x3e0e8b1d	0.13920255
58	0x3c30ae82	0.010783793
59	0x3e1ac102	0.15112689
60	0x3d0834c1	0.033253435
61	0xbd1934cb	-0.037403863
62	0x3d5add3e	0.05343365
63	0xbe0f62bd	-0.1400251
64	0x3d8eb3ab	0.06967863
65	0x3e1c11e4	0.152412
66	0x3b485851	0.0030570219
67	0x3b4935c8	0.0030702222
68	0xbe052d53	-0.13005571
69	0xbd3ae478	-0.04562804
70	0xbda406b0	-0.08009088
71	0x3dbc15f0	0.09183872
72	0x3e0bf1f7	0.13666521
73	0x3e06e6a6	0.13173923
74	0x3e01cc8f	0.12675689
75	0xbd06571e	-0.032797925
76	0x3e07f054	0.13275272
77	0xbdcdcfd9	-0.100494094
78	0xbca4c816	-0.02011494
79	0xbd224704	-0.039618507
80	0x3dc5c784	0.09657195
81	0xbc96f530	-0.018427461
82	0x3dbf21fa	0.093326524
83	0x3d37fa11	0.044916216
84	0x3dcd7a6c	0.10033116
85	0x3cb6b23a	0.022301782
86	0xbcef2fef	-0.029197661
87	0xbd4832e8	-0.048876673
88	0x3d4ba6e0	0.04971969
89	0x3e1bbe82	0.15209392
90	0x3b9ceaf1	0.0047887494
91	0x3e068ad4	0.13138896
92	0xbdb0babd	-0.086293675
93	0x3e0cf481	0.13765146
94	0xbd38a374	-0.045077756
95	0x3dac64e7	0.08417683
96	0x3c57bbb7	0.013167313
97	0xbdfb5390	-0.12271798
98	0x3c1a209a	0.009407187
99	0x3da66b3b	0.08125921
100	0xbc9d07a6	-0.019168686
101	0xbcd1d1cc	-0.025612734
102	0x3df52864	0.119705945
103	0x3e306153	0.17224626
104	0xbbf7f92e	-0.0075675463
105	0xbdf4be41	-0.119503506
106	0xbc33b244	-0.010967795
107	0x3e4eaf0d	0.20183964
108	0xbd1daae5	-0.038493056
109	0xbd183f3c	-0.03716968
110	0x3e09ab19	0.13444175
111	0x3d9d645a	0.07685156
112	0xbdd26264	-0.10272673
113	0x3c49cee1	0.01231739
114	0x3d46c162	0.048524268
115	0x3cb55082	0.022133116
116	0xbc9aef33	-0.018912887
117	0x3d2ab7b4	0.0416791
118	0x3e2684f9	0.16261663
119	0xbd6378b3	-0.05553503
120	0x3d00fc9e	0.031490915
121	0xbe1a285b	-0.15054457
122	0x3e2a3623	0.16622214
123	0xbe10a2d5	-0.14124615
124	0xbd8b28bd	-0.067948796
125	0x3e35bcc9	0.17747797
126	0x3db942e9	0.09045965
127	0x3c866295	0.01640443
128	0xbd82031d	-0.0634825
129	0xbc87d3c9	-0.01658048
130	0xbd88e595	-0.06684414
131	0xbdd44080	-0.10363865
132	0xbbea0ea5	-0.007142859
133	0xbdd89807	-0.10575872
134	0xbd94d1f4	-0.07266608
135	0x3d8eea88	0.06978327
136	0x3dd817c2	0.105514064
137	0xbd9b09c0	-0.07570219
138	0x3ce0e1ae	0.027451362
139	0x3dd6ac23	0.10482051
140	0xbca260a9	-0.019821482
141	0x3e047f3a	0.12939158
142	0x3d9a52ef	0.075353496
143	0x3ca509ea	0.020146329
144	0xbd134d44	-0.035962358
145	0x3d1f5ee9	0.038908873
146	0x3c55cf1a	0.013049865
147	0x3cb7cc74	0.022436358
148	0xbde0d21d	-0.10977576
149	0xbc039f71	-0.008033619
150	0xbcb3df58	-0.021957085
151	0x3d3ceccc	0.046124265
152	0xbd5e9d14	-0.05434902
153	0xbd9a3fa6	-0.07531671
154	0x3cd4d703	0.025981432
155	0x3dfdbd6a	0.123896435
156	0x3d7e1d18	0.062039465
157	0xbbe9bc31	-0.00713303
158	0xbd21c721	-0.039496545
159	0xbd83a44f	-0.06427824
160	0xbda7270e	-0.08161746
161	0x3d8f9f80	0.07012844
162	0x3dcef660	0.10105586
163	0x3cb5fb2e	0.022214498
164	0xbd2228b6	-0.039589606
165	0xbe1be0ed	-0.15222521
166	0xbe0c497b	-0.13699906
167	0x3d16a8ef	0.0367822
168	0x3c9b4186	0.018952142
169	0x3d98589d	0.07438777
170	0xba97b7b1	-0.001157513
171	0x3de62694	0.11237827
172	0x3d35eeb2	0.04441709
173	0xbb182bec	-0.002321954
174	0xbdbdd22f	-0.09268605
175	0x3dc9e93d	0.0985894
176	0x3e22d98f	0.15903305
177	0x3c1535d5	0.009107073
178	0xbb6e8580	-0.003639549
179	0xbd9dde95	-0.0770847
180	0x3d0c2ae6	0.0342206
181	0x3de0a72d	0.10969386
182	0xbdd709a9	-0.104998894
183	0x3d85bec6	0.06530528
184	0x3d91ed17	0.071252994
185	0x3db032e9	0.0860346
186	0x3cb2fd59	0.021849321
187	0x3dafc5f8	0.085826814
188	0x3d4698c0	0.048485518
189	0xbd6c2ffe	-0.057662956
190	0xbdadd59e	-0.0848801
191	0xbd7b01e4	-0.0612811
192	0xbd4851fd	-0.048906315
193	0xbcfe70c2	-0.031059626
194	0xbd0a69d6	-0.03379234
195	0x3dfecd59	0.12441511
196	0xbd8a8b61	-0.06764866
197	0x3d9ff74e	0.078108415
198	0xbb72e3db	-0.0037062082
199	0xbc336b94	-0.010950942
200	0xbc40e4c1	-0.011773289
201	0xbdcf8a80	-0.10133839
202	0xbdf4a2fb	-0.119451486
203	0xbdf705e4	-0.120616704
204	0xbcd389f7	-0.025822623
205	0xbdc3eadb	-0.095662795
206	0x3d609ef2	0.054839082
207	0x3d5f0eb4	0.05445738
208	0xbda0ee60	-0.078579664
209	0xbdf4d2ab	-0.11954244
210	0x3da99787	0.08280855
211	0xbcb0a861	-0.021564664
212	0xbd53156b	-0.051534098
213	0x3dd056ec	0.10172829
214	0xbd3b46a0	-0.04572165
215	0xbdbfddee	-0.093685016
216	0xbda88a2d	-0.0822948
217	0xbcd81188	-0.026375547
218	0xbd6aaad5	-0.057291824
219	0x3c8deb39	0.017324077
220	0x3d60c10e	0.05487161
221	0x3ddaf82a	0.10691865
222	0xbd30ad64	-0.04313411
223	0xbd146238	-0.03622648
224	0xbd8ba2ef	-0.068181865
225	0xbc6546ab	-0.013993899
226	0x3dda2c10	0.106529355
227	0x3de07da6	0.109614655
228	0xbcc7baab	-0.024381002
229	0x3d6599a1	0.056054715
230	0xbd2343d3	-0.039859604
231	0x3d0381f7	0.032106366
232	0x3dd00d28	0.10158759
233	0x3c184dd0	0.009295896
234	0x3d9f3418	0.07773608
235	0xbd809466	-0.06278305
236	0x3cb1dd32	0.02171192
237	0x3d6c1fa7	0.057647374
238	0xbddaf73e	-0.10691689
239	0xbb2d583a	-0.0026450292
240	0x3dd7aee5	0.10531405
241	0x3dd059b8	0.101733625
242	0xbdaf0b53	-0.08547082
243	0xbda79031	-0.08181799
244	0xbd8ea173	-0.06964388
245	0x3c818b18	0.015813395
246	0x3c7c4d54	0.015399296
247	0x3d0c2907	0.034218814
248	0xbd56ee04	-0.052473083
249	0xbdd6538e	-0.104651555
250	0xbc1efd5e	-0.009703962
251	0x3db6ee5e	0.08932184
252	0xbd9f9572	-0.07792176
253	0xbcee853d	-0.029116267
254	0xbdb6735f	-0.08908724
255	0x3d80044b	0.06250819

network.4.bias f4 [16]
0	0xbd2bbe73	-0.041929673
1	0x3d6cece3	0.0578431
2	0x3df525a7	0.11970072
3	0xbdf1ac87	-0.11800485
4	0x3d727e05	0.059202213
5	0xbd071a1f	-0.032983895
6	0xbd2a46a2	-0.041571267
7	0x3c1efea6	0.009704268
8	0xbdb387fc	-0.08766171
9	0x3cae34e2	0.02126545
10	0xbdb8caf4	-0.09023085
11	0x3d340bad	0.043956447
12	0x3daff29e	0.085911974
13	0xbd992bc7	-0.07479053
14	0xbdba7b70	-0.09105575
15	0x3df2043f	0.11817216

network.6.weight f4 [2, 16]
0	0x3e7faef1	0.24969079
1	0xbe12972c	-0.1431548
2	0xbd1e239a	-0.03860817
3	0x3e6ac37d	0.22926135
4	0xbe584bff	-0.2112274
5	0x3e10a966	0.1412712
6	0xbc8c822a	-0.01715191
7	0x3b06ad37	0.0020550021
8	0x3bfebb1d	0.0077737705
9	0x3bd9561f	0.006632581
10	0x3d67f80a	0.056633033
11	0xbe856d7c	-0.26060092
12	0x3e550742	0.2080355
13	0xbd534fba	-0.051589705
14	0x3d67ca56	0.056589447
15	0x3e71c5f3	0.23610668
16	0xbe9b9e67	-0.3039429
17	0x3dcfd7ec	0.10148606
18	0xbe71b7f6	-0.23605332
19	0x3e446f67	0.19183122
20	0x3e1c4996	0.15262446
21	0xbdb48d99	-0.0881607
22	0xbe078994	-0.13236076
23	0xbe21e232	-0.15808943
24	0xbe023245	-0.12714489
25	0xbe92ffc5	-0.28710762
26	0xbe6be1e6	-0.23035392
27	0xbd284a94	-0.04108675
28	0x3e5329e0	0.20621443
29	0x3e97154f	0.29508445
30	0xbe3dbb3a	-0.18528453
31	0x3c4543b7	0.01204007

network.6.bias f4 [2]
0	0xbe567e38	-0.20946586
1	0x3e7b198a	0.24521461
