models/heloc/loo/adam_epochs30_lr0.0004_batch32_dropout0/model_101.pth (torch, 52515 bytes, 8 tensors)

network.0.weight f4 [128, 23]
0.07478136 0.08541296 -0.15564477 -0.23081599 -0.15193501 0.0111734215 -0.039296716 0.19128157
-0.016405012 -0.10782584 -0.07492227 -0.02184302 -0.14446871 -0.12432931 -0.24785863 -0.04245726
0.02610972 0.15584204 -0.16099977 -0.086901136 -0.006807718 0.23870845 -0.014779183 0.23247728
-0.1614284 0.0537341 0.2514675 -0.24449538 -0.057153646 -0.02465861 0.032389797 0.1993061
-0.098304704 -0.10410088 -0.16094682 -0.16864559 -0.01565526 0.22050183 0.10507234 0.09703227
0.030234493 -0.11699397 0.010377978 -0.2580557 -0.27072057 -0.024580734 0.18255942 0.13304769
-0.04818418 -0.07725399 0.12831107 0.21376213 0.10445781 -0.027618188 0.08854448 -0.09248746
0.086703114 -0.247438 -0.06857382 -0.068000294 0.11214028 0.15423347 -0.09107102 0.09603045
0.14889018 0.028182857 0.034251504 0.15528251 0.18665414 0.2432751 -0.17051578 -0.14020154
0.047643196 0.15500373 0.1244236 0.13348669 0.05972529 -0.17929406 -0.0036279005 -0.19207102
-0.21686934 0.17124604 0.20409435 -0.43999988 0.031331398 -0.05934275 -0.03677036 -0.08770107
0.09582035 -0.20946121 0.13707392 0.011489143 0.19588666 0.12506731 -0.33856827 -0.066988446
0.15382434 -0.004601662 -0.1669555 -0.21186411 0.20001674 0.20032427 0.010450145 -0.07833121
-0.23479855 0.023024058 -0.18658412 -0.111390516 0.04726357 -0.043688606 -0.13777491 0.09670508
-0.046511866 0.15783365 0.09181364 -0.20883748 -0.1020684 0.04506907 -0.018263673 0.02463595
0.05110526 -0.06168481 -0.05479881 0.073829465 -0.14515378 -0.11959979 -0.0426377 -0.16577184
-0.052769113 -0.24045472 0.0010003559 0.08119577 -0.19664104 -0.071697935 0.062658735 -0.087246664
-0.017984636 0.020446392 -0.014483426 0.10677575 0.29072246 0.044123318 0.1991563 -0.029847363
-0.22950733 -0.15005663 0.08308106 -0.11241292 -0.076971665 -0.15212327 -0.28195083 -0.1785284
0.12990454 0.121390335 0.11136428 -0.2216111 0.2533136 -0.099659495 -0.009044387 -0.0027627605
0.10930914 -0.19679785 -0.14136688 -0.19006056 -0.08395163 -0.020865422 -0.12617792 0.07176755
-0.25939754 0.033751674 0.13906513 -0.07204436 0.21402845 0.11221274 -0.21625625 0.12079495
0.055560883 0.0031283149 0.21123238 -0.1000424 0.03474495 -0.06882596 0.21987864 0.0004233777
0.09016932 0.07690417 -0.060046762 -0.089742765 -0.18800619 0.039988153 0.06582527 0.1072592
-0.2834908 -0.030554099 -0.17032184 -0.022349538 -0.10011754 0.07856033 -0.20664003 -0.052651867
-0.04733729 0.12451625 -0.13554141 -0.099215426 -0.10649555 0.25653923 -0.046277504 0.21166557
0.042785462 0.120417655 -0.06746596 -0.06027246 0.104976855 0.024284836 0.100768775 0.033067316
-0.2537725 -0.18004143 0.12839228 -0.144159 -0.05891459 0.2153941 0.07242453 0.018264094
-0.21234514 0.11712428 -0.13608049 -0.014314465 -0.21180403 -0.011855968 -0.013693639 0.15631448
-0.03047241 0.22057107 0.15663208 -0.24705115 0.099549636 -0.10973639 -0.1297467 0.060286257
0.15810506 0.10818969 -0.11938989 -0.008203326 0.118117124 -0.25776556 0.14919668 -0.19828889
-0.029299868 -0.01178934 -0.14481132 0.0034710579 0.21217625 -0.02387576 -0.15878877 -0.03757299
00000000: f826 993d fdec ae3d 5861 1fbe 075b 6cbe
00000010: da94 1bbe ba10 373c 98f5 20bd 51df 433e
00000020: ce63 86bc cbd3 dcbd d970 99bd 22f0 b2bc
00000030: 9bef 13be 5ea0 febd a7ce 7dbe aae7 2dbd
00000040: 0de4 d53c 0e95 1f3e 20dd 24be 39f9 b1bd
00000050: 4713 dfbb fd6f 743e 6324 72bc 860e 6e3e
00000060: 7d4d 25be 4a18 5c3d 59c0 803e ff5c 7abe
00000070: f119 6abd da00 cabc 2aab 043d e616 4c3e
00000080: fa53 c9bd d832 d5bd 3ecf 24be 6eb1 2cbe
00000090: 763f 80bc 3bcb 613e 2b30 d73d dbb8 c63d
000000a0: 54ae f73c 899a efbd 6508 2a3c e01f 84be
000000b0: e39b 8abe 895d c9bc dbf0 3a3e a73d 083e
000000c0: c65c 45bd 5737 9ebd fa63 033e 76e4 5a3e
000000d0: faed d53d 8a3f e2bc cf56 b53d 116a bdbd
000000e0: 6791 b13d 6360 7dbe 6e70 8cbd bd43 8bbd
000000f0: cea9 e53d 61ef 1d3e 7183 babd 9dab c43d
00000100: ab76 183e bcdf e63c 4e4b 0c3d 6102 1f3e
00000110: 4322 3f3e 1c1d 793e b09b 2ebe fe90 0fbe
00000120: 8325 433d 4cb9 1e3e cdd1 fe3d bcb0 083e
00000130: 81a2 743d dd98 37be 12c2 6dbb 44ae 44be
00000140: ff12 5ebe 1f5b 2f3e 1cfe 503e aa47 e1be
00000150: 5a55 003d 6211 73bd 849c 16bd 9e9c b3bd
00000160: 763d c43d 007d 56be 1b5d 0c3e f53c 3c3c
00000170: 8396 483e a511 003e d258 adbe 3d31 89bd
00000180: 2184 1d3e 8ac9 96bb 62f6 2abe e8f2 58be
00000190: 30d1 4c3e ce21 4d3e 1637 2b3c 1d6c a0bd
000001a0: 086f 70be f39c bc3c e80f 3fbe b620 e4bd
000001b0: 7297 413d d3f2 32bd de14 0dbe 500d c63d
000001c0: 3a83 3ebd 259f 213e ca08 bc3d 7ed9 55be
000001d0: 3d09 d1bd 589a 383d b39d 95bc 55d1 c93c
000001e0: c053 513d 36a9 7cbd b874 60bd e733 973d
000001f0: 31a3 14be bcf0 f4bd dea4 2ebd 18c0 29be
00000200: 6d24 58bd c339 76be 601e 833a f849 a63d
00000210: 455c 49be 5ed6 92bd 3953 803d 61ae b2bd
00000220: 8454 93bc 317f a73c e44b 6dbc 3fad da3d
00000230: 93d9 943e a7ba 343d a1ef 4b3e 7582 f4bc
00000240: f803 6bbe 72a8 19be 6726 aa3d bf38 e6bd
00000250: 52a3 9dbd 34c6 1bbe dc5b 90be 26d0 36be
00000260: b205 053e 7f9b f83d f512 e43d 05ee 62be
00000270: 52b2 813e 471a ccbd e92e 14bc 6e0f 35bb
00000280: 78dd df3d 6085 49be 7bc2 10be 3c9f 42be
00000290: d5ee abbd f6ed aabc c934 01be defa 923d
000002a0: c1cf 84be 323f 0a3d 1767 0e3e fe8b 93bd
000002b0: 462a 5b3e cbcf e53d 4772 5dbe 5863 f73d
000002c0: cf93 633d 6a04 4d3b 4d4d 583e 08e3 ccbd
000002d0: b850 0e3d a0f4 8cbd de27 613e cbf8 dd39
000002e0: b1aa b83d ef7f 9d3d 98f3 75bd 0ecb b7bd
000002f0: b284 40be 9eca 233d 66cf 863d b6aa db3d
00000300: b525 91be 974c fabc d968 2ebe 6116 b7bc
00000310: 6d0a cdbd 3de4 a03d 7299 53be 7ca9 57bd
00000320: bfe4 41bd 6002 ff3d 5ecb 0abe 7531 cbbd
00000330: 571a dabd 1c59 833e 7b8d 3dbd dcbe 583e
00000340: cf3f 2f3d 889d f63d 982b 8abd 41e0 76bd
00000350: 1bfe d63d fef0 c63c dc5f ce3d 9871 073d
00000360: 78ee 81be c85c 38be 4479 033e 6b9e 13be
00000370: 6d50 71bd 4590 5c3e 5053 943d 959e 953c
00000380: 0171 59be dbde ef3d af58 0bbe 3887 6abc
00000390: 28e3 58be 893f 42bc 495b 60bc e710 203e
000003a0: 47a1 f9bc 62dd 613e 2964 203e fafa 7cbe
000003b0: aee0 cb3d 79bd e0bd 52dc 04be b9ee 763d
000003c0: 4be6 213e 8e92 dd3d b082 f4bd 3e67 06bc
000003d0: 64e7 f13d d9f9 83be 04c7 183e 3e0c 4bbe
000003e0: 4706 f0bc 1328 41bc 6b49 14be b07a 633b
000003f0: bb44 593e 1997 c3bc 8699 22be 23e6 19bd

network.0.bias f4 [128]
-0.11261296 -0.108598575 0.054481465 0.08061454 -0.11812451 -0.020311806 -0.18418932 -0.13677742
0.13668656 -0.12528048 0.2158234 0.14630616 -0.048354276 -0.11461744 -0.0034006678 -0.2013956
0.12120517 -0.08375233 0.08751985 -0.17647326 0.09362826 0.08444787 0.21878345 -0.017268904
0.08868665 0.063414164 0.17666444 0.22144136 -0.20455024 0.07562568 -0.046859473 -0.105394796
0.17075135 0.011065629 0.08929036 0.16798142 0.14745991 0.13086066 -0.055650044 -0.23860022
-0.22844279 0.12344283 0.030461598 -0.11376398 0.10640486 0.120424055 0.17339723 -0.09475175
0.009740869 -0.104263276 0.027874727 -0.09324739 0.15100238 -0.17804381 -0.057506457 -0.098476134
-0.122196585 0.014937684 -0.17450747 0.23151313 0.15730183 -0.23605347 0.028023124 0.10965731
0.15437053 0.030808613 0.1712622 -0.07459076 -0.027555903 0.14710164 -0.16056275 0.22004792
0.12416249 -0.0076787625 0.15659955 0.23623224 0.10323083 0.07103458 0.037085455 -0.085970834
0.0032777325 -0.11988105 0.16493885 -0.11016942 0.061725322 -0.026320737 0.069812424 0.0013510654
0.20967458 -0.023289047 -0.10856679 0.03847163 -0.14866748 -0.13293125 0.053867824 -0.16493115
-0.09482498 -0.016652538 -0.0013961266 -0.15415491 -0.07861915 -0.110015705 0.14271471 0.031272944
-0.035304416 -0.20628275 0.0020916387 0.10344922 -0.06715859 0.16130881 0.22815199 0.017050503
0.05709488 0.12246337 -0.037967775 0.041004416 0.19299187 -0.06992536 -0.01599075 -0.13986401
-0.054687504 0.13020982 0.16366227 -0.045321334 0.11761269 0.10060814 -0.018428035 0.13543151
00000000: a0a1 e6bd ee68 debd f527 5f3d 3c19 a53d
00000010: 43eb f1bd f264 a6bc 209c 3cbe 610f 0cbe
00000020: 90f7 0b3e 8749 00be cf00 5d3e 48d1 153e
00000030: 220f 46bd 8cbc eabd bddd 5ebb a63a 4ebe
00000040: 6b3a f83d 5786 abbd 9b3d b33d 68b5 34be
00000050: 2cc0 bf3d 01f3 ac3d c508 603e 8477 8dbc
00000060: 59a1 b53d 49df 813d 86e7 343e 86c1 623e
00000070: 9e75 51be a3e1 9a3d b8ef 3fbd 3ad9 d7bd
00000080: 71d9 2e3e 9d4c 353c dddd b63d 5203 2c3e
00000090: bbff 163e 5600 063e 4df1 63bd 9e53 74be
000000a0: e8ec 69be 98cf fc3d 9a8a f93c 17fd e8bd
000000b0: cbea d93d e3a0 f63d 0b8f 313e 350d c2bd
000000c0: 2a98 1f3c fc87 d5bd 8a59 e43c 7df8 bebd
000000d0: 5ea0 1a3e 1e51 36be e48b 6bbd dbad c9bd
000000e0: 3442 fabd 30bd 743c 16b2 32be c711 6d3e
000000f0: bb13 213e 00b8 71be c090 e53c 0394 e03d
00000100: 4f13 1e3e 5862 fc3c 5c5f 2f3e 0ac3 98bd
00000110: ebbc e1bc d0a1 163e 906a 24be 3e54 613e
00000120: e748 fe3d 219e fbbb a25b 203e dde6 713e
00000130: af6a d33d 947a 913d ebe6 173d 7a11 b0bd
00000140: 3acf 563b 3284 f5bd bbe5 283e 81a0 e1bd
00000150: b1d3 7c3d 969e d7bc d1f9 8e3d 3b16 b13a
00000160: efb4 563e acc8 bebc 4458 debd 6e94 1d3d
00000170: 4a3c 18be 211f 08be 82a4 5c3d b6e3 28be
00000180: 9933 c2bd e76a 88bc 3cfe b6ba c9da 1dbe
00000190: 1403 a1bd ea4f e1bd ce23 123e 0f18 003d
000001a0: 5d9b 10bd c93b 53be e013 093b 2fdd d33d
000001b0: 718a 89bd 232e 253e ada0 693e 7fad 8b3c
000001c0: 52dc 693d 13ce fa3d 1984 1bbd 3ff4 273d
000001d0: a99f 453e 0735 8fbd 09ff 82bc 8338 0fbe
000001e0: 0100 60bd b955 053e 1597 273e dda2 39bd
000001f0: ecde f03d a40b ce3d 64f6 96bc 8fae 0a3e

network.2.weight f4 [64, 128]
0.04198883 0.028062003 -0.208876 -0.056113534 0.04234202 -0.064969264 0.114782095 0.045024127
-0.10077747 0.15119924 0.09551383 0.124832876 0.10477804 0.05934749 0.021724438 -0.06927777
-0.08589913 0.12377535 -0.081331246 0.017298639 0.08310425 0.0123190135 -0.09371469 -0.04973943
-0.1318054 0.03484237 -0.12526539 -0.023488835 -0.2206656 0.0015884466 -0.07193288 -0.03223751
0.09735086 -0.017795656 -0.0252476 0.09666242 0.073116586 0.085871905 -0.16577516 -0.12371465
0.010070465 0.07569904 0.025335012 -0.08250241 0.01197181 0.0072261677 0.15795478 -0.054654676
0.008932961 -0.100511335 0.0896562 -0.106324255 0.048389945 -0.30902356 0.026191402 -0.026655238
0.05087669 0.10830178 -0.12966259 0.011599834 0.041570734 0.030347902 -0.16694462 0.053125825
0.002060531 0.07253228 0.052468438 0.037555177 -0.01691895 0.14405562 0.015353023 0.11172232
-0.02175522 -0.09341831 0.027964946 0.06700938 -0.11823843 -0.049222294 -0.16128404 0.062483255
-0.10812819 -0.07141797 -0.020025976 -0.08503233 0.06587953 -0.15271805 -0.047800492 -0.14948389
0.12024536 0.008304646 -0.11303092 0.012760373 -0.002401565 0.035127763 0.049241684 -0.061752494
-0.030397115 -0.035462394 -0.21060254 -0.091124736 -0.010597353 -0.051359523 0.128271 0.024799349
-0.075714245 -0.2036445 0.05580477 -0.2906877 -0.02537264 0.09382248 -0.065430485 -0.12153419
-0.013780432 0.023326864 -0.053342894 0.04219202 -0.15516701 0.07757442 0.008533096 0.059320398
0.12972146 0.15115051 0.07120711 0.09365163 -0.07938377 0.029039381 0.04803625 -0.12561327
0.07543491 -0.005070258 -0.026522685 -0.040464465 -0.07904945 0.020209411 -0.03485669 -0.14017944
0.047438066 0.016863206 0.03838411 0.061442602 -0.09822791 0.055580795 -0.020067215 -0.023000274
0.02668918 0.10933494 0.08535213 0.024366597 -0.0043450077 0.018773288 0.06272966 0.081854045
0.029431665 -0.07211834 0.07704467 0.0820265 0.11924049 0.012258662 -0.024246043 0.06453002
0.10766401 0.0119015165 0.036525257 -0.051499393 -0.05419151 0.05251205 0.14160934 0.06733347
-0.009362125 -0.12639748 0.05145843 0.048381213 0.080718495 0.00032989212 -0.10436597 0.124900654
0.053240504 0.09905228 0.014695309 -0.09047545 0.003505902 -0.017517112 0.09272831 0.02537046
0.060071137 -0.120017245 -0.06504906 -0.01605081 0.03791727 -0.10826928 -0.03340947 -0.054643832
0.0875249 -0.01477649 -0.11458882 -0.02823831 0.04059386 -0.0032988754 0.028212339 -0.004384781
0.03549452 0.01837672 -0.07936838 -0.10426991 0.0021208213 -0.020189691 0.032805294 -0.05430468
0.043641903 0.016765887 -0.024826486 0.11593217 -0.09312732 -0.028581284 0.08683084 -0.07146123
0.024174366 -0.038782526 0.10525463 0.12694368 0.07563682 0.14332813 0.039748237 0.0023178982
-0.02077003 -0.039029814 -0.030422444 0.1646212 0.060028557 0.043951076 -0.096611544 -0.034230657
0.05545184 0.16290572 -0.05852564 0.01462081 0.14904626 0.016129514 0.015352022 0.18847354
0.00332298 0.15430897 0.049797554 -0.10934253 -0.008817125 -0.0851983 0.121133685 -0.10573193
0.031535808 -0.11807072 0.031953767 0.14979419 0.0486626 0.016764961 0.07543383 0.04111485
00000000: 7bfc 2b3d 49e2 e53c 97e3 55be 4ed7 65bd
00000010: d36e 2d3d 9b0e 85bd e012 eb3d 386b 383d
00000020: 6b64 cebd f9d3 1a3e c19c c33d 61a8 ff3d
00000030: de95 d63d 5b16 733d 73f7 b13c 81e1 8dbd
00000040: e2eb afbd ee7d fd3d ff90 a6bd e0b5 8d3c
00000050: 9032 aa3d b0d5 493c 7ded bfbd 93bb 4bbd
00000060: fff7 06be dfb6 0e3d 9245 00be a86b c0bc
00000070: 2af6 61be 6c33 d03a 8c51 93bd 7b0b 04bd
00000080: e35f c73d 32c8 91bc 0ed4 cebc f2f6 c53d
00000090: 26be 953d 9cdd af3d f7c0 29be 1b5e fdbd
000000a0: 97fe 243c 1908 9b3d 5f8b cf3c 06f7 a8bd
000000b0: 6925 443c 7dc9 ec3b e6be 213e 95dd 5fbd
000000c0: 8e5b 123c e3d8 cdbd ab9d b73d 88c0 d9bd
000000d0: 8934 463d 5638 9ebe 5a8f d63c 165c dabc
000000e0: 1364 503d 53cd dd3d 45c6 04be 3b0d 3e3c
000000f0: 1346 2a3d 2a9c f83c 88f3 2abe 779a 593d
00000100: f909 073b ce8b 943d 25e9 563d 75d3 193d
00000110: 9c99 8abc 5183 133e 3f8b 7b3c acce e43d
00000120: 0138 b2bc 1952 bfbd be16 e53c 373c 893d
00000130: fd26 f2bd 519d 49bd a527 25be 71ee 7f3d
00000140: 5072 ddbd 9643 92bd 840d a4bc 6e25 aebd
00000150: d9eb 863d 1f62 1cbe 73ca 43bd 4e12 19be
00000160: 3343 f63d 3610 083c c17c e7bd e210 513c
00000170: 9363 1dbb 21e2 0f3d a6b1 493d 2ff0 7cbd
00000180: 5f03 f9bc 0441 11bd 31a8 57be 9b9f babd
00000190: 85a0 2dbc 5d5e 52bd 7959 033e 0128 cb3c
000001a0: 1210 9bbd 2f88 50be 8b93 643d 05d5 94be
000001b0: 48da cfbc 0026 c03d 6b00 86bd ebe6 f8bd
000001c0: 52c7 61bc fb17 bf3c 147e 5abd 8ad1 2c3d
000001d0: 1ae4 1ebe 56df 9e3d 66ce 0b3c f2f9 723d
000001e0: b4d5 043e 33c7 1a3e 09d5 913d 6dcc bf3d
000001f0: f593 a2bd ffe3 ed3c a9c1 443d c4a0 00be
00000200: 9e7d 9a3d 6824 a6bb 1a46 d9bc 11be 25bd
00000210: aee4 a1bd 358e a53c e3c5 0ebd 338b 0fbe
00000220: 6b4e 423d b524 8a3c a838 1d3d 3dab 7b3d
00000230: b72b c9bd b0a8 633d 0064 a4bc 126b bcbc
00000240: 44a3 da3c ffea df3d 19cd ae3d 759c c73c
00000250: 9160 8ebb 70ca 993c 6878 803d 18a3 a73d
00000260: ad1a f13c c8b2 93bd 99c9 9d3d 82fd a73d
00000270: 5c34 f43d 8ed8 483c a39f c6bc 5128 843d
00000280: f37e dc3d 94fe 423c 829b 153d 07f1 52bd
00000290: ebf7 5dbd e016 573d 0a02 113e 21e6 893d
000002a0: 9963 19bc 576e 01be 13c6 523d 612b 463d
000002b0: bd4f a53d 5ff5 ac39 d3bd d5bd eacb ff3d
000002c0: b712 5a3d ecdb ca3d 98c4 703c 314b b9bd
000002d0: 46c3 653b 0c80 8fbc 57e8 bd3d b6d5 cf3c
000002e0: 270d 763d 9acb f5bd 7138 85bd fd7c 83bc
000002f0: 244f 1b3d 49bc ddbd 5ed8 08bd 36d2 5fbd
00000300: 4140 b33d 1719 72bc 8bad eabd 0754 e7bc
00000310: bf45 263d f231 58bb 901d e73c 35ae 8fbb
00000320: b462 113d c68a 963c e48b a2bd 768b d5bd
00000330: 7afd 0a3b da64 a5bc d85e 063d 966e 5ebd
00000340: dac1 323d 9d58 893c ea60 cbbc d86d ed3d
00000350: 89b9 bebd 4c23 eabc 5ed4 b13d 445a 92bd
00000360: 5209 c63c 6dda 1ebd bd8f d73d 86fd 013e
00000370: 7ae7 9a3d 9cc4 123e 0ccf 223d e1e7 173b
00000380: e925 aabc badd 1fbd 7d38 f9bc 7692 283e
00000390: 81e0 753d 0b06 343d 46dc c5bd 7235 0cbd
000003a0: 7821 633d c2d0 263e 95b8 6fbd 1f8c 6f3c
000003b0: 959f 183e 0b22 843c 0c87 7b3c 35ff 403e
000003c0: 5ac6 593b 2c03 1e3e 85f8 4b3d faee dfbd
000003d0: b475 10bc 727c aebd f014 f83d fb89 d8bd
000003e0: b12b 013d 10cf f1bd f4e1 023d a663 193e
000003f0: 6f52 473d ac56 893c 0d7d 9a3d 0c68 283d

network.2.bias f4 [64]
0.008366534 0.027999055 -0.05000397 0.03554721 0.050738666 -0.06836088 0.002172858 0.041846775
0.010182187 -0.06484555 0.08709769 -0.038715236 0.10192865 -0.01413178 -0.03519779 -0.046605103
0.06274432 0.11435888 -0.08268564 0.03266815 -0.044316214 -0.0066962535 0.007603354 0.09530883
0.04988646 0.10942354 -0.08078083 -0.010307408 -0.023124684 -0.042668637 0.02157419 -0.0021833002
0.099736065 0.030085552 0.025349272 0.0938765 -0.06990613 0.06385783 0.09418345 -0.042239815
0.026656501 -0.018377077 0.08569379 -0.020206481 -0.008615266 0.10125732 -0.025856888 0.048247285
-0.022898505 -0.026826067 0.061455674 0.06308444 0.06819585 -0.016377829 0.095258765 -0.0136026135
0.13388012 -0.013133321 0.0072249607 0.05576575 0.04572908 0.08515693 -0.05024334 0.003241514
00000000: c913 093c 465e e53c f6d0 4cbd f499 113d
00000010: 59d3 4f3d ca00 8cbd 8266 0e3b 8667 2b3d
00000020: 30d3 263c becd 84bd 4660 b23d de93 1ebd
00000030: f8bf d03d fb88 67bc 8f2b 10bd fee4 3ebd
00000040: 1880 803d fd34 ea3d 1757 a9bd 0acf 053d
00000050: eb84 35bd 3f6c dbbb 8e25 f93b 4731 c33d
00000060: bf55 4c3d 7319 e03d 6b70 a5bd 67e0 28bc
00000070: fa6f bdbc 4fc5 2ebd 5bbc b03c b315 0fbb
00000080: 6c42 cc3d fa75 f63c 47a9 cf3c 5342 c03d
00000090: f22a 8fbd e5c7 823d 41e3 c03d a803 2dbd
000000a0: bc5e da3c 868b 96bc 3a80 af3d 1088 a5bc
000000b0: 0b27 0dbc ff5f cf3d d3d1 d3bc f29e 453d
000000c0: a595 bbbc 57c2 dbbc f2b8 7b3d 6a32 813d
000000d0: 44aa 8b3d cc2a 86bc 0717 c33d 7fdd 5ebc
000000e0: df17 093e 242d 57bc 5dbf ec3b a16a 643d
000000f0: 6a4e 3b3d c266 ae3d f6cb 4dbd 956f 543b

network.4.weight f4 [16, 64]
0.31994107 -0.08076436 0.09282481 -0.4034194 0.24024588 0.066923834 -0.14083007 -0.098364174
-0.00027743942 -0.118324205 -0.1305989 0.000620415 0.05184237 0.05000585 -0.18546699 0.20451413
0.08056619 0.1492574 -0.20395853 -0.01354601 0.18856871 0.11228205 0.14062995 0.021660952
-0.027588814 0.19873513 0.018561462 -0.07670633 0.32010663 -0.13452277 0.037645306 -0.40226302
0.15305519 0.2945678 0.0718103 -0.06414653 -0.22559492 -0.13419406 0.020595582 0.04131714
0.06836558 -0.17586394 0.048128344 0.0706805 -0.2342067 0.071355075 0.14586204 -0.0829944
0.3199916 0.13324563 0.1755876 0.037879284 -0.224996 -0.020079618 -0.46990386 0.20112346
0.06530981 -0.118584424 0.15238734 0.010840997 -0.24515814 0.14404763 0.016307902 -0.0022159358
0.30290055 -0.043349206 0.08658742 -0.63876057 0.24545899 0.075645074 0.04757348 -0.14668311
0.019840633 0.060817346 -0.11100787 0.025955373 0.057333738 0.011738507 -0.2910577 0.43863428
0.10345361 0.06536434 -0.40328562 0.008640407 0.2864655 0.16839255 0.07260494 -0.080056034
0.054310698 0.02553125 -0.052862804 -0.15880714 0.30039054 -0.2518832 0.09726801 -0.29918653
0.03468319 0.14471336 0.10819162 0.0032668011 -0.20372015 -0.0088387905 -0.0020199385 -0.16403887
-0.07969397 -0.2980764 0.08598992 -0.13440965 -0.14162877 0.11368828 0.26568493 -0.11262927
0.2780243 0.13456473 0.18319234 -0.07671001 -0.036248144 0.103789344 -0.32979247 0.11660242
0.11695307 0.031419292 0.19381799 0.06484547 -0.2087654 0.11046229 -0.15605924 -0.02979455
-0.3191462 0.15512331 -0.063875414 0.5553238 -0.33512366 0.11880473 0.14973402 0.14114411
0.107624225 0.025958583 0.17522047 0.063615665 -0.19066593 0.035811827 0.26065087 -0.25704274
0.061092064 0.06273806 0.28230292 -0.04842888 -0.29383475 0.0003751026 -0.17485866 0.16535886
-0.08047062 0.0137380855 0.052618366 0.056310948 -0.29042786 0.17243846 -0.16765884 0.18110406
-0.14518781 -0.058847673 0.030557401 -0.04218809 0.34175453 0.06672385 0.059997838 0.030211532
0.009209787 0.37289804 0.15958232 -0.04111713 0.25701886 -0.005290872 -0.30101153 0.11382359
-0.30874628 -0.0053088726 0.075015634 0.1498862 0.11360452 0.06649783 0.30140474 -0.124454655
0.012200742 0.16603443 -0.060322694 -0.08275857 0.28971902 -0.16422985 0.16502133 0.04506829
0.2194487 -0.13447987 0.116878405 -0.5516864 0.27147487 -0.08995544 0.04453651 -0.123308405
-0.11729519 -0.17151219 0.08603543 0.08797045 0.022716574 -0.011998677 -0.14315175 0.32151654
0.14396442 0.05702005 -0.28395116 0.15961237 0.27798396 0.007704954 0.06545136 0.076599434
0.12048101 0.070521966 -0.19579484 0.037933704 0.25837702 -0.16223194 0.23917511 -0.20069379
0.11380786 0.23048122 0.077392146 0.059776705 -0.27022412 0.008259162 0.06163312 0.01459219
-0.105132125 -0.25945556 0.02640075 -0.10927895 -0.16965307 0.14393102 0.22958165 -0.1671598
0.36017206 0.017239362 0.13406219 -0.05203242 -0.04716163 0.07597439 -0.4695383 0.13470228
0.06986873 -0.09043423 0.17688479 0.09854758 -0.25428724 0.070878066 0.04720041 -0.10423861
00000000: 51cf a33e c967 a5bd ef1a be3d fd8c cebe
00000010: 0403 763e 5d0f 893d c235 10be 2873 c9bd
00000020: 4a75 91b9 f653 f2bd b8bb 05be 59a3 223a
00000030: aa58 543d efd2 4c3d 0feb 3dbe 276c 513e
00000040: e3ff a43d efd6 183e 81da 50be 15f0 5dbc
00000050: 2818 413e 22f4 e53d 4c01 103e 4f72 b13c
00000060: f001 e2bc 3981 4b3e 350e 983c 3518 9dbd
00000070: 04e5 a33e 56c0 09be f731 1a3d 6bf5 cdbe
00000080: 80ba 1c3e 97d1 963e 4711 933d 425f 83bd
00000090: 5b02 67be 2b6a 09be 11b8 a83c 293c 293d
000000a0: 4103 8c3d ad15 34be 3a22 453d f0c0 903d
000000b0: e2d3 6fbe 9c22 923d dc5c 153e f8f8 a9bd
000000c0: f0d5 a33e 8b71 083e 3ccd 333e 4f27 1b3d
000000d0: 5a65 66be 037e a4bc 3d97 f0be 4ff3 4d3e
000000e0: 26c1 853d 64dc f2bd 6d0b 1c3e 709e 313c
000000f0: bc0a 7bbe 3981 133e 2698 853c 3c39 11bb
00000100: c815 9b3e f08e 31bd bf54 b13d d085 23bf
00000110: 9a59 7b3e ceeb 9a3d 69dc 423d 1934 16be
00000120: d388 a23c 9c1b 793d 1858 e3bd 5da0 d43c
00000130: c8d6 6a3d de52 403c 8405 95be ac94 e03e
00000140: 7cdf d33d bddd 853d 747b cebe 7e90 0d3c
00000150: 9bab 923e 196f 2c3e e6b1 943d 6bf4 a3bd
00000160: e574 5e3d e926 d13c ab86 58bd 579e 22be
00000170: cacc 993e d6f6 80be 7334 c73d fa2e 99be
00000180: f60f 0e3d bd2f 143e 9193 dd3d d417 563b
00000190: 049c 50be 93d0 10bc f260 04bb cef9 27be
000001a0: 9836 a3bd 789d 98be 7c1b b03d afa2 09be
000001b0: 2207 11be 67d5 e83d db07 883e 2daa e6bd
000001c0: 3359 8e3e 56cb 093e c696 3b3e 231a 9dbd
000001d0: ef78 14bd 828f d43d 8fda a8be 40cd ee3d
000001e0: 1785 ef3d 84b1 003d 3978 463e b4cd 843d
000001f0: 99c6 55be 0e3a e23d fecd 1fbe b313 f4bc
00000200: 2167 a3be a5d8 1e3e 1dd1 82bd b329 0e3f
00000210: 5495 abbe e54f f33d e053 193e 1588 103e
00000220: 176a dc3d 18a7 d43c ff6c 333e ee48 823d
00000230: ee3d 43be 6caf 123d 0874 853e 1b9b 83be
00000240: ac3b 7a3d d07c 803d 028a 903e 5c5d 46bd
00000250: 8271 96be 6ba9 c439 260e 33be d553 293e
00000260: c8cd a4bd b515 613c 5b86 573d 4fa6 663d
00000270: f6b2 94be b593 303e c2ae 2bbe 5873 393e
00000280: 1dac 14be 420a 71bd 8453 fa3c 6bcd 2cbd
00000290: 73fa ae3e 84a6 883d 4bc0 753d 2d7e f73c
000002a0: a5e4 163c 7eec be3e 8c69 233e 706a 28bd
000002b0: fa97 833e 0d5f adbb 2f1e 9abe 581c e93d
000002c0: fe13 9ebe 0df6 adbb cca1 993d c57b 193e
000002d0: 7da9 e83d 0430 883d b951 9a3e 15e2 febd
000002e0: 9fe5 473c ee04 2a3e ee14 77bd 537d a9bd
000002f0: 0d56 943e df2b 28be 5afb 283e 8799 383d
00000300: 29b7 603e 17b5 09be f25d ef3d 523b 0dbf
00000310: c1fe 8a3e 8f3a b8bd ea6b 363d 1e89 fcbd
00000320: 7638 f0bd e4a0 2fbe 5833 b03d da29 b43d
00000330: 1c18 ba3c 1996 44bc 5f96 12be d19d a43e
00000340: 696b 133e db8d 693d 0c62 91be 6d71 233e
00000350: ea53 8e3e d779 fc3b 5d0b 863d 2ae0 9c3d
00000360: bfbe f63d d26d 903d 717e 48be 5f60 1b3d
00000370: fe49 843e 2120 26be 52ea 743e ac82 4dbe
00000380: 1814 e93d 4503 6c3e c67f 9e3d 6bd8 743d
00000390: d15a 8abe 7051 073c 0373 7c3d 1514 6f3c
000003a0: 834f d7bd 5cd7 84be 6346 d83c a4cd dfbd
000003b0: 89b9 2dbe a762 133e 7417 6b3e f02b 2bbe
000003c0: 7968 b83e 9039 8d3c 9947 093e f21f 55bd
000003d0: 8e2c 41bd 7698 9b3d 5367 f0be 65ef 093e
000003e0: 5617 8f3d 9535 b9bd 4921 353e 50d3 c93d
000003f0: f031 82be 8528 913d 3855 413d 0d7b d5bd

network.4.bias f4 [16]
0.123457134 0.05829799 -0.082868226 0.07628333 -0.099326506 0.06277563 0.15802567 -0.04430607
0.0068246615 0.11626575 0.0897118 0.12843435 -0.04857989 -0.0067720013 -0.071287446 -0.014130175
00000000: 18d7 fc3d e0c9 6e3d d1b6 a9bd 6f3a 9c3d
00000010: b26b cbbd 8290 803d 7bd1 213e 487a 35bd
00000020: 69a1 df3b bd1c ee3d d2ba b73d 4b84 033e
00000030: b5fb 46bd aae7 ddbb 27ff 91bd 4082 67bc

network.6.weight f4 [2, 16]
-0.14747682 -0.026320731 0.4538716 -0.2848215 0.21247245 0.052559506 -0.39398223 -0.12992719
0.44298878 0.3976167 -0.38068172 0.16888186 0.42491648 0.36425173 0.20935047 -0.33769575
0.35952377 0.43995792 -0.06897222 0.29678127 -0.11345755 -0.47380865 0.38510334 0.22133358
-0.17855968 -0.112660974 0.103990234 -0.4022021 -0.067246005 -0.26364952 -0.4432772 0.17910609
00000000: 2a04 17be 939e d7bc dc61 e83e 20d4 91be
00000010: 6192 593e a348 573d 0ab8 c9be a20b 05be
00000020: 6dcf e23e 6b94 cb3e b7e8 c2be 5eef 2c3e
00000030: a78e d93e 347f ba3e f85f 563e 75e6 acbe
00000040: 8013 b83e 2a42 e13e 4f41 8dbd b7f3 973e
00000050: 6f5c e8bd 0c97 f2be 442c c53e 45a5 623e
00000060: 59d8 36be ccba e6bd d5f8 d43d 6fed cdbe
00000070: 46b8 89bd 12fd 86be 3bf5 e2be 9667 373e

network.6.bias f4 [2]
-0.048999928 -0.17109084
00000000: 26b4 48bd 7032 2fbe
