models/heloc/loo/adam_epochs30_lr0.0004_batch32_dropout0/model_689.pth (torch, 52515 bytes, 8 tensors)

network.0.weight f4 [128, 23]
00000000: 91a6 033e d214 0e3e 4419 3cbe 7e61 3bbe
00000010: c98a babd a39e c1bc 40c7 82bd 9cfc ee3d
00000020: 7784 2bbd 101d fcbc f6a8 adbd 7513 2c3d
00000030: 7d6b 2fbe f0e6 c0bd 81de 2ebe b5c4 6b3d
00000040: d8ad f23d 4701 283e 2770 17be b8e6 edbd
00000050: 7a94 2f3d 0109 563e 2979 adbd 094a 2e3e
00000060: 820b 11be 4126 aabb 99b9 8c3e 9ad5 f1bd
00000070: 9bdf 00be 04ef 24bd 297f 27bd 454e 503e
00000080: 22d6 04be 6496 8fbd a370 1cbe eb7c 7bbe
00000090: 387c 8abd 7830 7b3e 3e02 e73d 127e 033e
000000a0: 7a4d 813b 7c53 0ebe d82d f63c 6cd7 30be
000000b0: 6c72 83be 6b54 0dbe de70 0fbe 0c0d 633e
000000c0: e6b3 10be a594 a9bb 7de2 e53d c765 833e
000000d0: 0392 f53d 734a 7fbd 3c07 123d 6d57 41be
000000e0: c961 8f3d 2610 febd 6f7a 76be 0b18 32bd
000000f0: cd86 ca3d da62 d43d 9947 a0bd 2e16 483e
00000100: 94a2 3f3e 1a13 24bc 8026 843c 23d6 af3d
00000110: 1f4b 013e 3b34 4e3e 20ee 9dbe a8c2 46bd
00000120: 16be abbc 0a72 c03d 0600 763e c560 6a3e
00000130: 8a2a 933d 8f58 20be 2609 093c 0675 2ebe
00000140: f724 1cbe bad1 7f3e f6ce 653e 606b 36be
00000150: c635 ec3b 8f24 8bbd dec2 803d f733 4abe
00000160: 8d15 1b3d 01da 12be 0f21 d83d 0db2 0c3e
00000170: dc89 363e 33f1 a93d 76f2 71be 4f94 7fbe
00000180: 4b89 c53d b921 82bc 1d4b 94be b9dc bbbd
00000190: 62d7 6d3e ff60 223e 4f10 19be f8f6 f9bd
000001a0: 3d8b 8fbe 15ea 693d da39 45be e719 ffbd
000001b0: f69e 55bb f4d0 ec3d 5444 c5bd beb7 ed3d
000001c0: ef03 65bd b02e 893e a35d 633e 8415 41be
000001d0: 7113 02be 45dc 5bbd 7367 aebc c695 0c3d
000001e0: 902d d63c 48d4 70bc 0cc2 00be bf81 e23d
000001f0: 6392 36be 2ce2 c8bd 025b d8bc d2d9 7abd
00000200: 438f 5dbd fe1c 18be df0a bbbd feb5 97bc
00000210: 3569 0bbe 28dc 203d 5108 093e 7c31 99bd
00000220: 6e33 563d e5fb 71bd 73e3 213b e8b8 483e
00000230: 6287 303e a2c1 093e a49d 143e 1771 d3bb
00000240: f470 34be 2923 a4bd c021 9c3d 3175 d6bd
00000250: 610f debd 2063 f1bd 2957 72be bb40 88be
00000260: 7f92 b6bc b9eb 033e 4a1f 063e a633 45be
00000270: 265b 163e ac2d 7abe 8fa6 8cbd bd59 0bbe
00000280: 9cfb aabd c227 b5bd b629 93be 880f 2dbe
00000290: b6ea cebd d6d8 81bd 189b f0bd 9a5d 9c3d
000002a0: 3cf1 81be eed6 b5bd 25b1 093e d20f d7bd
000002b0: b7b5 3b3e 7e49 c63d c75c 57be be09 493c
000002c0: 9e84 39bd 6068 e9bd 5bcc 3e3e ea3e 05be
000002d0: b420 97bb 0804 1dbd bb78 263e 139f e93c
000002e0: 9c48 1b3d 90c5 b33d ee84 1dbe 9089 03be
000002f0: df6d 82be fd87 e63c 7e9c b93d cf3c e43d
00000300: 93c2 6ebe 7763 403c 9d0c dcbd cc9c efbd
00000310: 6fbc 8fbd 9356 163e d8a9 b3bd e729 463c
00000320: 25cb ba3c 63f6 343e 11d6 4cbe 7949 11be
00000330: 0ace 16be 51db 833e 809d 85bc c1a1 3c3e
00000340: f830 7abc 23ef 683d e4ec 89bd a7cf 87bc
00000350: a2ee 9a3d 9b29 28bc c736 483e 6b60 e33c
00000360: 1db1 88be 0e84 bfbd 6032 dc3d 752e c4bd
00000370: 9d50 cc3c 80f1 5c3e daba a13d b42e 6f3c
00000380: 3682 8fbe 8bb6 ca3d 45bc 1cbe 5e5a 4cbd
00000390: a357 70be f0ba 1f3d 3063 c1bc 23ab 303e
000003a0: 6509 22bc 5bc4 5c3e ecc5 ea3d fdc1 74be
000003b0: b953 043e 5c29 c2bd 1c42 96bd e8eb 013e
000003c0: 05cf 563e 61bb 023e a8fb 74bd ffcb 423d
000003d0: 9b5e 033e 64aa 74be 8ff1 283e e6c5 01be
000003e0: a523 72bc 172c cbbd b48c febd d71d 063d
000003f0: 6b49 803e f77a 53bb 0a81 ddbd ac6d 543d
0.12856509 0.1387513 -0.18369013 -0.18298909 -0.091085024 -0.023635214 -0.0638566 0.11669275
-0.041874375 -0.030775577 -0.08479492 0.042010743 -0.17130847 -0.09419048 -0.17077066 0.05756064
0.11849564 0.16406737 -0.14788876 -0.11616272 0.042866208 0.20901872 -0.08470375 0.1702043
-0.14164546 -0.0051925485 0.2748535 -0.118083194 -0.12585299 -0.040267006 -0.040892754 0.20342357
-0.1297231 -0.070111066 -0.15277342 -0.24559371 -0.06761974 0.24530208 0.112797245 0.12841061
0.0039460035 -0.13899034 0.030051157 -0.17269677 -0.25673234 -0.13801734 -0.14007899 0.22172946
-0.14131126 -0.0051751905 0.1122484 0.25663587 0.1199074 -0.06232686 0.03565143 -0.18881007
0.07001073 -0.12405424 -0.24070142 -0.04347996 0.098889925 0.10370417 -0.07826156 0.19539711
0.18714362 -0.01001432 0.01613164 0.08585765 0.12626313 0.20137112 -0.30845737 -0.048525482
-0.020964663 0.09396751 0.24023446 0.22888477 0.07185848 -0.15658782 0.008363998 -0.17036828
-0.15248476 0.24982348 0.2244223 -0.17814398 0.0072085587 -0.067940824 0.06287168 -0.19746386
0.03786235 -0.14340974 0.105531804 0.13739796 0.17826027 0.08297958 -0.23627648 -0.24958919
0.09645327 -0.01588522 -0.28963557 -0.09172959 0.23226693 0.15857314 -0.14947627 -0.12205309
-0.28035918 0.057108004 -0.1926035 -0.12456112 -0.0032595969 0.11563292 -0.09632173 0.11607312
-0.055911954 0.26793432 0.22203688 -0.18855864 -0.12702729 -0.053676862 -0.021289563 0.034322523
0.026144773 -0.014699049 -0.12574023 0.11059903 -0.1782928 -0.09808764 -0.026410583 -0.061242886
-0.054091703 -0.1485481 -0.09132933 -0.018519398 -0.13614352 0.039272457 0.13382079 -0.074801415
0.05229514 -0.059078116 0.002470222 0.19601786 0.17239144 0.13452771 0.1451326 -0.0064526903
-0.17621213 -0.08014519 0.07623625 -0.10471571 -0.10842777 -0.11786485 -0.23666061 -0.26611885
-0.022286652 0.1288289 0.13097873 -0.19257984 0.14683208 -0.24431485 -0.06867706 -0.13608451
-0.08348772 -0.08845474 -0.2874276 -0.16900456 -0.10103361 -0.06340186 -0.11748332 0.076350406
-0.2537936 -0.08878885 0.13446482 -0.10501064 0.18331037 0.09681986 -0.21031485 0.012270389
-0.04529249 -0.11396861 0.18632643 -0.13012281 -0.004612053 -0.038333923 0.16256993 0.028518235
0.037911043 0.087779164 -0.1538274 -0.12845445 -0.2547445 0.028141016 0.09063052 0.11144411
-0.23316412 0.011742464 -0.10744593 -0.116998285 -0.07018363 0.14681463 -0.087726295 0.012094951
0.022801945 0.17672114 -0.20003535 -0.14188184 -0.14727035 0.25753263 -0.016310453 0.18421079
-0.015270464 0.056868684 -0.067346364 -0.016578509 0.07565047 -0.010263826 0.19552146 0.027755937
-0.26697627 -0.09351359 0.10751796 -0.095791735 0.024940783 0.215765 0.07896967 0.014598537
-0.2802903 0.098980986 -0.15306194 -0.04989087 -0.23470931 0.038996637 -0.023606867 0.17252783
-0.009889935 0.21559279 0.11463532 -0.23902126 0.12922563 -0.09480545 -0.07336828 0.12687647
0.20977409 0.12766792 -0.05981031 0.047557827 0.12829058 -0.23893124 0.16498397 -0.12673149
-0.014779006 -0.09920519 -0.12429181 0.0327433 0.25056013 -0.0032269338 -0.10815628 0.051862404

network.0.bias f4 [128]
00000000: ae92 91bd 44b7 adbd 6caa 503e 63ed ba3d
00000010: 4dcb 7dbd 3e06 a2bb 2af9 abbd 0723 67bb
00000020: 03c3 cb3d 42d2 4abe 5d02 4a3e 873b 143e
00000030: 863b 03bd 6f0c a9bd 6471 173d a31e dbbd
00000040: c5cb 0d3e b33f d4bd 6d7f 733c 5342 66be
00000050: 325e a93d 4ca7 a93d 7007 4b3e da98 5bbd
00000060: e73b 163e 802c d53d f888 273e 8389 593e
00000070: 195f 3dbe 4155 c23c d433 483c ea89 f7bd
00000080: 2320 1e3e e928 eebc 86b8 1fbc 5add 113e
00000090: 1eda 443e 3236 103e 0e03 12bc 0f3c 8dbe
000000a0: 89ee 36be 3adc ec3d 9bce fb3b d241 10be
000000b0: dd1e e93d 1e2e 0e3e 4952 0e3e f3e2 a9bd
000000c0: 38c3 7b3d f503 bbbb ea5e 0e3d 3c49 d9bd
000000d0: b28f 4e3e f563 38be c68d 33bd 63be 8cbe
000000e0: 0b79 05be 46e6 a1bc 982d d0bd 2da3 6e3e
000000f0: af3b fa3d 2c4e 41be 0541 96bc b304 323e
00000100: ec3b 313e 920a b7bb b48b 103e 2b49 72bd
00000110: 2eef 44bd ea8f 3c3e fdb3 18be c78c 823e
00000120: 9e5c 043e f055 a2bd 81e8 9d3d 5b79 3c3e
00000130: 7f3f 8a3c 1a55 d83d 9616 f93d fd94 05be
00000140: ea6f babc ded1 07be 2453 5a3e 1456 95bd
00000150: 1a7b e6bb abff 5dbd 3cf7 9e3d 0921 a03c
00000160: a67c 433e b66b bc3c 4b30 fcbd 0371 293d
00000170: 8d43 61be dd16 0ebe 0b16 d93d 7625 24be
00000180: aadf 9cbd d3f4 80bd 39ee ccbc 4e7d e1bd
00000190: 004e d8bd 170d a4bd 5ec9 e03d 1a0e ad3c
000001a0: b7ad 1ebc 7f50 48be 9069 cd3c 0cd9 3fbb
000001b0: ef6e 69bd 2594 2b3e 44a6 333e 3a30 b83c
000001c0: 037f 883d f18b 013e 94da 38bd 86ed 943d
000001d0: 2e13 183e fac8 c8bd 4670 e93d 8ae9 23be
000001e0: 3085 cfbd 809f 0d3e 37be 563e 4150 81bd
000001f0: 1fc3 233d 41e3 aa3d 7b8f 2a3b 8246 003e
-0.07108055 -0.08482221 0.20377511 0.09127309 -0.06196146 -0.004944592 -0.08397134 -0.003526868
0.09949305 -0.1980677 0.19727464 0.14475833 -0.032039188 -0.08254325 0.036973372 -0.10699203
0.13847263 -0.10363712 0.014861924 -0.22486238 0.082699195 0.082838625 0.19827056 -0.053612567
0.14671288 0.10408878 0.16360843 0.21243863 -0.18493308 0.023722293 0.012219388 -0.12086852
0.15441947 -0.029072242 -0.009748584 0.14244595 0.1922383 0.14083174 -0.008911861 -0.27584884
-0.17864431 0.115654424 0.0076845414 -0.14087608 0.1138284 0.1388478 0.13898577 -0.0829524
0.061465472 -0.005707259 0.034758486 -0.106096715 0.20172003 -0.1800688 -0.043836378 -0.27489004
-0.13034455 -0.019763123 -0.10164946 0.23304434 0.12218415 -0.18877476 -0.01834155 0.17384605
0.17308015 -0.005585977 0.14115793 -0.05915181 -0.048079662 0.18414274 -0.1491241 0.2549803
0.12925956 -0.079265475 0.07710362 0.18405668 0.01687598 0.10563107 0.12162511 -0.13045116
-0.022758443 -0.13263652 0.21320778 -0.07291809 -0.007033718 -0.054198902 0.07762 0.019547002
0.19090518 0.02300058 -0.12313899 0.041367542 -0.21998425 -0.13875909 0.105999075 -0.16029915
-0.07659848 -0.062966965 -0.025015937 -0.11010228 -0.10561752 -0.08010309 0.10975908 0.021124888
-0.0096849715 -0.19561957 0.02507475 -0.0029273657 -0.05699056 0.16755731 0.17543894 0.022483934
0.066648506 0.1265104 -0.045130327 0.072718665 0.14851066 -0.09803958 0.113983676 -0.16007057
-0.101328254 0.13830376 0.20970999 -0.06314135 0.039981004 0.083441265 0.0026025462 0.12526897

network.2.weight f4 [64, 128]
00000000: 0494 a8bd 7219 3e3c 0e46 0dbe 9ffc b43d
00000010: e862 40be 0e81 573b 3b63 d7bd 7eae 833d
00000020: ca73 063d d951 da3d 0b68 863d f31c c7bd
00000030: 7a54 8b3b e82e ae3d b842 d93d eb3b a7be
00000040: acf4 42bd bf8e af3d 0c75 ec3b b2e4 793d
00000050: bea5 e73d de03 ddbd 4801 5ebd 20f7 a93c
00000060: b4dd bfbd fbbc 263d 1a0c 7fbe 61a3 e1bd
00000070: 397c 8bbe 64cf 6a3a 51a2 ec3b 2efa 4fbd
00000080: 7af0 ad3d 0067 44bd 297d 6ebe 8ef2 bd3d
00000090: 70b6 253d 05bb 023e 8936 f1bd b3a8 b2bd
000000a0: 3d32 e83d 696a d23c 5858 e2bc 5640 bdbc
000000b0: 6eb1 acbd 5cf7 2ebd a842 2f3e 54e5 083e
000000c0: e2e0 673d 239b f5bd 3232 943d de87 24be
000000d0: 7ba3 9c3d e4bd 81bd f5ae 55bd 1ad2 663c
000000e0: 316b 083e 025b 3abd ba2c 71be 49c0 e13c
000000f0: a4e6 cf3d 1cd1 3bbd 30e1 50bd df5c 0c3e
00000100: 570f 323d 966a 933d 5d6c 813d ab25 a93c
00000110: 36b8 e2bd a1f6 dd3d 217c 913d 9a6a dc3d
00000120: 7c9c 8d3a 1e9d b0bb fa9f d33c 5a5e 0b3e
00000130: ae01 e4bd 782d debd e326 03be 3531 b63c
00000140: 51c0 67bd 359e 12be 3371 853d 536d 263c
00000150: 67a7 d93d 3a21 68bd 0f05 0dbe 5b75 b7bd
00000160: bd9a e03d 8d58 30bc adef bdbd 372d 603d
00000170: 07c9 4fbd ab23 103e 78a0 373d 2a0c d3bd
00000180: d440 e0bd d8eb 43bd c40c 3dbe 3ac0 f13d
00000190: bc69 27bd 22dd a33d d34c 003e 3d99 ccbd
000001a0: df4d 7fbc de7c c7be eb82 da3d f49c 79bd
000001b0: 5a8e 443d c86e dd3d a19d 92bd 9d7e f6bd
000001c0: 3603 2abc 0965 6b3d 8e85 88bc acaf 923d
000001d0: 91d9 11be 459f 6e3e 78aa 11be 2eed 32bd
000001e0: d795 033d 7546 f33d 1869 9a3c 30ac 13bc
000001f0: ea2e 0ebd 39dd c83b 2290 ae3d a683 27be
00000200: 304e 473d d056 18bc be71 83bd 2d16 8dbd
00000210: 506e 8cbb 8f9d 91bc 5f5e 563b 869d aabd
00000220: 21de 963c f908 50bc 8c71 c93c e1c8 1d3d
00000230: b1b8 b2bd 422d 393d 29c5 46bd 9659 173d
00000240: 7fab 343d 5b5d e13d eb10 a33d 64db 493d
00000250: 950b 7f3b 4f35 2b3b 792e 0a3d 9885 7f3d
00000260: c8af 203d 1feb 65bc 47fa a93c de66 a33d
00000270: 9f5c 113e 87eb 6d3d d72f 23bd 103e 9b3d
00000280: 1434 b03d 2fc5 c9bc 955a 113d f9ce 8fbd
00000290: 43a0 0dbd 6d69 713d 1323 043e 3f98 943d
000002a0: 1e87 19bd 2327 51bd 41b6 913c 5b5b 4b3d
000002b0: 646c e63d 0df5 fbbc 0820 04be daad f63d
000002c0: a733 473d f9ad fa3d ad27 993c 3c11 9a3d
000002d0: 4cda 25bc 8d4a 0abe d38e c73d 1c96 eb3d
000002e0: 4ff9 a73d 9b04 01be 68ec 4cbd 6b45 20bd
000002f0: 9eb0 2f3d 6999 edbd 1c70 71ba 24b6 6fbd
00000300: e906 d33d f965 11bd 4ec1 a1bd 1be5 edbc
00000310: faec c53c f2fb 87bb e4ff 793d 5269 793c
00000320: 3695 953c a059 763c efc2 acbd 0dd0 c2bd
00000330: 6268 12bb fd4b febc e08f 213c 471a d23c
00000340: b042 653d f9a9 4abb bbd8 293c bdef c53d
00000350: eb22 82bd 762f 3e3c 9efa e03d b94b 9abd
00000360: aedd 273c 5938 c1bd 7bd8 f03d 9ba9 fc3d
00000370: aeb3 743d a949 0b3e 3253 593d 4d91 813d
00000380: d204 8ebd f2a2 a9bc b5bc 15bc 8a0f 2b3e
00000390: 9dc7 db3d 7195 863d 723e bdbc 6be5 0fbd
000003a0: 468d 7f3d 7fb1 2c3e d79e 1fbd 18b1 223c
000003b0: 68ac 0c3e f877 643d 5a89 733c d5d8 363e
000003c0: 56f5 f93c 5bef 063e 13d8 b63d 2018 04be
000003d0: 9853 5fbc 918d 45bc 6909 bd3d 776a efbd
000003e0: 826f 793d 18f7 f3bd 9b0b 923c daeb 063e
000003f0: 60fe 193d 3e6d 4b3d 7ac9 b63d 7b8b 283d
-0.08231357 0.011602746 -0.13796255 0.08837246 -0.1878773 0.003288332 -0.105169736 0.06429766
0.03282527 0.106601425 0.06562813 -0.097223185 0.0042520138 0.085050404 0.10608429 -0.326629
-0.04759662 0.085721485 0.0072161015 0.061009116 0.1131091 -0.10791753 -0.05420044 0.020747721
-0.093684584 0.04070757 -0.2490696 -0.1101749 -0.27243212 0.0008957295 0.007221498 -0.0507757
0.08493133 -0.04794979 -0.23289932 0.09274779 0.04045719 0.12766655 -0.1177798 -0.08723583
0.11337707 0.025685506 -0.027630016 -0.023101967 -0.084322795 -0.04271637 0.17115271 0.13368732
0.05661095 -0.119924806 0.072361365 -0.16067454 0.07648369 -0.06335047 -0.052168805 0.014088178
0.1332214 -0.045496948 -0.23552218 0.027557509 0.10151413 -0.04585372 -0.050996006 0.13707303
0.04347166 0.07198064 0.06319497 0.020647844 -0.11070292 0.10838056 0.07103754 0.1076252
0.0010804082 -0.0053898236 0.025833119 0.13610211 -0.11133133 -0.10848516 -0.12807803 0.02224026
-0.05657989 -0.14318164 0.06515732 0.010157901 0.106276326 -0.056672312 -0.13771461 -0.08957931
0.10967014 -0.0107633 -0.0927423 0.05473062 -0.050728824 0.14076106 0.04483077 -0.103050545
-0.10949865 -0.04783234 -0.18461901 0.118042424 -0.04087232 0.08001162 0.12529306 -0.099901654
-0.015582531 -0.38962454 0.10669502 -0.060940698 0.04798732 0.108121455 -0.071589716 -0.12035868
-0.010376742 0.0574694 -0.016665246 0.07162413 -0.14243151 0.23302944 -0.14225185 -0.043683223
0.03212532 0.11878673 0.01884894 -0.009013221 -0.03471271 0.0061298874 0.08523585 -0.16358814
0.04865855 -0.009298041 -0.06418179 -0.06888995 -0.004285611 -0.017775325 0.0032710058 -0.083308265
0.018416466 -0.012697452 0.024590276 0.03852165 -0.08726633 0.045209177 -0.04852787 0.03695067
0.044108864 0.11004134 0.07962211 0.049281493 0.0038916816 0.0026124304 0.033735726 0.062383264
0.039230138 -0.014033108 0.020749224 0.07978605 0.14195488 0.058085945 -0.039840546 0.07580197
0.08603683 -0.024630157 0.035486776 -0.07021899 -0.034576666 0.058938432 0.12904005 0.07255601
-0.037482373 -0.051062714 0.0177871 0.04964767 0.112511426 -0.030756498 -0.12902844 0.12044878
0.048633244 0.12240214 0.018695677 0.075228184 -0.010122847 -0.13505001 0.097440384 0.115032405
0.08201849 -0.12599413 -0.050030142 -0.039128702 0.042893045 -0.11601526 -0.0009210126 -0.058523312
0.103040524 -0.03549764 -0.07898198 -0.02903991 0.02416085 -0.0041499073 0.061035052 0.015222864
0.018259626 0.015036017 -0.08435618 -0.09512339 -0.002234005 -0.031042093 0.009860963 0.025647296
0.0559718 -0.0030924066 0.010366614 0.09664867 -0.06354316 0.011607995 0.109853014 -0.07533974
0.010245724 -0.094345756 0.117600404 0.12337037 0.05974167 0.13602318 0.053057857 0.06326542
-0.06934513 -0.020707581 -0.00913923 0.16705146 0.107314326 0.065714724 -0.023101065 -0.0351309
0.06239059 0.16864584 -0.03896984 0.009929918 0.13737643 0.055778474 0.01486429 0.17856152
0.030512493 0.13177244 0.08927932 -0.12899828 -0.01363077 -0.012057678 0.092303105 -0.116902284
0.060897358 -0.11912364 0.0178278 0.13175908 0.037596107 0.04966473 0.08925147 0.041148644

network.2.bias f4 [64]
00000000: 6cfd 7bbc 95a1 d53c d7ae 10bd 1df6 253d
00000010: fa49 2d3d 673c babd a8eb fd3b 697a 423d
00000020: 1509 653c 10c1 9fbd 50f7 b73d b315 babc
00000030: 11a7 c83d b403 aebb 722a 2e3a 16d5 03bd
00000040: 422b db3d 3df8 fb3d 2def 2abd d447 e53c
00000050: 1b93 e6bc e79d 31bd b43e 483c 54bf d33d
00000060: 0af8 ca3c 25ce e73d 5aa2 f4bd ac27 0eba
00000070: b42b 1a3d afc8 39bd be0f 223d e06a d9bc
00000080: 12af d33d be8c 52bc 1774 e43c a96c cf3d
00000090: 5552 51bd 6273 823d fc7a d53d 2e82 3bbd
000000a0: cdea cd3c eac5 f1bd f82d b93d d7ca 03bd
000000b0: 6892 0fbd 0b1f bb3d 1626 b93b b2a7 fe3c
000000c0: 8406 4ebc 1a45 b2bc 0d71 813d c172 003c
000000d0: 7f20 a13d 0c46 23b8 2691 ff3d 2593 f9bb
000000e0: 01c2 0d3e cd55 ba3c b30d ebb8 e5e6 773d
000000f0: fd82 8c3d ac95 bb3d 2500 37bd 3786 57bc
-0.015380245 0.026078025 -0.03532299 0.040517915 0.042306878 -0.09093552 0.0077490397 0.04748002
0.013979216 -0.078004956 0.08982718 -0.022715425 0.097974904 -0.0053105 0.0006643898 -0.032185636
0.1070161 0.12303207 -0.041732002 0.027988352 -0.028146317 -0.043363478 0.012221981 0.10339227
0.024776477 0.11318616 -0.119450286 -0.00054227817 0.037639335 -0.045357402 0.039565794 -0.02654022
0.103361264 -0.012850938 0.027887387 0.10128147 -0.05110391 0.06369664 0.10423848 -0.045778446
0.025136376 -0.11805327 0.09041971 -0.032175865 -0.035051733 0.0913678 0.005650292 0.031085823
-0.012574796 -0.021761466 0.06320391 0.007839859 0.07867526 -3.8927465e-05 0.12478857 -0.007616418
0.13843538 0.022745991 -0.00011208225 0.060522933 0.068609215 0.09159407 -0.044677872 -0.013154558

network.4.weight f4 [16, 64]
00000000: ada2 da3e e7e8 83bd b15f e83d b35a c8bd
00000010: fe79 833e 6670 833d f536 fbbd 61cb babd
00000020: efeb 6bbc 4067 f8bd bff5 fbbd 82a5 1e3a
00000030: 2707 103d d6fe e63c f2e5 6dbe 6948 7a3e
00000040: cadd 263e 2f8a 053e 718a dc3d 43ba 7ebc
00000050: 826e 663b 29fb 703d 13ce 173e 64d3 6b3d
00000060: 3f83 303d 00e3 183e f868 e43e 78a7 45bd
00000070: ed39 513e b225 eabd 25ba e1bc 406c 903e
00000080: 5cb1 fc3d 4f76 943d 4ae2 893d cc27 a3bc
00000090: ce24 c3bd 052a f4bd 27fa 683d 81ab 94be
000000a0: 4ae3 783d 42a2 83be 6e75 513d 1753 d03d
000000b0: a7a4 8dbe 5d47 8f3d 764b b5be 1d73 5fbe
000000c0: f64c 823e c42e 003e 05a0 1f3e d8a1 46be
000000d0: ad76 3ebe 1589 38bc 9c5e 0fbf d0e8 4b3e
000000e0: 5af7 643d 5ae9 a5bc b676 0d3e 3b69 843b
000000f0: 5a22 95be 1410 0a3e 2ab9 be3c affb f33c
00000100: 8290 d63e 1611 69bc c086 ea3d 405f b4be
00000110: a665 8a3e 9ad2 8d3d 957f ad3d 40ff f9bd
00000120: 6082 803c 1933 973d 32f9 bebd 5684 cb3c
00000130: 1a59 033d b061 31bc 3e60 a9be 89b1 f13e
00000140: 3c78 363e 8834 333d 1183 6ebd de9f b13b
00000150: 4ef2 eb3d 10e1 f73d 3358 ae3d f450 b6bc
00000160: 4e68 083e 0f0d abbc f29d c43e 07e3 e6bd
00000170: 7ff6 4e3e 0eea 5abe 1b59 d43c 95c9 e23e
00000180: 7210 9e3b f090 8cbd 7d45 c83d ef9e 363d
00000190: bb61 67bd 9090 aa3c f064 103d e231 02bf
000001a0: 2870 8fbd e7f2 c4be 3284 b83d 5907 b5bd
000001b0: b30e 3dbe 42d8 f43d 46c6 82be 7152 83be
000001c0: 55dd 4d3e c541 ff3d 9a4f 253e cbe0 a3be
000001d0: 0d6c 993c ad5d f13d 904c dfbe c994 f53d
000001e0: a767 e63d be75 093e 6e81 343e f0b9 803d
000001f0: 9ef4 86be 431c d73d db24 03be b19a 9d3c
00000200: f831 e8be fc47 173e 0fa0 bfbd 9089 803e
00000210: 5635 b7be 6f42 053e 3174 0d3e 3a0c 0b3e
00000220: cbeb fc3d 5c83 1b3d e6ab 373e adea 703d
00000230: bc1b 35be a9af 863d 9b3f a83e a412 94be
00000240: d16e 17bd a087 b93d 8abc 9a3b 62a7 57bd
00000250: fee8 a4bd d85e 823d ff27 32be cb95 163e
00000260: e243 1fbe b26f 7d3d 2baa c3be a3af 153d
00000270: 7813 1cbe ae1e 223e 1c06 dcbd f467 03bf
00000280: 0af4 ecbd f76d 433e 4433 c03c 6dbc cdbd
00000290: 075c 603e ee5b 6d3d d51a 1e3d 803c ab3e
000002a0: d860 bd3c 422e ea3e 5f61 233e 30f2 80bd
000002b0: 77e5 9e3e 4b67 3ebc f873 5f3e 5e61 763e
000002c0: 075e 83be d7ab 8ab9 235a b13d d2be b63e
000002d0: fda4 aa3d ab11 673d 70d6 c93e 7d5a 08be
000002e0: 4502 893c 705a 6a3d b5fe 65bd 789c abbd
000002f0: 20fd a93e b1bc 24be 6b9b 253e b0ab a73c
00000300: 880c a63e 72e6 febd 4621 093e 4820 84be
00000310: ff54 953e 922d cabd a5c4 6e3d 2973 f8bd
00000320: 635b 0abe c65f 36be 8c2f b43d b50f a93d
00000330: a96c c73b b19d 1bbd 1232 3dbe 760d ba3e
00000340: e0af 533e f449 303d 2d65 a43c 691f 213e
00000350: 3379 c83d ef27 2abd aa76 983d 998c d63d
00000360: 4bcf 3f3e 6785 c93c bd99 473e d892 813d
00000370: 403e 1d3e ca5b 18be 62b2 353e e88b ea3e
00000380: 68a2 ac3d 623a d43c 9316 943d c757 c93d
00000390: de69 19be 8b39 883c 4449 ad3d 08cf a4be
000003a0: 70b8 ecbd 3a7c adbe 730e c93c 550f a7bd
000003b0: 62be 56be c45b 113e 2ac6 7dbe 9e95 9ebe
000003c0: 3b25 9a3e 9a92 fd3b bcd9 ea3d c881 93be
000003d0: eaf1 68bc c0af a13d 8bf9 0fbf b723 083e
000003e0: 5499 7b3d 875c 11bc 4132 283e 1a5f bb3d
000003f0: 5719 a0be fc9a 7b3d 6fcf 553d 7f48 a4bd
0.42702237 -0.06440907 0.11346377 -0.097829245 0.2567901 0.06417923 -0.122663416 -0.09120823
-0.014399513 -0.121290684 -0.12302732 0.0006051884 0.03516307 0.028197687 -0.23232248 0.24441685
0.16295543 0.13040994 0.10768593 -0.015547338 0.0035161083 0.058833275 0.14824705 0.057574645
0.043093916 0.14930344 0.44611335 -0.048255414 0.20432253 -0.11432971 -0.027554581 0.28207588
0.12338516 0.07249128 0.06732614 -0.019916438 -0.09528504 -0.11922077 0.05687919 -0.29037097
0.060763635 -0.2570973 0.05113738 0.10172098 -0.27664682 0.06996033 -0.35409135 -0.21821256
0.25449342 0.1251784 0.15588386 -0.19397676 -0.18599959 -0.011263152 -0.5600374 0.1991303
0.055899955 -0.020252872 0.13814816 0.0040408648 -0.2912777 0.13482696 0.023281652 0.029783098
0.41907126 -0.014225265 0.11451483 -0.3522892 0.27030677 0.06924935 0.084716 -0.12206888
0.015687168 0.07382793 -0.09324874 0.024843376 0.032067396 -0.010826513 -0.3308124 0.4720576
0.17819303 0.04375127 -0.058230463 0.005420669 0.11520825 0.12103474 0.085129164 -0.022255398
0.13321039 -0.02088025 0.38401753 -0.11273771 0.20211218 -0.21378347 0.025921395 0.4429442
0.004823738 -0.06863582 0.09778879 0.044585165 -0.056489687 0.020820886 0.03525251 -0.50857365
-0.07003814 -0.3846657 0.09009589 -0.08839292 -0.18462639 0.119553104 -0.25541896 -0.25648835
0.20103963 0.124637164 0.16143647 -0.3200744 0.01872828 0.11785445 -0.436131 0.11991269
0.11250239 0.13423821 0.17627499 0.06285465 -0.26358503 0.10503437 -0.12807028 0.019238802
-0.45350623 0.14773554 -0.09356701 0.25104952 -0.3578288 0.13013624 0.13813855 0.13578883
0.123496614 0.03796707 0.17936668 0.058817554 -0.17686361 0.06576473 0.32861027 -0.28920472
-0.036970917 0.090590715 0.0047221826 -0.052649863 -0.08052252 0.06365746 -0.1739807 0.14705579
-0.15553239 0.0618741 -0.38215765 0.036544453 -0.15241802 0.15832016 -0.10743353 -0.51330495
-0.11569984 0.19084917 0.023461945 -0.10045705 0.21910106 0.057949 0.038599808 0.33444595
0.023117468 0.45738417 0.15955113 -0.062961936 0.31034443 -0.011621307 0.21821582 0.2406058
-0.25657675 -0.00026449442 0.0865977 0.3569246 0.0833225 0.056413334 0.39421415 -0.13315769
0.016724715 0.057215154 -0.05615111 -0.083794534 0.33200932 -0.16087605 0.16172569 0.02046761
0.32431436 -0.12446298 0.13391599 -0.2580588 0.2916641 -0.09871973 0.058293004 -0.1213134
-0.13511424 -0.17809972 0.08798131 0.08254949 0.0060859513 -0.037992183 -0.18476132 0.36338395
0.2067256 0.043039277 0.020067776 0.15734638 0.09788742 -0.04154199 0.074445084 0.104760356
0.1873142 0.024599744 0.1949224 0.06326836 0.15355778 -0.14878765 0.17743829 0.45809865
0.08429414 0.025906745 0.07230868 0.09831195 -0.14981791 0.016629001 0.0846124 -0.32189202
-0.11558616 -0.3388384 0.024543023 -0.08157221 -0.20971063 0.14195162 -0.24782625 -0.30973524
0.3010653 0.0077384235 0.11467311 -0.28809953 -0.014217833 0.0789485 -0.5624015 0.13294874
0.061425522 -0.008872158 0.1642542 0.091489986 -0.31269333 0.0614271 0.052199777 -0.0802164

network.4.bias f4 [16]
00000000: 999a fb3d 34db 883d bb01 a0bd 0b03 913d
00000010: 8c70 d1bd 722c 753d c359 223e fc61 3dbd
00000020: e38c 883b 5d62 f83d d2f0 c63d daaa 063e
00000030: dab0 3ebd f7a9 a73a 384e 93bd dd8f 51bc
0.122853465 0.06682435 -0.0781283 0.070806585 -0.10226545 0.05985684 0.15854554 -0.046236023
0.0041671856 0.12128136 0.097139016 0.13151112 -0.046555378 0.0012791742 -0.071926534 -0.012790647

network.6.weight f4 [2, 16]
00000000: 9446 06be 5729 1fbd 4153 db3e 6e0f 92be
00000010: 7b3f 553e 8b4f 6f3d ad26 d2be 23aa 12be
00000020: 987c ea3e a560 c73e fe4e bbbe f9ef 233e
00000030: 03f4 cf3e 4714 843e b89b 323e 8579 b3be
00000040: b3b4 af3e 47ad e73e 990d 32bd 0f2f 983e
00000050: b1b6 dfbd c897 f5be e89a cd3e d843 703e
00000060: 3a32 46be 1dec d5bd 3792 b63d e36d c9be
00000070: ca99 46bd 1624 21be 4113 d1be ac8d 443e
-0.13112861 -0.038857784 0.42836955 -0.28527397 0.20824997 0.058425467 -0.41045132 -0.14322715
0.45798182 0.3894092 -0.36583704 0.16009511 0.40615854 0.2579672 0.17442214 -0.3505365
0.3431755 0.45249388 -0.04347 0.29723403 -0.109235175 -0.47967362 0.40157247 0.2346338
-0.19355097 -0.10445426 0.08914607 -0.3934165 -0.04848651 -0.15736422 -0.40835002 0.19194669

network.6.bias f4 [2]
00000000: 3adb 2fbd d568 35be
-0.04293368 -0.17715771
