models/heloc/loo/adam_epochs30_lr0.0004_batch32_dropout0/model_12.pth (torch, 52505 bytes, 8 tensors)

network.0.weight f4 [128, 23]
0.034361 0.09171534 -0.19856676 -0.22000037 -0.08928005 0.016933173 -0.010179066 0.17928249
-0.04992373 -0.031085063 -0.11352566 -0.004998987 -0.18633084 -0.15093277 -0.11416338 -0.039420832
0.010139268 0.16680026 -0.1772032 -0.12369806 0.058312647 0.19402567 -0.09818248 0.19857098
-0.08553812 -0.0032112654 0.27014953 -0.20023909 -0.18239026 -0.10341038 -0.06525445 0.19271246
-0.09112934 -0.04469273 -0.24028754 -0.20245808 -0.17817087 0.2600797 0.00048234052 0.029656176
0.034568634 -0.14952989 -0.04642292 -0.2885371 -0.19719253 -0.1425192 -0.011976931 0.094170764
-0.19226961 -0.10324607 0.1317441 0.25423202 0.10146195 -0.092272356 0.15649672 -0.14526184
0.013257874 -0.21556887 -0.08657907 -0.043979228 0.10525966 0.14041454 -0.0998502 -0.025171116
0.15419187 0.07012527 0.013428207 0.19341736 0.17490047 0.21816611 -0.08260545 -0.079670645
0.16400425 0.11692996 0.140981 0.17576824 0.030554606 -0.15087157 0.079424694 -0.12414512
-0.28039157 0.1790207 0.23390023 -0.40733808 0.10852809 0.008744482 0.0058789435 -0.12447257
0.08781026 -0.15735321 0.09845002 0.045763906 0.12777379 0.07909111 -0.30071524 -0.09759932
0.06377549 -0.04046641 -0.22704256 -0.17450418 0.26478872 0.23465933 0.0015805396 -0.14214526
-0.28871047 0.04155166 -0.13777265 -0.11425707 0.04647366 0.018071154 -0.08680007 0.10433361
-0.1550902 0.20976852 0.13011317 -0.22971357 -0.05418549 -0.01490503 0.08177815 0.053221963
0.03796394 -0.06754763 -0.14746346 0.052355953 -0.16902994 -0.12623125 -0.045034356 -0.17592387
-0.11080765 -0.24074927 -0.03712085 0.032716036 -0.14846441 -0.06630477 0.10194771 -0.07775244
0.040559024 0.017758805 0.038473554 0.08011857 0.22618353 0.027200198 0.097839475 0.0055231717
-0.110341184 -0.05477141 0.094066195 -0.016297868 -0.11028652 -0.1579479 -0.2935749 -0.26915553
-0.012182925 0.21183039 0.19444929 -0.2155668 0.11506903 -0.2575211 0.07475395 -0.11163055
-0.07644271 -0.09450801 -0.2302507 -0.20553488 -0.10868267 -0.0041908943 -0.05862012 0.09747255
-0.2104057 -0.03559652 0.12184146 -0.05571374 0.2274408 0.047884185 -0.19440864 0.05742856
-0.101167664 -0.18097207 0.1760838 -0.14870434 -0.04624796 -0.07337686 0.08807819 -0.005052833
0.09508441 0.08702453 -0.11629737 -0.08357242 -0.20929538 0.06356055 0.10455047 0.114547305
-0.3325848 -0.014044368 -0.21431813 -0.044038337 -0.09751859 0.063757196 -0.18087633 -0.0016576176
0.011957549 0.1269535 -0.14417124 -0.07505491 -0.101977326 0.20441517 -0.06203379 0.13042635
0.09115203 0.11252146 -0.02345967 -0.040856697 0.13604186 0.061549775 0.055956207 0.07923021
-0.26417956 -0.20219523 0.16222088 -0.14580779 -0.031375904 0.23959623 0.087772205 0.042115685
-0.17905918 0.15008855 -0.11078061 -0.05659862 -0.15805481 -0.045717612 -0.04411988 0.17180033
-0.0037374916 0.26888183 0.17942175 -0.20431927 0.12320882 -0.083608404 -0.053915538 0.051978063
0.14619412 0.17306833 -0.07660069 -0.05438083 0.07612484 -0.25153008 0.16117449 -0.17370172
-0.0006347126 -0.01324205 -0.14175399 0.043317933 0.19315372 -0.032304026 -0.10366314 -0.06376497
00000000: 1fbe 0c3d 41d5 bb3d 1655 4bbe c747 61be
00000010: 75d8 b6bd 70b7 8a3c 19c6 26bc d495 373e
00000020: d37c 4cbd 1aa6 febc 2480 e8bd 8bce a3bb
00000030: 83cd 3ebe 1f8e 1abe 7dce e9bd bd77 21bd
00000040: 2c1f 263c b0cd 2a3e c174 35be 6955 fdbd
00000050: 3ed9 6e3d aaae 463e e513 c9bd 3156 4b3e
00000060: 9c2e afbd 1874 52bb 0a51 8a3e 7a0b 4dbe
00000070: 83c4 3abe d2c8 d3bd 20a4 85bd 6a56 453e
00000080: 05a2 babd b90f 37bd f00d 76be 2c51 4fbe
00000090: 6d72 36be 2b29 853e a6e2 fc39 82f1 f23c
000000a0: d797 0d3d 5d1e 19be f625 3ebd 23bb 93be
000000b0: d7ec 49be 8ef0 11be e43a 44bc 9adc c03d
000000c0: 53e2 44be ad72 d3bd ede7 063e b32a 823e
000000d0: 48cb cf3d 4af9 bcbd ad40 203e 85bf 14be
000000e0: 8e37 593c 16be 5cbe 5e50 b1bd 9023 34bd
000000f0: 6092 d73d d4c8 0f3e 437e ccbd a833 cebc
00000100: 79e4 1d3e d69d 8f3d fb01 5c3c 330f 463e
00000110: 1c19 333e f066 5f3e 0c2d a9bd 5d2a a3bd
00000120: bbf0 273e fa78 ef3d 535d 103e 97fc 333e
00000130: a74d fa3c 147e 1abe 6aa9 a23d cc3f febd
00000140: 7c8f 8fbe 3451 373e 8b83 6f3e 9e8e d0be
00000150: fa43 de3d 0445 0f3c 27a4 c03b 7aeb febd
00000160: ded5 b33d 3321 21be 2aa0 c93d ef72 3b3d
00000170: 22d7 023e 85fa a13d 59f7 99be 27e2 c7bd
00000180: b99c 823d 1bc0 25bd d87d 68be 39b1 32be
00000190: 6392 873e 894a 703e 1c2a cf3a 878e 11be
000001a0: dcd1 93be 1332 2a3d 4614 0dbe 9cff e9bd
000001b0: 2a5b 3e3d f509 943c 3cc4 b1bd dcac d53d
000001c0: f7cf 1ebe 8fcd 563e 633c 053e 093a 6bbe
000001d0: 9bf1 5dbd 3a34 74bc 4d7b a73d 46ff 593d
000001e0: 1480 1b3d 6956 8abd a900 17be 3273 563d
000001f0: 2f16 2dbe c442 01be f275 38bd 6325 34be
00000200: 1fef e2bd fa86 76be 080c 18bd 4001 063d
00000210: 0e07 18be ccca 87bd f6c9 d03d ac3c 9fbd
00000220: 3821 263d ea7a 913c 7296 1d3d 3415 a43d
00000230: a89c 673e f3d2 de3c 1060 c83d b9fb b43b
00000240: 8ffa e1bd fc57 60bd c7a5 c03d 1b83 85bc
00000250: e6dd e1bd 18bd 21be 734f 96be c1ce 89be
00000260: e49a 47bc 11ea 583e b71d 473e 8bbd 5cbe
00000270: 50a9 eb3d ced9 83be 9918 993d 8f9e e4bd
00000280: ff8d 9cbd 6a8d c1bd d7c6 6bbe bc77 52be
00000290: 0595 debd c553 89bb a71b 70bd b09f c73d
000002a0: 9874 57be a8cd 11bd 0488 f93d 1734 64bd
000002b0: 3ee6 683e 3522 443d 0f13 47be 363a 6b3d
000002c0: fe30 cfbd be50 39be 504f 343e f345 18be
000002d0: 806e 3dbd 9b46 96bd 5762 b43d 3c92 a5bb
000002e0: 9dbb c23d eb39 b23d 512d eebd 0428 abbd
000002f0: 8751 56be 092c 823d 8f1e d63d c797 ea3d
00000300: 8e48 aabe 591a 66bc 3676 5bbe 8b61 34bd
00000310: d4b7 c7bd 2293 823d a537 39be 6b44 d9ba
00000320: 98e9 433c 1900 023e a0a1 13be 63b6 99bd
00000330: 7dd9 d0bd 3652 513e 2517 7ebd 7c8e 053e
00000340: eaad ba3d a771 e63d 7e2e c0bc 5a59 27bd
00000350: 8f4e 0b3e 9e1b 7c3d 5632 653d 7343 a23d
00000360: 8b42 87be 440c 4fbe 3b1d 263e a34e 15be
00000370: 0584 00bd b758 753e eac1 b33d 7f81 2c3d
00000380: 4a5b 37be d0b0 193e f2e0 e2bd f4d3 67bd
00000390: 1fd9 21be 6442 3bbd 0cb7 34bd 6dec 2f3e
000003a0: b4f0 74bb e1aa 893e 56ba 373e 1239 51be
000003b0: e854 fc3d e23a abbd 8ad6 5cbd f3e6 543d
000003c0: e9b3 153e d338 313e d3e0 9cbd 6fbe 5ebd
000003d0: 57e7 9b3d 8dc8 80be ed0a 253e ddde 31be
000003e0: d762 26ba 2ff5 58bc f527 11be 256e 313d
000003f0: 17ca 453e 3a51 04bd 574d d4bd 3597 82bd

network.0.bias f4 [128]
-0.0776252 -0.034597777 0.12347884 0.08520077 -0.1011823 0.0008664434 -0.061019108 -0.0752818
0.14071439 -0.04735927 0.28358355 0.17619944 -0.055011474 -0.14494435 0.027582541 -0.20205382
0.1742217 -0.0577864 0.02537962 -0.19189024 0.06041037 0.068837896 0.212269 -0.058528118
0.14329015 0.05844964 0.20467131 0.16940033 -0.20914842 0.09456218 -0.07573122 -0.121461645
0.10244403 -0.0048932214 0.03996466 0.15255538 0.1557075 0.12836564 -0.073436074 -0.2207376
-0.20971628 0.1327265 0.03791794 -0.1592668 0.040974103 0.101891026 0.08256884 -0.1015745
0.050213 -0.11075174 0.054108392 -0.12894908 0.20655926 -0.13372472 -0.041353624 -0.11011792
-0.16000548 -0.005383568 -0.17790596 0.19956154 0.07537852 -0.21567495 0.0012576475 0.036451932
0.19261824 -0.017472368 0.10094149 -0.0510845 -0.07116528 0.15585893 -0.24816594 0.20771971
0.13077192 -0.07157419 0.104388475 0.22814439 0.033492707 0.08237014 0.05833385 -0.06334508
0.049395695 -0.08532106 0.2566732 -0.14308159 0.0074786856 -0.059667267 0.104162306 0.088874064
0.1725309 -0.013479773 -0.06099365 0.039242063 -0.1718387 -0.16479932 0.016690135 -0.14764583
-0.0009532959 -0.09569145 0.00852049 -0.18707673 -0.060339123 -0.058781248 0.16602921 0.04783144
-0.033520076 -0.26540294 0.039955273 0.02692906 -0.06270396 0.13853979 0.20098007 0.0631056
0.009392825 0.10671066 -0.07006517 0.065861374 0.19183561 -0.12698978 0.074849 -0.17258869
-0.12757696 0.11004465 0.24286929 -0.0031866704 0.057002075 0.07477515 -0.024456166 0.14710155
00000000: f6f9 9ebd 66b6 0dbd 79e2 fc3d be7d ae3d
00000010: aa38 cfbd 0822 633a 2cef 79bd 582d 9abd
00000020: 6f17 103e cbfb 41bd dd31 913e a06d 343e
00000030: b653 61bd 4b6c 14be c8f4 e13c 32e7 4ebe
00000040: 2c67 323e 6fb1 6cbd ece8 cf3c e07e 44be
00000050: dd70 773d e2fa 8c3d 0b5d 593e 2ebb 6fbd
00000060: a7ba 123e e468 6f3d 5b95 513e 4877 2d3e
00000070: 012b 56be d1a9 c13d f818 9bbd e2c0 f8bd
00000080: 2dce d13d 5157 a0bb fcb1 233d 7a37 1c3e
00000090: c971 1f3e 4872 033e a765 96bd 0a09 62be
000000a0: ddbf 56be 75e9 073e d84f 1b3d d616 23be
000000b0: 76d4 273d 3eac d03d da19 a93d 4b06 d0bd
000000c0: 26ac 4d3d cfd1 e2bd c3a0 5d3d 3a0b 04be
000000d0: 4584 533e 22ef 08be 6b62 29bd 8185 e1bd
000000e0: 7ad8 23be a468 b0bb fb2c 36be dc59 4c3e
000000f0: 0e60 9a3d e5d9 5cbe a6d7 a43a 9f4e 153d
00000100: b73d 453e 3622 8fbc 69ba ce3d fb3d 51bd
00000110: 1abf 91bd 7c99 1f3e 361f 7ebe 7ab4 543e
00000120: 13e9 053e 7d95 92bd a0c9 d53d af9e 693e
00000130: a62f 093d adb1 a83d 7aef 6e3d 11bb 81bd
00000140: 2453 4a3d cfbc aebd ab6a 833e fb83 12be
00000150: c30f f53b aa65 74bd 0c53 d53d 9b03 b63d
00000160: f1ab 303e 44da 5cbc 7ad4 79bd 49bc 203d
00000170: 7cf6 2fbe 27c1 28be c0b9 883c 7830 17be
00000180: 9be6 79ba e1f9 c3bd 8699 0b3c 0b91 3fbe
00000190: 2826 77bd 9bc4 70bd 9003 2a3e e6ea 433d
000001a0: 594c 09bd e5e2 87be 24a8 233d 559a dc3c
000001b0: ef6a 80bd 60dd 0d3e b8cd 4d3e 823d 813d
000001c0: 5de4 193c 1e8b da3d 547e 8fbd 54e2 863d
000001d0: 8e70 443e 9c09 02be 6f4a 993d 17bb 30be
000001e0: 89a3 02be 175f e13d bab2 783e 75d7 50bb
000001f0: 027b 693d b723 993d 4c58 c8bc caa1 163e

network.2.weight f4 [64, 128]
-0.049885977 -0.037418555 -0.15977323 -0.018913908 -0.03887617 0.013332174 -0.06427037 -0.038293816
-0.031747002 0.08253834 0.03533898 0.057262495 -0.07491154 0.13302311 0.0963831 -0.3195886
-0.12608032 -0.056180205 -0.07427413 -0.063893735 0.1178695 -0.014122612 -0.08537928 -0.02009636
-0.072808444 0.047857426 -0.13007422 -0.22189309 -0.21799427 0.017185392 0.058944326 -0.040494658
0.15185961 0.003818488 -0.14798965 0.053891826 0.022098863 0.091151424 -0.16532871 -0.066774584
-0.11857913 0.10524212 -0.06925472 -0.02221502 -0.042656615 -0.08309043 0.16374333 -0.064555876
0.115153484 -0.048700713 -0.15090823 -0.044454005 0.10774083 -0.093295015 0.0071123494 0.007348472
-0.00088046544 -0.07751697 -0.16209072 0.03020734 0.015758678 -0.080910005 0.03505491 0.13586766
-0.06459266 0.10161175 0.120628096 0.08430873 -0.0048774034 0.14957833 0.0077105365 0.104238674
-0.0807493 -0.09877978 -0.13031122 0.045120303 -0.058452185 -0.31162295 -0.08486421 0.10166484
-0.044406347 -0.12752171 0.0334692 -0.031971898 0.10463272 0.000116652765 -0.096268 -0.11172858
0.12875676 -0.05003208 -0.054071017 0.03220096 -0.034464378 0.067090765 0.098275125 -0.27797276
-0.12648435 0.07772727 -0.17744705 -0.024580969 0.0112357745 0.075893044 0.14461349 -0.060307506
-0.029177574 -0.2307532 0.11392243 -0.1560334 0.056255683 0.060192674 -0.0948669 -0.085810065
-0.024116931 0.09870961 -0.108631976 0.011228665 -0.040719077 -0.027768383 -0.0051666773 -0.11305882
0.0226515 0.1585556 0.049481984 0.03308131 -0.06636401 -0.033957195 0.06885193 -0.12163059
0.042660095 -0.06325167 -0.007073242 -0.017940791 -0.058549564 -0.0022890407 0.04526069 -0.07647015
0.050629914 0.0018600282 0.020325698 0.054500744 -0.08149197 0.059972815 0.0009279271 -0.02187745
0.043301187 0.08803284 0.11133174 0.06694036 0.006100852 0.020869467 0.06551629 0.06672427
0.0070234924 -0.07326646 0.036644142 0.12193212 0.120079644 0.0058913166 -0.08041535 0.056569595
0.018572709 0.04942141 0.064792685 -0.05940554 -0.038444765 0.054105435 0.12969111 0.026642658
-0.057798203 -0.08507093 0.02462597 -0.012427371 0.11968748 -0.026315803 -0.10969456 0.14316918
0.037473004 0.12880455 0.11271327 -0.14578252 0.0030539231 -0.025276136 0.08645828 -0.01748075
0.085228555 -0.13007519 -0.013040388 -0.042728752 0.050509434 -0.0799703 -0.03880627 -0.09836992
0.08719181 -0.028508266 -0.107014574 -0.035845444 -0.10252024 -0.0161497 0.10851388 0.011234759
0.03307483 -0.022755424 -0.08712879 -0.08903581 0.00813324 -0.00831275 0.02655301 0.04692059
0.00034640558 0.02317994 -0.003540117 0.06829967 -0.1010171 -0.016832246 0.10242613 -0.058891512
0.029008735 -0.08379028 0.10629219 0.14174002 0.0718617 0.15837684 0.06248949 0.017319888
-0.102477625 -0.020156886 0.011633932 0.22738129 0.06495602 0.050240308 -0.09999416 -0.034327637
0.06456034 0.17853978 -0.08858731 0.0036231724 0.14815928 0.053694703 -0.013846877 0.16417158
0.100899175 0.12794875 0.08413134 -0.10009709 -0.033494234 -0.054967627 0.08674477 0.008655197
0.027799824 -0.119737715 -0.0011725882 0.17659904 0.032105584 0.042421337 0.084820755 0.01282722
00000000: 3d55 4cbd 3344 19bd 989b 23be 57f1 9abc
00000010: 9e3c 1fbd 316f 5a3c 2fa0 83bd fad9 1cbd
00000020: 2509 02bd dc09 a93d 9bbf 103d 148c 6a3d
00000030: 396b 99bd 3637 083e 8164 c53d 1ea1 a3be
00000040: 331b 01be 371d 66bd 091d 98bd b8da 82bd
00000050: 9065 f13d 8762 67bc 55db aebd 1fa1 a4bc
00000060: 981c 95bd 2606 443d 2d32 05be f137 63be
00000070: e439 5fbe 61c8 8c3c 9b6f 713d badd 25bd
00000080: 1681 1b3e 993f 7a3b 998a 17be adbd 5c3d
00000090: ad08 b53c 99ad ba3d ee4b 29be 1dc1 88bd
000000a0: 9dd9 f2bd 2e89 d73d 6bd5 8dbd 46fc b5bc
000000b0: b4b8 2ebd 512b aabd 55ac 273e df35 84bd
000000c0: 97d5 eb3d 667a 47bd b087 1abe 6715 36bd
000000d0: 39a7 dc3d 7511 bfbd b60e e93b 73cb f03b
000000e0: 09cf 66ba 38c1 9ebd 1cfb 25be 6275 f73c
000000f0: 5818 813c 25b4 a5bd bd95 0f3d e420 0b3e
00000100: 2849 84bd d219 d03d dd0b f73d 0eaa ac3d
00000110: a0d2 9fbb 102b 193e aba8 fc3b 167b d53d
00000120: e45f a5bd 0e4d cabd 4e70 05be 11d0 383d
00000130: 8f6b 6fbd 0b8d 9fbe 49cd adbd a835 d03d
00000140: 6ee3 35bd 0d95 02be 0017 093d f7f4 02bd
00000150: ae49 d63d 7aa3 f438 2828 c5bd f4d1 e4bd
00000160: d0d8 033e 70ee 4cbd 9279 5dbd 27e5 033d
00000170: 852a 0dbd e266 893d 7844 c93d 7252 8ebe
00000180: 1d85 01be 7a2f 9f3d aeb4 35be 075e c9bc
00000190: 4116 383c d06d 9b3d 8f15 143e 0105 77bd
000001a0: cf05 efbc 914a 6cbe 2a50 e93d 38c7 1fbe
000001b0: 5c6c 663d 988c 763d 9449 c2bd 30bd afbd
000001c0: df90 c5bc 4428 ca3d 717a debd 6ff8 373c
000001d0: 0cc9 26bd 857a e3bc 3b4d a9bb 628b e7bd
000001e0: a38f b93c 665c 223e 9fad 4a3d 4580 073d
000001f0: dbe9 87bd b316 0bbd 3e02 8d3d 7519 f9bd
00000200: 5abc 2e3d 178a 81bd a8c6 e7bb 91f8 92bc
00000210: abd1 6fbd bb03 16bb 4663 393d 629c 9cbd
00000220: 5061 4f3d 31cc f33a 1482 a63c 2c3c 5f3d
00000230: 43e5 a6bd 0ea6 753d 2240 733a 5738 b3bc
00000240: 965c 313d 904a b43d e501 e43d 0718 893d
00000250: a8e9 c73b 72f6 aa3c 682d 863d bca6 883d
00000260: 5325 e63b ba0c 96bd 2b18 163d 8cb7 f93d
00000270: 51ec f53d f20b c13b ceb0 a4bd 85b5 673d
00000280: cb25 983c 1b6e 4a3d 07b2 843d 3953 73bd
00000290: 4278 1dbd a99d 5d3d bfcd 043e b441 da3c
000002a0: cfbd 6cbd ab39 aebd 67bc c93c 2c9c 4bbc
000002b0: b61e f53d 3d94 d7bc 8ba7 e0bd f19a 123e
000002c0: 4b7d 193d 57e5 033e 37d6 e63d 0348 15be
000002d0: 5424 483b e60f cfbc 0a11 b13d ca33 8fbc
000002e0: 4f8c ae3d 6e32 05be 5aa7 55bc 5804 2fbd
000002f0: fbe2 4e3d 78c7 a3bd 53f3 1ebd 2b76 c9bd
00000300: 9f91 b23d 2b8a e9bc 752a dbbd acd2 12bd
00000310: 22f6 d1bd 604c 84bc 863c de3d ff11 383c
00000320: 7979 073d 9569 babc 9470 b2bd 6858 b6bd
00000330: 4841 053c 3332 08bc b385 d93c ce2f 403d
00000340: c59d b539 dce3 bd3c 4f01 68bb b3e0 8b3d
00000350: 0ee2 cebd c7e3 89bc cac4 d13d 3a38 71bd
00000360: baa3 ed3c 3d9a abbd b8af d93d 4c24 113e
00000370: 3a2c 933d 8a2d 223e fbf4 7f3d 70e2 8d3c
00000380: cadf d1bd 0e20 a5bc 3f9c 3e3c a4d6 683e
00000390: a907 853d c8c8 4d3d bdc9 ccbd 239b 0cbd
000003a0: 3638 843d 22d3 363e 436d b5bd bf72 6d3b
000003b0: 11b7 173e faee 5b3d 03de 62bc 981c 283e
000003c0: 3aa4 ce3d ff04 033e 0d4d ac3d b4ff ccbd
000003d0: 4031 09bd bc25 61bd 3ea7 b13d 87ce 0d3c
000003e0: 75bc e33c 0c39 f5bd 88b1 99ba 61d6 343e
000003f0: 2581 033d ffc1 2d3d 81b6 ad3d 4329 523c

network.2.bias f4 [64]
0.0011662678 0.024799462 -0.060770243 0.0117821 0.061021622 -0.06805252 0.011917528 0.036797587
0.012225769 -0.06919248 0.08662088 -0.021221975 0.10809783 -0.012951904 -0.045148913 -0.07352862
0.12822902 0.114345804 -0.07134482 0.03659929 -0.046347797 -0.015519032 0.02450385 0.09513574
0.047862217 0.115122885 -0.084702544 -0.02091753 -0.0021505079 -0.035840563 0.035083607 -0.021953251
0.090769365 0.025221145 0.032683022 0.103457764 -0.044658896 0.063519195 0.093965 -0.035351757
0.02673961 -0.018771525 0.11260015 -0.0315639 -0.011582487 0.08636422 0.027678741 0.049883474
-0.027320536 -0.023363013 0.060487498 0.060391646 0.0746872 -0.023548618 0.077380836 0.0022242942
0.13161846 -0.009847538 0.0024448596 0.058954332 0.062581465 0.09274499 -0.047240462 0.0017530452
00000000: 74dd 983a 3e28 cb3c 38ea 78bd b609 413c
00000010: cff1 793d 1f5f 8bbd bc41 433c 11b9 163d
00000020: 984e 483c c9b4 8dbd 4a66 b13d b5d9 adbc
00000030: 6562 dd3d 3934 54bc 11ee 38bd 2c96 96bd
00000040: 784e 033e 222e ea3d 3c1d 92bd 23e9 153d
00000050: 30d7 3dbd 8a43 7ebc 4cbc c83c 87d6 c23d
00000060: 2c0b 443d 8cc5 eb3d 8778 adbd 3d5b abbc
00000070: 89ef 0cbb 8ecd 12bd d4b3 0f3d 4ed7 b3bc
00000080: 4ae5 b93d 939c ce3c a2de 053d aae1 d33d
00000090: 3fec 36bd 5a16 823d b970 c03d 01cd 10bd
000000a0: 070d db3c bec6 99bc e89a e63d 2649 01bd
000000b0: 79c4 3dbc b9df b03d 87be e23c 9d52 4c3d
000000c0: 51cf dfbc ca63 bfbc bdc1 773d 3b5d 773d
000000d0: 9af5 983d 08e9 c0bc d879 9e3d 77c5 113b
000000e0: fdc6 063e 9157 21bc f039 203b 197a 713d
000000f0: b62a 803d 16f1 bd3d 377f 41bd 70c6 e53a

network.4.weight f4 [16, 64]
0.2683479 -0.086100295 0.112752 0.11884311 0.42940968 0.06517881 -0.14668247 -0.09767272
-0.013228675 -0.09435485 -0.13178796 0.017700633 0.059414186 0.020454453 -0.36158788 -0.31041825
0.12960842 0.1729586 -0.010599237 0.0029393155 0.14181848 0.07522969 0.142333 0.03822303
-0.016802063 0.18936072 0.012309192 -0.10171739 0.29031745 -0.080948986 -0.013964343 -0.52557135
0.17526916 0.3199234 0.07979293 -0.04507685 -0.116303 -0.13128449 0.034211516 0.050232
0.055845443 -0.20823409 0.06817846 0.08931766 -0.37461296 0.07932832 0.15577696 -0.058909003
0.42603156 0.12632236 0.17791101 0.020243354 -0.20046821 -0.02578675 -0.43683717 0.21068701
0.076160364 -0.10008027 0.17565635 0.006141192 -0.15008317 0.146531 0.020996772 0.018767735
0.24659884 -0.058360416 0.111084945 -0.12251882 0.4501952 0.07062562 0.04343927 -0.15180199
0.0035868504 0.08390501 -0.11682426 0.036825817 0.058312137 -0.025872482 -0.47793254 -0.09970696
0.14290024 0.08693169 -0.18913692 0.026695188 0.23403922 0.1337358 0.076517425 -0.05847836
0.06769005 0.014614208 -0.06911792 -0.19841462 0.27413836 -0.19663973 0.044295676 -0.41705334
0.05180389 0.16906105 0.11789869 0.02068331 -0.08747969 -0.0051020547 0.008948497 -0.15780838
-0.09324781 -0.32645264 0.10087674 -0.11380087 -0.28468722 0.12560444 0.2934337 -0.09358238
0.37870616 0.12936907 0.18440765 -0.09394905 -0.012735531 0.100089364 -0.2978801 0.12915254
0.130565 0.05307735 0.21531948 0.062623195 -0.12416659 0.11663231 -0.14634626 -0.0062683104
-0.3074403 0.16492802 -0.09604361 0.03279056 -0.5442708 0.11992312 0.1528252 0.13945602
0.11508174 0.0034475988 0.17819214 0.04648987 -0.19691007 0.068435825 0.44728464 0.31903446
0.02314893 0.03891936 0.09999521 -0.06943977 -0.24709468 0.034546636 -0.16826524 0.1546311
-0.09074293 0.023902858 0.0701331 0.09783137 -0.25912246 0.12015658 -0.11883442 0.30872196
-0.15881824 -0.102410406 0.015996153 -0.063811876 0.23276857 0.06328925 0.05821013 0.020461565
0.01842302 0.40890118 0.14308351 -0.058177765 0.41191137 -0.01445383 -0.31677088 0.095875226
-0.39989206 0.006220134 0.07060187 0.17288305 0.0906272 0.07031862 0.26950175 -0.1388202
-0.0048554386 0.15403272 -0.08855867 -0.08201277 0.19735666 -0.16926855 0.15803301 0.026470238
0.1704237 -0.14167862 0.13455713 -0.0522793 0.453706 -0.09266534 0.037678197 -0.12405321
-0.12903523 -0.14915721 0.08464494 0.100656316 0.028865615 -0.040294923 -0.30967587 -0.16974367
0.17917359 0.07858877 -0.09514318 0.17522536 0.22735126 -0.024925051 0.06823138 0.092908666
0.13040736 0.062002227 -0.20635734 0.0077346307 0.23032786 -0.11298382 0.19016385 -0.31799012
0.13423827 0.2564538 0.08398402 0.0773933 -0.17159635 0.009711216 0.07219544 0.021822229
-0.11761925 -0.28774765 0.04384334 -0.091595545 -0.30338603 0.15161455 0.24238324 -0.14800453
0.45842418 0.009679065 0.1350351 -0.069136806 -0.02493217 0.068791725 -0.43785325 0.14458129
0.07942735 -0.07473109 0.19845231 0.093164325 -0.16814213 0.07284132 0.051362973 -0.08375447
00000000: e564 893e 5a55 b0bd 85ea e63d 0464 f33d
00000010: 96db db3e 787c 853d ee33 16be a308 c8bd
00000020: 16bd 58bc 1e3d c1bd 6cf3 06be eb00 913c
00000030: 4a5c 733d 1990 a73c 0c22 b9be 24ef 9ebe
00000040: 12b8 043e 0f1c 313e 6ca8 2dbc 88a1 403b
00000050: dd38 113e 0612 9a3d bebf 113e c08f 1c3d
00000060: 7ba4 89bc c7e7 413e 7eac 493c 3551 d0bd
00000070: 7da4 943e 95c8 a5bd b3ca 64bc d88b 06bf
00000080: c279 333e 00cd a33e 7a6a a33d 81a2 38bd
00000090: 4430 eebd 716f 06be 6021 0c3d 12c0 4d3d
000000a0: 31be 643d 513b 55be 26a1 8b3d 2dec b63d
000000b0: 45cd bfbe e376 a23d ff83 1f3e 914a 71bd
000000c0: cf20 da3e a65a 013e 4e2e 363e 64d5 a53c
000000d0: 8a47 4dbe bc3e d3bc 1fa9 dfbe 56be 573e
000000e0: f7f9 9b3d e2f6 ccbd 42df 333e 0d3c c93b
000000f0: 67af 19be 390c 163e 6c01 ac3c cbbe 993c
00000100: 6884 7c3e 550b 6fbd 8180 e33d 26eb fabd
00000110: fc7f e63e 2aa4 903d 60ed 313d fb71 1bbe
00000120: 5d11 6b3b 64d6 ab3d 8f41 efbd abd6 163d
00000130: b5d8 6e3d 87f2 d3bc 93b3 f4be 2a33 ccbd
00000140: 7154 123e 3e09 b23d 1cad 41be deaf da3c
00000150: faa7 6f3e 0af2 083e 2bb5 9c3d 0187 6fbd
00000160: 15a1 8a3d 6e70 6f3c b28d 8dbd 342d 4bbe
00000170: dd5b 8c3e ed5b 49be 626f 353d 0488 d5be
00000180: 5130 543d 571e 2d3e de74 f13d 0c70 a93c
00000190: 8d28 b3bd 232f a7bb b79c 123c 8598 21be
000001a0: b5f8 bebd cd24 a7be 7798 ce3d 6e10 e9bd
000001b0: 86c2 91be 739e 003e f13c 963e 1ea8 bfbd
000001c0: c6e5 c13e 5379 043e 5cd5 3c3e 5c68 c0bd
000001d0: b0a8 50bc a7fb cc3d be83 98be 9040 043e
000001e0: d5b2 053e a367 593d b67c 5c3e 9740 803d
000001f0: 0e4b febd ecdc ee3d cbdb 15be 6666 cdbb
00000200: d168 9dbe e4e2 283e 83b2 c4bd 654f 063d
00000210: 5555 0bbf 419a f53d 367e 1c3e 8fcd 0e3e
00000220: faaf eb3d 1cf1 613b 0078 363e 296c 3e3d
00000230: cba2 49be 1528 8c3d 7e02 e53e 7c58 a33e
00000240: d3a2 bd3c e869 1f3d 4aca cc3d 7036 8ebd
00000250: 6306 7dbe c680 0d3d b94d 2cbe 9d57 1e3e
00000260: 6ed7 b9bd edcf c33c f1a1 8f3d d05b c83d
00000270: b3ab 84be a714 f63d 765f f3bd ce10 9e3e
00000280: 40a1 22be 8cbc d1bd 5d0a 833c cdaf 82bd
00000290: e25a 6e3e cb9d 813d bf6d 6e3d 039f a73c
000002a0: e0eb 963c 7f5b d13e 7c84 123e cf4b 6ebd
000002b0: 0ce6 d23e c2cf 6cbc cb2f a2be 3b5a c43d
000002c0: a7be ccbe 44d2 cb3b b797 903d 4108 313e
000002d0: c19a b93d 3503 903d 22fc 893e e226 0ebe
000002e0: 5f1a 9fbb c1ba 1d3e 3f5e b5bd 50f6 a7bd
000002f0: dd17 4a3e bc54 2dbe 68d3 213e 1dd8 d83c
00000300: 8d83 2e3e 3314 11be 58c9 093e d222 56bd
00000310: 274c e83e 53c7 bdbd 7454 1a3d 9c0f febd
00000320: d021 04be abbc 18be 545a ad3d e624 ce3d
00000330: 9577 ec3c 4a0c 25bd d68d 9ebe 49d1 2dbe
00000340: 4879 373e 26f3 a03d 6dda c2bd 476e 333e
00000350: c5ce 683e 9f2f ccbc e5bc 8b3d e646 be3d
00000360: 8289 053e 0cf6 7d3d 574f 53be c972 fd3b
00000370: 11db 6b3e 1064 e7bd 50ba 423e 9acf a2be
00000380: c275 093e ea4d 833e d0ff ab3d 6180 9e3d
00000390: f4b6 2fbe cb1b 1f3c 34db 933d 88c4 b23c
000003a0: 5de2 f0bd a953 93be 1395 333d 7296 bbbd
000003b0: 6a55 9bbe d840 1b3e 5033 783e 808e 17be
000003c0: 93b6 ea3e f194 1e3c a446 0a3e 9997 8dbd
000003d0: 8d3e ccbc ade2 8c3d 4d2e e0be 1e0d 143e
000003e0: ceaa a23d 9d0c 99bd 1537 4b3e f0cc be3d
000003f0: 732d 2cbe d42d 953d fb61 523d 7787 abbd

network.4.bias f4 [16]
0.1286564 0.0656083 -0.08343712 0.081600405 -0.09979758 0.060020648 0.16512692 -0.03921868
-0.00014733023 0.117011435 0.097566694 0.12732133 -0.049109288 -0.007661704 -0.072482295 -0.0058335215
00000000: 81be 033e a55d 863d 15e1 aabd 1d1e a73d
00000010: ac62 ccbd 36d8 753d 0817 293e c4a3 20bd
00000020: a87c 1ab9 b1a3 ef3d 0cd1 c73d 8660 023e
00000030: d226 49bd 080f fbbb 9971 94bd 2027 bfbb

network.6.weight f4 [2, 16]
-0.13660851 0.0072780396 0.42565548 -0.2674964 0.2105874 0.038855694 -0.38985285 -0.14302552
0.42383343 0.36006606 -0.3537629 0.1297261 0.4034666 0.34225604 0.18673268 -0.31380102
0.3486545 0.4063589 -0.040755574 0.27945644 -0.1115725 -0.46010378 0.38097388 0.23443265
-0.15940341 -0.075109854 0.077071026 -0.36304608 -0.045794506 -0.24165305 -0.42066014 0.15521085
00000000: 1ae3 0bbe 9f7c ee3b 84ef d93e 4af5 88be
00000010: 39a4 573e 2627 1f3d cb9a c7be 4875 12be
00000020: b200 d93e 945a b83e 6920 b5be ebd6 043e
00000030: 2d93 ce3e 2f3c af3e da36 3f3e 87aa a0be
00000040: d882 b23e 460e d03e 51ef 26bd ea14 8f3e
00000050: 1f80 e4bd b992 ebbe 020f c33e 1d0f 703e
00000060: a63a 23be 32d3 99bd 6ad7 9d3d 2de1 b9be
00000070: 0593 3bbd e673 77be c460 d7be 98ef 1e3e

network.6.bias f4 [2]
-0.04913873 -0.17095292
00000000: b145 49bd 480e 2fbe
