models/heloc/rs/adam_epochs20_lr0.0004_batch32_dropout0/bezier_406.pth (torch, 105195 bytes, 19 tensors)

coeff_layer.binom f4 [2]
00000000: 0000 803f 0000 803f
1.0 1.0

coeff_layer.range f4 [2]
00000000: 0000 0000 0000 803f
0.0 1.0

coeff_layer.rev_range f4 [2]
00000000: 0000 803f 0000 0000
1.0 0.0

net.network.0.weight_0 f4 [128, 23]
00000000: 6b43 85be 81c3 66be a9b4 0c3e 9700 88be
00000010: 55e0 cfbc 5d37 fb3c 1b1b da3d 6988 633d
00000020: 3ec1 ef3b fe4b 203e a5bb 24bd cc54 773d
00000030: 11f6 423e f8ab a23d 2f25 53be fea9 18bb
00000040: 1dfd 733d ad60 363d 901c c03d ab4c d9bd
00000050: 97d5 eb3d c6a8 9fbd 3373 f5bd e76d c6bc
00000060: 4ec2 cd3d 4feb ba3c 84b1 a8bd 08ac acbd
00000070: 0ddf 0a3e 2c71 e0bd d557 e0bd 8f22 84bd
00000080: 1378 de3d 99d7 96bd 2920 17be 71ce f9bd
00000090: 7fb4 edbd d34a 923e 3369 8dbd d1bf abbd
000000a0: 2a29 443e c84e 46bc 4de0 f83d cd75 a0bc
000000b0: 08be 09bd d9f5 0abe f0bf ae3d b652 1f3e
000000c0: e8ac 3cbe bddc 5cbe 3825 9abe dc3c d8bc
000000d0: 8964 b43d e21c b83d a083 f53c 5dba 24be
000000e0: 26ba 18be 2590 25be 2ec3 c23d 672a a03d
000000f0: e353 28bd ffee 8ebd 78fa 89bd 0167 213e
00000100: cab8 31be 9fe0 423d 81c0 bb3d bdd8 c03d
00000110: fb24 d6bd 3aab 3b3e 3873 143d 6716 3a3e
00000120: 1055 0fbe 1d91 0e3e 358b 6d3d 0d07 fc3d
00000130: 7d84 503e 71ad 43bd 7972 2c3e af31 3f3e
00000140: 9db4 1f3e 200e 443d f6e8 2f3e b63a dabd
00000150: 0fb9 9d3c 11d2 0bbe ffb6 3f3e 3930 5bbe
00000160: b2e7 25be 8d99 aebe 2166 40be 6f9e a33d
00000170: 6b23 6a3b 6f87 233e 2c00 09be 07ae 3d3c
00000180: fbbd 403e bb4d 123e 7db6 fc3d ec88 173e
00000190: a886 13bd 8796 ebbd 3eea 5f3e 5d37 01be
000001a0: 1e49 03be 9318 a63d f88a 013e 5649 da3d
000001b0: fd2e 15be 73f7 21be d7b5 2ebd 5764 6d3d
000001c0: eefa 833e 44c1 3b3e 1ee6 3a3e c229 b83d
000001d0: 5bb4 64be 1157 68bd 60f7 2a3d 8d87 57be
000001e0: 2a25 453d 0ae8 5fbd 55d2 e5bd 68aa 66bd
000001f0: 38ca bebb a1af b9bd 9dd0 533e c46d 10be
00000200: 40c4 8a3d cd74 9fbd 9c22 0ebe 00df 29bc
00000210: cd24 fd3d fe3a 8d3e 3eaf 5d3a f7e7 dcbd
00000220: c07f 9dbd a972 013e 9c41 e43c c9d1 f73d
00000230: eeab d8bc 99e9 113e ba76 a1be 9afc 093d
00000240: 8e97 323d 3d0c 2cbe 59b1 1e3e 7eb9 1abe
00000250: c41c 253e 1512 5ebe 3ff7 b03c 01a2 103e
00000260: 44a4 833e b85e 153e cb0e d53d e8ba 403e
00000270: b025 12be a629 0b3e 7547 acbd 16e6 0e3e
00000280: 8e1c 9abd aa32 9d3e c32a a13d 22c2 0f3e
00000290: 45a5 af3d 6c92 54bd d0e8 d1bd 7302 81bd
000002a0: 0a02 833e 2498 a53d a028 43bd 07d1 f43d
000002b0: f925 93bd f20c c3bd a3ba 1dbe 382d 103e
000002c0: fe7c 5bbd b9fa 4d3e e790 3f3e ef1f 2abe
000002d0: 8d94 68bd c6db 24be 4a76 a33c 9bbb f0bd
000002e0: 753d 09be f77f c13d 0661 c2bd 94a5 08be
000002f0: 72b9 a03d 6440 83be 44ff 26be 6fba 673e
00000300: c79f 373e 7185 933c e050 723e 03c6 ccbd
00000310: f3cb 62be ebdd a4bb 1c6b b1bb 0e02 843d
00000320: 6061 e9bd 708e dfbd 136e 60bd 7320 e8bd
00000330: 9096 0c3d 14b1 2cbe 0143 2d3d fa6c 2dbe
00000340: e7c4 a1bd bf6c e6bc cf0a 113e 826c 05be
00000350: c12b 11be 6464 2bbb 5985 8b3d c757 3bbd
00000360: 9d23 563e cc0d 5cbd a7bb 2e3d 541e 48be
00000370: 66f3 27be 0855 013e 8b59 75be e184 433d
00000380: 9263 373e 215d 01be 37a1 55bd c1e2 743d
00000390: 73a3 e63d 0529 6f3e e287 963d 22b3 e4bd
000003a0: 07ad 9ebd 0fcf 9a3c eaca f43c f38e f33a
000003b0: b28d 69be dcfd 263e 47a3 893a 747d 443e
000003c0: d0e1 703d 717c d3bd 30d3 b13d 9805 853d
000003d0: df1f 553e cba5 bb3d 64e0 353b 693d 47be
000003e0: bc14 23bd 20c8 12be a7bd 9c3d 04f3 eebd
000003f0: 927d 0abe 6d55 6f3d e3df 78be 4390 813b
-0.26027998 -0.22535516 0.13740791 -0.2656295 -0.025375525 0.030666048 0.10649701 0.055550013
0.0073167374 0.15653989 -0.040218014 0.060383603 0.1903918 0.07942957 -0.20619653 -0.0023294683
0.05956756 0.04452579 0.09380448 -0.106103264 0.115153484 -0.07795863 -0.11984863 -0.024222327
0.10046826 0.022817282 -0.082369834 -0.0843125 0.1356165 -0.10959086 -0.10954253 -0.06451904
0.10862746 -0.07365341 -0.14758362 -0.12197579 -0.116066925 0.2857271 -0.06904831 -0.083861955
0.19156328 -0.012103744 0.12152157 -0.019587422 -0.033628494 -0.13570346 0.08532703 0.15558895
-0.18425333 -0.2156858 -0.3010652 -0.026396208 0.08808238 0.08989884 0.02996999 -0.16086717
-0.1491476 -0.16168268 0.09509884 0.078205876 -0.041095626 -0.06979179 -0.06737226 0.15761949
-0.17355648 0.047577497 0.091675766 0.094163395 -0.10456272 0.18327036 0.036242694 0.18172608
-0.13997293 0.13922544 0.057994086 0.12306032 0.2036304 -0.04777283 0.16840543 0.18671297
0.15596242 0.047865033 0.17178711 -0.106557295 0.019253282 -0.13654353 0.18722151 -0.21405114
-0.16201666 -0.34101525 -0.18788959 0.07989203 0.0035726677 0.15969633 -0.13378972 0.011577136
0.18822472 0.14287464 0.123394944 0.14798325 -0.03601709 -0.1150332 0.218667 -0.12618776
-0.1282086 0.08110156 0.12650669 0.10658519 -0.14568706 -0.1581705 -0.042653885 0.05795702
0.25777382 0.18335444 0.18251845 0.0899234 -0.22334425 -0.056723658 0.04173982 -0.21047802
0.048131146 -0.05466465 -0.11221758 -0.056314856 -0.005822446 -0.09066702 0.20685048 -0.14104372
0.06775713 -0.0778595 -0.1388039 -0.010368109 0.12360535 0.2758407 0.0008456594 -0.10786431
-0.07690382 0.12641396 0.027863316 0.1210056 -0.02644917 0.14249267 -0.31535894 0.033688165
0.043601565 -0.16801544 0.1549734 -0.15109822 0.16124254 -0.21686585 0.021602271 0.141243
0.25711262 0.14586914 0.10403212 0.18821299 -0.14272189 0.13590106 -0.08412067 0.13954958
-0.075249776 0.30702716 0.07869484 0.140389 0.085764445 -0.05189745 -0.102494836 -0.06299295
0.25587493 0.08085659 -0.047646165 0.11953931 -0.07184977 -0.095239535 -0.15403228 0.1407975
-0.053586 0.20115174 0.1870762 -0.16613744 -0.056782294 -0.16099462 0.019953866 -0.11754533
-0.1340235 0.094482355 -0.09491162 -0.13344413 0.07847871 -0.25635064 -0.16308314 0.22629713
0.17932044 0.018007966 0.23663664 -0.09998705 -0.22148113 -0.0050313375 -0.0054143798 0.064457044
-0.11395526 -0.1091584 -0.054792475 -0.11334314 0.034323275 -0.16864425 0.042300228 -0.16936103
-0.07898884 -0.028128026 0.1416428 -0.13029674 -0.14176847 -0.0026152367 0.068125434 -0.045738008
0.20912023 -0.053724095 0.042659428 -0.1954282 -0.16401443 0.12630093 -0.23959939 0.047734145
0.17909077 -0.12633182 -0.0521557 0.059786562 0.11261644 0.23355491 0.07350136 -0.11166979
-0.07747846 0.018897561 0.029881913 0.0018582031 -0.22807959 0.16307777 0.0010500931 0.19188482
0.0588091 -0.1032647 0.08682859 0.064952075 0.20812939 0.09162482 0.0027752155 -0.1945702
-0.039814696 -0.14334154 0.07653361 -0.11667445 -0.13524464 0.058431078 -0.24304156 0.003953965

net.network.0.weight_1 f4 [128, 23]
00000000: 4340 80be da0d fa3d c3fe 813d 76d1 a4bc
00000010: dee0 8d3d 524e 2bbd 3b9a 043e 937e c23d
00000020: 4951 06be ec06 833d 4573 103e 250a 90bd
00000030: c42d 2d3e 49bf 653e 21b0 333e 112d 07be
00000040: 4a8f 26be 5923 6a3d 8180 29be 6b7b 973c
00000050: f93f 343e 0939 43be 7d39 b43d 2a14 143e
00000060: 2aed 1c3e 1e47 623e 0d8d a2bd 21b5 84bc
00000070: b4fc 033e 90b3 48be 0d3b 003e 483e 71bc
00000080: a913 88bd d5f2 1abd 7f9d 323e 03ad e8bd
00000090: 9aaf 3a3c 8cb2 83bc 8524 52be c1a4 adbd
000000a0: c15a ec3d 60e5 9abd 882f 50be c4c8 eabd
000000b0: 6894 89bd 456d c4bc 54f0 8a3e 3421 383e
000000c0: 6ac1 a1bd 579c 933d 41f4 6cbe 09fd ebbb
000000d0: cb9a 84be acd8 c7bd 6c15 07be 85b2 1abb
000000e0: 428f 193e 8b84 003e b1b5 95bc a2f9 493d
000000f0: 31fb 1bbe 404e 723d c14e 513e e008 6f3d
00000100: 84b2 153e 4280 30be 3929 cabd 9686 1c3e
00000110: 4881 b53d 150b 393e 16de debd 63bb 1f3d
00000120: 797f 0dbe c991 56bc 1d35 d93d 6a90 b33d
00000130: 15cb 0e3e 498c 13be 1a12 a7bc 3740 ecbd
00000140: e0a7 8dbb 0f58 b33b 81e2 943d f30a b13c
00000150: cd48 9fbd e546 d1bd 0208 d23d fdd9 1a3e
00000160: 5984 9fbb 3c77 1abe 08be 853c f664 04be
00000170: 7fac 43bd 8629 163e 8176 13bc b71b e13c
00000180: 08a9 da3a 1026 48be 7823 8ebe bd60 213e
00000190: 50aa c33d 2944 0fbe ed74 ecbc 861c 5c3d
000001a0: 75ee d43c 92f8 423e 83d6 5b3c edab 263e
000001b0: 9c16 c6bc bf1f 05be 4cc2 013e 7754 863d
000001c0: 3543 f43d 0b65 123e 1598 33be 9502 16be
000001d0: 4ace 96bd a52b 73be d5cc 37be b237 c93d
000001e0: 144b 3bbc 79d4 36be 40e6 08bb 988a e6bd
000001f0: 5bad aebc 71ca c8bc a974 f03d edef 30be
00000200: 5280 043e 3023 c8bd c686 75be 8ad3 36be
00000210: 75a2 943d 7b8e f83d 6a51 edbc 5d12 17bd
00000220: 7706 d5bd ad13 2e3e 808c 76be 50be 21be
00000230: c9fd bc3d 585a 833e 2660 cc3c 6fa1 b1bd
00000240: 7c8e 60bd c235 a9bc aa61 7cbe 1d01 6f3c
00000250: d67c 80bd 93f2 103e d13c 3a3c e58c 203e
00000260: 9249 d53d 3e9e c3bd 6673 423d 68fa 053e
00000270: 9645 f6bc b28b bcbd 1a1b e6bd 1fe2 243d
00000280: 6678 e13c a644 0b3e 438b 1bbe 493a 493d
00000290: cfd3 873e 96a2 d33d ed6d fc3c 33f4 05be
000002a0: 7a81 573e 43c4 373b 562c df3d 9ae5 883d
000002b0: d986 2fbe fa62 2ebe 7e4a 14be 16c0 fbbd
000002c0: 1845 533d be73 53bc ae53 133e 3a9d f5bd
000002d0: cf9a 2b3e 4877 1a3d 5d54 53bd 9d52 4cbe
000002e0: 1612 ab3d 0d40 2c3e 323c 263e 9d6e 123e
000002f0: 0223 553e 2ccd 90be ea15 13be 1a89 713e
00000300: b79e eebd b2cd c33c 03ef f03d e46e e4bc
00000310: 3fae d03c b41f cf3d 4ca7 8f3d 1170 ff3d
00000320: 25bf 9abc d27e 2c3d bd3d 133e 9aeb 8fbd
00000330: ede3 e53c 73a9 0fbc 21b9 f7bc 0e2c 353e
00000340: 9100 c93d 9bfc 133e a3e5 783d da0e 0c3e
00000350: 016c c9bd 0868 6dbd a22e 6c3e bc2f 15be
00000360: 547a 7e3e e5bd 463e acc7 7d3d 2eb6 e1bd
00000370: 8b9a 97bd 624d 66bd 1ad2 e53d dd86 1e3e
00000380: 9332 fd3d ac40 18be fc67 d3bd a4c3 1e3e
00000390: 8a44 2d3d b7df 0ebd 7fd9 91bc ec47 953d
000003a0: ddf9 603d 0597 1a3e b074 323e 64b4 b93d
000003b0: 0aa6 d83b ad6d a93c 6033 023e 8df1 1e3e
000003c0: fafc 963d d66c 32be 53b5 1c3e df9d 13bd
000003d0: 57c9 d4bd 9f48 66be 6c0b 04be 6ea6 00be
000003e0: 14d2 1e3c ee11 27be 6ca9 88bd 9dac 353e
000003f0: 864b 253d adbf 5a3d e7b7 1cbe a438 263e
-0.25049028 0.12209673 0.0634742 -0.02011941 0.06927656 -0.04182274 0.12949459 0.09496798
-0.13116945 0.063978046 0.14106472 -0.07033185 0.1691199 0.22436251 0.17547657 -0.13200785
-0.16265598 0.057162616 -0.16552927 0.018491467 0.17602529 -0.19064726 0.088000275 0.14460817
0.15324846 0.22097442 -0.079370596 -0.01619965 0.12889367 -0.19599748 0.12522526 -0.014724322
-0.06644375 -0.03782924 0.17442892 -0.11361124 0.011394406 -0.016076349 -0.20521744 -0.0847869
0.115407474 -0.07563281 -0.20330632 -0.11464074 -0.06717759 -0.023977885 0.2713648 0.17981416
-0.07898219 0.07207554 -0.2314005 -0.007201795 -0.25899348 -0.09758124 -0.13191766 -0.002360494
0.14996055 0.12550561 -0.018275114 0.049310334 -0.1523254 0.059156656 0.20440198 0.058358073
0.1461888 -0.17236426 -0.09871144 0.15285715 0.08862549 0.18070634 -0.10882203 0.038997065
-0.13818158 -0.013096281 0.10605834 0.08767779 0.13944657 -0.14408983 -0.020394374 -0.115356855
-0.004322991 0.005473144 0.07269765 0.021611666 -0.077775575 -0.102186 0.102554336 0.15122218
-0.004868072 -0.15084547 0.016325966 -0.12929139 -0.047771927 0.14664277 -0.0090004215 0.027479036
0.0016682455 -0.1954577 -0.27761436 0.15759559 0.09553969 -0.13990845 -0.028864348 0.05373814
0.025992611 0.19040135 0.013417843 0.16276522 -0.024180703 -0.13000391 0.12671775 0.06559079
0.11926881 0.14296357 -0.17538483 -0.14649422 -0.07363565 -0.23747118 -0.17949231 0.09825076
-0.011431474 -0.1785449 -0.0020889193 -0.112569034 -0.021322897 -0.024510594 0.11741001 -0.17279024
0.12939575 -0.097723365 -0.23977193 -0.17854133 0.07257549 0.12136551 -0.028969485 -0.036882747
-0.10401624 0.16999693 -0.24077034 -0.15795255 0.09228093 0.25654864 0.02494819 -0.08673369
-0.054823384 -0.020655517 -0.24646631 0.014587668 -0.062738106 0.14155035 0.011367039 0.15678747
0.10414423 -0.09551667 0.047473334 0.13083804 -0.030062478 -0.09206332 -0.11235638 0.04025471
0.02752323 0.13600406 -0.15189843 0.04912785 0.26528785 0.10333745 0.030814135 -0.13081436
0.21045485 0.0028040565 0.10897128 0.06684418 -0.17141284 -0.17029944 -0.14481542 -0.12292497
0.051579565 -0.012906013 0.1438739 -0.11992879 0.16758274 0.03771141 -0.051594127 -0.1995339
0.08353059 0.16821308 0.162339 0.14300008 0.20814136 -0.28281534 -0.14363828 0.23587456
-0.11651366 0.023901794 0.11764338 -0.027884908 0.025473712 0.10113469 0.07014331 0.12472547
-0.018889973 0.042113133 0.1437902 -0.07027359 0.028062785 -0.008768427 -0.030239644 0.17692587
0.09814561 0.1445183 0.060765874 0.1367754 -0.09835053 -0.05796054 0.23064664 -0.1456899
0.24851352 0.19408377 0.061958 -0.11021076 -0.074025236 -0.05622614 0.11221714 0.15481134
0.12363162 -0.1486842 -0.10322568 0.15504318 0.042301692 -0.03488132 -0.017803906 0.07289109
0.05492579 0.15096672 0.17427325 0.0906761 0.0066115903 0.02068218 0.1271491 0.15521832
0.0737247 -0.1742433 0.15303545 -0.03603923 -0.10389965 -0.2248864 -0.12894982 -0.12563488
0.009693641 -0.16315433 -0.0667294 0.17741628 0.040355228 0.053405453 -0.15304528 0.16232544

net.network.0.bias_0 f4 [128]
00000000: 1e70 71bd 5564 f43c aaee f5bd c29b 13be
00000010: 9887 e63d e471 3b3e ab72 1abe ef24 7bbd
00000020: a799 293e f9d4 823d 9094 a0bc 9dce c2bc
00000030: 0d08 debd 7a7e 3fbe 438e 663d 3a84 4a3e
00000040: 4880 5c3d a92a 7d3d ea86 453e 0ee2 0fbe
00000050: d5c6 653d 4027 793d 10ad 8a3e 1419 1dbe
00000060: b965 65bc 363f bcbd e906 ef3d cc0d 29bd
00000070: b832 c23c 74c5 babc 5d2f 6c3e 3f4f 1e3e
00000080: 24fc 583d 707d 21bc 579a 7b3e 024c 0dbe
00000090: c0ff a73d f002 6abd 1f96 88bd eb08 01be
000000a0: a41f 4d3d bef7 323d a0e7 88bd 7fb2 86be
000000b0: f09a 65be c0c7 10be 0205 2ebe ec5d 5db9
000000c0: 3cb0 f23c 39cb 84bd 7f93 6e3d d15a 83bd
000000d0: 4308 80bd 2de7 d13d ea86 e7bd 91ca 733e
000000e0: b703 38be e6d1 eebd f207 113d 010b dcbd
000000f0: e126 e03d 5b8d 0d3e dcdf b43d 2c10 853e
00000100: f8dc 0cbe b7c1 d8ba 40b2 4b3d c254 4dbe
00000110: f2e4 04be b071 083e bc0d c4bd 335d 15be
00000120: df07 03be 0c40 0cbe bd06 2d3e 55b3 133e
00000130: 1427 2d3e 3cf5 4e3e b334 f43d 6084 4dbe
00000140: d540 30bd ddda 17be abfd 82be a1ae 4c3e
00000150: 31f6 99bc 1739 be3b 5660 13be ddea 56be
00000160: a827 bf3d 44a6 5bbb 339d 6a3e f342 24be
00000170: 404f 11bd d3e6 13be da4a 333e 10ef dfbc
00000180: 2c10 1c3d b707 633d 59ff 1fbe 3344 f23c
00000190: 1446 293e 362a 31be d9e4 e7bb 337f 51be
000001a0: 6b66 45be 8eb7 93bc 27df 90bc 3d3a 9e3b
000001b0: 737d 3a3d 8bf0 653d 5d81 ea3d 750b 093e
000001c0: 3a32 a4bd 91bc e23d 70b8 55bc 5f8b 3f3e
000001d0: 5c21 563e d727 fe3c 2a7b 303e ffdf 1a3e
000001e0: 3021 9f3d edea f43d d799 513e 479e 16be
000001f0: be59 043e 0a2d 273e 1ccf 1e3e adc0 833e
-0.058944814 0.029832998 -0.12008412 -0.14414886 0.11256331 0.18305165 -0.15082805 -0.06131452
0.1656252 0.063882776 -0.01960209 -0.023780162 -0.10841379 -0.1870059 0.056288015 0.19777003
0.053833276 0.061808262 0.19289747 -0.14051077 0.056097824 0.060828447 0.2708516 -0.15341598
-0.014001303 -0.09191744 0.1167124 -0.041272923 0.023705825 -0.022799231 0.23064943 0.15459917
0.052974835 -0.009856567 0.24570595 -0.13798526 0.08203077 -0.057131708 -0.06669258 -0.12601058
0.050079003 0.043693297 -0.06684804 -0.26308057 -0.22422385 -0.14138699 -0.16994098 -0.00021111191
0.02962505 -0.06484074 0.058246132 -0.06413806 -0.06251576 0.102491714 -0.1130503 0.23807742
-0.17970167 -0.11661129 0.035407968 -0.10744286 0.109449156 0.13823454 0.0883176 0.259889
-0.13756168 -0.0016537224 0.04973054 -0.20051864 -0.1297796 0.13324618 -0.09572932 -0.14586334
-0.12795971 -0.13696307 0.16897102 0.14423878 0.16909438 0.20210737 0.11924114 -0.20070028
-0.04303058 -0.14829583 -0.25584158 0.1998849 -0.018794151 0.0058051455 -0.14392218 -0.2098803
0.09333736 -0.003351585 0.22911529 -0.16041164 -0.03547597 -0.14443521 0.17509022 -0.027335674
0.03810136 0.05542728 -0.15624751 0.029573536 0.16530639 -0.17301258 -0.0070768413 -0.20458679
-0.1927735 -0.018031862 -0.017684532 0.00482872 0.045529794 0.056137603 0.11450455 0.13383277
-0.080173925 0.110711224 -0.013044462 0.1870551 0.20911163 0.031024856 0.17234483 0.1512451
0.07770002 0.11958871 0.20468841 -0.14708816 0.12924859 0.16325775 0.15508693 0.25732937

net.network.0.bias_1 f4 [128]
00000000: ffd0 70be f9c2 0cbd e514 4dbe 0a6f 88bd
00000010: df1e ed3d 1aa3 13be 698e 94bd 5c8a a43c
00000020: b0dc 953d 92ff f03d 7165 7fbe cbbc a43d
00000030: 56ad c2bd 2229 f9bc 566b 50be 1be9 043e
00000040: a86e 323d 6e60 0b3e 96af e23d 2342 c83d
00000050: e8ec 67be 056f 0dbd cb2e 87bd b13b 81bd
00000060: dd62 5c3e dc9e acbc 738d 023e 3f89 c6bd
00000070: 03e2 673d 23e0 0a3e 15e5 0b3e f0b3 b0bd
00000080: 6108 573e 8e50 503b 15c3 debd 28dc 0a3e
00000090: b34c 97bd 3610 2a3d a9e7 333d 4709 ce3d
000000a0: b57c ab3d 742c 3c3d 5c1b 963d 2326 853d
000000b0: 4bf7 bdbd 11f6 473d 9575 14bd b9ce da3c
000000c0: 432a 113d 4ebe a1bd 9674 a3bd 5133 a03d
000000d0: 709d 50bd 368a 8e3d 4881 1abe e62f c03c
000000e0: 921b 9a3d bf95 623e 2e5c 50be b910 7b3b
000000f0: 7aca bf3c 1855 47bc 75f9 b63d 7459 403e
00000100: 112a 1cbe 5834 453e f506 233e 78d2 043e
00000110: 0770 03be 140e bebd b0fc 923c dca5 743d
00000120: 0195 0bbe 47b9 143e 3191 19be bfea 5dbe
00000130: 83af 123e 3eee 09bd 2eb0 b63d b0f7 c5bd
00000140: 70d1 fabd 1140 49bd 5817 7a3d 0e17 b13d
00000150: 78a5 643d 9284 c63d a276 733c a45e 14be
00000160: a038 f93d b6fd 2d3e 6e4c 23be 65eb 473c
00000170: 00d9 4f3d a33d 123e eb5a c0bd 8dc0 27bd
00000180: 9393 aebb 69f8 783d f88f 6b3d b242 51be
00000190: 8c53 b73d e1d3 d6bd 5409 dcbc 90c0 e7bc
000001a0: 2da1 0abe 08c7 83bc cad1 ee3d dd9b 15be
000001b0: 4b1c 073e 942d 8c3c 0e75 c43c b8e9 cfbc
000001c0: 3af9 37bd b515 703e d4b2 2ebe 7544 86bd
000001d0: 9ac6 48bd 367d 0cbe 5828 853d 4a5f 8e3d
000001e0: b475 2d3d 4651 01be a41a f03c 5883 053d
000001f0: 6368 81be 49b3 efbd 4479 50be 381d e63c
-0.23517226 -0.034365628 -0.20027502 -0.06661804 0.11578154 -0.14417687 -0.07253725 0.020085506
0.073174834 0.11767496 -0.2494104 0.08043822 -0.095057175 -0.030415121 -0.20353445 0.12979548
0.04356256 0.13611004 0.110686466 0.097782396 -0.22648966 -0.034529705 -0.06600722 -0.06310213
0.21522088 -0.021071844 0.12749271 -0.09694146 0.056612026 0.13562064 0.13661607 -0.0862807
0.2099929 0.0031786296 -0.10877053 0.13560545 -0.07387676 0.041519366 0.0439221 0.10060363
0.08373395 0.04594083 0.07329437 0.065014146 -0.09275683 0.04881865 -0.036244947 0.026709901
0.035440695 -0.07897626 -0.079812214 0.07822288 -0.050931394 0.069599554 -0.1508838 0.02346034
0.0752479 0.22127436 -0.20347664 0.0038309528 0.023411978 -0.012166284 0.08934299 0.18784124
-0.15250422 0.19258249 0.15920623 0.12970912 -0.12835704 -0.09280029 0.017942756 0.05972849
-0.13631059 0.14523803 -0.14996792 -0.2167158 0.14324765 -0.03367447 0.08920322 -0.09666383
-0.12246978 -0.049133364 0.06105742 0.086469755 0.055821866 0.096932545 0.014859827 -0.14489228
0.121690035 0.16991314 -0.15947124 0.0122021185 0.050744057 0.14281325 -0.09392341 -0.040955115
-0.005327651 0.060783777 0.057510346 -0.20435598 0.08951482 -0.104896314 -0.026859917 -0.028290063
-0.13538046 -0.016086116 0.11661108 -0.14610238 0.13194387 0.017111577 0.023981597 -0.02538
-0.044915415 0.2344578 -0.17060405 -0.06556026 -0.049017526 -0.13719639 0.065018356 0.06951769
0.04234858 -0.1262866 0.029309578 0.032595962 -0.25274953 -0.11704118 -0.20358759 0.028090104

net.network.2.weight_0 f4 [64, 128]
00000000: 12e7 c93d efdb b4bb e01d 083e c0d0 d2bd
00000010: eed0 36bc 879e 463a 415f 353d 5151 b7bc
00000020: c2c2 99bc 1db7 89bd 75a6 aabd 0a96 273d
00000030: 225b 893d 1ead 67bc a651 89bb 872e 3d3d
00000040: b086 043d 8df8 adbd ef3a aa3b a6dd 73bd
00000050: acf1 d6bc ee02 843d a641 fd3c 41b1 083e
00000060: 410e 593d 0e51 9f3d 5772 06bc 49b5 a5bc
00000070: 2f0d b13d 3790 503d 8944 48bd 1e33 8d3d
00000080: b4ac 7a3c d9af 403c 961d 1dbd 3cbf c63d
00000090: 36d4 7abd cbbe 963b 4838 8b3d 71c9 483d
000000a0: 0e88 afbd 80a1 78bd b4ee b9bc 37d1 943c
000000b0: 3f42 f63d 13f6 033e 5018 6dbd 454d 5a3d
000000c0: b7a9 083e eb6a 9e3c b76a 7dbd 34ba 173d
000000d0: 0490 7cbd 92b2 80bd 072e 873d c50f d03d
000000e0: 787d 423d 4976 29bd 1819 273d b029 b13c
000000f0: 8dc3 33bd 85d0 913d 30e5 783d 5c62 91bc
00000100: 90fa 133e bfc2 83bd c643 eb3b 6d36 07bd
00000110: f845 77bd a09e af3d ab18 bb3d 00b1 cdbd
00000120: fabf f73d 915f a63b c13a f73d 8225 05be
00000130: 7eb4 6e3c 68d3 25bd 8964 b3bc 23fa 7d3d
00000140: 5544 203d 5416 7b3d d193 863d e976 643d
00000150: 3fdb b2bc 5f06 b83d 403b 813d 95f8 14bd
00000160: d0d2 3e3d 91a4 143e 8b82 7c3d 10d4 823d
00000170: e3a8 7f3d 1f2b 943d 8af1 d23d 0776 f3bb
00000180: dd7b 8b3d e722 b1bc 812c c13d 475e b6bc
00000190: 2611 d3bd e671 153d 62da 2abd ae6d 5b3d
000001a0: 948f d83c 77e0 743d 7977 8d3d 77f9 b1bd
000001b0: 4026 973b 410b d3bb 29f1 af3c 9679 bbbc
000001c0: 1d7e a1bc ff5f 673c f080 c13d 3d6a 363d
000001d0: 07f1 fc3b 92a6 153c 0bb9 e13c 90ed 37bc
000001e0: 6f49 ef3d 9a37 47bd 86b1 bbbb f063 a23c
000001f0: 675d ed3d 94df 833d bbfc ec3b 4e41 35bd
00000200: 31e7 55bb 468b 0a3d 470e 2cbc aa23 313e
00000210: e95b c53d 8caa 943d 1837 20be 7302 59bd
00000220: fd5a e13b f685 f63d 0f72 c93d 2791 6c3d
00000230: 184d 463d d41b 35bd d4fb 203c be1e d33d
00000240: ef95 45bd 5454 a53c a363 7fbd 62c1 a03d
00000250: 7cfd 37bc 99e5 a23d 8dd6 b13d 5b89 aabb
00000260: 6493 3abc c335 3c3d a15a 3a3c 6027 80bc
00000270: a936 fd3a 1da5 94bd a140 f33d 5e84 913d
00000280: f876 103e 4e95 bd3c 354a a93d 6a4f f2bc
00000290: cd21 7f3d 34c3 e43b 9287 2a3b ce7d 3ebd
000002a0: 8073 9ebc 9aa5 af3d 9922 7dbd fd5a 0ebd
000002b0: 2990 eabd b423 4bbd 17d5 a23c 4878 0d3e
000002c0: caa8 163d 8428 3c3d 4f51 923d e023 f03c
000002d0: d9ec dc3d 07d8 3fbd e8f5 ddbd 1998 8bbd
000002e0: e6fb 623c b65d 2b3d 3cda 00bd 2566 01be
000002f0: b0c1 fa3b 681c 953c 2b59 01bd 8016 ae3d
00000300: 35a0 71bd d349 933d 8c85 de3d f848 6d3d
00000310: 413e 53bd 54e4 dcbc a510 c23a 7dab d5bc
00000320: 10bc dcbd 4fd9 163d 89fc 9bbd 4d68 1cbc
00000330: 5b54 dc3d 2cc7 4d3d 5ca1 fd3d c7b4 f6bd
00000340: 8bcb 653d 80a9 ad3d 1ed9 073d d9b1 ebbd
00000350: 7fc8 b4bd 5e5e 2f3c 1e34 9a3c 5a61 5f3d
00000360: b948 72bc a7cb 05be c40b 2f3d 7f8f b2bd
00000370: f9ae c43d 7f06 ffbd 9367 08bd 06a8 083c
00000380: 3e9f 9a3c 9ba8 c2bc 903a 12be b65a 313c
00000390: 0def 193d b109 193d 9452 ba3d 027f 573d
000003a0: 707c 17bd 75dd f43d a7e1 15bd 866d 6f3d
000003b0: 7113 5a3b 2e4f 073d d08b 893c 3ac3 023e
000003c0: a56e b73d 2cd7 a1bc 3f1c eabd 5569 38bc
000003d0: e203 233b afea 0e3e 0216 ad3d d79d 403d
000003e0: 14ef a7bd 786b 683c 426e 093d 73b4 2dbd
000003f0: af68 cebc a0c8 68bc 053c e13d 221b f73c
0.09858526 -0.005519382 0.13292646 -0.10293722 -0.011158211 0.0007576723 0.044280294 -0.022377642
-0.018769626 -0.06724379 -0.083325304 0.040914573 0.06706835 -0.014140395 -0.0041906415 0.04618695
0.03235501 -0.08494673 0.0051950137 -0.059537552 -0.026238285 0.06445871 0.030915093 0.13348867
0.05299211 0.07779132 -0.008205972 -0.020228045 0.08645093 0.050918784 -0.048893485 0.068945155
0.015299965 0.011760675 -0.038358293 0.09704444 -0.061237536 0.004600381 0.06797844 0.049020234
-0.08570872 -0.060700893 -0.02269683 0.018166168 0.12024354 0.12886839 -0.057884514 0.053296346
0.13345991 0.019338092 -0.06186935 0.03704281 -0.06166078 -0.062840596 0.06600576 0.10159258
0.047482938 -0.04137257 0.040795416 0.021626323 -0.043887664 0.0711985 0.060765445 -0.017747097
0.14451051 -0.06433629 0.00717971 -0.03301089 -0.06036946 0.08575177 0.091355644 -0.10043526
0.120971635 0.0050773104 0.12071753 -0.1300259 0.0145694 -0.040484816 -0.021898525 0.062006127
0.039127667 0.06130059 0.065711625 0.055777464 -0.02183306 0.0898559 0.06310129 -0.03636988
0.046587765 0.14515902 0.061647933 0.06388104 0.062416922 0.07234787 0.10299976 -0.0074298414
0.068107344 -0.021623088 0.094323166 -0.022261752 -0.10306005 0.036485575 -0.041712172 0.053571396
0.02643565 0.05978438 0.06907553 -0.0869016 0.004612714 -0.0064405506 0.021477299 -0.022885125
-0.019713456 0.014122008 0.09448421 0.04453491 0.0077191624 0.009133952 0.027554056 -0.011226073
0.11683928 -0.04863701 -0.0057279496 0.019823045 0.11590081 0.064391285 0.0072322763 -0.044251733
-0.0032639022 0.033824228 -0.010501451 0.17298761 0.09636671 0.07259092 -0.15646017 -0.05298085
0.0068773017 0.1203727 0.09836208 0.057755616 0.048413366 -0.044215992 0.0098256655 0.10308598
-0.04823869 0.020181812 -0.06235088 0.07849385 -0.011229869 0.079539485 0.086835004 -0.0052043623
-0.01138768 0.04594971 0.011374147 -0.015643775 0.0019318658 -0.07258055 0.11877561 0.07105325
0.14107883 0.023142483 0.08266107 -0.029578883 0.062288094 0.006981278 0.0026020748 -0.046506695
-0.019342184 0.08576508 -0.061800573 -0.034754742 -0.114532776 -0.049594596 0.019877 0.13815415
0.036782064 0.045937076 0.07144415 0.029313982 0.107873626 -0.04683688 -0.108379185 -0.0681612
0.013854003 0.041837417 -0.031458125 -0.12636621 0.007652484 0.018202022 -0.031579178 0.08500385
-0.058990676 0.07191815 0.10865316 0.057930917 -0.05157304 -0.026964344 0.0014805986 -0.026082749
-0.107780576 0.036828335 -0.07616527 -0.009546352 0.10758277 0.050238773 0.123842925 -0.12046199
0.056102317 0.08479595 0.033166043 -0.11508531 -0.08827304 0.010703651 0.01882368 0.0545362
-0.014787846 -0.13065968 0.04273583 -0.08718776 0.09603686 -0.12452411 -0.0333019 0.008340841
0.01887476 -0.023762038 -0.14280152 0.01082485 0.037581492 0.037362758 0.09097782 0.05261136
-0.036983907 0.11956302 -0.036592152 0.05845406 0.0033275748 0.033034496 0.0167903 0.12769786
0.08956651 -0.019755922 -0.11431169 -0.011255582 0.002487414 0.13956712 0.08451463 0.047025528
-0.081998974 0.014185779 0.033552416 -0.042408418 -0.025196401 -0.014207989 0.10997776 0.030164305

net.network.2.weight_1 f4 [64, 128]
00000000: c717 82bc 86ee 4cbb 3cd6 f53d 1201 58bd
00000010: 5904 9abc c9d6 183e 88cf 023e 56f8 423d
00000020: 0e74 49bd aae5 62bc 4881 69bd a0fc 4dbd
00000030: 37df e3bd 94a7 863d fd53 ad3d d166 5dbd
00000040: 46e5 263c 956e 3f3b f53a 773d d83c a6bd
00000050: a92e 1a3d 9d7f 053e 04ba a0bd 9d51 bd3d
00000060: 13b9 b5bc c8b3 f13c 1c1e 2a3d 22a3 ce3d
00000070: 6e92 2ebc a497 903d fd61 d2bc 10b4 8c3d
00000080: ad56 79bd 3ddd 2cbd 6224 8fbd 918e d33d
00000090: 66e1 033d 8e93 bf3d f530 e0bc 3e16 413d
000000a0: 95d4 953d 01a7 d8bd a23d 973d 8a09 38bd
000000b0: 7ae9 213e 4770 823d b493 a1ba 8069 e9bd
000000c0: 6428 53bc d952 073e ecf1 14bd beab 63bc
000000d0: c417 b6bd 9c91 23bd 4d95 4c3d f1b6 21bd
000000e0: d596 eb3d 113d 443d 5665 b43d 1933 463d
000000f0: 13cb 84bd 8887 9e3d cf84 a53d 1086 af3c
00000100: 5cf1 2b3c d4dc eebc f9eb 1a3c d468 bc3c
00000110: 82ac 203d a712 0c3e 25bd ca3d 1d76 31bd
00000120: 63b6 083e e6d1 323d 6785 313d 25b2 bebd
00000130: e18e 0e3c bf8f c6bc d2c2 b2bd 46d8 d73d
00000140: 7fec eaba 80de e7bd 0e92 e33c 0e6e 933d
00000150: a8d4 e9ba 5296 8d3d 537e 093d feb9 de3c
00000160: 9ded e4bc 7f77 99bd 8fef 573c 3d32 0f3e
00000170: 291f a3bc d4d5 83bc 3100 0c3e 0948 d83d
00000180: 3493 d8bc 024e d53d d2dd 00bd f6d6 cdbd
00000190: 7531 9fbd 4043 dabd 1ae2 b2bc 62d5 563d
000001a0: 632a f13d faa3 10bd def6 b43c c2d8 c6bd
000001b0: e2f7 a33d 9b2f a13c 034e 123e 2680 943d
000001c0: 04f6 9bbd 28ee 193e 732f 323c 4803 4c3d
000001d0: ca6e f83d b1a5 5a3b 8890 d33d c1bc a9bd
000001e0: 2e19 743d 3f6a 013d b5c8 23bd b940 e53d
000001f0: a2db 843d 5fd2 2dbd fac3 af3d e8ce 90bd
00000200: b6e6 babd 8a67 db3d 1b5b 4cbc 9bf1 d2ba
00000210: 4e00 e7bc d238 873d 2024 d43c ff08 d93c
00000220: 085f e43d 3968 bcbc c5ed 6b3d 22e0 0dbd
00000230: eb65 0d3d ac51 393b e945 75bb 0493 1b3d
00000240: 95f6 c53d 62e0 2f3d 3285 4c3d 9615 913d
00000250: f9d9 5ebc 7fdd da3c acbb a13a 314c 7f3c
00000260: 32c8 333d 85ef 43bd 9273 b93d 3b71 84bd
00000270: 8cba 203b 0b44 11bd 3f1a b93d 31b6 5b3d
00000280: df06 62bc de61 3abd 514f 04bd e86b 4abd
00000290: 0cab 803c 8b7b 00bb b149 00bd 907d f4bc
000002a0: 5548 b8bb c926 973c a8fd 92bd edf1 b23d
000002b0: 59fe 96bd 464c e23d ff69 233e 3dcf 013e
000002c0: a492 66bc 1719 e4bd f6f1 be3d 1403 543c
000002d0: ad52 a43d 4f22 903d bed8 0e3d 4ccd 6ebc
000002e0: 59ce 853d f02e 973d 7cdb aebd 7510 f7bd
000002f0: 4724 0f3e 47bc 933d 2ff7 793d 4da3 db3d
00000300: 82c8 aebd 349f 03bd eee4 123e 08ba 99bc
00000310: 0b5a 2039 36ac c43c 87c7 17bc 6357 2a3d
00000320: a3d8 2ebd 04a3 aabd b4aa a13b 4cf2 4cbc
00000330: ae86 853d 65aa 9e3d c9c9 a23d b16b febc
00000340: b3ae 623d 49c1 123d 6463 673d 2ea9 87bd
00000350: 3017 c03d bdf4 adbc 5286 57bd db04 a03b
00000360: 54d5 d5bc 02a2 8cbd 285f 9ebc a0c2 63bc
00000370: f457 f53d cbb3 9d3c ddaf 1f3c 7e95 bfbd
00000380: e24b 4a3b 7b4b d83d 1302 9dbd 39e3 433e
00000390: f01c 4f3c c383 00bc 6094 7d3d d070 a93c
000003a0: 3efc bcbd ed90 663d 60da dd3d c4fe a13d
000003b0: 2f11 553d 5f78 9ebd 4382 16bd d2e4 c6bb
000003c0: b03b 78bc f77c a03c 0a67 01bc a956 85bd
000003d0: 74d2 6cbc 8592 6b3d e58a a0bd 2a81 c63d
000003e0: dac1 2fbd c658 5cbc 2b49 753c 88fa 443d
000003f0: 9ff3 8bbd 1cd7 f63c b2ee 0b3d 20f1 2f3e
-0.015880479 -0.00312701 0.120037526 -0.052735396 -0.018800901 0.14925684 0.1277448 0.047600113
-0.049182944 -0.0138487015 -0.057008058 -0.05028975 -0.11126559 0.06574932 0.08463285 -0.05405313
0.010186499 0.00292102 0.06035896 -0.08117074 0.037642155 0.13036962 -0.0784798 0.09244082
-0.022182977 0.029504672 0.04153262 0.10089709 -0.010655029 0.07060173 -0.02568149 0.06870282
-0.060873676 -0.042203177 -0.06989361 0.10329927 0.03219738 0.09354316 -0.027367095 0.047140352
0.073159374 -0.105787285 0.073848024 -0.044930972 0.1581172 0.063690715 -0.0012327344 -0.11397076
-0.012888048 0.13215198 -0.036363527 -0.013895927 -0.08891252 -0.039933786 0.04994707 -0.039481107
0.11503378 0.0479098 0.08808391 0.048388574 -0.06484046 0.07740694 0.08081972 0.02142623
0.010494556 -0.029158033 0.009455674 0.022999205 0.039227016 0.1367899 0.09899358 -0.043325532
0.13350825 0.043657206 0.043340113 -0.09311322 0.008701057 -0.024238465 -0.08728565 0.10539298
-0.0017923265 -0.113217354 0.027779605 0.07198726 -0.0017839866 0.06913437 0.033567738 0.027188297
-0.027945334 -0.07493495 0.013179674 0.13984008 -0.01991232 -0.016093172 0.13671948 0.105606146
-0.02643738 0.104152694 -0.031461544 -0.10050766 -0.07773105 -0.10657358 -0.02183633 0.05244959
0.11775663 -0.03531263 0.022090372 -0.09709312 0.08006264 0.01967602 0.14287572 0.07251005
-0.07615283 0.15032256 0.010875571 0.049807817 0.12130506 0.003336292 0.103303015 -0.08287955
0.059594326 0.031595465 -0.03998633 0.111939855 0.06487204 -0.042436954 0.085823014 -0.07070714
-0.09126036 0.10713108 -0.012472893 -0.0016093733 -0.028198387 0.066026345 0.025896132 0.026493547
0.11150938 -0.022998916 0.0575998 -0.034637578 0.034521025 0.002827744 -0.0037425703 0.037982002
0.096661724 0.042938598 0.049931712 0.07084195 -0.013601773 0.026716946 0.0012339256 0.01558213
0.043892093 -0.047835846 0.090552464 -0.064669095 0.0024525253 -0.03546528 0.09038209 0.05364055
-0.0137955835 -0.04550349 -0.032302205 -0.049419314 0.015706562 -0.0019604887 -0.031320278 -0.02984503
-0.005623857 0.018451111 -0.07177287 0.0873755 -0.07372732 0.11049704 0.15958403 0.12676711
-0.014073048 -0.11137598 0.09323494 0.012940187 0.08023582 0.07037794 0.03487467 -0.014575314
0.06533498 0.073819995 -0.08537957 -0.12063686 0.13978682 0.072136454 0.06102675 0.107245065
-0.085343376 -0.03213425 0.14345142 -0.018765464 0.00015292333 0.024007898 -0.00926388 0.041587245
-0.04268707 -0.08331874 0.0049336795 -0.01250894 0.06519829 0.07747344 0.07948644 -0.03105721
0.055342387 0.035828862 0.05649127 -0.06624065 0.09379423 -0.021234864 -0.052618332 0.0048833913
-0.0261027 -0.06866838 -0.019332483 -0.013901383 0.11979666 0.019250771 0.009746519 -0.09354685
0.0030867984 0.10561272 -0.07666411 0.19129647 0.012641177 -0.007843914 0.06190908 0.020683676
-0.09227799 0.056290556 0.10832667 0.07909921 0.05201834 -0.07737803 -0.03674532 -0.006069758
-0.015150949 0.019590838 -0.007898102 -0.0651067 -0.014454473 0.05751278 -0.07838992 0.09692605
-0.04290948 -0.0134489 0.014971058 0.048090488 -0.068335764 0.030131869 0.034163184 0.17181826

net.network.2.bias_0 f4 [64]
00000000: c1ff 5e3d 7107 673d ca75 b53d 68e5 8a3d
00000010: f349 5f3d 0dfe 5dbc 5c40 dd3d 390b 293d
00000020: 400d d63d c702 793d f7a2 733d a3a4 943d
00000030: 4351 833c 8068 463d c3d6 e2bb 9ab3 b7bd
00000040: f4bd ed3c 52e7 083e c441 e5bc 7449 093e
00000050: e3ed fc3b de20 053d 9811 8a3c ed32 943b
00000060: 98d2 a63d 3978 513d 41d1 febc 98d9 a9bc
00000070: 1068 233c f696 173e 9061 473c 325e ed3d
00000080: 4a0f 0bbd 09bb ffbc 98cd 9dbb 1601 4bba
00000090: 943f dbbd 9dda d23d a65d eb3d 78ae e13d
000000a0: 0a07 073e 8aa4 26bd 8c55 163d 604f dc3c
000000b0: 8e67 843b 0f64 563d 1332 a8bd 3b83 ce3b
000000c0: 61c1 f8bc 2589 2d3d 7ccc 8f3d 4787 923d
000000d0: 454e 8dbb 0e41 763d 3e0d 3a3c 75a7 94bc
000000e0: 8090 17bd bbee b8bd 5f6f 3c3b 9bf3 8c3d
000000f0: 646d 053e 8cac 32bd a2e5 173d 8839 953d
0.054443125 0.05640358 0.08860357 0.06782037 0.054513883 -0.01354934 0.10803291 0.04127047
0.10451746 0.060793664 0.059481587 0.072579645 0.01602996 0.048439503 -0.0069225742 -0.08969803
0.02902124 0.13369492 -0.027985461 0.13406926 0.007718788 0.032502048 0.016854092 0.0045226724
0.08145636 0.051140044 -0.03110564 -0.02073364 0.009973541 0.14803681 0.012169257 0.11590232
-0.033950128 -0.031217115 -0.0048157685 -0.0007743997 -0.10705486 0.102956034 0.114924714 0.110196054
0.13186279 -0.04068426 0.036702678 0.026893318 0.004040665 0.052341517 -0.08212676 0.006302265
-0.030365648 0.04236712 0.07021424 0.07154708 -0.004312309 0.060120635 0.011355696 -0.018146256
-0.03700304 -0.09029909 0.0028752906 0.068824016 0.1303001 -0.043621585 0.03708423 0.07286364

net.network.2.bias_1 f4 [64]
00000000: 7c3a 24bd 722f 8f3d a8ca 793d 3e51 1c3d
00000010: 032f 04bd 4b35 b9bc 2446 0f3e 0289 c13c
00000020: 78e4 b43d a05e 4cbd 3839 863d fdfa 603d
00000030: 637f 973d 5a15 963c 7038 76bd c8e7 93bd
00000040: f52c 0dbc e43f 213d db89 6d3d 44e6 8b3d
00000050: 76a5 c9bd 6bc4 093d d6d7 1f3e 7f4e b5bc
00000060: 0f81 8bbb 45a8 bc3c 0a27 ca3c c9ca 013e
00000070: a5fe 433d c774 b63d e0a6 883d 9dc0 24bd
00000080: b952 57bd d019 883d 0726 2a3d cd15 ae3d
00000090: 1953 1c3d 2f0d 113e 02f5 d2bc 5350 933d
000000a0: 35d1 f53d 39fb 753d e951 ad3d 95ba 96bb
000000b0: 665f babd 61ea 3abd 06dc b63d 2a71 d23d
000000c0: 0ff1 c03d ba80 61bd 3be1 4cbd b858 db3b
000000d0: 9da3 bf3d 4ef5 92bd a47c 7abd 2752 793d
000000e0: 726b aabd 6a85 aebd 2e13 9f3d 2ef6 33bd
000000f0: cf7b fdbb 374c afbc f3ef 8d3c fa2f 263d
-0.040094838 0.06991471 0.060984284 0.038163416 -0.032271396 -0.02260842 0.139916 0.0236249
0.088326395 -0.04989493 0.06553882 0.05492686 0.07397344 0.018320728 -0.060112417 -0.07221943
-0.008616676 0.03936757 0.057992797 0.06831029 -0.09846012 0.033634584 0.15609679 -0.022132156
-0.0042573283 0.023029456 0.024676818 0.12675013 0.04785027 0.08908992 0.06672454 -0.040222753
-0.052569125 0.06645548 0.041540172 0.08500252 0.038165186 0.14165185 -0.025751594 0.07193055
0.12002794 0.060054038 0.08462889 -0.004599879 -0.09100227 -0.045633677 0.08928685 0.102754906
0.09420978 -0.055054404 -0.050019484 0.0066939257 0.09357379 -0.071756944 -0.061154023 0.060869362
-0.08321275 -0.085215405 0.0776733 -0.043935947 -0.0077357064 -0.021398647 0.01732633 0.040573098

net.network.4.weight_0 f4 [16, 64]
00000000: d548 7ebd d61e da3d 6e91 f53d 86fa 15be
00000010: 76f5 923d 5059 c4bd 2a3d 1e3e 807b 803d
00000020: 5d2d 823d 99b5 ba3d 8ff4 693b 8779 433d
00000030: 4b81 153e 0ad5 d83d 4a14 17be af1b ecbc
00000040: 6abd 44bd 03c3 313e 7319 01bb f123 373e
00000050: 1dda ffbc 6a3e 163e c2d1 bc3d af13 623d
00000060: 775c b13d 461f b53d e14c 853d 9ad3 b0bc
00000070: 012f 323c 0cef b63d 8396 48bd 5468 323e
00000080: c2ff f3bd 218f babd a05d 9b3d b989 f9bd
00000090: a583 09be 3ca6 32bc 49ae f03d 7e91 083e
000000a0: 3482 633b 9351 0ebe 7757 a0bc 9f5e 07be
000000b0: 9964 dfbd 97c7 66bd 3c86 a83d 99bc 55bd
000000c0: e47d 1bbe 02a6 15bc 4dda 13bc b0b1 2e3e
000000d0: a950 433e d516 27bd 26b4 0ebe e2e1 bbbd
000000e0: 2bfc 39bd ce85 08be 7c29 733d e763 14be
000000f0: 9eff 363e baad d7bd dbed 683d 0abc 4f3c
00000100: 1611 6cbc 6f93 c63d feb6 d53d 76bb 20be
00000110: 9eac e9bc 1192 70bd 78fa 353e bdb1 b53c
00000120: aa6b 2a3e 952a b73d f26a 393e 0749 433c
00000130: a6c0 053d 453b 253e 5661 5bbe a26f 633d
00000140: 693c edbb 3794 3e3e 9ed2 66bd ff23 313e
00000150: c05b 70be e515 103d 42ab 033e 613f ab3d
00000160: 88e5 80bd 809a e53c 73c4 483d 0e0f 853d
00000170: 2e32 08be ed1e 973d 001d a8bd 8b8b fc3c
00000180: fa56 f03c a6d8 cf3b 493e b43d b33d 5d3d
00000190: bd10 11be e726 203e cf1f e73d 86d2 fc3c
000001a0: 47fc 503e 6839 5f3d 9bf5 293e f7e9 57bd
000001b0: c8c2 a23b 6c74 863c 8705 40bd bca4 863d
000001c0: 3b62 22be be54 1cbd 4a96 243d b4f7 cd3d
000001d0: ad98 3c3e d7ef 3e3d c453 2d3d 375a dfbd
000001e0: 117d 31bd a70e b4bc 53e8 a4bc 0850 dfbd
000001f0: f1d8 6fbd 71b3 133d ae79 d43c cbf4 d3bc
00000200: 48f9 09be 1587 ccbc 0afa 9c3b 29a3 e7bd
00000210: 307f 9fbd 7bd3 7fbd fc96 5b3d 45b1 0a3d
00000220: 5312 2ebb 0821 453e fd72 d83d 98c3 87bc
00000230: b15b c13d 9c80 8fbd 1b8b 9a3d 6e3f ccbd
00000240: 6487 cbbd bdad 12bd 96b3 133c 4b51 623c
00000250: fbb8 dfbd d863 123e 8ad7 0d3d fb56 e73d
00000260: dd2c 09be 7c4c 353e b0bd 9d3d b042 2b3e
00000270: 076d 44bd 07be 3e3c e281 b9bc 7ee2 a83d
00000280: 3a83 18be 50a5 16be e645 8a3d e591 1a39
00000290: 5260 46bd 4e43 03bd 7282 623c a6ef 14bb
000002a0: 09e5 af3d 8aa6 f93c d436 8d3d cba9 b3bc
000002b0: 9fd3 2a3d e17a 13be 6281 17bd c202 273c
000002c0: 5ef1 81be 13f3 10be 91b0 323e d245 083e
000002d0: 4458 0b3e db5f ccbb eba5 433d e3f0 d1ba
000002e0: 4b88 10be b330 1fbd 9e1e 01bb a0d9 07bb
000002f0: 7b11 f23d 9e2c b63a 5931 af3d 85bf 563c
00000300: ea31 7c3a 6347 e2bd d9d2 3abc 58c3 e73d
00000310: a7e4 923d 1a98 863d 4c80 febd 7ff6 183d
00000320: aefc 86bc 6f2e de3c 08e0 b63d ca17 0f3e
00000330: 3391 e7bd 87fd 05bc aef6 b4bb 4558 083e
00000340: ba8e 45bd 7e4c 28be bfbe 0a3e c542 d9bd
00000350: 09fd e13b 4f91 893d eba4 713d 8fc1 9a3d
00000360: 3e4e 563d 02b3 8dbd a347 cd3c 4b40 cfbd
00000370: 1522 1c3d 2fb6 cabc 84eb d33d c6cd e3bc
00000380: 8861 2c3e 083e 2f3e af41 1a3d bec4 a23c
00000390: 2fc5 7a3e 121e 1bbe 924b df3d d4f4 fcbb
000003a0: 3546 5c3d 070d 5d3c 42d3 093d d455 81bc
000003b0: 305c 1a3e 968a 93bb 9edd 433d afc4 ab3b
000003c0: bdf3 aa3d 08fa 4abd 00f9 39be 3859 dbbd
000003d0: deb4 443d bb1d 3a3e f098 4a3e d18b 183e
000003e0: 29b5 3b3e 0f25 f03d 37b6 abbd 4565 38bc
000003f0: e129 1a3e 96e4 bf3d 2862 51bc ad46 063e
-0.062081177 0.10650413 0.11990629 -0.14646348 0.07175724 -0.095873475 0.1545302 0.06273556
0.063563086 0.09116668 0.0035698747 0.04772332 0.14600103 0.10587509 -0.14753833 -0.028821794
-0.0480322 0.17359547 -0.0019699007 0.17884804 -0.031231934 0.14672247 0.09219696 0.055194553
0.086602144 0.088438556 0.06508804 -0.021585274 0.010875464 0.08932313 -0.048971664 0.1742261
-0.11914016 -0.09109331 0.07586217 -0.12184472 -0.13429125 -0.010903891 0.11751992 0.13336751
0.0034715058 -0.13898306 -0.019572956 -0.13219689 -0.10907859 -0.056342687 0.08228728 -0.052181814
-0.15184742 -0.009133818 -0.009024215 0.1705997 0.19073738 -0.04079326 -0.13935909 -0.09173943
-0.0454065 -0.13332292 0.059365734 -0.14491235 0.17870948 -0.105311826 0.05686746 0.012679109
-0.0144083705 0.096960895 0.104352936 -0.1569651 -0.028524693 -0.05873305 0.17771327 0.022179479
0.16642633 0.08943669 0.18107203 0.011919267 0.032654427 0.16135891 -0.2142385 0.055526383
-0.0072398675 0.18611227 -0.056353204 0.17298888 -0.234725 0.03517713 0.12858298 0.08361698
-0.062937796 0.028027773 0.049015474 0.06497012 -0.13300392 0.073789455 -0.08208656 0.030828258
0.029338349 0.006342965 0.088009425 0.05401392 -0.14166541 0.1563984 0.11285364 0.030862104
0.20408736 0.054498106 0.16597597 -0.05271336 0.0049670674 0.016412936 -0.04688027 0.06574389
-0.15857784 -0.038166754 0.04018239 0.10057011 0.18417616 0.046615448 0.042316213 -0.10905879
-0.043332163 -0.021979643 -0.020130312 -0.109039366 -0.0585565 0.0360598 0.025936928 -0.025873562
-0.13474 -0.024966756 0.004790549 -0.11310417 -0.07787931 -0.062457543 0.053610787 0.033860464
-0.0026561215 0.19250882 0.10568807 -0.016572759 0.09441317 -0.07006952 0.075460635 -0.09973036
-0.09937933 -0.03581022 0.009014985 0.013813327 -0.10923954 0.142959 0.034629382 0.11295887
-0.1339602 0.17704958 0.07702196 0.16724658 -0.04795554 0.011641986 -0.02264494 0.08246325
-0.14893809 -0.14711499 0.06751613 0.00014740934 -0.048431702 -0.03204661 0.013825046 -0.002272585
0.08588607 0.03047492 0.06895223 -0.02193155 0.041705724 -0.14402343 -0.036988623 0.010193529
-0.2537946 -0.14155225 0.17450167 0.13307884 0.1360789 -0.006237013 0.047765654 -0.0016017224
-0.14114492 -0.038864803 -0.0019702087 -0.002072908 0.118197404 0.0013898795 0.08554334 0.013107185
0.0009620475 -0.11048772 -0.011402809 0.11316556 0.07172518 0.0657198 -0.124268144 0.037344452
-0.016477909 0.02712175 0.08929449 0.13973919 -0.113069914 -0.008178121 -0.0055225706 0.13314922
-0.048231818 -0.1643543 0.13549326 -0.106084384 0.006896619 0.067171685 0.05899517 0.075564496
0.05232071 -0.06918909 0.025058573 -0.10119685 0.03811844 -0.024745075 0.103476554 -0.027808081
0.1683408 0.17113507 0.037660297 0.019869205 0.24489282 -0.1514819 0.10903086 -0.0077196155
0.053777892 0.0134918755 0.033648737 -0.015787996 0.15074229 -0.0045026047 0.047818772 0.0052419524
0.08347271 -0.049554855 -0.18161392 -0.107103765 0.04802405 0.18175404 0.19784904 0.14897086
0.18330826 0.11725818 -0.08384364 -0.011254613 0.15055038 0.09369771 -0.01277975 0.13112898

net.network.4.weight_1 f4 [16, 64]
00000000: d43a 27bd 00ce 1e3e e33d 313d bbaa 8dbd
00000010: 4d3c e63c 1f10 5abd aa26 e83d 53c9 52bb
00000020: a891 ebbc f00c 6a3d cbd9 653d 284c 8bbd
00000030: d718 a23d cfb5 cb3d 3f3c 7abe 3219 a2bd
00000040: 7069 e0bc b60b 0f3e 9f32 ecbc 1fcd 173d
00000050: 814e 30be 0c4c 483d 2460 4cbd 9121 1c3e
00000060: 876e cc3c aea5 f43d 7484 913d b0b3 ae3c
00000070: f35e 85bd cb93 28bd ed9d 693d b053 99bc
00000080: c187 dfbd e09e a13d 1257 173e 3873 903d
00000090: fce5 89bd 1147 233d 60d3 30bc ed94 d23d
000000a0: ba2e 463e 6dbf 05bd 201d 063e 6c76 7f3c
000000b0: cacb 12bd e3dd 1cbd 89c9 d83b 1841 9b3d
000000c0: 6338 e3bc 9b7f 07bd 6086 c23d bf99 17bd
000000d0: 0ae0 1d3e e411 38bb 1e5f d53c 1ad2 9bbc
000000e0: 0e94 fbbd ba35 8a3b d3a2 9e3d e23d d1bb
000000f0: 5f62 c13d cdc5 d33d 31f8 263e f0f3 e7bd
00000100: f6b8 c0bc 429c 383e 9e1d cdbc 1e3d febd
00000110: bd65 67bd 8c20 3bbe 0972 5bbd 4890 603e
00000120: 46a2 543d c40b 8a3d 892d f23b e501 c63d
00000130: a8c2 f33d 266e 3a3d 65ef 71be 2fa7 57bd
00000140: 7874 023e 8aa0 393e 68be 9a39 ce1d 3a3d
00000150: fce7 53bd 0102 163d 86ad 8c3d 4b30 353d
00000160: 2d29 9a3d 5d05 0e3e 528b f33c 1bdf b63d
00000170: 4ad3 04be 65a9 dc3c 82cf babd 62c1 3c3e
00000180: 0e28 f63c e4a6 e4bd ec5e e43d 993b a53d
00000190: 825a dbbd a5d1 1d3e 13ae 033e 2730 81bc
000001a0: e714 f23d 0b18 e8bc b594 48bd 7e94 0fbd
000001b0: 5dab 1fbe 2680 11be a3a2 093e 6749 91bd
000001c0: e188 00bb f1ad a8bc 8a03 8dbb db9c e13c
000001d0: e9c0 573c f687 08bc 95c7 6b3d 7531 dfbd
000001e0: c376 13bc cae4 163d f42e 68bd a67b a53d
000001f0: 38a1 2bbd be39 9c3d 45ea 34bd f5d9 6bbd
00000200: 387a 5b3d 612e 57bd 5a63 7b3d 48a5 1abd
00000210: 5fca 603d b079 983c e746 653d 296d b23d
00000220: 8479 ef3d 7ef4 68b9 b80d b03d a171 ddbc
00000230: 8f0d 01bc 4134 113e e72a 15bc 16b8 98bc
00000240: 0476 3f3d beb5 0f3e 5d18 21bd c7fb b4bd
00000250: 6e03 1cbe a1f9 2e3e f2e1 09bd 21de b0bd
00000260: 4792 623d c2e6 7c3d 2b13 493d 8033 04bd
00000270: bcca ce3d 47cd a03d f992 4ebd c2d4 be3c
00000280: 02a6 86bb 80dd 84bd bc1c 4c3d 7d2a 02be
00000290: 03de ffbc 0631 a4bd e9b6 bbbc b237 d73d
000002a0: 24d9 203e a6c6 27be 18d6 99bd b8dd 16be
000002b0: 3fd5 c4bd 78e1 433d e448 633d 75e9 b83d
000002c0: 69ac 5dbe 08f1 d33c 6c11 483c aa08 3e3d
000002d0: 806c f5bc 055b 803d 53eb 483d dae7 92bd
000002e0: 93f6 ba3d bd5e b8bd ff29 cebd b280 bcbc
000002f0: 7fbf 913d 3304 193c 1f72 633d 7e87 0cbe
00000300: 5d99 81bd 1b93 d43d eb1c d13d ce26 b73d
00000310: c26e ee3a 346a 203e 95df e33d 9ecb 993d
00000320: ec0c e1bd b0c0 21be 231e 8abd 2b1b 093e
00000330: 21b7 1ebe 893c 0a3d e2a8 9f3d a869 503a
00000340: f769 ce3c 2d7b 81bd 76a2 87bc fd64 603c
00000350: cef9 463e 6ba0 503c 6cba f43b f925 abbd
00000360: 7889 413e 5d33 c3bc d426 a23d cdcb 16be
00000370: be50 3c3c 8cf3 4bbd 47f1 213e b3e9 73bd
00000380: 99db c53d 0f8c 8d3c 4777 fcbd 6dc8 153e
00000390: ba8d 023e cded 02be a9a4 673d c18d 7a3d
000003a0: 9c8b 513d 5533 313e 2378 27bd 5f99 163c
000003b0: c613 d33d b783 f13d 1477 a7bd 800f c7bd
000003c0: 5ba5 2fbd 4cad 8f3d 3b4f 6dbe 485d 993d
000003d0: 0f99 a73d 3513 8cbd 751e a33d 8fd6 8ebd
000003e0: 0e92 903b c43d b13b a86f 0d3e f8cd 1f3e
000003f0: 2953 b1bc cad2 223e 10b1 b2bd f099 b53d
-0.040827587 0.1550827 0.04327191 -0.0691733 0.028104926 -0.05323803 0.113354996 -0.0032163456
-0.028755978 0.057141244 0.056115907 -0.06801635 0.07914894 0.099467866 -0.24437045 -0.07914962
-0.027394027 0.13969311 -0.028832732 0.037060853 -0.17217447 0.04890065 -0.049896374 0.1524718
0.024955047 0.119456634 0.071053416 0.021325916 -0.06512251 -0.04115657 0.057035375 -0.018716663
-0.10914565 0.07891631 0.14779308 0.07053226 -0.06733319 0.039862696 -0.010792583 0.102823116
0.19353762 -0.03265326 0.13097048 0.015592199 -0.03583888 -0.038297545 0.0066158217 0.07580775
-0.027736848 -0.03308068 0.09498286 -0.037011858 0.15417495 -0.0028086836 0.026046332 -0.019021083
-0.122840986 0.0042178305 0.077459 -0.006385551 0.09442591 0.10340462 0.16305615 -0.11325824
-0.023525696 0.18028358 -0.025038537 -0.12414001 -0.05649351 -0.18274134 -0.05357555 0.21930039
0.05191257 0.06740525 0.007390682 0.0966833 0.11902362 0.045515202 -0.23626478 -0.052649673
0.12739742 0.18127647 0.00029515033 0.04543858 -0.05173491 0.036623005 0.068690345 0.04423551
0.07527385 0.13869233 0.029729519 0.08929273 -0.12971225 0.026936242 -0.0912161 0.18433145
0.030048396 -0.11164644 0.111509174 0.08068008 -0.10710622 0.15412004 0.12859373 -0.015770031
0.11820393 -0.028331777 -0.048969943 -0.035053723 -0.15592714 -0.14209041 0.13440947 -0.070940785
-0.0019612836 -0.020590754 -0.0043034004 0.027540615 0.013168552 -0.008333197 0.057563383 -0.10898105
-0.009000483 0.036839284 -0.056685403 0.08080225 -0.041901797 0.07628201 -0.04416873 -0.057580907
0.053583354 -0.052534465 0.061374046 -0.03775528 0.054880496 0.018612713 0.05597582 0.08712227
0.11693099 -0.00022216325 0.08596367 -0.027031722 -0.007876768 0.1418009 -0.009104467 -0.018642467
0.046743408 0.14034173 -0.039329875 -0.08837085 -0.15235683 0.17087413 -0.033662744 -0.08636118
0.055315282 0.061743505 0.049090546 -0.032275677 0.10097262 0.078516535 -0.050433133 0.02329481
-0.004109145 -0.0648756 0.04983209 -0.1271152 -0.031233793 -0.08017163 -0.022914367 0.1050867
0.15707833 -0.16384372 -0.07511538 -0.14733016 -0.09610986 0.047822446 0.055489436 0.090289034
-0.216478 0.025871769 0.012211185 0.04639498 -0.029958963 0.062673606 0.049052548 -0.071731284
0.091290615 -0.09002445 -0.10066604 -0.023010585 0.07116603 0.00933938 0.055528756 -0.13723561
-0.0632808 0.10379621 0.10210594 0.08942948 0.0018190967 0.15665513 0.11126629 0.0750954
-0.10988793 -0.1579616 -0.067440294 0.1338927 -0.15499546 0.033749137 0.07795884 0.00079503143
0.025197012 -0.06322322 -0.01655696 0.0136959525 0.1943123 0.012733559 0.0074685123 -0.08356852
0.18900096 -0.023828203 0.07917562 -0.14726181 0.01149386 -0.04979281 0.15814696 -0.059549045
0.096610256 0.0172787 -0.12327438 0.14627238 0.12749377 -0.12786026 0.056553517 0.061170343
0.051158533 0.17304738 -0.040886056 0.00919184 0.10306506 0.11792701 -0.08177009 -0.09719753
-0.042882305 0.07015476 -0.23174755 0.07488495 0.081834905 -0.06839601 0.079647936 -0.069745176
0.0044119423 0.0054089744 0.13812125 0.15605915 -0.0216461 0.15900722 -0.08725178 0.08867252

net.network.4.bias_0 f4 [16]
00000000: 1980 b93d adfb cebc 98cc 32bd 6147 6f3d
00000010: d074 893d 2d99 b5bc bb41 173e 40b1 243e
00000020: a2e6 cdbc 9856 3ebc 0558 0ebd a559 023e
00000030: 09ca ac3d 99d1 ed3d be9c 22bd db98 6f3d
0.09057636 -0.025266493 -0.043652147 0.05841768 0.06711733 -0.022167766 0.14771168 0.1608324
-0.025134388 -0.011617325 -0.03475191 0.12729509 0.08436973 0.11612243 -0.039700262 0.058495384

net.network.4.bias_1 f4 [16]
00000000: e4a0 2a3e c890 033e 8e5d 01bd 8d47 0abe
00000010: 1851 823d 22c6 283d 987b 243e 6423 45bb
00000020: 27e2 b73d bfeb dabd 03e7 c5bd fc0b 893d
00000030: 5367 083d 2158 cfbd 156c 2a3e dae1 36bd
0.16662937 0.12848198 -0.03158336 -0.13503857 0.06363124 0.04120458 0.16062772 -0.003008091
0.08978682 -0.10689496 -0.096632026 0.06691739 0.033301663 -0.10124231 0.16642793 -0.044648983

net.network.6.weight_0 f4 [2, 16]
00000000: 2301 3ebe 9727 05be 4da7 43be 4921 c83c
00000010: 5063 0cbe 5cf0 3dbe f979 e2bd 1a75 8abe
00000020: cd5a 64be 068d 2b3e 6601 aabd e098 383e
00000030: 2d8f 2f3e 34f5 283e 8cae e8bd a33e 453e
00000040: 27b8 323d 81ec e43c 8926 a73e 8a05 16be
00000050: 9a2b 983e 541e 2b3e ec4a a23e ce0d 11bd
00000060: 2500 753e 28cd 713e fda2 a9be 893c 0cbe
00000070: 4e94 c83c 3688 24be a343 9abd 71a7 3d3e
-0.18555121 -0.13003384 -0.19106789 0.024429934 -0.1370976 -0.18548721 -0.11058421 -0.27042466
-0.22300263 0.16753015 -0.08301048 0.18027067 0.17144461 0.16499788 -0.11361417 0.19262175
0.043632653 0.027944805 0.32646587 -0.1465055 0.29720765 0.16710788 0.31697786 -0.035413556
0.23925836 0.23613417 -0.33132163 -0.13694967 0.02448478 -0.16067585 -0.07532432 0.18520905

net.network.6.weight_1 f4 [2, 16]
00000000: 3b36 50be 99c5 96be c90c 55be 48e3 eabd
00000010: c336 eb3d afe4 b6bd 8269 a5be 82f6 0dbe
00000020: 9609 a5bd c50e a6be 3a57 a33d 93ee fcbd
00000030: a351 143e 6afb 923e 4846 35be 118a 9bbe
00000040: 4623 9c3e d078 54bd 5e65 563e f5ec 4abe
00000050: 170a 183e c154 303e 507a 983e 4eaf 7d3d
00000060: 0858 e23d 895c 2c3d df56 60be 4083 b5be
00000070: 738c 95be 1341 7bbe 01b0 903e 3080 803e
-0.20333187 -0.2944763 -0.20805658 -0.11469132 0.11485054 -0.08930337 -0.3230706 -0.13863567
-0.08058469 -0.32433143 0.079756215 -0.12350192 0.14484267 0.2870744 -0.17702591 -0.30378774
0.30495661 -0.05187303 0.20937106 -0.19816954 0.14847599 0.17219831 0.29780817 0.06193476
0.11051947 0.042080436 -0.21908139 -0.35451698 -0.29208717 -0.24536543 0.2825928 0.250978

net.network.6.bias_0 f4 [2]
00000000: c00f 5e3e 89f3 cb3d
0.21685696 0.0995856

net.network.6.bias_1 f4 [2]
00000000: 0953 6c3e fb13 013e
0.2307855 0.12605278
