models/heloc/rs/adam_epochs20_lr0.0004_batch32_dropout0/model_960.pth (torch, 52515 bytes, 8 tensors)

network.0.weight f4 [128, 23]
0	0xbe22e9cf	-0.15909503
1	0x3dec0592	0.115245
2	0x3d8163c5	0.06317858
3	0xbb2358ce	-0.0024924758
4	0x3e4fa23b	0.2027673
5	0x3d1b8df5	0.037977178
6	0x3c6fc411	0.014634148
7	0x3b865737	0.0040997523
8	0x3d450893	0.04810388
9	0xbd27ec95	-0.040997107
10	0x3dc79c2d	0.09746585
11	0xbe5c1e90	-0.21496034
12	0x3e38c2b6	0.18043026
13	0x3e0ccd95	0.13750298
14	0xbe318a32	-0.17337874
15	0x3e4096ed	0.18807574
16	0x3de3f0d9	0.111299224
17	0x3e0db2eb	0.13837783
18	0x3d407b86	0.0469928
19	0x3e19bee5	0.15014227
20	0xbc23c207	-0.00999499
21	0xbc8db07f	-0.017296074
22	0xbdecc333	-0.11560669
23	0x3e96390c	0.29340398
24	0xbdcc1682	-0.099652305
25	0x3d1cd28a	0.038286723
26	0x3d14fbb4	0.036372855
27	0x3b5623d2	0.003267516
28	0xbe0655b2	-0.13118628
29	0x3abe565f	0.001452159
30	0xbc76f3ff	-0.015072822
31	0x3e3320c0	0.17492962
32	0x3e81e14b	0.25367197
33	0xbda89312	-0.082311764
34	0xbe39f15b	-0.18158476
35	0x3d684d42	0.056714304
36	0xbdc31b75	-0.095267214
37	0x3e60133b	0.21882336
38	0x3e3b01f1	0.1826246
39	0xbe2919b0	-0.16513705
40	0x3e1e9574	0.154867
41	0xbe48eaa0	-0.19620752
42	0xbe0f04ed	-0.13966723
43	0x3d205da6	0.03915181
44	0x3e167314	0.14692336
45	0xbe491b11	-0.19639231
46	0x3e635a70	0.22202468
47	0x3cf9fc17	0.030515714
48	0x3dd59e2e	0.10430561
49	0x3e208eea	0.15679517
50	0xbe206f1e	-0.15667388
51	0xbdf61b77	-0.12016957
52	0x3d154742	0.03644491
53	0x3e5f16e1	0.21786071
54	0x3da3df76	0.08001606
55	0x3b99fa68	0.00469904
56	0x3e2c6cc3	0.16838364
57	0x3b7083eb	0.0036699723
58	0x3da9a8b2	0.08284129
59	0xbdc713c0	-0.09720564
60	0x3cc70b1f	0.024297295
61	0xbe70c038	-0.23510826
62	0x3e13e881	0.14444162
63	0xbdfe252c	-0.12409434
64	0xbd991699	-0.07475013
65	0x3e2fc952	0.17166641
66	0xbe1abf0e	-0.15111944
67	0xbdbfbd0e	-0.09362231
68	0xbe457244	-0.1928187
69	0xbe4d9747	-0.20077239
70	0xbe682363	-0.22669749
71	0x3dcbe3df	0.09955572
72	0x3e2a7aa5	0.16648348
73	0x3d0b744b	0.034046452
74	0xbdd2cccd	-0.10292969
75	0x3e2210b5	0.15826686
76	0x3d54b605	0.0519314
77	0xbdf47284	-0.119359046
78	0xbccb5923	-0.024822777
79	0xbdb529bb	-0.0884585
80	0xbdbf2501	-0.0933323
81	0x3e4cb441	0.19990636
82	0x3e77bbfd	0.24192806
83	0x3ca5a536	0.02022038
84	0x3b438b79	0.002983777
85	0x3d983753	0.07432427
86	0xbd1d78d7	-0.03844532
87	0x3e0f6006	0.14001474
88	0xbded4b19	-0.11586589
89	0x3e32c8e9	0.17459454
90	0xbe15a067	-0.1461197
91	0x3e221d20	0.15831423
92	0x3e41046a	0.1884934
93	0xbe5e50e6	-0.21710548
94	0x3e51d100	0.20489883
95	0x3d645f57	0.055754986
96	0x3c99c72f	0.018771736
97	0xbe52756f	-0.2055261
98	0xbe5eb372	-0.2174814
99	0xbaf743be	-0.0018864793
100	0x3d241ee6	0.04006853
101	0x3cf1deee	0.029525246
102	0x3b7cfd8f	0.003860328
103	0xbe5bb2e6	-0.21454963
104	0xbe4f5c11	-0.20249964
105	0xbdcb6384	-0.099310905
106	0xbb7d0845	-0.0038609665
107	0xbe235a67	-0.15952455
108	0xbe2ebf53	-0.17065172
109	0x3d9748b1	0.07386912
110	0xbe1632b3	-0.14667778
111	0xbdf7ddd2	-0.12102856
112	0xbd988807	-0.0744782
113	0xbe1be8ac	-0.15225476
114	0xbdf57029	-0.119842835
115	0xbdfae5a1	-0.122508295
116	0x3d8701d9	0.06592149
117	0x3e80b208	0.25135827
118	0xbe1a62c1	-0.15076734
119	0xbd44b693	-0.04802568
120	0x3d52b5c4	0.051442876
121	0xbc6f8371	-0.01461874
122	0xbe4f5571	-0.20247437
123	0xbe9271d2	-0.28602463
124	0x3d7d5481	0.061848167
125	0x3c564679	0.013078325
126	0xbd004568	-0.03131619
127	0x3e58e53d	0.21181197
128	0xbc83c7e4	-0.016086526
129	0x3c817e4f	0.015807299
130	0x3d21860b	0.039434474
131	0x3da93845	0.08262686
132	0xbe3ff4d6	-0.18745741
133	0xbe2f0780	-0.17092705
134	0xbcc99790	-0.024608403
135	0x3d532d9b	0.051557165
136	0x3e485374	0.19563085
137	0xbcf56ac9	-0.029958146
138	0xbe7a66f3	-0.24453335
139	0xbe388298	-0.18018568
140	0xbd6b7c75	-0.05749174
141	0xbdd1b1c6	-0.10238986
142	0xba86dfd9	-0.00102901
143	0x3e24d106	0.16095361
144	0x3e2dec10	0.16984582
145	0x3d981dd8	0.07427567
146	0xbe419d2e	-0.18907616
147	0x3d81dcf8	0.063409746
148	0xbd8021a0	-0.062564135
149	0xbd9f3f44	-0.07775739
150	0xbdaf2647	-0.08552223
151	0xbe00c40e	-0.12574789
152	0xbd9b9a32	-0.0759777
153	0xbe2c3826	-0.16818294
154	0xbd83edc8	-0.064418375
155	0x3d55de2c	0.052213833
156	0x3dd253f0	0.10269916
157	0x3e738191	0.23779894
158	0x3c027872	0.007963287
159	0xbe4466c3	-0.19179825
160	0x3e325b41	0.17417623
161	0xbd9cdd00	-0.0765934
162	0xbcc29ae1	-0.023755493
163	0x3dc471ef	0.095920436
164	0x3ce861e2	0.028366987
165	0x3d00c3a2	0.03143657
166	0x3e411244	0.18854624
167	0xbceb7ed8	-0.028747007
168	0xbd99f479	-0.075173326
169	0x3e15a5a3	0.14613967
170	0xbccc0293	-0.024903571
171	0x3e760010	0.24023461
172	0x3caf72ea	0.0214171
173	0xbe4c77a7	-0.19967519
174	0x3e292b89	0.16520514
175	0x3d199446	0.03749492
176	0xbd71ece9	-0.059063826
177	0x3e66020a	0.22461715
178	0xbcedf8fa	-0.029049385
179	0x3e1f39bd	0.15549369
180	0x3df96b8b	0.12178715
181	0x3d03310e	0.032029204
182	0x3d9f33f8	0.07773584
183	0x3dccc7a9	0.0999902
184	0xbe08f920	-0.13376284
185	0xbce716b6	-0.028209072
186	0x3d8f3aeb	0.069936596
187	0xbd2e1b59	-0.04250655
188	0xbdcda603	-0.1004143
189	0xbc382c83	-0.011241081
190	0x3d60511e	0.05476486
191	0xbdd5b06e	-0.10434042
192	0xbe4b5270	-0.19855666
193	0x3e014647	0.12624465
194	0xbe62754e	-0.2211506
195	0x3e0dd33d	0.13850112
196	0x3e01a816	0.12661776
197	0x3e5eaf3d	0.21746536
198	0x3e1afd0c	0.15135592
199	0xbe320144	-0.17383295
200	0xbdfa4af7	-0.1222133
201	0x3d2dcf74	0.04243417
202	0x3e2dd775	0.16976722
203	0xbdaca0ca	-0.084291056
204	0xbe5b9af3	-0.21445827
205	0x3da5950a	0.080850676
206	0x3e2aee96	0.16692576
207	0xbd6f4caf	-0.05842274
208	0xbe2cf740	-0.16891193
209	0xbe6c7dba	-0.23094836
210	0xbe72727e	-0.23676488
211	0xbe3b199b	-0.18271486
212	0xbe7de34f	-0.24793743
213	0x3dcef869	0.10105974
214	0xbd86f71f	-0.06590103
215	0x3c555a8c	0.013022076
216	0x3cebeb32	0.028798673
217	0xbe29efd1	-0.16595389
218	0x3e5f78aa	0.21823373
219	0xbb2a8c40	-0.0026023537
220	0x3d2fedf1	0.042951528
221	0xbe312f39	-0.1730317
222	0x3d89c3d3	0.06726804
223	0xbd8139f4	-0.06309882
224	0xbd515163	-0.051103007
225	0x3e274f03	0.16338734
226	0x3e08355f	0.1330161
227	0x3ddf2cbf	0.108972065
228	0x3e0c04ff	0.13673781
229	0x3e0380e4	0.12842137
230	0x3e241cae	0.16026565
231	0xbd941ce3	-0.07232072
232	0xbe3cc9c1	-0.18436338
233	0xbc6a0919	-0.014284396
234	0x3e799eb0	0.2437694
235	0xbe6fa3e0	-0.23402357
236	0xbe31f4c6	-0.1737853
237	0xbc8041b5	-0.015656332
238	0x3dcbab02	0.099447265
239	0xbd9f1127	-0.077669434
240	0xbc18b840	-0.009321272
241	0x3cda8cbc	0.026678436
242	0x3db86680	0.09003925
243	0xbe1aa184	-0.15100676
244	0x3e98fd82	0.2988091
245	0x3e3562b7	0.17713438
246	0x3e1b2b0e	0.15153143
247	0xbe3bac47	-0.18327437
248	0x3dd2cf89	0.102934904
249	0x3e2bbb6e	0.16770718
250	0x3e090f44	0.1338473
251	0xbdf1a966	-0.11799888
252	0x3e3428ab	0.17593639
253	0xbddc66d3	-0.107618
254	0x3d96f363	0.07370641
255	0x3e5f5150	0.21808362

network.0.bias f4 [128]
0	0xbd842923	-0.06453159
1	0x3dc88b1f	0.0979216
2	0xbcf57f12	-0.029967818
3	0x3d4eb03b	0.050461035
4	0x3e3ce0d5	0.18445142
5	0x3dc45faa	0.09588559
6	0x3db371fb	0.087619744
7	0x3d51d15d	0.051225055
8	0x3e08706d	0.13324137
9	0x3db85190	0.08999932
10	0xbce9f6c4	-0.02856005
11	0x3dd93ba5	0.106070794
12	0x3d8257ca	0.06364401
13	0x3c7119f8	0.014715664
14	0x3e3a083e	0.18167207
15	0xbcb4be9a	-0.022063542
16	0x3e2b994a	0.16757694
17	0x3e2cfd26	0.16893443
18	0xbd83f7f2	-0.06443776
19	0xbdf18b19	-0.11794109
20	0x3ddee7c3	0.10884049
21	0x3cab5819	0.020916032
22	0x3dcbf5bc	0.099589795
23	0xbc9af608	-0.018916145
24	0xbdfa01d9	-0.12207384
25	0x3e3192a4	0.17341095
26	0x3dc450c7	0.095857196
27	0xbd81a7d4	-0.06330839
28	0xbb26079d	-0.0025334128
29	0xbe552bdf	-0.20817517
30	0xbc82d3e2	-0.015970174
31	0x3cfcb289	0.030846851
32	0x3dcc5034	0.09976235
33	0x3e22f2eb	0.15912978
34	0x3e237acc	0.15964812
35	0xbcad29b7	-0.021138055
36	0x3e275326	0.16340312
37	0x3e3971b8	0.18109787
38	0xbe1a777c	-0.15084642
39	0xbcef5e68	-0.029219821
40	0x3d8498ad	0.06474433
41	0xbd263b8e	-0.04058414
42	0x3db9a822	0.09065272
43	0x3d9f4306	0.077764556
44	0xbe228f7f	-0.15875052
45	0xbcd56537	-0.02604924
46	0xbe2f0e3c	-0.17095274
47	0x3db1bb77	0.08678334
48	0x3d77eced	0.060528684
49	0xbe2494ba	-0.1607236
50	0x3d88e2f0	0.0668391
51	0x3e04247b	0.12904541
52	0x3d9514b2	0.07279338
53	0x3d2c34e9	0.042042647
54	0x3e628529	0.22121109
55	0x3e4fbc58	0.20286691
56	0xbc3f14d3	-0.01166268
57	0x3dfe6e8d	0.1242343
58	0x3d55e50b	0.052220386
59	0xbdd9dc17	-0.10637682
60	0x3d7ede4f	0.06222373
61	0xbe14189c	-0.14462513
62	0xbdcc46fe	-0.09974478
63	0xbcc0a88f	-0.023517875
64	0x3d527b42	0.05138708
65	0x3ddb0cb3	0.106957816
66	0xbda13e84	-0.07873252
67	0xbb50a635	-0.0031837348
68	0xbd7a58c9	-0.06111983
69	0xbd7250f9	-0.059159253
70	0xbcbc09d0	-0.022953898
71	0xbe0a6fe7	-0.1351925
72	0x3ce05d34	0.027388193
73	0x3d24ced1	0.040236298
74	0x3d3d1439	0.046161864
75	0xbd257a14	-0.040399626
76	0x3df56895	0.11982838
77	0xbdf29687	-0.11845117
78	0xbdb5cf30	-0.088774085
79	0x3d23e131	0.04000968
80	0x3bbb5534	0.005716944
81	0xbdb3e18d	-0.08783255
82	0xbdf4c397	-0.11951368
83	0xbe2baf6d	-0.16766138
84	0x3df69bc6	0.1204143
85	0xbe169e97	-0.14708935
86	0xbe31091b	-0.1728863
87	0x3dc8392d	0.097765304
88	0xbd908064	-0.070557386
89	0x3c8d1001	0.017219545
90	0x3e0a678e	0.13516065
91	0x3e146062	0.14489892
92	0xbb7dad21	-0.003870793
93	0xbe5ea401	-0.2174225
94	0x3de90add	0.11379025
95	0xbd95126c	-0.07278904
96	0xbdd75ecc	-0.10516128
97	0x3e67ef3c	0.22649854
98	0xbd29e8d3	-0.041481804
99	0x3d8219a0	0.06352544
100	0xbd248d23	-0.04017366
101	0x3e94afc5	0.29040352
102	0x3d23d28a	0.039995708
103	0x3e4ec79a	0.2019333
104	0x3e26a018	0.16272008
105	0xbe4d511f	-0.20050476
106	0x3c1f6ed6	0.009731015
107	0x3e80e9c8	0.2517836
108	0xbdb52278	-0.08844465
109	0x3d724430	0.05914706
110	0xbdca15f3	-0.09867468
111	0x3dfd2662	0.123608366
112	0x3e3ec29e	0.18628928
113	0xbccfeb98	-0.025380895
114	0xbc3a5861	-0.01137361
115	0xbdc1c810	-0.09461987
116	0x3e22a646	0.15883741
117	0x3dbdb6c9	0.09263379
118	0xbe1138f1	-0.14181878
119	0xbc1e9f2a	-0.009681502
120	0x3e19def0	0.1502645
121	0xbdb5b774	-0.088728815
122	0xbe45ead2	-0.19327858
123	0x3e201fac	0.15637082
124	0x3e02125d	0.12702318
125	0x3df32f63	0.11874273
126	0x3dc78b1a	0.097433284
127	0x3de651d6	0.11246078

network.2.weight f4 [64, 128]
0	0x3d060c8b	0.032726806
1	0x3b0483cc	0.0020220159
2	0x3e060540	0.1308794
3	0xbca9ecb6	-0.020742755
4	0xbd8a5bb4	-0.06755772
5	0x3dc0b29e	0.094090685
6	0x3d17b2cb	0.037035745
7	0xbda4ede8	-0.080531895
8	0xbc2193e5	-0.009861921
9	0x3cb64d5c	0.022253685
10	0xbdff8147	-0.124758296
11	0x3c11c76f	0.008897646
12	0xbcc6d1ed	-0.024270022
13	0xbd1793fb	-0.03700636
14	0x3d1ce8fc	0.03830813
15	0x3e1e3465	0.15449674
16	0x3d72cc51	0.059276883
17	0x3cd347de	0.025791105
18	0x3d818f64	0.06326178
19	0x3e000aca	0.12504116
20	0x3da493d8	0.080360115
21	0x3d90d1db	0.07071277
22	0x3cca3eb2	0.024688099
23	0xbd8fb96d	-0.07017789
24	0x3df093cb	0.11746939
25	0xbb9cb39c	-0.0047821533
26	0x3ddaa383	0.10675719
27	0x3ddbadb5	0.10726491
28	0xbc5bddd6	-0.013419589
29	0x3af36d95	0.0018572087
30	0xbc9422a9	-0.018082934
31	0x3cce8766	0.025211047
32	0x3cd818ea	0.026379067
33	0x3d5f70bf	0.054550882
34	0xbda34d0b	-0.07973679
35	0xbd5f70ce	-0.05455094
36	0x3d953cd4	0.07286993
37	0xbc1cf02d	-0.009578747
38	0x3dddf3a0	0.108374834
39	0xbc901a96	-0.017590802
40	0x3ce9304a	0.028465409
41	0xbd499660	-0.049215674
42	0xbcb5326e	-0.022118773
43	0x3de57dbc	0.112056226
44	0xbda220f8	-0.079164445
45	0x3d17cd2a	0.037060894
46	0xbcd7acc5	-0.0263275
47	0x3de65f64	0.11248663
48	0x3c7a31e9	0.015270689
49	0xba9fd37c	-0.0012193765
50	0x3d9b957d	0.07596872
51	0xbd120508	-0.03564933
52	0x3d2f6162	0.04281748
53	0x3dbe52ec	0.0929316
54	0xbdb144c5	-0.08655695
55	0x36cd6c03	6.1220503e-06
56	0x3d146d6f	0.036237177
57	0x3d91097b	0.070818864
58	0xbc2f071c	-0.010682847
59	0x3d98ca98	0.07460517
60	0xbc4980c2	-0.012298765
61	0x3c9d9587	0.01923634
62	0xbd9f6ee3	-0.07784822
63	0x3e0991ff	0.134346
64	0x3d4a7cb6	0.04943534
65	0xbd7665aa	-0.06015555
66	0x3c9589f6	0.018254261
67	0xbd8514d5	-0.06498114
68	0x3d823645	0.06358007
69	0x3ddbc721	0.1073134
70	0xbc8563b3	-0.016282892
71	0x3e27d447	0.16389571
72	0x3bad3ffb	0.005287168
73	0xbcb14143	-0.021637565
74	0xbdb7a53d	-0.089670636
75	0xbe1a7ca2	-0.15086606
76	0x3c4cd463	0.012501809
77	0xbcb1eda5	-0.021719763
78	0x3e168c80	0.14702034
79	0x3d6227c1	0.055213694
80	0x3de4cd7c	0.111720055
81	0xbc9e2704	-0.019305713
82	0x3d7be227	0.061494973
83	0xbce87c07	-0.028379453
84	0xbcf72352	-0.03016821
85	0x3d17222d	0.036897827
86	0x3c54b345	0.012982194
87	0x3dce9adc	0.10088131
88	0xbb9ee7c5	-0.0048494064
89	0x3cda5ce8	0.02665563
90	0xbd41a79a	-0.047278978
91	0xbdba7279	-0.09103865
92	0x3db485ea	0.088146046
93	0x3d5ced3d	0.053937186
94	0x3cce81ec	0.025208436
95	0x3c90d18d	0.017678047
96	0xbc8c801f	-0.017150937
97	0xbda4b77d	-0.0804281
98	0xbd3af344	-0.045642152
99	0x3da24521	0.079233415
100	0x3e20e0c2	0.15710738
101	0xbe0b32a8	-0.13593543
102	0xbc92d87f	-0.017925499
103	0xbc8cb6f3	-0.01717708
104	0x3d3c5746	0.045981668
105	0x3d6cddbb	0.057828646
106	0x3dc2452b	0.09485849
107	0x3cd32d45	0.025778422
108	0xbd5d22e7	-0.053988364
109	0x3c1ee791	0.009698764
110	0x3d824c04	0.06362155
111	0x3d1aee9d	0.037825216
112	0xbd92b061	-0.07162548
113	0x3dc75d84	0.097346336
114	0x3c36da35	0.011160423
115	0x3dcdd495	0.100503124
116	0xbd040843	-0.03223444
117	0x3dc9be61	0.09850765
118	0x3d2541b3	0.04034586
119	0x3e16e893	0.14737158
120	0x3dc25101	0.094881065
121	0x3e379620	0.17928362
122	0x3d39b73d	0.045340765
123	0xbc3f9cf3	-0.011695134
124	0xbc6524cb	-0.013985823
125	0x3df9bcd3	0.121942185
126	0x3e1a76e4	0.15084416
127	0x3cf8e63b	0.03038322
128	0xbc9c0819	-0.01904683
129	0x3dd77aaa	0.10521443
130	0x3aefa440	0.0018283203
131	0xbdf7c119	-0.12097377
132	0x3dc70fd1	0.097198136
133	0x3d1dfd05	0.038571376
134	0xbd88f04d	-0.06686459
135	0x3d5f5408	0.054523498
136	0xbcc9c0f7	-0.024628146
137	0xbceb57e4	-0.028728433
138	0x3d84ca25	0.064838685
139	0xbcce4719	-0.025180386
140	0x3ac4613e	0.0014982594
141	0x3d547723	0.05187143
142	0xbe1183c4	-0.14210421
143	0xbdd10b8e	-0.10207282
144	0x3c1d9625	0.009618317
145	0x3db7f922	0.08983065
146	0xbc3850fa	-0.011249775
147	0xbd83a884	-0.06428626
148	0x3d457f05	0.04821684
149	0x3da1cc5d	0.07900307
150	0x3d6b4699	0.057440374
151	0xbafb385e	-0.0019166579
152	0xbd4fb43f	-0.050709005
153	0x3d5be3ec	0.05368416
154	0xbddbe346	-0.10736708
155	0xbd0639e0	-0.032770038
156	0xbd6d4216	-0.057924353
157	0xbdd50f4c	-0.10403308
158	0xbdeb6081	-0.11493016
159	0x3c072e8f	0.0082508465
160	0xbd806f27	-0.062712006
161	0xbd12f0fa	-0.035874344
162	0x3dccf98e	0.10008536
163	0x3d839605	0.06425098
164	0x3b1f4176	0.0024300492
165	0x3db09a7a	0.08623214
166	0xbd55e0f5	-0.05221649
167	0x3d95f21e	0.07321571
168	0xbca65e4b	-0.020308634
169	0x3dd449af	0.103656165
170	0xbccf7a09	-0.025326746
171	0xbd9fd1c7	-0.07803684
172	0xbc9d3d57	-0.019194288
173	0xbdae39cf	-0.0850712
174	0x3d354e64	0.044264212
175	0xbc9b4d2d	-0.018957699
176	0xbd70dfee	-0.058807306
177	0x3da4ef53	0.0805346
178	0xbe0dc9a7	-0.13846456
179	0x3e01dd23	0.12682013
180	0x3dadbbdf	0.08483099
181	0x3cdc8c2e	0.026922312
182	0x3c319bf0	0.010840401
183	0x3b031b9c	0.002000547
184	0x3d4a8358	0.049441665
185	0xbd1b3255	-0.037889797
186	0x3d2582f5	0.040408093
187	0xbd9329f9	-0.0718574
188	0x3cea2409	0.028581636
189	0x3d2240fd	0.03961276
190	0x3de2bbde	0.11070989
191	0xbe257826	-0.16159114
192	0x3db6d9a4	0.089282304
193	0x3e03232b	0.12806384
194	0xbdea4b4a	-0.114401415
195	0xbc8dd401	-0.017313005
196	0xbdf2bbb8	-0.11852211
197	0xbc913c75	-0.017729023
198	0xbdb3eda8	-0.08785564
199	0x3c86dec5	0.016463647
200	0xbd782fc7	-0.06059244
201	0x3ca61aa4	0.020276375
202	0xbd0ab41f	-0.033863183
203	0x3d8dbafe	0.069204316
204	0x3b82b428	0.0039887615
205	0xbd54bb79	-0.0519366
206	0xbd1ef6e1	-0.03880966
207	0xbcfb900d	-0.030708337
208	0xbc54da18	-0.012991451
209	0x3da56160	0.080752134
210	0xbdad4df5	-0.08462135
211	0x3dd063b6	0.10175268
212	0x3d93e1f3	0.07220831
213	0xbd320420	-0.043460965
214	0xbd5b1ae0	-0.053492427
215	0x3c00ef3b	0.007869537
216	0xbd99452d	-0.07483897
217	0xbd81a6fb	-0.06330677
218	0xbc83ac9a	-0.016073514
219	0x3de98d58	0.11403912
220	0x3cb3c42e	0.021944132
221	0x3d5aaab3	0.053385448
222	0xbcd3ed16	-0.025869887
223	0xbca1f494	-0.019769944
224	0xbdaaa260	-0.08331752
225	0x3e13176c	0.14364403
226	0x3d806cf1	0.06270779
227	0xbd88bdfd	-0.066768624
228	0xbe08f497	-0.13374554
229	0x3df50508	0.1196385
230	0xbd79bf89	-0.060973678
231	0x3de518bb	0.111863576
232	0x3c0311c3	0.00799984
233	0xbb18d8e1	-0.002332263
234	0xbc90d7e6	-0.017681073
235	0x3dffb082	0.12484838
236	0x3e07146a	0.13191381
237	0xbd945012	-0.07241835
238	0xb7df41d8	-2.6614332e-05
239	0x3dc08149	0.09399659
240	0x3df26791	0.1183616
241	0xbe122b83	-0.14274411
242	0x3d118a49	0.03553227
243	0x3cbf4086	0.023346197
244	0x3dca7379	0.09885306
245	0x3df68390	0.12036812
246	0x3d5d4800	0.054023743
247	0x3d234366	0.039859198
248	0xbd1c4dbd	-0.038160075
249	0xbe22e855	-0.1590894
250	0xbd28939f	-0.041156407
251	0xbe015b1d	-0.12632413
252	0x3ce7f43b	0.0283147
253	0xbde3b1cb	-0.11117896
254	0xbd6d00d6	-0.057862125
255	0x3cdf7adf	0.02728027

network.2.bias f4 [64]
0	0x3d99cd58	0.07509869
1	0xbbd9a6a0	-0.0066421777
2	0x3d8d4fad	0.068999626
3	0x3ce26126	0.027634215
4	0x3d8db5c6	0.06919436
5	0xbd887a8a	-0.066639975
6	0xbdaecb70	-0.085348964
7	0xbdf88993	-0.12135615
8	0xbd8f722b	-0.07004198
9	0xbd05b17e	-0.032639973
10	0xbdf9d0c2	-0.121980205
11	0x3d1ddb79	0.038539384
12	0x3d79a4d7	0.06094822
13	0xbb8c7063	-0.0042858585
14	0x3cdc21c2	0.026871566
15	0x3dc11c31	0.09429205
16	0xbd7b98a8	-0.06142488
17	0x3e0b77c0	0.136199
18	0xbcbe0684	-0.023196466
19	0x3dfcf727	0.12351828
20	0x3c9fa2e0	0.019486845
21	0x3dda277c	0.10652062
22	0x3d8a76fd	0.067609765
23	0x3d7d2fc7	0.061813142
24	0xbba6f7c9	-0.0050954563
25	0x3d8b49f8	0.06801218
26	0x3e063f63	0.13110118
27	0xbd25db8f	-0.04049259
28	0xbc160b91	-0.009158031
29	0xbd778389	-0.060428176
30	0xbcb6ed81	-0.022330048
31	0xbc3f0b10	-0.011660352
32	0x3c16b316	0.009197971
33	0xbb29d218	-0.002591258
34	0xbcacf909	-0.021114843
35	0x3db7cc0c	0.08974466
36	0xbd9ab43f	-0.075539105
37	0x3de0e62a	0.109814
38	0x3ded99bf	0.1160159
39	0x3d9293a4	0.071570665
40	0xbc00fad8	-0.007872306
41	0x3e0d7f63	0.13818125
42	0xbd3f852e	-0.04675787
43	0xbd459e19	-0.048246477
44	0x3b49a631	0.0030769224
45	0xbbb4de61	-0.0055196737
46	0xbd146c89	-0.03623632
47	0xbddb622f	-0.107120864
48	0x3dc05c33	0.093925856
49	0x3cf42b6f	0.029805867
50	0x3d8cd77b	0.06877037
51	0xbd6d9e3c	-0.058012232
52	0xbd449c79	-0.048000786
53	0xbda904a9	-0.08252842
54	0x3e11beb1	0.14232899
55	0xbd6d1414	-0.057880476
56	0x3dc04d2e	0.09389721
57	0xbd6002fa	-0.05469034
58	0x3dad08f8	0.08448976
59	0xbb811de6	-0.0039403317
60	0x3d884984	0.06654647
61	0x3d024020	0.031799436
62	0x3de6494d	0.1124445
63	0xbdb7a36c	-0.08966717

network.4.weight f4 [16, 64]
0	0x3d5082ba	0.05090592
1	0xbe09cc9e	-0.13456962
2	0x3e393a74	0.18088704
3	0x3ce6e896	0.028187077
4	0x3e1b2173	0.15149479
5	0xbd2bfbd4	-0.04198821
6	0x3c87d1d8	0.016579553
7	0x3e522f10	0.20525765
8	0xbdc3291b	-0.095293246
9	0x3cfd3474	0.0309088
10	0x3defc1cf	0.11706888
11	0x3dc52a56	0.096272156
12	0x3d44c27b	0.048037034
13	0xbc3ce987	-0.011530287
14	0x3e843787	0.25823614
15	0x3e19a3c3	0.15003876
16	0x3e6f86f2	0.23391321
17	0xbcd120a8	-0.025528267
18	0x3ea9525f	0.33070657
19	0xbe8d174e	-0.27556843
20	0xbe8973df	-0.26846215
21	0x3d483946	0.048882745
22	0x3e2f02db	0.17090933
23	0xbe091ac2	-0.13389114
24	0xbe8adada	-0.27120095
25	0x3dcbdd78	0.09954351
26	0xbd9f85fe	-0.07789229
27	0xbe9ec102	-0.31006628
28	0x3d229840	0.03969598
29	0x3df7c7ae	0.12098633
30	0x3de6faf6	0.11278336
31	0xbde0c998	-0.10975951
32	0x3e0ea4da	0.13930073
33	0xbe28bf1f	-0.16479157
34	0x3d8c514b	0.06851443
35	0x3c9732d9	0.018456863
36	0x3e123a06	0.14279947
37	0xbe265e0b	-0.16246812
38	0xbe2dbcd2	-0.1696656
39	0x3da31f7e	0.07964991
40	0x3d4a81d7	0.04944023
41	0xbdb71d3b	-0.08941122
42	0x3d9df23e	0.0771222
43	0x3d98e373	0.074652575
44	0xbc92edb6	-0.017935615
45	0x3e45b855	0.19308598
46	0xbe74c4ef	-0.23903249
47	0x3cd1ff60	0.025634468
48	0x3c450f95	0.012027641
49	0x3d20624e	0.03915625
50	0x3e01c07d	0.12671085
51	0x3b9fb358	0.0048736744
52	0xb9bec73c	-0.00036388065
53	0x3e0efbcf	0.13963245
54	0xbc960485	-0.018312702
55	0xbe997d57	-0.2997844
56	0xbe22da2b	-0.15903537
57	0x3d34d53c	0.04414867
58	0xbd0c3a1f	-0.034235116
59	0x3b053b67	0.0020329596
60	0x3d35814a	0.044312753
61	0x3e563dbd	0.20921989
62	0xbe0c3499	-0.1369194
63	0x3d59b6ee	0.05315297
64	0x3e177174	0.14789373
65	0xbb20e77a	-0.0024552033
66	0x3bebdde6	0.007198083
67	0x3e204757	0.15652214
68	0x3e2d0cb5	0.16899379
69	0x3e1505fd	0.14553066
70	0x3dadda2e	0.0848888
71	0x3db87559	0.09006757
72	0x3c550dd7	0.013003788
73	0x3e805153	0.25062045
74	0x3e55b00a	0.20867935
75	0xbc06935e	-0.008213846
76	0xbc162b77	-0.009165636
77	0xbd69ca32	-0.057077594
78	0x3e9799d9	0.29609564
79	0x3ca0d4f9	0.019632803
80	0x3e3986af	0.18117784
81	0xbd71f7a4	-0.05907406
82	0x3ec4a127	0.384042
83	0xbec0c6d4	-0.37651694
84	0xbe2dacbf	-0.16960429
85	0x3cd40f12	0.025886092
86	0x3a06ae14	0.0005137634
87	0x3d635faf	0.055511173
88	0xbea23cb7	-0.31686947
89	0x3d19a491	0.03751046
90	0xbd72ca68	-0.05927506
91	0xbe524d95	-0.20537408
92	0x3e661a9c	0.22471088
93	0x3dafa103	0.085756324
94	0x3e350e22	0.17681172
95	0xbe4e3890	-0.20138764
96	0x3d896e08	0.0671044
97	0xbe5dc0b4	-0.21655542
98	0x3e70b050	0.23504758
99	0x3d09ca14	0.033639982
100	0x3e309b60	0.17246771
101	0xbe1548a9	-0.14578499
102	0xbe2a1cb8	-0.16612518
103	0x3d9b3382	0.07578184
104	0x3e034378	0.12818706
105	0x3cecc726	0.028903555
106	0x3d8497a9	0.064742394
107	0x3e318f90	0.17339921
108	0x3de5c0cf	0.11218416
109	0x3d9adf1b	0.07562085
110	0xbe57739c	-0.21040195
111	0x3e447b62	0.19187692
112	0xbd526caa	-0.05137316
113	0xbd9a26c3	-0.075269245
114	0xbd37d054	-0.04487641
115	0xbc7c66ea	-0.015405396
116	0x3c91779a	0.017757226
117	0x3d91665d	0.07099602
118	0x3ceed7b6	0.029155593
119	0xbe197150	-0.14984632
120	0xbd3521ea	-0.044221796
121	0x3d37532f	0.044757064
122	0xbc4c1419	-0.0124559635
123	0xbe335b10	-0.17515206
124	0x3e210e9e	0.15728232
125	0x3dfad9f8	0.122486055
126	0x3bfd50ed	0.0077305944
127	0x3c6869d0	0.014185384
128	0xbd02c483	-0.03192569
129	0x3c3cb148	0.0115168765
130	0xbddfead2	-0.1093346
131	0xbd088100	-0.03332615
132	0x3dc15b29	0.094412155
133	0x3bfc3b9b	0.007697535
134	0xbde0a117	-0.109682254
135	0xbdffa61c	-0.12482855
136	0x3d3d0db0	0.04615563
137	0x3da10e52	0.078640595
138	0x3d68a10d	0.056794215
139	0xbd35fa4e	-0.044428162
140	0xbd9aaf7e	-0.07553004
141	0xbd811e4e	-0.06304608
142	0xbdda79d3	-0.106677674
143	0x3dd7c0bc	0.10534808
144	0x3d603d7f	0.054746147
145	0xbd8ce418	-0.06879443
146	0xbddc969c	-0.10770914
147	0xbde2d924	-0.110765725
148	0x3d9e1a2d	0.077198364
149	0x3de76939	0.112993665
150	0xbc8d1e48	-0.017226353
151	0xbd6e4321	-0.058169488
152	0x3dcca65c	0.09992668
153	0x3c56dc55	0.013114055
154	0xbdca0d04	-0.09865764
155	0x3d57a4d3	0.052647423
156	0xbce54f6e	-0.027991977
157	0x3d3f9567	0.04677334
158	0x3cfe4b3f	0.03104174
159	0x3cd7b159	0.026329683
160	0xbd90a384	-0.07062438
161	0x3b3824ce	0.002809811
162	0x3dcf0de8	0.10110074
163	0xbc9715eb	-0.018443068
164	0xbde84f98	-0.11343306
165	0xbd91c960	-0.07118487
166	0xbc97752e	-0.018488493
167	0xbcacd33a	-0.021096814
168	0xbde1153f	-0.109903805
169	0x3da7180c	0.081588835
170	0x3db64af9	0.08901019
171	0xbda2918d	-0.07937918
172	0x3cc77a35	0.024350265
173	0xbd929660	-0.07157588
174	0xbdc71328	-0.09720451
175	0xbd409111	-0.047013346
176	0xbdef9bd1	-0.116996415
177	0xbd694765	-0.056952853
178	0x3daf201e	0.08551048
179	0x3d9b3bfe	0.07579802
180	0xbd38b41d	-0.045093644
181	0xbdf8af60	-0.12142825
182	0x3b8ea379	0.0043529836
183	0x3c9d59fc	0.019207947
184	0x3ae7a993	0.0017674438
185	0x3d85db7a	0.065360025
186	0x3dd3824f	0.10327589
187	0xbd72e28b	-0.05929808
188	0x3ca56cc1	0.02019346
189	0xbd99fbb2	-0.0751871
190	0x3deeb2a5	0.116551675
191	0xbded309a	-0.11581536
192	0xbe230652	-0.1592038
193	0x3de849fd	0.11342237
194	0x3d49eba1	0.04929698
195	0xbde25119	-0.110506244
196	0xbe3d8d3b	-0.18510906
197	0x3dea0caa	0.11428197
198	0xbe16ed04	-0.14738852
199	0xbe1d52ae	-0.15363571
200	0xbdb18366	-0.086676404
201	0xbda14ad1	-0.07875598
202	0xbe0c7495	-0.13716348
203	0xbe2ed0c6	-0.17071828
204	0x3dffa28f	0.124821775
205	0x3dc33b38	0.095327795
206	0xbea3ce77	-0.31993458
207	0x3d1ef568	0.038808256
208	0xbdee0376	-0.11621754
209	0x3dbbc299	0.09167976
210	0xbe60a914	-0.21939498
211	0x3e80654a	0.25077277
212	0x3e86f1d8	0.26356387
213	0x3e36501e	0.17804
214	0xbd86534c	-0.06558856
215	0x3e2b7772	0.16744784
216	0x3ed6840a	0.41897613
217	0xbd843262	-0.06454922
218	0x3e438ba0	0.19096231
219	0x3e9e345c	0.30899322
220	0xbdf4fd17	-0.119623356
221	0x3d90644c	0.0705038
222	0xbd49b64f	-0.04924613
223	0x3e67b1ca	0.22626415
224	0x3dfd8c1b	0.123802386
225	0x3d59ce60	0.05317533
226	0x3caa2c74	0.02077315
227	0x3e2656fe	0.16244122
228	0xbe078993	-0.13236074
229	0x3e03511f	0.12823914
230	0x3e7baa5d	0.24576707
231	0x3d1447d3	0.03620131
232	0x3d87e524	0.06635502
233	0x3e687ef1	0.22704674
234	0xbe1883ba	-0.14894
235	0xbe1cbb55	-0.15305836
236	0x3d6afcef	0.057370123
237	0x3d977bef	0.07396685
238	0x3eae6ea1	0.34068778
239	0xbdd8aa89	-0.10579402
240	0x3e39e66a	0.18154302
241	0x3e2a11fd	0.16608424
242	0x3dd35c74	0.103203684
243	0x3ce4fd15	0.02795271
244	0x3c8334b0	0.016016334
245	0xbe1537cb	-0.14572065
246	0x3e62c24a	0.22144428
247	0x3e35f5ed	0.17769594
248	0x3e14f349	0.14545931
249	0xbda6e85a	-0.08149786
250	0x3cbc32ac	0.022973381
251	0x3d9c6998	0.07637328
252	0xbda7d495	-0.08194844
253	0xbdcd92ce	-0.100377664
254	0x3e52a095	0.2056907
255	0xbe24b9e7	-0.16086541

network.4.bias f4 [16]
0	0x3d9d2791	0.07673562
1	0x3d7676bf	0.06017184
2	0x3c6ec566	0.014573431
3	0x3d99866b	0.07496341
4	0x3d24187d	0.040062416
5	0x3cbc6201	0.02299595
6	0x3e0abb9b	0.13548128
7	0x3db6fc4e	0.08934842
8	0xbd97debe	-0.074155316
9	0xbd9a6858	-0.07539433
10	0xbc7b7168	-0.015346862
11	0x3de2e53c	0.11078879
12	0x3dfb54a8	0.12272006
13	0x3d781e98	0.06057605
14	0xbd689c8c	-0.05678992
15	0xbb6f0d54	-0.003647645

network.6.weight f4 [2, 16]
0	0x3e49d1dc	0.19708961
1	0x3e801b15	0.25020662
2	0xbd6a4983	-0.057199012
3	0xbe996610	-0.2996068
4	0xbe47e607	-0.19521342
5	0xbe5db177	-0.21649729
6	0xbeaddb03	-0.33956155
7	0x3e70df71	0.23522736
8	0xbd1cec98	-0.03831157
9	0xbe622819	-0.22085609
10	0x3d8005b1	0.062510855
11	0x3e85e272	0.26149327
12	0x3d55b1f0	0.052171648
13	0x3e480204	0.19532019
14	0xbd12d0a2	-0.0358435
15	0x3e082f11	0.13299204
16	0xbd9978c6	-0.07493739
17	0xbcdd854d	-0.027041102
18	0xba5af240	-0.0008352138
19	0x3e2e3fcc	0.17016524
20	0xbdcbf23f	-0.09958314
21	0x3e943d00	0.2895279
22	0x3e0a565c	0.13509506
23	0xbd21a5a4	-0.039464608
24	0x3e650767	0.22366105
25	0x3d3dc230	0.04632777
26	0x3db23223	0.08700969
27	0xbdc28d21	-0.094995745
28	0xbea1a5b2	-0.31571728
29	0xbe02f9a8	-0.12790549
30	0xbea5dcbf	-0.32394978
31	0x3c02851b	0.007966305

network.6.bias f4 [2]
0	0xbe8bcdf1	-0.27305558
1	0x3db3a844	0.087723285
