models/adult/rs/adam_epochs40_lr0.004_batch128_dropout0/bezier_696.pth (torch, 87787 bytes, 19 tensors)

coeff_layer.binom f4 [2]
00000000: 0000 803f 0000 803f
1.0 1.0

coeff_layer.range f4 [2]
00000000: 0000 0000 0000 803f
0.0 1.0

coeff_layer.rev_range f4 [2]
00000000: 0000 803f 0000 0000
1.0 0.0

net.network.0.weight_0 f4 [128, 6]
00000000: 6441 fcbe d52b 163d c995 d1be af01 c8be
00000010: 9627 26be 6343 223f 2cf8 e6be e27c c63d
00000020: 0a7c a5be 3864 f9be 31b9 48bd 54ed 2bbf
00000030: 6a2c 8d3e 2bec 3a3e 0a3f 46bf 7709 0dbf
00000040: 0286 b1be 5e4f 11bf 918d 89be ac4c 8fbe
00000050: 9d38 9d3e 3664 d43d fc0c 48be c3ff 5cbe
00000060: d178 2d3e 453d aabd b95e 34be 7f0f c2be
00000070: 1209 88bd f703 d1bd 825b 4e3c 6de2 9fbe
00000080: 0930 cbbd de52 823f 7e2b b03d c96f 213d
00000090: 9367 4a3f 59ac 473e 20a3 d5be 3976 04bf
000000a0: 26e3 4bbd 81ef 0ebf c1e9 123e 7831 563e
000000b0: 7e8a 3dbf 5eff 48bf 3a68 04bf 6c5a 053e
000000c0: 691d f6be 66de 853e d6ef 23bf 5568 25bf
000000d0: 026a a43d 797c 01bf 54da 433d 02dd 34be
000000e0: 372f 8bbe 27fe 533f 719b 113e 0b1f ce3c
000000f0: e77d 10be 5291 82bd 691d 423f 998e cdbf
00000100: 5514 963e ded5 b23d dd1f 863e 7c00 e23d
00000110: c20c 82bf 9d2d cdbe b7b0 0abf f7a5 aebe
00000120: 6e49 f63e 70e8 9d3b 0959 09be 373a b9be
00000130: 3ec5 52be 5c95 1ebf 6644 5dbe 44ed ad3d
00000140: 0c0f 98be 047c 863f 6f67 cabd 42cf 21bd
00000150: cd32 233e f764 653e 7510 083f 42cc 1ebe
00000160: 2c7f 48bf 8df8 bc3c 790e b2bd c9d8 af3c
00000170: 0b78 c2be 7181 d8be 9458 263c 0e4c febe
00000180: eb15 9f3d 856b 57be 06a2 503e 2157 97be
00000190: 3b2c 78bc 0244 5bbf b84e 283f 43f4 f2be
000001a0: 8474 aabd 9b4f 503e 63af 03bf 09e7 cb3e
000001b0: d018 a63d 7fc5 9ebe f284 863d 3a97 46be
000001c0: 9aa2 03be d702 373e 8397 ebbe 8b2b 4fbd
000001d0: 255e c2be e677 04bf 3110 27bf c88a 41bf
000001e0: cea8 443e 2507 483e 383e 213f 86eb 1c3e
000001f0: dbd2 4ebf cabb 0e3d cb61 6dbe 483d 0b3e
00000200: 455b 25bf a732 a83f 5c64 25be 63aa 15bf
00000210: 4607 fdbc 51ab 3f3a 295f 5cbc 0b10 3b3d
00000220: a692 17bd 7484 ef3b 5bdc 203e ad7d 0fbd
00000230: e70a d7be 7840 a33e 9f4c e1be 8795 043f
00000240: 522c 973d c61b 5ebe f3c2 93be 4ba5 88bc
00000250: ba98 9f3d 0ea1 9bbf c7e6 8dbf 8a33 c8bb
00000260: f468 52bf c27d 973e 2300 e5be efa9 363e
00000270: ae99 13bf 95f3 943d f003 95be e22e 0bbf
00000280: 24c1 5fbd 2fd4 63bf 1adf 9fbe 0eeb 193e
00000290: da14 02bf e81a 34bf 08e1 84be 63dc a43e
000002a0: 9928 1d3f 7899 223e 93ce 2ebf 8d97 893d
000002b0: b66f b7be a4f6 debd 0082 3ebd a6fb 25bd
000002c0: 8556 a1be 5668 b33b 321e 2cbe c155 8a3e
000002d0: d653 e13e 51b6 e93d fd3c 87bf de39 75bf
000002e0: 400e b13d 2684 a9bc c917 cbbb bb99 2f3e
000002f0: 40bf a6bd 5336 e03f f982 b33e 1a34 dabc
00000300: c609 223d 7ab3 683e abb8 f23d a976 563f
00000310: 398e 8e3e 14b6 903e 01b9 1fbe 531c 1d3e
00000320: 919f 14bf 8f0b 71bf 5673 8ebe 5f77 80be
00000330: 0589 05bf 421b 603e a70b 59bf 3f53 81bf
00000340: 63e4 b73d 888b f3bd c4cb fe3d 1b14 7b3d
00000350: bf85 8bbe 8317 143f 2979 9abe 1be4 343f
00000360: acdb 02bf 23ce ef3c cccc 9cbe 9b43 1bbf
00000370: a4a3 88bd 494d 37bf 9cbe 24bf aa1d 463e
00000380: cb27 acbe 69dd 67b9 ad1b a3bd a47d 103e
00000390: 9a24 493f aa30 10be 72cc 82be ece5 09bf
000003a0: f2d6 02be d798 53bf a3e2 503e 7afe 5dbd
000003b0: f03c 2bbd f4ac ffbe dfc2 3bbe 1953 8cbe
000003c0: d723 22bf e6bb 8ebe 7dc1 cbbe 45f6 36bf
000003d0: e1af 36be 8db3 23bf b901 c6be b5eb f33d
000003e0: d4cf acbe c491 23bd 36a0 cfbc 84c9 4bbf
000003f0: 3460 c63d eeb4 71bf 064e 713e dd4c 2d3f
-0.4926864 0.036662895 -0.4093459 -0.39063784 -0.16226038 0.63384074 -0.45111215 0.09691788
-0.32321197 -0.48709273 -0.049004737 -0.6715901 0.27572948 0.18254153 -0.7743994 -0.5509257
-0.34672552 -0.5676173 -0.2686582 -0.27988183 0.30707255 0.10370676 -0.19536203 -0.2158194
0.16940619 -0.083124675 -0.17614259 -0.37902448 -0.06642355 -0.10205834 0.012595059 -0.31227437
-0.09921271 1.0181539 0.086020455 0.039413247 0.7906429 0.19499339 -0.41726017 -0.51742893
-0.049777173 -0.55834204 0.14346983 0.20917308 -0.7403945 -0.7851466 -0.5172154 0.13022774
-0.48069313 0.2614624 -0.64037836 -0.64612323 0.08028032 -0.50580555 0.047815636 -0.17662433
-0.2718446 0.8280968 0.14219452 0.025161287 -0.14110528 -0.06375374 0.75826126 -1.6059142
0.29312387 0.08732198 0.26196185 0.11035249 -1.0160143 -0.40073863 -0.54175895 -0.34110996
0.48102897 0.0048189685 -0.1341287 -0.36177227 -0.20583054 -0.61946654 -0.21608123 0.084925205
-0.2969898 1.0506597 -0.0988301 -0.039504297 0.15937348 0.22401796 0.5315011 -0.15507606
-0.7831905 0.023067737 -0.08694167 0.021465676 -0.3798221 -0.42286256 0.010152955 -0.496674
0.077678524 -0.21037109 0.20374307 -0.29558662 -0.015147264 -0.85650647 0.65745115 -0.47451982
-0.08323005 0.20342867 -0.51439494 0.39824703 0.08110201 -0.31010053 0.06568326 -0.19393626
-0.12854996 0.17872177 -0.46014032 -0.050578635 -0.37962452 -0.5174545 -0.6525908 -0.7560239
0.19205019 0.19533975 0.62985563 0.1532422 -0.8079049 0.03484706 -0.23181836 0.13597596
-0.6459239 1.3140458 -0.16151565 -0.58463115 -0.030887257 0.00073116 -0.013450422 0.045669597
-0.03700509 0.007309491 0.15709059 -0.035031963 -0.42000505 0.31885123 -0.4400377 0.5179066
0.073815 -0.21690282 -0.28859672 -0.01668038 0.07792802 -1.2158525 -1.1086053 -0.0061096596
-0.82191396 0.29588133 -0.44726667 0.17838262 -0.5765637 0.07273022 -0.29104567 -0.5436841
-0.054627553 -0.8899564 -0.312249 0.15031072 -0.50813067 -0.70353556 -0.25952935 0.32199392
0.6139007 0.15878856 -0.6828396 0.06718359 -0.35827416 -0.10886887 -0.046510696 -0.040523194
-0.31511322 0.0054750843 -0.16808394 0.2701855 0.44009274 0.11411727 -1.0565487 -0.95791423
0.08645296 -0.020692896 -0.006197904 0.17148487 -0.08141947 1.7516578 0.35060862 -0.026636172
0.039560102 0.22724715 0.11851629 0.8377481 0.27842882 0.28263915 -0.15597917 0.15342836
-0.5805598 -0.9415826 -0.2782237 -0.25091073 -0.521622 0.21885398 -0.84783405 -1.010353
0.08979108 -0.11891848 0.12441209 0.06129847 -0.27250478 0.57848376 -0.30170563 0.7066056
-0.5111644 0.029273098 -0.30624998 -0.6065003 -0.06671837 -0.716023 -0.64353347 0.19347253
-0.3362411 -0.00022112358 -0.07964263 0.14110428 0.78571475 -0.14081064 -0.25546604 -0.5386646
-0.12777308 -0.8265509 0.20398955 -0.054197766 -0.04180616 -0.4993664 -0.18336056 -0.27407148
-0.6333594 -0.2787773 -0.39796057 -0.7146953 -0.1784053 -0.6394585 -0.3867319 0.11910192
-0.3375231 -0.039933935 -0.02534495 -0.79604363 0.09686318 -0.944167 0.2356492 0.6769541

net.network.0.weight_1 f4 [128, 6]
00000000: 761d 8cbf 4deb ccbd 7c79 f3bd 4405 60be
00000010: 8513 c93c 8d4f bf3e 7565 01bf 723e e93d
00000020: 9b25 ccbe fbe0 d6be 011c 21bd d1d7 7abf
00000030: 9f5b 7a3e 122c 5b3c 39f6 60bf 5595 c53d
00000040: 9f52 e2be 6a01 f5be 2fe9 4cbd 240f 473b
00000050: c053 9fbe cb45 7cbf 0c51 d2bd 70bc 15bf
00000060: e0c0 65be 2b04 df3d b26f 15bf 6043 8fbf
00000070: 607c fdbe 32a4 9abe d76e 113e 2462 46be
00000080: c938 babd 12be 593f cb6d 87be 02e1 073e
00000090: 7e05 643f 37f5 ee3d a4a0 0dbf 0299 e9be
000000a0: 9563 a03c c2fc ddbe dca0 99bd 0330 8d3e
000000b0: 67f5 4ebf 2321 70bf 8c93 6b3e 3d3c aebc
000000c0: b642 87bf 92ea 9c3d 3b4a c2bd b18f 09bf
000000d0: 0e36 0ebe e54c 44be b66d 72bf bff0 48bd
000000e0: 22c0 b9be 919a 353e 995c cf3e 3e1b 00be
000000f0: 3af9 a03d cf34 61bd 7815 5f3f 668d 05bf
00000100: ebf5 803e 44bf 48be 4143 acbd 98db 0e3e
00000110: 1fd9 39bf d7a1 06bf 24f3 12be 7cf4 acbe
00000120: 33a5 123f 8e1e 14be aa9d a6be 558a 59bf
00000130: fb4c 45be 65be 42bf bde9 e43d 5bd3 413e
00000140: dbd1 0a3c 322c b83f 46c2 1ebd ffa7 8d3d
00000150: 9bb0 9f3d ce1f 7c3e 17e3 0f3f 5cf3 43bf
00000160: bde9 32be a11b 8e3e cbee f9be 7b94 2b3d
00000170: 70ac 8fbe d0c0 a4be 474b 6ebd e676 81bf
00000180: 56c9 343d b61f 75bd a5d5 83be d08a 81be
00000190: 2294 233d 56c1 99bf 9a0f d83e 92b7 39bf
000001a0: b3aa 123e e57c d23e 1718 11be 4f48 26be
000001b0: 78c0 febe 01f9 093d 96ad 94bd de71 033e
000001c0: 5700 a0bd 096a d7be debc 2dbf 3470 9d3e
000001d0: 8335 85be d742 6b3e 54ab 803d cca0 83be
000001e0: 6fcd e13e d1b3 b63e 5e75 923e d28b db3e
000001f0: 77f1 d1be d625 36be 5651 1bbf 45f9 9abd
00000200: be3f 44bf 8639 8b3f 366d b8be 71c0 54bf
00000210: 1d95 44be 040f 65bd 1a84 48be 507b aabe
00000220: 27b8 63bd 122c 03be 6bc0 853e 54ec a8b9
00000230: 991c 56be d4c3 d4bd 423f 8fbc 3279 323d
00000240: 67e3 013e aafa 86bc f122 93bc 2e25 48be
00000250: 7848 9b3c 9462 40bf 4f0b 56bf 114e 6a3d
00000260: 369d 66bf 546b c63e f295 0b3e 88a6 753d
00000270: 92ac 6ebd 4832 78bd f936 ddbd 4ee6 7bbc
00000280: 6ab3 553d da91 a4bf c5bd 2ebe 6d55 cb3e
00000290: f4a4 c9be 7413 1bbf efaf a0be 1e0b e5bc
000002a0: e71d e73e aa74 053d a08b fabe d97a 243e
000002b0: fcfb 0fbe 0c1f 453d 890d f4bb c7b4 5ebe
000002c0: e51f 13bf 9db6 f4be 20a4 0cbf c15e d73e
000002d0: a71f 3bbd 26ac eb3d 3add 03bf d63d 29bf
000002e0: 56ef 36be b2ab da3d dce7 2f3b ae2a 8739
000002f0: b660 dd3b 9942 9f3f e81e 053e e592 29be
00000300: d989 153d 4cd3 db3d 8814 98be 839d 843f
00000310: 1016 bbbe cd69 1d3e 03bc bdbd 11dd 083e
00000320: c22d 5c3d 459b 8a3e adaa 0bbe d323 aa3c
00000330: 6d87 2bbf 3fb8 973e e52d 52bf 0dd0 f7be
00000340: 1200 f03d 23a7 6cbd 7c2b 1a3e 36d5 76bc
00000350: c7b8 a3be de80 8e3e 1214 01bf a737 2f3f
00000360: 6363 12be d255 e23c 4f7f 3fbe 798d 36be
00000370: 6a7d 3dbe dd15 c13b b8b5 2dbf 66c8 39bc
00000380: 828f d8bd 25d5 07bf a36a 99be 6c5e 7cbe
00000390: 773d d83e 510c 14be 4779 bcbe e0c0 45bf
000003a0: 7829 d7be f662 52bf f0b1 90bc 6926 0dbf
000003b0: d369 b4be 5ca9 74be 3d38 95be 03e0 e0be
000003c0: e5ba 8ebe bf09 c6be 36f5 213d e051 edbe
000003d0: 0424 e9be 5e03 88be 87b3 123e 2a3c 593e
000003e0: f8a5 23bf 7fcf 89be e88b f2bd 934f f4be
000003f0: f3b4 55bd 3d19 4ebf 7f74 cf3e 35cc 833e
-1.0946491 -0.100058176 -0.11888406 -0.21877009 0.02454544 0.3736538 -0.50545436 0.113888636
-0.3987244 -0.4196852 -0.039333347 -0.9798556 0.24449013 0.013377206 -0.87875706 0.096476234
-0.4420366 -0.4785264 -0.05002707 0.0030374015 -0.31118584 -0.98543996 -0.10269365 -0.5849066
-0.22436857 0.10889467 -0.5837356 -1.1192436 -0.49508953 -0.30203396 0.14202438 -0.19373375
-0.09092862 0.8505565 -0.26450953 0.13269427 0.8907088 0.11667865 -0.55323243 -0.45624548
0.019578734 -0.433569 -0.075013846 0.27575693 -0.80843204 -0.9380056 0.23005503 -0.021268958
-1.0567234 0.07661928 -0.094868146 -0.5373488 -0.13887808 -0.19169958 -0.94698656 -0.04905772
-0.36279398 0.17734744 0.40500334 -0.12510392 0.07860036 -0.054982003 0.87142134 -0.5216888
0.2518762 -0.19604212 -0.08411265 0.13950956 -0.72596925 -0.525907 -0.14350563 -0.33780277
0.57283324 -0.1446478 -0.32542163 -0.849767 -0.19267647 -0.7607177 0.111773945 0.18928282
0.008472885 1.4388487 -0.038759492 0.06916808 0.07797357 0.24621508 0.56205887 -0.7654321
-0.17471977 0.27755454 -0.48814997 0.04188965 -0.28061247 -0.32178354 -0.05817726 -1.011441
0.04413732 -0.059844695 -0.25748935 -0.25301218 0.039936192 -1.2012126 0.42199403 -0.7254573
0.14322929 0.41110912 -0.14169346 -0.16238521 -0.49756217 0.033684734 -0.072596714 0.12836406
-0.07812565 -0.42073086 -0.67866313 0.30749667 -0.2601739 0.22974716 0.06282678 -0.25708616
0.44102046 0.35684064 0.2860517 0.42880112 -0.41004536 -0.17787871 -0.60670984 -0.07567076
-0.7665976 1.087693 -0.3602082 -0.8310614 -0.19197507 -0.055922523 -0.19581643 -0.33297205
-0.055595543 -0.1280978 0.26123366 -0.00032219535 -0.20909347 -0.10388914 -0.017486218 0.043572612
0.12684403 -0.016476948 -0.017960997 -0.19545433 0.018955454 -0.7515042 -0.83611006 0.057203356
-0.90083635 0.3875376 0.13631418 0.05997327 -0.058270045 -0.060594827 -0.10801501 -0.015374733
0.052173056 -1.285701 -0.17064579 0.39713612 -0.39383662 -0.6057656 -0.31384227 -0.027959403
0.4514 0.032581963 -0.4893465 0.16062488 -0.14060968 0.04812531 -0.0074479026 -0.21748649
-0.5747054 -0.47795573 -0.54937935 0.4206448 -0.045684483 0.11507444 -0.5150944 -0.6610998
-0.17864737 0.106772795 0.002684108 0.00025781005 0.0067559136 1.2442199 0.13000071 -0.16559942
0.036508415 0.10733661 -0.29703164 1.0360569 -0.3654027 0.15372391 -0.09264376 0.1336558
0.053754576 0.27071586 -0.13639326 0.020769035 -0.6700352 0.29632756 -0.8210128 -0.48400918
0.117187634 -0.05777658 0.1505565 -0.015065482 -0.3197691 0.27832693 -0.5042125 0.68444294
-0.14295726 0.027628813 -0.18700908 -0.17827405 -0.18504873 0.005892499 -0.67855406 -0.011339283
-0.10574247 -0.5305961 -0.2996417 -0.24645394 0.42234394 -0.14457823 -0.36811277 -0.7724743
-0.42023826 -0.8218225 -0.017662972 -0.55136734 -0.35236987 -0.2389273 -0.2914447 -0.43920907
-0.27876964 -0.3867931 0.039540492 -0.46351528 -0.4553529 -0.2656507 0.14326297 0.21214357
-0.63925123 -0.2691612 -0.11843091 -0.4771696 -0.05217452 -0.8050726 0.40518567 0.25741735

net.network.0.bias_0 f4 [128]
00000000: 5ddb 46bd 747c 113f 2739 40be c6ec 6ebf
00000010: 37d5 cabe 71b1 f23d 07fc 38bf 9bda 9cbd
00000020: c55c b8be b516 4fbf f8cf 1ebf c7e6 fdbe
00000030: fee7 aabe 1292 b0be 3f21 42be 7b3e 183f
00000040: bde6 923e 5282 36bf c27b 06bf f068 ab3e
00000050: 4417 9a3e 86f1 09bf 33b1 81be bd13 f0be
00000060: 4058 583f a06d 87bd 34cb 2e3f 8a6b e3be
00000070: 6628 39bf 21d9 d73d 29ea 8bbd dca3 13bf
00000080: 9e46 7bbf 1b1e 403d ee71 71bd 7435 00bf
00000090: bb02 a53e 8cef d7be 9b98 21bf 2a45 f3be
000000a0: 1bd7 403e ce9f fe3e e33e d7be 05fa fdbe
000000b0: 99ef 1cbf c825 3dbf 4245 6bbe 7583 0ebf
000000c0: 4422 0fbf d207 d4be b2c5 2bbf 4424 e93d
000000d0: 991e 16bf 743c 79be 06c6 283f 96ca ebbe
000000e0: ec4c f2be a23c dc3c ff48 f6be 0d88 02bf
000000f0: 895f c7be ed87 19bf dc76 27bf 181e a83b
00000100: f319 65be 9601 dfbc a08c 74bf 31c1 89be
00000110: 2a66 1fbf 465c 2bbe 2a00 edbe fc37 9abe
00000120: 1010 fcbe ca73 0dbf 4f9e 22bf fbed 6cbe
00000130: e570 813d 20d2 0abf 3e7c 5fbe c8b7 63bf
00000140: 508a f6bd c079 15bf 6eb7 48bf bc2d 393e
00000150: 4e76 cbbd f8fa 333f a4f1 cc3e 80f4 993e
00000160: c691 00bf c061 58bf 9a65 18bf 130a 9abf
00000170: b7cf 4abf b2ef cc3e 8d5a 9cbd e4de 05bf
00000180: 46aa fbbe c31c 043f 02fa 15bf 4e00 24bf
00000190: 5b55 24be b62a 57be 62a5 ddbe 559d 61be
000001a0: 8352 063f d4d7 453e 6def 333f 6f8a 2b3e
000001b0: c627 743d 363a 27bf d7c7 e4be 5056 a4bd
000001c0: 0198 65be d8b0 bebe 00ab 7bbf ded7 f1be
000001d0: e44e b2be d495 27bf b31f 13be 7ac4 263f
000001e0: e9ac 9dbf 86bd 0d3d 9788 f1be d9b1 14bf
000001f0: ba9a 8fbe 3c43 64bf e5d7 88be 7acc 163e
-0.048549045 0.56830525 -0.18771802 -0.9333004 -0.39615795 0.118502505 -0.72259563 -0.07658883
-0.36008278 -0.80894023 -0.62036085 -0.49590132 -0.3338012 -0.34486443 -0.18957995 0.5947034
0.28691664 -0.71292603 -0.5253259 0.33478498 0.30095875 -0.5388416 -0.25330505 -0.4689006
0.8450966 -0.06612706 0.68278813 -0.44417983 -0.7232727 0.10539461 -0.06831772 -0.57671905
-0.9815463 0.04690371 -0.058946542 -0.50081563 0.32228646 -0.42174947 -0.6312348 -0.47513705
0.18832056 0.49731296 -0.42040166 -0.49604812 -0.61303097 -0.73885775 -0.22975639 -0.5566934
-0.5591166 -0.41412216 -0.67098534 0.1138387 -0.5864044 -0.24339467 0.6592716 -0.46052998
-0.47324312 0.02688438 -0.48102567 -0.50988847 -0.38940075 -0.5997303 -0.6541574 0.0051305406
-0.2237318 -0.027222436 -0.95527077 -0.26905206 -0.62265265 -0.16734418 -0.46289188 -0.30120838
-0.49231005 -0.55254805 -0.6352281 -0.23137657 0.06320361 -0.54226875 -0.21824738 -0.889523
-0.120381 -0.583889 -0.7840489 0.18083853 -0.09934674 0.7030482 0.40028107 0.3006935
-0.5022243 -0.84524155 -0.5953003 -1.2034324 -0.792232 0.40026623 -0.07634459 -0.5229323
-0.49153346 0.51606387 -0.58584607 -0.64062965 -0.16048186 -0.21012387 -0.4329024 -0.22032674
0.5246965 0.19320613 0.7028721 0.16752027 0.059608243 -0.653232 -0.44683716 -0.08024275
-0.22421266 -0.37244296 -0.983078 -0.47235006 -0.34825814 -0.65462995 -0.14367561 0.6514355
-1.2318393 0.03460457 -0.47174522 -0.58083874 -0.28047734 -0.8916509 -0.26727214 0.14726439

net.network.0.bias_1 f4 [128]
00000000: 4267 c6be 9e1c 483f 8d0a b0be c604 1fbe
00000010: f5a8 6abe 41b0 3abd fec5 59bf b5b9 82bd
00000020: 92e9 d2bd 6d5a 6dbe e725 02bf 8fb8 bbbc
00000030: 0ca7 fbbe 04b4 12bf 4e9d afbe 5c58 313f
00000040: 04e0 613f ca13 32bf 559d 47be 7746 403f
00000050: e949 d0be 9fb9 0dbf b6a7 85be 3335 0cbf
00000060: 50c3 d83e 67af 023e a006 5b3f 84a4 3abe
00000070: 2f76 e9be db43 0bbd cc98 07bc e333 b8be
00000080: f1cd 0fbf 49fd f2be 948e 0e3e f79e 13bf
00000090: 86a4 c2be 4407 b6bd bbc1 9dbe 2c21 8bbe
000000a0: 4233 e8be 46d3 00bb 2a61 a7be a59c 3bbf
000000b0: 445a a3be f5bf 86be f6b1 b63d 1548 f5be
000000c0: c459 56bf 6de1 15bf 7057 15bf a8dd 813e
000000d0: ada5 64bf b543 51bf 4a53 093f 2c14 9dbe
000000e0: 162b 35bf f757 2bbe af5d 4cbe 18bd 18bf
000000f0: b14c e6be e5f3 aebe 6410 2abf a89f cbbe
00000100: af8a 32be 9bdc 6e3e 02de 88be 4fb8 20be
00000110: 7321 74bf 572a 81be f0c6 2abf 97b8 40bd
00000120: 8f32 e4bd 33ac cfbe 55fd c0be 45f2 ddbc
00000130: 8bbe 703d 370c a8be 9547 8ebd 5d6e 7bbe
00000140: da65 b8be e8b4 00bf bd5b 6ebe 0660 8f3e
00000150: c67e a6be 8273 1d3f 7749 353d 297a 3a3f
00000160: e037 20be c5e0 7cbe 5c34 77be 3e88 41bf
00000170: 075d 35bf cb56 c53d 64ed 0bbf 9002 1ebf
00000180: 508f b1be 0c4d 1b3f 2cd0 09bf 6803 1fbf
00000190: efc6 953d 0e35 04bf 5e9e e33b 3954 31bf
000001a0: b3d3 b23e 2e05 863e 66b1 853d 4271 143e
000001b0: 9480 eb3e 3462 99be b7f8 02bf 447d de3e
000001c0: ade6 84be a556 efbe 8a53 f8be 3245 d7be
000001d0: 47f4 14bf a00c c8be ab58 b63e fe0a 2d3f
000001e0: d69e 6cbf e76e a4be ef2b 85bd ee25 90be
000001f0: 62c5 3ebf 080b 5ebe 1d45 b4be f00b 003e
-0.38750654 0.78168666 -0.3438305 -0.15529165 -0.22916014 -0.045578245 -0.8506774 -0.06383077
-0.10298456 -0.23179026 -0.50839084 -0.022915153 -0.49150884 -0.5730593 -0.342997 0.6927545
0.88232446 -0.69561446 -0.19493611 0.7510752 -0.4068139 -0.5536136 -0.26104516 -0.54768676
0.42336512 0.12762223 0.85556984 -0.1822682 -0.4559798 -0.03400026 -0.008276176 -0.35977086
-0.56173617 -0.47458866 0.13921577 -0.57664436 -0.38016146 -0.088881046 -0.30811867 -0.27173746
-0.45351607 -0.0019657179 -0.32691318 -0.73285896 -0.31904805 -0.26318327 0.08920662 -0.47906557
-0.8373072 -0.585471 -0.58336544 0.25364423 -0.893153 -0.8174394 0.53642714 -0.30679452
-0.7076887 -0.16732775 -0.19957612 -0.59663534 -0.44980386 -0.34170452 -0.6643126 -0.39770246
-0.17435716 0.23326342 -0.2673188 -0.15695308 -0.9536354 -0.25227615 -0.66709805 -0.04705104
-0.11142456 -0.40561065 -0.37693277 -0.027093062 0.058775466 -0.3282182 -0.06947247 -0.24553819
-0.36015207 -0.5027604 -0.23277183 0.28002948 -0.32518595 0.61504376 0.044259515 0.7284265
-0.15646315 -0.24695118 -0.24141067 -0.75598514 -0.70845073 0.09635695 -0.54659104 -0.6172266
-0.3467965 0.6066444 -0.5383327 -0.6211457 0.07313334 -0.51643455 0.006946369 -0.6926914
0.3492714 0.26175827 0.06527977 0.1449633 0.45996535 -0.29957736 -0.5116076 0.43454945
-0.25957242 -0.46745792 -0.48501235 -0.4204498 -0.5818524 -0.39072132 0.35614523 0.675949
-0.92429864 -0.32115862 -0.0650252 -0.28153938 -0.7451993 -0.21683896 -0.3520898 0.12504554

net.network.2.weight_0 f4 [64, 128]
00000000: cd96 0abf 672e ae3e e31b a0bc ce22 afbd
00000010: b2b3 4c3d a18d 9bbe 9482 3e3f 49ce 92be
00000020: d261 023e 01b4 bfbe 5087 1ebf a170 4d3d
00000030: ffe0 ca3e 8b24 a1bd 4cf4 87be 545b 443e
00000040: 7f49 3e3e a860 a2be 6448 c83d f722 363e
00000050: 6849 18be 74d5 23bf 9146 e3bc 0b5d bcbe
00000060: bbe6 b73e 3cdc 21bd dfdb 1b3f c931 53be
00000070: 8e56 dfbd b133 98be 0487 15be 95da fdbd
00000080: c039 d33d 0f0f 9f3e 1756 023f 9c4d 8cbe
00000090: 66c5 9c3d e0ff 6d3d 838e 5c3f 4c3e 223e
000000a0: 7c5a 703e bd05 273e 6f0e c6be 2519 3ebf
000000b0: d75a ebbe 84d8 393d 82ca b13e 5a68 9ebe
000000c0: 9cae 563d d736 adbd 495f 9cbe 3a8c 293e
000000d0: ee74 9fbe 51b7 1f3d 53ea 703e fafd d2be
000000e0: 7df2 00bf a0c8 1e3e 189b 80bd c644 1fbd
000000f0: b45e fe3e 3403 66bf 5e85 dbbe 02c9 813e
00000100: 66ba fbbd dd38 763e c3d2 1bbe b37a 32be
00000110: 9064 08bf 65e5 273d f448 0abf c1f3 6f3d
00000120: 0701 b5be 4631 76bf 6301 c7be 34ae 703e
00000130: f350 083d b93e 3fbf d131 943d b63c c13d
00000140: 6272 4e3d 0bfa 12bf 2778 9bbe 71b3 993e
00000150: 545b fbbd d985 413e 7cb6 ffbb 8f1a 1f3e
00000160: e94d 57be fc5b ec3e 016e 7cbe fd40 34be
00000170: f6b3 293e c404 d2bd f478 a33d 7c17 c1be
00000180: b336 9d3e 0144 e73d 175c 78be ebe2 953e
00000190: 0c0c c8bd c71e 983e e220 b83c 2342 75be
000001a0: 6a1f b93d 7e34 c9bc 98e7 96bd 756b 00bd
000001b0: ffa8 12bf 63bb 1cbf 709e 0bbf bcd6 73bd
000001c0: a7d9 b3be a26a 5bbc 602d f23e 63fd f2be
000001d0: 7c7d bdbe 66f0 21be e4aa 2d3e 6415 233e
000001e0: 2683 1abf 4e15 18be 8ea7 0bbe 1b42 b1be
000001f0: 9813 c1bd 7329 3e3d c2f7 333d f450 c0be
00000200: 95ba 1ebc 7867 c53e 42a8 aa3e 52c5 4b3d
00000210: 1e22 2c3d f840 99bc 80bb 063f 5957 003e
00000220: bb39 c13e d09f 04be dee5 e9be 0a84 ab3e
00000230: f5d0 f93d bd75 a4be 6a76 1fbf 966e 3a3d
00000240: 139b 103e f81a 763e 67c1 b53d de66 783e
00000250: df5c bcbe 8224 03bf 8caa 3f3d 9fa0 e53c
00000260: 6ca8 2d3e 5322 f23e 6e7a de3e 138c 713e
00000270: bc0e ce3e fbb6 263d cd59 6f3e 8ce9 c7be
00000280: 0f42 79bc 6a9c 863e 705b 3e3e 3824 343e
00000290: d884 8b3e a862 823e 8d8a 2a3f cd19 fa3e
000002a0: bde9 423e 24ef a53e ea4b 3e3e 3634 11bf
000002b0: ea7c ed3e 1107 263f e15b de3e feeb b2be
000002c0: 9926 8a3e 706b e2be 3bed 81bd 568c a0bc
000002d0: 071c 3abe f1fa a73d e182 b23d 9fed d9be
000002e0: e283 54bf a3aa fa3d 6151 82bd 623d 033e
000002f0: 6d8d d63e 845e a1bf 6cbe 8c3e aa05 2e3e
00000300: db8d fabe 5544 31be 6a9d 74be c5bc 68bd
00000310: 3a90 45be 86e0 923e 13ea 86bf 4039 a13e
00000320: d1c3 81be a6bc 94bf 38d2 f1bd 9a6e f53d
00000330: f706 743e 3140 6cbf ce28 ac3d 8400 57bd
00000340: 2542 ff3e 0c67 473e c6d7 ebbd f8b9 043d
00000350: 3947 e2bd 99c2 8e3e ad88 963e 5390 8ebc
00000360: 27d8 123d d730 913e 09c5 febd 6ce3 b7be
00000370: bb5c 223e 5b2e 623d c088 ab3e 4bf8 5a3e
00000380: 97e9 663e fa9d 6d3d b267 a93c e297 2abe
00000390: 5476 25bf 381e 803e 6187 d63d 102c 11bf
000003a0: e40e 383d f373 b33e 3585 f63c 4219 3dbd
000003b0: bcbf 47be 56f7 09bf 3ae9 d7be b090 403e
000003c0: eeba 0fbf d244 a03b cfb5 243e 3ef5 3abe
000003d0: 62a0 25be 3479 c3be 9c66 a03e 79fd ca3e
000003e0: ecc9 fdbe df2c 93be ad06 c83e 1afb 82be
000003f0: 948c cdbc 572b 723d a6fa a93d e764 7c3c
-0.54136354 0.34019777 -0.019544547 -0.0855156 0.04997606 -0.30381492 0.74417996 -0.28673008
0.12732628 -0.3744202 -0.6192522 0.05015624 0.39624783 -0.07868298 -0.2655357 0.19175464
0.18582724 -0.31714368 0.097794324 0.17786776 -0.14871752 -0.6399758 -0.02774361 -0.36789736
0.3591822 -0.039516672 0.6088237 -0.2062446 -0.10905181 -0.29726937 -0.14602286 -0.12395207
0.10313749 0.31066176 0.5091261 -0.2740296 0.07654838 0.05810535 0.86154956 0.15844077
0.23472017 0.16310783 -0.38682887 -0.7425712 -0.45967743 0.0453725 0.34724814 -0.3093899
0.052412614 -0.084577255 -0.30541447 0.16557398 -0.31143898 0.038993184 0.23526888 -0.41209394
-0.5037001 0.1550622 -0.06279582 -0.038883947 0.49681628 -0.8984864 -0.4287519 0.2534867
-0.12291412 0.24045129 -0.15217118 -0.17429619 -0.53278446 0.040990252 -0.5401757 0.05858207
-0.35352346 -0.96168935 -0.38868245 0.23503953 0.033280324 -0.7470508 0.07236064 0.09435408
0.050402053 -0.57412785 -0.30365106 0.30019715 -0.12273279 0.18898715 -0.0078037363 0.15537475
-0.21025814 0.46163929 -0.24651338 -0.17602916 0.16572556 -0.10254815 0.07982054 -0.3771323
0.30705795 0.112922676 -0.2425388 0.29274687 -0.09767923 0.2971098 0.022476617 -0.2395101
0.09039195 -0.024561163 -0.07368392 -0.03135248 -0.5728912 -0.6122343 -0.5453863 -0.05953096
-0.35126993 -0.013392122 0.47300243 -0.47458944 -0.370098 -0.15814361 0.16959721 0.15926129
-0.60356367 -0.14851877 -0.13638136 -0.34620747 -0.09427565 0.046426248 0.043937452 -0.37561762
-0.009688039 0.38555503 0.33331496 0.049748726 0.042024724 -0.018707737 0.5262985 0.1253332
0.37739357 -0.12951589 -0.45683187 0.33499175 0.121980585 -0.32121077 -0.6229006 0.04551562
0.14121656 0.24033725 0.08874779 0.2425799 -0.36789605 -0.5122758 0.046793506 0.028030692
0.16958779 0.47291812 0.4345278 0.2358859 0.40245616 0.040701848 0.233741 -0.3904537
-0.0152135035 0.2629121 0.18589568 0.17591941 0.2724979 0.25465894 0.6661766 0.4884781
0.19034477 0.32409012 0.18583646 -0.5672029 0.46384364 0.6485453 0.43429473 -0.34945673
0.26982573 -0.44222593 -0.06344076 -0.019598167 -0.18174754 0.0820216 0.087163694 -0.42564103
-0.8301374 0.122395776 -0.06363178 0.12816384 0.41904774 -1.2606969 0.2748903 0.16994348
-0.48936352 -0.17311223 -0.23888174 -0.05682065 -0.192933 0.28686923 -1.0540184 0.3148899
-0.2534471 -1.1620071 -0.11807674 0.11983986 0.23830782 -0.9228545 0.084062204 -0.052490726
0.49855152 0.19472903 -0.11515765 0.032403916 -0.11048741 0.2788284 0.2940115 -0.017402804
0.03585067 0.28357574 -0.12439925 -0.35915697 0.15855686 0.05521999 0.3350277 0.21383779
0.22550045 0.058011986 0.020679329 -0.16659501 -0.6463368 0.25023055 0.1047504 -0.5670786
0.044936076 0.350494 0.030092815 -0.046166666 -0.19506735 -0.5389303 -0.42170125 0.18805194
-0.5614461 0.0048910165 0.1608498 -0.18257615 -0.16174462 -0.38178408 0.31328285 0.3964651
-0.49568117 -0.2874517 0.39067593 -0.255822 -0.025091447 0.059123363 0.082997605 0.015404916

net.network.2.weight_1 f4 [64, 128]
00000000: 5811 4c3d a1bc 8d3e 9f2e 4f3e 1ccc 403e
00000010: 331f 5f3e 653b 88be 0783 683f afa9 cebd
00000020: ac4d 993e f05e b9be 5c35 dfbe e1b8 113e
00000030: 1cdc c53e 3ed0 acbe 0315 e1be 2196 bd3e
00000040: 7f5e ac3e 498f 29bf d197 883e 5866 4a3e
00000050: d6c5 76bd ea97 15bf b7f9 643d 265c 59be
00000060: 7461 a23e a95c 81be ad9e 8f3e 0319 c5be
00000070: 433b 39be 93ea 01bf b8e2 bbbe d2f6 afbd
00000080: 5190 91bc 24c2 1f3e 1165 bc3e 6cff 98be
00000090: 9113 1fbc a088 0b3e 2a3d 063f 53cb ecbd
000000a0: 97de 6f3e 2b27 df3e 24dd 47be 1b47 29bf
000000b0: ce68 db3d 830b ef3d b42c c13d c2a8 c5bd
000000c0: 0505 733e 4e8c f6be 9d1e c9be 10c0 1e3e
000000d0: 06aa 05bf 74c0 003e 0c55 853e 0427 c8be
000000e0: 1b98 02bf 4eba 6a3e e550 163d b73f 93be
000000f0: 2858 d83e 00ad 39bf 190a 8abe c0e1 a2be
00000100: f39b 78bc 9cfc 1dbd e189 4a3e ceba 9abd
00000110: 04bf 0abf 3c25 073e c189 45bf 2ce8 a3bc
00000120: 865b 7abe dc46 54bf ce26 813c af73 653d
00000130: 8bf0 ca3d 4dfc 12bf 05b4 003e 646d cabd
00000140: 3679 6a3e 6172 9cbe 3c90 ab3d fecf 093e
00000150: 8e7f a6be 3593 833e 121f b13e 1dc5 883e
00000160: 6bb2 1ebf 8611 65bd d5f2 71be ed9a 02bd
00000170: 8a3f 503e 82f4 adbd 8ce9 afbd 3379 82be
00000180: e417 ef3e 0c33 f63d 4a4b 12bf 0699 253e
00000190: 5ea3 05be fde5 d63e ec0e 30be e57f 9fbe
000001a0: d69c 213e 8182 463e 85eb 8dbd 6cb5 8b3d
000001b0: 2a68 c3be 09fc 7cbe c4e6 cdbe a7b6 9fbd
000001c0: 7367 e9be df28 293e f221 bc3e 2904 9abe
000001d0: d119 a1be 93f2 aabe 4e59 573e d9fa 7e3d
000001e0: 488e 03be 21b6 7dbd 336e 25bd b6f0 9cbe
000001f0: e5d8 9abd 7a04 4d3d 9012 613d eb7b 84be
00000200: c818 af3e e001 d63e a5e1 333e 87d2 963d
00000210: 5498 863d 3ee6 683e 73b2 8a3e 95d4 af3e
00000220: fbbc 5a3e 4725 203e 6bf4 d5be d096 c83c
00000230: 73a9 1c3e a98e 31bf 47fa cebe 8843 493e
00000240: 2244 343d adc3 f13e 3315 83bb 3272 31bd
00000250: 815b 14bf 023a 24bf 207d 963d a1ba aa3d
00000260: 103f 733c f95f 8b3e 690e 773e 26f4 1c3e
00000270: de48 813e 6ac0 ee3d 5d81 0b3e 47af 93be
00000280: 5ca8 0dbe 52ac babd 7e96 9e3e ee31 cb3e
00000290: e901 61be 163c ac3d b3c2 8b3e 0f67 b83e
000002a0: 3d19 86bc e76a 523e cfdf 103e 2ae7 5fbe
000002b0: 2bdc b93e 2489 393f 2418 573e f82c a2be
000002c0: 48c2 223e fcfe f5be 31b2 023e 2866 52be
000002d0: 2ee9 03bf ca66 1abc 8d05 a83d fe83 eebe
000002e0: 1f5b efbe 734e 943d 252b 1dbc a192 50be
000002f0: 606b 1c3f aafa 1dbf d6bb efbd 9ffa 633e
00000300: e473 a1be 8038 a23b 94a5 663d 20f4 633e
00000310: 7efb 12bf 5581 ea3e 561e 80bf 6bee d13e
00000320: 0364 11be da28 5bbf 0e0d 2ebd 7c14 543c
00000330: d7e5 613e ce76 d3be 29c1 ed3d af84 213d
00000340: 85bb ef3e a66e f0bd 8ccf 583d 2f58 83bc
00000350: fd96 2a3e f9fb 0f3d 8d96 1e3e fb3b 7bbd
00000360: cdc7 bf3c 49a8 86be 0d8e 87be fa3d bbbe
00000370: 950d a83e 40a0 1b3e 3e1e 913d 1cf5 473e
00000380: 6ba3 9b3e 1215 8e3e eb87 cd3e c277 053d
00000390: 6136 cdbe 11c6 493e 8cae b03d ba4b cbbe
000003a0: 56a1 febc 1271 dd3e 6c0a 053d dd95 36be
000003b0: 0382 f83d 3e56 0a3c 55ed 7ebe 5dc6 75bd
000003c0: ee12 f1be 2103 02be c47c b2bd 91c8 edbd
000003d0: 0037 6dbe 84c3 a8be 84a9 b63e 0d5d 743e
000003e0: 821f 83be b076 d9be 87bb 423e e5c9 9abe
000003f0: 8ea0 41be 360d 063d 79e6 ccbc f63a 503e
0.049821228 0.27682975 0.20232628 0.18827862 0.21789245 -0.26607814 0.9082493 -0.10090958
0.2994207 -0.36205244 -0.43595397 0.14230682 0.38644493 -0.33752626 -0.43961343 0.37028602
0.33665845 -0.6623426 0.26678327 0.19765604 -0.060247265 -0.5843493 0.05590221 -0.21226558
0.31714976 -0.25266007 0.28050748 -0.38495645 -0.18089013 -0.50748557 -0.3669641 -0.08591999
-0.01776901 0.15601403 0.36795858 -0.2988237 -0.009709255 0.13626337 0.5243708 -0.115622185
0.23424755 0.4358457 -0.19517952 -0.66124123 0.10713349 0.116721176 0.094323546 -0.096513286
0.23732384 -0.4815392 -0.3928117 0.15502954 -0.5221256 0.12573415 0.26041448 -0.39092267
-0.51013345 0.22922632 0.03669824 -0.28759548 0.42254758 -0.725296 -0.2696083 -0.3181286
-0.0151739 -0.038570985 0.19779159 -0.075551614 -0.54197717 0.13197798 -0.7716332 -0.02000817
-0.24448976 -0.8292062 0.015765574 0.056018528 0.09909161 -0.5741623 0.12568672 -0.09884146
0.22897801 -0.30556014 0.0837712 0.13458249 -0.32519192 0.25698248 0.34594017 0.26712885
-0.61990994 -0.055924915 -0.2362779 -0.03188603 0.20336738 -0.08493902 -0.085894674 -0.25483093
0.46697915 0.12021455 -0.5714613 0.16171655 -0.13050601 0.41972342 -0.17193192 -0.31152263
0.15782484 0.19385721 -0.069296874 0.06821713 -0.38165408 -0.24705519 -0.40215123 -0.0779851
-0.45586738 0.16519497 0.36744648 -0.300813 -0.3146501 -0.33388194 0.21030161 0.062250946
-0.12847245 -0.06194127 -0.040388297 -0.30652398 -0.075609006 0.050053097 0.054949343 -0.25875792
0.34198594 0.41798306 0.17566545 0.07364374 0.06572023 0.2274408 0.2708927 0.34341875
0.21361153 0.1563922 -0.4178804 0.024485976 0.15299015 -0.6935831 -0.4042532 0.19654667
0.04401029 0.472196 -0.00400033 -0.043321796 -0.57952124 -0.6415101 0.073480844 0.08336378
0.014846578 0.2722166 0.24126591 0.1532751 0.25250906 0.11657794 0.13623567 -0.28844664
-0.13833755 -0.09114899 0.3097419 0.3968653 -0.21973385 0.08409898 0.2729698 0.36016127
-0.016369456 0.20548593 0.14147876 -0.21865526 0.36300787 0.72474885 0.21005303 -0.31674933
0.15894425 -0.480461 0.12763287 -0.20546782 -0.5152768 -0.009423921 0.08204184 -0.46585077
-0.46749207 0.072415255 -0.009592806 -0.20368434 0.6110134 -0.6171061 -0.11705749 0.22263573
-0.3153373 0.004950583 0.05631025 0.22261095 -0.57414997 0.45801798 -1.0009258 0.4100221
-0.14198308 -0.8560921 -0.04249292 0.012944337 0.22060333 -0.41301578 0.11609108 0.039433178
0.46822754 -0.117398545 0.052932307 -0.01603326 0.1665916 0.03515241 0.15487118 -0.0613365
0.023410702 -0.26300266 -0.26475564 -0.36570722 0.32822862 0.1519785 0.07085846 0.19527096
0.30398116 0.2775045 0.4014276 0.032584913 -0.4008055 0.19704463 0.08627042 -0.39706212
-0.03108279 0.43250328 0.032480642 -0.17830606 0.12134173 0.008443413 -0.24895222 -0.060003627
-0.47084755 -0.12696506 -0.087152034 -0.11610521 -0.23165512 -0.32961667 0.35676205 0.23863621
-0.25609976 -0.42473364 0.19016849 -0.30232158 -0.18908903 0.032727443 -0.025012242 0.20334992

net.network.2.bias_0 f4 [64]
00000000: d3fe 5f3d 86da a9be e9d3 a8be a228 1fbe
00000010: 61b0 46be 1f2d 113d 7f0d 1abe a531 88be
00000020: 5b58 73bd 9738 e8bd 26cb 2c3e 8bba c73e
00000030: 70fa c7be 7c02 193e 3690 88be 6bad 4dbe
00000040: f317 debe e15e 0ebe 3d65 eebc 334f 06bf
00000050: b039 74bd e770 a3bd d0ab 033e c30d 82be
00000060: 5323 1abd 9dc0 27be b60c e1be 0e24 c6be
00000070: b1ef febd 1599 0dbf e1d8 5ebd 83da 85be
00000080: a22f e9be 9380 2abe cd73 5dbe 0031 7dbe
00000090: 9a36 04bf 0a06 423b fbf5 8bbe 0602 a5be
000000a0: 7af7 a8be 3183 9abe 5741 cfbe 4370 2cbe
000000b0: 39a1 4ebe 83fa 8ebe 3205 13bf 72ae 843e
000000c0: bdc3 1fbe cd9a 9dbc 7053 9ebe 0233 703d
000000d0: 0230 c4bd db44 f1bc 4ca7 3ebe ea98 5ebd
000000e0: cf91 09be f91b adbd 4018 62be c45c 3b3d
000000f0: 29a9 a9be 5b7c 4dbe cc79 ccbd 6247 fbbe
0.05468638 -0.33174533 -0.32974175 -0.15542844 -0.1940322 0.03544342 -0.15044211 -0.26600376
-0.059410434 -0.11338919 0.1687437 0.39009508 -0.39058256 0.14942354 -0.26672524 -0.20085685
-0.43377647 -0.13903381 -0.029101009 -0.524646 -0.059625328 -0.07980519 0.1285851 -0.25401124
-0.037631344 -0.1638207 -0.4395501 -0.38699383 -0.12448061 -0.5531171 -0.05440605 -0.26143274
-0.45544153 -0.1665061 -0.21626206 -0.24725723 -0.51645815 0.002960565 -0.27336106 -0.32228106
-0.3300131 -0.30178216 -0.40479538 -0.168397 -0.20178689 -0.279255 -0.574298 0.2591434
-0.15602012 -0.019238854 -0.30923033 0.058642395 -0.09579469 -0.029451778 -0.18618506 -0.05434505
-0.13434528 -0.08452601 -0.22079563 0.045742765 -0.3313687 -0.20066969 -0.099841684 -0.49077898

net.network.2.bias_1 f4 [64]
00000000: 3995 0f3e e912 c6be 74cc dbbe 2e19 833a
00000010: 3bcc 70be 0dc6 853d c428 92bd 7254 31be
00000020: 4b76 1fbe 7b24 70be be9a 583e 3908 a93e
00000030: 2ce3 a5be f3d9 583e 1c1d d2bd 4960 3cbe
00000040: c8db cfbe d91a bfbd 17bc 553d 6565 16bf
00000050: 75b5 c03d fb73 82bd 84eb 813e 514a 85be
00000060: 602e 403e fa84 04be 9f5d b4be 4d95 7cbe
00000070: 6641 8ebd bd5e e8be 6acc 603c 517b e8b9
00000080: b20c 80be 08ed 01be ed28 2ebe 9db4 7ebe
00000090: c58a cabe 0360 dbbd 3c5a b2bd 7b78 a0be
000000a0: 730c dcbe fca6 96be 4e90 d8be 6ded 70be
000000b0: 413e c0bc 6548 03bf bf61 03bf 585e af3e
000000c0: e881 fabd 394b 633d 467b c2be c65e 053b
000000d0: fecd bdbd f047 aebd 3787 56be 7652 09be
000000e0: b9cc 44be 0f01 b53c e791 abbe 11f9 423c
000000f0: f247 68be bcf9 5cbe a7cb e2bd e7ab 01bf
0.14021768 -0.38686302 -0.42929423 0.0010002011 -0.23515408 0.06531916 -0.07136682 -0.1731737
-0.15572469 -0.23451416 0.2115278 0.33014086 -0.3239988 0.21176891 -0.102594584 -0.18396105
-0.40597367 -0.09331293 0.05218133 -0.58748466 0.0940961 -0.06369778 0.25374997 -0.2603326
0.1876769 -0.12941352 -0.35227677 -0.24666329 -0.069460675 -0.4538478 0.013720611 -0.00044342366
-0.25009686 -0.12688076 -0.170078 -0.24873586 -0.39558998 -0.10711672 -0.08708617 -0.3134192
-0.42978248 -0.29424274 -0.42297596 -0.23528071 -0.023467185 -0.5128234 -0.51321024 0.34251666
-0.12231809 0.05549166 -0.37984675 0.0020350679 -0.092678055 -0.08509815 -0.20950018 -0.13410363
-0.1921872 0.022095231 -0.33509752 0.011900202 -0.22683695 -0.21579641 -0.11074 -0.5065293

net.network.4.weight_0 f4 [16, 64]
00000000: 5999 af3d 4a16 8cbd 5310 a4bd 672e b3bd
00000010: 3cb6 fdbd 76b1 9bbd 2fc4 e4bd ee86 b13d
00000020: 5a6e 4e3a 3123 9b3d b51c 45be 0dc0 a7be
00000030: 2d71 d33d ddaf 393d 1bdb debc be01 5abc
00000040: 286d 21be 06e6 e53c 9fc4 d8bd 0513 bbbd
00000050: 023e afbe af39 febb c6fc 693d 706c a93c
00000060: 5fae 1e3c 2afb 04be f87d 323e 7aca c33d
00000070: 134f 48bd 1460 65bd 2f7b e13c 2f0b dabd
00000080: 9097 0bbd 83d0 d83c 0f42 4fbd 6d13 52be
00000090: eca6 a3bd a89b 003b e259 89bd f78c b0bd
000000a0: aa43 ff3d 5a84 08be 83cb 95bd 6b9b 8bbc
000000b0: 961d ae3d 24cb 4a3d 7875 6fbd b9a8 90bd
000000c0: 0a23 a23d 43ea 98bd 9d1c 0c3e cbc8 c63c
000000d0: bda6 4cbd cb98 c63d 23df 03be da7a bf3d
000000e0: deae 72bd 84ca 03be 526d 05be a936 f8bd
000000f0: bf77 4e3c 8106 0bbe 886d d13c c871 b53c
00000100: 595b a63e b2a3 753e ff08 9a3d 42a2 573e
00000110: b054 02bf 033b dd3d 0a3c ecbd f218 4a3c
00000120: 70f9 1bbe 10e2 6dbf 789e 983d fc8e a23e
00000130: 77f8 693e 8772 ab3e 7ccb ac3e f0b1 a03e
00000140: 788d 273e 829f ccbd f95c 8d3e fbd8 453e
00000150: a7a5 063d 8c8d 963c 204c 4a3e 3053 c3be
00000160: 6a1e 8dbe d823 2d3d 9035 5a3e 53de 2c3e
00000170: c8b6 31bd 1f88 43be e9f7 9a3d 66fc bd3d
00000180: fe02 06be f9b4 c93d 5cfe cb3e d5a9 143f
00000190: e87e bebe b478 9f3e 1fe5 e2be 4686 d83d
000001a0: 5828 913e 348b 13bf f497 1e3e a046 e63b
000001b0: c8c3 a7bc 9769 163e 2b2b 88bc 3f81 a23e
000001c0: 590a d3bd 9721 913d b01e c63e 7698 6c3d
000001d0: 1ab5 053e 23af 2ebc bee6 563e 8d5a 9ebd
000001e0: 8450 5abd 8a5d 0d3d 389c 583e 44f5 e83d
000001f0: bc08 3b3d d5ff 003e ac3d 2b3d c003 0ebe
00000200: 3bea a23d 23a3 903d e493 a4bd 925d 5e3e
00000210: abc3 4d3e 4261 0cbf 7cda 8cbc 216f 18bb
00000220: 0d5c 1e3e e1d9 a03e c60f 05bf 30e6 a2be
00000230: 2f85 39be 1b51 acbe bc75 983e f69f 993e
00000240: 8c1d a5be 68aa 34bd fb71 f8be 9da8 903e
00000250: 3269 b1be 9e8a 983d 5d47 04be 9138 803f
00000260: 1b8b 6d3c 8aa2 b13e 5cfc 0bbf c3f4 07be
00000270: 144d a1bc 7ca7 d73e d314 5ebd 58a1 253e
00000280: 492d 1dbd fe9c 293e f6f9 a73e ad76 953e
00000290: 5641 eb3d 92f6 b6bc bb2a 88bd fa4f 6bbd
000002a0: ce6a 3c3d 32a9 973c 40f6 5e3e 24cc 6bbd
000002b0: 60cc ce3d 8fd8 703e 3e43 0d3d 4395 17bf
000002c0: 87a5 003c 27db a5be 5732 6d3d 3cb2 9d3d
000002d0: 5d05 c5bc d3b8 ce3d 018a c0bd 950c 8dbc
000002e0: a097 97bc 95ec 0d3d 5868 743f 9e7c 3a3e
000002f0: 3711 16be 5a2a d43c 7a43 cabd b58f c53e
00000300: 4610 ee3d 6fa2 c53e 73b1 a03d 81b4 e33e
00000310: e768 b3be d438 02be b61f 89bd 83fb b9bb
00000320: de2c f1bd a445 1dbf df36 93bc 7dac d13d
00000330: 1868 873d 8d6c 213e 253d 013f 98b2 e23e
00000340: 7d23 1c3f 266b e83c 7769 41be 8d61 8b3d
00000350: 68c2 c2bd 00e5 b63d f3a0 973e feaf a0be
00000360: 1519 1dbf d4b0 7e3e b01f e73e a75d d73e
00000370: b14b f93c 7b0e c5be be70 3abd 68b9 10bc
00000380: f957 8f3d 6a17 693e 0f16 ba3e a81c 813e
00000390: 7e46 b6be b252 843b 98de ecbe ea14 523d
000003a0: c380 c13e 0b72 4dbf 729d 023e d88d 473d
000003b0: 841d c3bb 0662 32be 0f17 4fbe 4cb5 4cbe
000003c0: 2812 de3d a1f5 88bd 1ac8 da3e 2315 a3bd
000003d0: 76ee 1bbd ca73 8cbd 8fdb b73e b87f c2bd
000003e0: 1faa 6dbd 09f0 98bd 9e93 c4bd e652 013e
000003f0: 1144 d5bc 49fb 693d 0001 99bb f6f0 7abe
0.085741706 -0.06840189 -0.08010926 -0.08749085 -0.12388274 -0.07602207 -0.111702316 0.08668314
0.000787472 0.075750716 -0.19249232 -0.3276371 0.10324321 0.045333732 -0.027204087 -0.013306079
-0.15764296 0.028063785 -0.105843775 -0.09134487 -0.34226996 -0.0077583413 0.05712583 0.02068159
0.009685128 -0.12986436 0.17430866 0.09560104 -0.048903536 -0.05599983 0.027524559 -0.10646664
-0.03408009 0.026466614 -0.050600108 -0.20515223 -0.07990822 0.0019624028 -0.06706597 -0.08620637
0.12464078 -0.13331738 -0.073142074 -0.017041883 0.08501737 0.049510136 -0.058461636 -0.07063431
0.079168394 -0.07466557 0.1368279 0.024265667 -0.0499637 0.09697112 -0.12878089 0.09349604
-0.059248798 -0.12870222 -0.13029984 -0.121198006 0.012601792 -0.135767 0.025564924 0.022148982
0.32491568 0.23988226 0.07521247 0.2105799 -0.5091047 0.10802271 -0.11534889 0.012335049
-0.15231872 -0.9292307 0.074521005 0.31749713 0.22848688 0.33485815 0.33748996 0.31385756
0.1636256 -0.09991361 0.27609995 0.19321053 0.032872822 0.018378042 0.19755602 -0.38149405
-0.27562267 0.04227051 0.21309495 0.16881685 -0.043387204 -0.19094895 0.07566816 0.09276657
-0.13087079 0.09848971 0.39842498 0.58071643 -0.37206197 0.31146777 -0.4431543 0.105724856
0.28351092 -0.5763428 0.15487653 0.007027462 -0.020479098 0.14688717 -0.016622147 0.31739232
-0.10304708 0.07086485 0.38695288 0.057762586 0.13057366 -0.010661873 0.20986459 -0.07732115
-0.053299442 0.034513034 0.21153343 0.11374906 0.045662627 0.12597592 0.04180686 -0.13868618
0.07954832 0.07062366 -0.080360204 0.21715382 0.20094173 -0.54835904 -0.017194025 -0.0023259597
0.15464802 0.31416228 -0.51977193 -0.31816244 -0.18117212 -0.3365563 0.29777324 0.30004853
-0.32249105 -0.044107825 -0.4852446 0.28253642 -0.3465057 0.07448314 -0.12917848 1.0017263
0.014498497 0.3469432 -0.54681945 -0.13276963 -0.019690074 0.42119968 -0.05421908 0.16174829
-0.038373265 0.16563794 0.32807893 0.29192105 0.11487071 -0.02233437 -0.06648775 -0.05744932
0.046000294 0.018513296 0.21773624 -0.05756773 0.10097575 0.2352011 0.034487955 -0.5921213
0.007851965 -0.32393762 0.057909336 0.07700011 -0.024050409 0.10093846 -0.09401322 -0.017217914
-0.018504918 0.03464945 0.95471716 0.182116 -0.14655004 0.025899101 -0.098761514 0.38586202
0.11624198 0.3860049 0.07846346 0.4447365 -0.35040972 -0.1271699 -0.066955015 -0.0056757345
-0.11776136 -0.6143439 -0.0179705 0.10237978 0.06611651 0.15764065 0.50483924 0.4427688
0.6099165 0.028371405 -0.18887888 0.06805716 -0.09509736 0.08930397 0.29614982 -0.3138427
-0.613664 0.24872142 0.45141363 0.4206364 0.0304316 -0.3848761 -0.045517676 -0.008833267
0.06999201 0.22762838 0.36344954 0.25217175 -0.35600656 0.0040381784 -0.46263576 0.051289476
0.3779355 -0.8025214 0.12755373 0.048719257 -0.0059544463 -0.17420205 -0.2022364 -0.19991034
0.10843307 -0.06687475 0.4273079 -0.07963016 -0.03806921 -0.068580225 0.35909697 -0.09497017
-0.05802357 -0.07467658 -0.09598468 0.1262928 -0.026033433 0.05712441 -0.0046693087 -0.24505982

net.network.4.weight_1 f4 [16, 64]
00000000: e397 5a3d d15c 93bd 7c3a 3a3d 8585 95bd
00000010: 5147 8bbd c033 89bc cfd9 b0bc a81e cdbc
00000020: db2d edba bf28 0dbe 1d92 dbbd 88d5 4abe
00000030: 66f0 62bd bc9e 053d cd18 cb3c c3e9 ac3b
00000040: 6843 76bd 56c6 11be d044 cfbd 4339 8ebd
00000050: e496 04bd e492 64bd b2a9 1fbe 91ec b5bc
00000060: db01 eabc e2e9 d6bd 1633 113e 73a7 0abe
00000070: 9887 113d f05c 343c 6181 58bc ea9b 7fbc
00000080: 8a0b 89bb 93e6 c7bd ecd0 c7bb 9d2d 4b3d
00000090: c2fa c53d 1ec1 863d 8acb 8fbd a486 39bd
000000a0: cc62 5ebd 576b b0bd 0e98 adbc b578 9d3b
000000b0: 1948 a03b 445a b5bd a024 be3d 6912 71be
000000c0: 2049 f2bc c487 78bd 7963 163b 5fb9 02bd
000000d0: 4c1a afbd 5e54 2bbd 83f7 92bc 3616 10be
000000e0: 72de c23d 49ab 9abd bf06 80bd 439a 12be
000000f0: d560 ce3d 43ce 79bd d4a2 c63d 4fef 743d
00000100: 444f 2a3e 312b 8e3e 8643 263e 27b6 ee3d
00000110: cade cdbe daa5 713d 9c6f d6bd 0b98 3ebd
00000120: 3be6 273d 9310 39bf d46e 083e bf8e 993e
00000130: 127a 9f3d 9133 ac3e 4c37 863e 0ae6 cb3e
00000140: 4d9d 683e 6be7 36bb b32f b53d 8643 90bd
00000150: ab38 193e 95c8 663d 5208 933e eba9 06be
00000160: 050f 06bf d6aa d5bb afae f33e a457 7a3e
00000170: 83e7 e1bb aa61 87be 99d4 d53d 3f00 52bc
00000180: 1f35 a3bd 1920 1a3d f80e d73e 2dd5 bb3e
00000190: 537c 18bf 845d 413e a3fb acbe b72c 323d
000001a0: ebfe 883e dc1e 20bf 31a6 74bd e8f6 e43d
000001b0: 35a8 46bd 763c ac3d 1b25 073e b6ea 4d3e
000001c0: 33a4 38bc f1ef a63d 6be7 a03e 1df4 ba3d
000001d0: f823 393d 3172 1abd 6c92 983d 20a0 893d
000001e0: bd91 b93b 6e91 88bd 1a4e 2d3f 0806 483e
000001f0: 7581 b9bc ce37 273e 27f4 873d 25cc 78be
00000200: 006d bebd a696 12be f5cc 553d 224d 943e
00000210: 4708 323e 792b 66be 988c 3e3d b6ef b63d
00000220: ecf7 2f3e 4e8c a13e 0739 a6be d1a1 ebbe
00000230: 0d4f 6cbe 65e0 68be e6d5 963e 96be e3bc
00000240: a793 9dbe 6e8d a73d 23ac 18be aa57 8a3e
00000250: 8083 b4be e3be 6a3d 906f 753d a6bd 133f
00000260: 2fff bebc 61ae b53e fa67 9bbe 5510 55be
00000270: fcfe 6a38 6159 423c 0431 76bd 1f66 f4bc
00000280: f961 343e 7f81 cdbd 6d62 273e 202b 823e
00000290: a372 723d bbf9 2ebe bd41 14bd dd7e f1bd
000002a0: 4268 c4bd 08fc 983d 57de e73d 70e8 033d
000002b0: 77eb babd 6036 943e 1c36 723e b3f4 1fbf
000002c0: 9e3b 093c dc3d 53be 689c 293d e326 b4bd
000002d0: 473a f7bb ff36 253e 9989 0bbe a1ee 11bd
000002e0: 3470 353e 2b3e 213d 1fd2 6c3f 8a52 093e
000002f0: 7a95 873d 3c8d 5cbd a204 a63d bcc7 103f
00000300: f478 793e e493 653e e1de 673e ea17 be3e
00000310: 5c7c 35be 63b2 553d 2619 9ebb 76d9 40bb
00000320: d6b8 b9bd 87dd 47bf aca4 64bc a215 833c
00000330: e493 553e 7e50 253d 5019 c93e d061 4c3e
00000340: 5a8f e63e 9a4d 97bd 74d3 b1bc 7f03 263d
00000350: fb7c bd3d d327 b03d 1f71 9c3e d075 f1be
00000360: b3ac 0cbf 5018 823e 379f 423f 5501 583e
00000370: 05e0 6cbd 4071 78be f2c6 153e 1327 dd3c
00000380: 029c 523e 34c5 c23d 9a16 c23e 006f ba3e
00000390: bc94 91be 30bf 82bd 9d5a 34bf f01a 793e
000003a0: e6c5 d93e 407a 86bf f7c1 ad3d 2b24 c93d
000003b0: f216 21bd b63e ccbd f22b 25bd 0075 babd
000003c0: 78d6 e6bd 4d2b d43c 226c aa3e aeb1 073e
000003d0: ce3f ac3d 0891 da3d 8dbe 523d 475e 533c
000003e0: 7853 743a 0332 723d f650 013e 269c 7e3e
000003f0: 409f 75be d696 683e d2c6 c23d 7c5f 35be
0.053367507 -0.07195438 0.04546593 -0.073008575 -0.06800712 -0.01674831 -0.021588234 -0.025039032
-0.0018095331 -0.13785075 -0.10721228 -0.19808018 -0.055405043 0.032622084 0.0247921 0.00527689
-0.060122877 -0.14235815 -0.10120547 -0.069445156 -0.032370463 -0.05580415 -0.15592077 -0.02220753
-0.028565338 -0.10493828 0.14179644 -0.1354044 0.035529703 0.011008486 -0.01321444 -0.015601138
-0.0041822838 -0.097607754 -0.0060979035 0.049604047 0.09666969 0.06579803 -0.07021244 -0.04529442
-0.05429344 -0.086142235 -0.02119067 0.004805649 0.004891407 -0.088551074 0.092843294 -0.23542179
-0.029575884 -0.06067635 0.0022947474 -0.031915065 -0.085499376 -0.041828506 -0.017940288 -0.14070973
0.09515084 -0.07552201 -0.06251287 -0.14316659 0.10077063 -0.060987722 0.09699026 0.059798535
0.166318 0.27767327 0.16236696 0.116558366 -0.40209037 0.05899606 -0.104705065 -0.04653172
0.04099105 -0.72290915 0.13323528 0.2999172 0.07786955 0.33633092 0.26214063 0.39823943
0.22716255 -0.0027908932 0.088469885 -0.07044129 0.14963023 0.056343634 0.28717285 -0.13150756
-0.5236667 -0.0065206094 0.4759421 0.24447495 -0.0068940534 -0.264417 0.104409404 -0.0128174415
-0.079691164 0.037628267 0.42003608 0.36686078 -0.59564704 0.1888333 -0.33785734 0.043499675
0.26756987 -0.6254709 -0.059728805 0.11179906 -0.04850026 0.084099695 0.13197748 0.20109066
-0.011269617 0.08151234 0.31426558 0.09128592 0.045200318 -0.037706558 0.07449803 0.067199945
0.0056631253 -0.066683635 0.676973 0.1953355 -0.022644738 0.16329882 0.06638365 -0.24296625
-0.09298134 -0.1431528 0.052197415 0.28965098 0.1738597 -0.22477521 0.0465208 0.0893244
0.17184418 0.31552356 -0.32465383 -0.46021894 -0.2307703 -0.2274185 0.29460067 -0.02780084
-0.30776712 0.081812724 -0.14909415 0.27020007 -0.35256577 0.05731095 0.059920847 0.57711256
-0.02331504 0.35484603 -0.30352765 -0.20807011 5.602742e-05 0.01186213 -0.06010534 -0.029833851
0.17615499 -0.10034465 0.1634614 0.25423527 0.059191357 -0.17087452 -0.036195505 -0.117917754
-0.09590198 0.07469946 0.11321705 0.03220409 -0.091269426 0.28947735 0.23653454 -0.62482756
0.00837603 -0.20629066 0.041408926 -0.087964796 -0.007544789 0.1613426 -0.13626708 -0.035627965
0.17718583 0.03936593 0.9250812 0.13410392 0.06620307 -0.05384563 0.081063524 0.5655477
0.24362546 0.22419697 0.22643615 0.3712762 -0.1772322 0.052172076 -0.0048247753 -0.0029426492
-0.09068458 -0.780724 -0.013955276 0.016001526 0.20857197 0.040359966 0.39277124 0.19959188
0.45031244 -0.07387848 -0.021707274 0.040530678 0.09252354 0.08601346 0.30555055 -0.47160196
-0.5495102 0.25409174 0.7602419 0.21094258 -0.05783083 -0.24261951 0.14626673 0.026996171
0.20567325 0.0951027 0.3790787 0.3641281 -0.28433788 -0.06384122 -0.70450765 0.24326682
0.42533797 -1.0506058 0.084842615 0.098213516 -0.039328523 -0.09972899 -0.040325113 -0.09104347
-0.112713754 0.025899554 0.33285624 0.13251373 0.08410607 0.10672194 0.051451255 0.012900895
0.0009320299 0.059129726 0.1262854 0.24864253 -0.2398653 0.2271379 0.09510578 -0.17712206

net.network.4.bias_0 f4 [16]
00000000: 3281 81be c3fd 3e3e 630d 00bf d96e 6dbe
00000010: 894b 00bf 7e5e 083e 608c 03be 75a2 16bf
00000020: ff34 32be 3b99 e2bd 5369 17bf ef14 afbd
00000030: c99c 613e 1345 83be c539 29be fbe7 81be
-0.2529388 0.1865149 -0.50020427 -0.23186816 -0.5011526 0.13317296 -0.12846518 -0.5884164
-0.17403029 -0.11064383 -0.59145087 -0.08548915 0.22032465 -0.25638637 -0.16525944 -0.253723

net.network.4.bias_1 f4 [16]
00000000: 4fc3 343c a14d bd3a d306 11bf 5e84 49be
00000010: ffac debe d70d 88bd daa4 e9bc 7550 14bf
00000020: 7ac2 313d 0a0e 59be db8d d5be 992c 05be
00000030: 8d06 36be dfac 37be 5994 aabc 1c52 bcbd
0.011032893 0.0014442691 -0.5665104 -0.196794 -0.4349136 -0.06643265 -0.02852099 -0.5793527
0.043398358 -0.21196762 -0.4170979 -0.13005294 -0.17775936 -0.17937039 -0.02082269 -0.091953486

net.network.6.weight_0 f4 [2, 16]
00000000: 693b 93bc 2d7f 543e 95fb 93be cb57 413e
00000010: 6770 8bbe 5af4 f43d dd46 9abe c591 a6be
00000020: c574 743d d6f3 1c3e 8049 0dbc fb8a 2fbe
00000030: e3c4 24bd 7cb0 1a3e bdc5 bcbd c5b6 083e
00000040: d16b 5a3d 70b4 5cbe 14ce 943e ae69 70be
00000050: 15f0 253e fba1 49be 669a 453e 8cc5 0c3e
00000060: ae25 653e 6cf0 313e e2b7 08be bf61 3abe
00000070: 5a6e 88be 8355 0e3b bfd0 83be 254a f63d
-0.017972665 0.20751639 -0.2890288 0.18881147 -0.27234194 0.11960669 -0.3013219 -0.32533088
0.059681673 0.15327391 -0.008623481 -0.1714286 -0.04022683 0.15106386 -0.09217403 0.13350971
0.053325478 -0.21553206 0.29063475 -0.23477814 0.16204865 -0.19690697 0.1929718 0.13747233
0.22377655 0.1737687 -0.13351396 -0.1820135 -0.26646692 0.002171845 -0.25745198 0.12025861

net.network.6.weight_1 f4 [2, 16]
00000000: 0766 4a3e a164 613e 3b13 81be 6d9b ed3c
00000010: 009d 3ebe 9bcd 1b3e 6058 6fbe 0fe9 f3be
00000020: 2151 f4bd dea8 d9bd bf58 ebbc 75cc 1dbe
00000030: a13e 473e a35d 453e b14a 563e 971c ebbd
00000040: 847b 1e3e 2062 96be 04d5 ba3e b1ea 8abe
00000050: 5350 363e f2ca 03be 70fd 7d3e 77b2 003f
00000060: 39a1 96bd f3b0 67be 588c 7ebe d3b0 83be
00000070: 9490 0dbe d713 4abe 9761 873c 1a84 93bd
0.19765483 0.22011043 -0.25209984 0.029004777 -0.18614578 0.15215151 -0.23373556 -0.47638747
-0.119295366 -0.10627912 -0.02872884 -0.15410025 0.19457485 0.19274001 0.2092693 -0.114800625
0.15476805 -0.29371738 0.36490643 -0.2713218 0.17804079 -0.12870386 0.2480371 0.50272316
-0.073549695 -0.22626095 -0.24858224 -0.25720844 -0.13824683 -0.19734131 0.016526027 -0.07202931

net.network.6.bias_0 f4 [2]
00000000: cf43 31be 0342 4ebe
-0.17311023 -0.20142369

net.network.6.bias_1 f4 [2]
00000000: fd52 233e d42a 183e
0.15949626 0.14860088
