models/adult/rs/adam_epochs40_lr0.004_batch128_dropout0/bezier_992.pth (torch, 87787 bytes, 19 tensors)

coeff_layer.binom f4 [2]
0	0x3f800000	1.0
1	0x3f800000	1.0

coeff_layer.range f4 [2]
0	0x00000000	0.0
1	0x3f800000	1.0

coeff_layer.rev_range f4 [2]
0	0x3f800000	1.0
1	0x00000000	0.0

net.network.0.weight_0 f4 [128, 6]
0	0xbe1974e6	-0.14986
1	0x3eb08e08	0.3448336
2	0x3eb03a7a	0.34419614
3	0xbf49ec6b	-0.7887637
4	0xbeb2aef0	-0.34899092
5	0xbf393742	-0.7234994
6	0xbf43ab28	-0.7643304
7	0x3e7c0caf	0.24614213
8	0xbde25edd	-0.1105325
9	0x3e0733b2	0.13203314
10	0xbe516440	-0.20448399
11	0xbf0aa6bb	-0.5416066
12	0xbed560d4	-0.41675436
13	0x3eec93c7	0.46206495
14	0xbf60e7de	-0.878538
15	0x3d976698	0.07392615
16	0x3c15456f	0.009110793
17	0x3e5a22c2	0.21302322
18	0x3e86adae	0.26304382
19	0xbcefee92	-0.029288564
20	0xbf4212a1	-0.75809675
21	0xbf47780e	-0.77917564
22	0x3d5d3501	0.054005627
23	0xbedd6e7d	-0.43248358
24	0xbf50e756	-0.8160299
25	0xbe9356eb	-0.2877725
26	0xbea5871e	-0.3232965
27	0x3e228e3c	0.1587457
28	0xbe3c9f30	-0.184201
29	0x3a0e181c	0.00054204627
30	0xbf08c326	-0.5342277
31	0xbf12bf26	-0.5732292
32	0xbe9efdb1	-0.31052926
33	0xbef45121	-0.47718146
34	0xbe1c6315	-0.15272172
35	0xbeb1fe85	-0.34764495
36	0x3c80cc6f	0.015722482
37	0x3eb0a6ac	0.3450216
38	0xbe233a8a	-0.159403
39	0x3fe33e03	1.77533
40	0x3f135020	0.57544136
41	0x3ea4204a	0.32055885
42	0x3dcded1d	0.100549914
43	0xbe227bfc	-0.15867609
44	0x3eacaa66	0.33723754
45	0x3f27b99d	0.655176
46	0x3e5e199f	0.21689461
47	0xbd60c988	-0.054879695
48	0xbe2bf801	-0.16793825
49	0xbd5ae30c	-0.053439185
50	0xbe8908bc	-0.26764476
51	0x4000f038	2.0146618
52	0xbe2dc6dc	-0.1697039
53	0xbeb870a5	-0.3602344
54	0xbf16c7a8	-0.588984
55	0x3d91ae34	0.07113305
56	0xbedbb051	-0.42907956
57	0xbe7bb4ef	-0.2458074
58	0xbce58626	-0.028018069
59	0xbec1a8c6	-0.37824076
60	0xbe463093	-0.19354467
61	0xbe16cb8f	-0.14726089
62	0xbe81f575	-0.2538258
63	0xbe17bcdf	-0.14818142
64	0xbde27202	-0.110569015
65	0xbe316c88	-0.17326558
66	0x3d5c2ed2	0.05375559
67	0x3d4c470c	0.049872443
68	0xbee28683	-0.4424325
69	0x3ee2aa5d	0.44270602
70	0xbebad8b5	-0.3649346
71	0x3f55d2dc	0.8352487
72	0xbe0d8362	-0.1381965
73	0xbdfc119b	-0.123080455
74	0xbd44924b	-0.04799108
75	0x3efeaaf5	0.49739805
76	0xbe379b5f	-0.17930363
77	0xbcf1dc6b	-0.029524049
78	0x3ed354d9	0.4127567
79	0xbf50fc3c	-0.8163488
80	0xbe868c79	-0.26279047
81	0xbe8cbfdf	-0.27490136
82	0xbe4e6f6c	-0.20159692
83	0xbe379f34	-0.17931825
84	0xbe7ffb4f	-0.2499821
85	0xbd42318f	-0.047410544
86	0xbe656cc8	-0.22404778
87	0xbd968017	-0.0734865
88	0xbddea02a	-0.108703926
89	0x3d2660be	0.040619604
90	0xbeb10a3d	-0.34578124
91	0x3ca76fbb	0.02043902
92	0xbe84dc84	-0.2594949
93	0xbef62669	-0.4807618
94	0xbe46935b	-0.19392149
95	0xbeb81dd3	-0.35960254
96	0x3dbf109a	0.09329338
97	0xbe79c6cd	-0.24392243
98	0x3e693951	0.2277577
99	0x3f860d94	1.0472894
100	0x3d8daa64	0.06917265
101	0x3e8969d9	0.26838568
102	0xbea8605e	-0.32886022
103	0x3d701775	0.05861612
104	0xbd8a8928	-0.06764442
105	0x3e15e5e8	0.14638484
106	0xbe06cd59	-0.13164271
107	0xbe83b968	-0.2572739
108	0xbe4f0101	-0.20215227
109	0x3e8ddc8f	0.27707335
110	0x3e8b71ac	0.27235162
111	0xbee58b70	-0.44832945
112	0xbdbc622f	-0.091984145
113	0xbf0b594d	-0.5443314
114	0xbee97210	-0.45594835
115	0x3db2a48c	0.08722791
116	0xbee118a2	-0.43964106
117	0xbe488b0e	-0.19584295
118	0xbe0dca9b	-0.13846819
119	0xbf2892aa	-0.6584879
120	0xbef0b325	-0.47011676
121	0x3dea42e5	0.1143854
122	0xbed867d0	-0.42266703
123	0xbe562758	-0.20913446
124	0xbeb33cc8	-0.3500731
125	0xbee209e9	-0.44148186
126	0x3bc3103e	0.005952864
127	0x3d9e8bde	0.07741521
128	0x3ed0b03b	0.40759453
129	0x3e587491	0.21138217
130	0x3da2f9c8	0.07957798
131	0x3ec3026c	0.38087785
132	0xbe5f2902	-0.21792987
133	0xbed2d189	-0.41175488
134	0xbf03cad9	-0.51481396
135	0xbf20333a	-0.62578166
136	0xbe321989	-0.17392553
137	0xbf0e2009	-0.5551763
138	0x3f1371fd	0.5759581
139	0xbcef49cb	-0.029209992
140	0xbee01c8d	-0.43771783
141	0xbf1049f7	-0.5636286
142	0x3dd63091	0.10458482
143	0xbedcab7b	-0.4309958
144	0xbf667f3b	-0.9003789
145	0xbd041974	-0.032250836
146	0xbe8ec872	-0.27887303
147	0xbeac119c	-0.33607185
148	0xbde5d3cd	-0.112220384
149	0x3f3389bf	0.7013206
150	0x3d8636ea	0.06553443
151	0xbe7e2043	-0.24816994
152	0xbf155af7	-0.58341926
153	0xbf58fe7e	-0.84763324
154	0x3cdc5bc5	0.026899228
155	0xbf352630	-0.70761395
156	0x3d2a39d5	0.04155906
157	0xbe385588	-0.18001378
158	0xbf03f935	-0.51552135
159	0xbe5be22d	-0.21472998
160	0x3c8f87ac	0.017520748
161	0xbddfe59b	-0.10932466
162	0xbf064419	-0.5244766
163	0x3db3db39	0.08782048
164	0xbe4b02bd	-0.19825263
165	0xbe8d66c4	-0.27617466
166	0xbe2c2b3a	-0.16813365
167	0xbf48b897	-0.7840666
168	0x3dae890b	0.085222326
169	0x3dc3088e	0.09523116
170	0xbebc3948	-0.36762452
171	0xbef3694d	-0.47541276
172	0x3d4228b6	0.047402106
173	0xbf6e5ec3	-0.93113345
174	0xbf54ee2a	-0.8317591
175	0x3e405164	0.18781048
176	0xbee8044b	-0.45315775
177	0x3e301388	0.1719495
178	0xbd86a867	-0.06575089
179	0xbe3b952c	-0.18318623
180	0x3ebf1914	0.3732382
181	0x3e3883fc	0.18019098
182	0x3f0d5529	0.5520807
183	0xbe41283c	-0.18863004
184	0x3e9d186a	0.3068269
185	0x3e8cd438	0.2750566
186	0xbc9552cc	-0.018227957
187	0xbf821817	-1.0163602
188	0x3ee6a87c	0.45050418
189	0xbda98dd8	-0.08279008
190	0xbda2fbba	-0.07958169
191	0xbd921093	-0.071320675
192	0x3f0c721e	0.5486163
193	0xbdb63f9b	-0.088988505
194	0xbee00eec	-0.43761384
195	0xbf369827	-0.71325916
196	0x3c69ba16	0.014265558
197	0xbf7c52dc	-0.98563933
198	0x3ee668f4	0.45001948
199	0xbeab15ae	-0.33414978
200	0xbe63cb2c	-0.22245473
201	0x3f6eb126	0.9323906
202	0xbeac04c1	-0.33597377
203	0xbeb0add0	-0.34507608
204	0xbec9f7f8	-0.39446998
205	0xbe04fc78	-0.12986934
206	0xbf1a888e	-0.60364616
207	0xbe8189fb	-0.25300583
208	0xbdf72596	-0.12067716
209	0x3cf1458b	0.029452106
210	0x3dfcd29e	0.123448595
211	0x3ec1f064	0.37878716
212	0xbee57a62	-0.44819933
213	0xbe7fc42a	-0.24977174
214	0x3da09ebf	0.078427784
215	0xbf9edec0	-1.2411728
216	0xbe8c8091	-0.27441838
217	0xbf7b5058	-0.9816947
218	0xbd2d901a	-0.042373754
219	0x3e684fa5	0.22686632
220	0x3d1a9737	0.037741866
221	0xbed5676b	-0.41680464
222	0xbde721a5	-0.11285714
223	0x3bc159a4	0.0059005786
224	0xbea1dee9	-0.3161538
225	0xbe16cbd4	-0.14726192
226	0xbd94fcc2	-0.07274772
227	0x3d469ba2	0.048488267
228	0xbb53ebd2	-0.0032336605
229	0x3eaa2765	0.3323318
230	0xbe7b9672	-0.24569109
231	0x3f7efba5	0.9960273
232	0xbd822725	-0.063551225
233	0xbda74882	-0.08168127
234	0x3ed30db6	0.41221398
235	0x3d454a9f	0.048166867
236	0xbedd4df2	-0.4322353
237	0xbf231141	-0.636982
238	0x3da54d62	0.080714
239	0xbf457e6f	-0.7714605
240	0xbf055386	-0.5208057
241	0x3e5f7641	0.21822454
242	0xbf51d199	-0.81960446
243	0xbed1f78f	-0.41009185
244	0xbee173c7	-0.44033644
245	0x3e7f2c03	0.24919133
246	0xbccc34ea	-0.024927575
247	0x3ead318f	0.33826873
248	0xbf2ce645	-0.67538863
249	0x3f9a566a	1.2057621
250	0xbdeaee8e	-0.11471282
251	0x3e04fdcb	0.1298744
252	0xbe9b5bc5	-0.30343452
253	0x3dd2eb63	0.10298803
254	0x3f141a8a	0.57852995
255	0x3f2b70e8	0.66969156

net.network.0.weight_1 f4 [128, 6]
0	0xbe007b6c	-0.12547082
1	0x3e95e3d4	0.29275382
2	0x3ed2a3e1	0.41140655
3	0xbe0907ed	-0.1338193
4	0x3d453ec5	0.048155565
5	0xbe9370cf	-0.28797004
6	0xbefa43d4	-0.48879874
7	0x3d0903ee	0.033451013
8	0xbea04640	-0.31303596
9	0xbe2ad52a	-0.16682878
10	0xbdb895bf	-0.09012937
11	0xbf44299d	-0.76625997
12	0xbf8df3a1	-1.1089975
13	0x3e714a06	0.23563394
14	0xbe9498d2	-0.29022843
15	0x3ed76715	0.42070833
16	0xb9dab072	-0.00041711662
17	0x3e350a76	0.17679772
18	0x3e5d9223	0.21637778
19	0x3d4a4d6b	0.049390238
20	0xbf284555	-0.6573079
21	0xbee75629	-0.45182922
22	0xbf0d0fb1	-0.5510207
23	0xbcdf4dfb	-0.027258864
24	0xbee2ba2e	-0.4428267
25	0xbea3be5e	-0.31981176
26	0xbda71c4d	-0.08159695
27	0x3e14738f	0.14497207
28	0xbe13426f	-0.14380811
29	0xbe8761b7	-0.26441738
30	0xbf9b5a56	-1.2136943
31	0xbecbe17d	-0.3982047
32	0x3db0cf10	0.08633244
33	0xbf5cc521	-0.86238295
34	0xbd5ad84c	-0.053428933
35	0xbef5938f	-0.4796414
36	0x3d817bbd	0.06322429
37	0x3e61076a	0.21975484
38	0xbd51a093	-0.051178526
39	0x3fce8426	1.6134079
40	0x3e8a4887	0.2700846
41	0x3cf1dbfb	0.02952384
42	0xbe18ffe5	-0.14941366
43	0x3d987ea2	0.07446028
44	0xbe6e906c	-0.2329728
45	0x3f2a0ea9	0.6642862
46	0x3eff69ce	0.4988541
47	0x3d7ab8fd	0.061211575
48	0x3d3307b2	0.04370851
49	0x3b798983	0.0038076348
50	0xbdcefc8f	-0.101067655
51	0x3fb02e37	1.3764104
52	0xbb26ca9d	-0.0025450357
53	0xbe0146e2	-0.12624696
54	0xbc914678	-0.017733797
55	0xbe3b679d	-0.18301244
56	0xbec4026c	-0.38283098
57	0xbdabf903	-0.083971046
58	0xbe2fe3f1	-0.17176796
59	0xbdc445c3	-0.095836185
60	0xbd15fa5b	-0.03661571
61	0xbe307ad8	-0.17234361
62	0xbeda6642	-0.42656142
63	0xbee1d305	-0.44106308
64	0xbe3c9b93	-0.18418722
65	0xbefab459	-0.4896572
66	0x3eba24db	0.36356243
67	0xbe4c9a38	-0.19980705
68	0xbe4bd7be	-0.19906518
69	0x3ea81d80	0.32835007
70	0xbf6cb666	-0.9246582
71	0x3f3a598a	0.72792876
72	0xbee08b90	-0.43856478
73	0xbdd448aa	-0.10365422
74	0xbf13a371	-0.57671267
75	0x3e87dddb	0.2653645
76	0xbdac812b	-0.08423074
77	0xbea8ccaf	-0.3296866
78	0x3f573449	0.84064156
79	0xbf61c4a3	-0.8819067
80	0xbf08844b	-0.53326863
81	0xbe7efbaf	-0.24900697
82	0xbdb24e89	-0.08706386
83	0x3db6e966	0.08931236
84	0xbe50ad8c	-0.20378703
85	0x3cbbdeaa	0.022933323
86	0x3df6f187	0.120577864
87	0xbebd2fa3	-0.36950406
88	0xbd675aff	-0.056483265
89	0xbf2e6d98	-0.68135977
90	0xbe9cda04	-0.30635083
91	0x3d10ec9a	0.03538189
92	0xbee79f4a	-0.45238715
93	0xbe8c929a	-0.27455598
94	0x3db62ca8	0.08895236
95	0xbe8a682d	-0.27032605
96	0xbce416d3	-0.027842915
97	0xbdf26788	-0.11836153
98	0x3d0e510a	0.034745254
99	0x3f7cf6ea	0.9881426
100	0xbeb7bca7	-0.35886118
101	0xbe0e2306	-0.13880548
102	0x3dbc5ebc	0.09197757
103	0xbe400b0e	-0.18754217
104	0xbdbc509a	-0.09195061
105	0x3f38d147	0.7219433
106	0xbd97c949	-0.07411439
107	0xbb6c568e	-0.0036062333
108	0xbe727e40	-0.23680973
109	0x3e98aadc	0.29817855
110	0x3ee42113	0.44556484
111	0xbf696d72	-0.91182625
112	0xbe5400e2	-0.20703462
113	0xbf7b8eda	-0.9826485
114	0xbf720bed	-0.9454945
115	0x3e08a55d	0.13344331
116	0xbe06adac	-0.13152188
117	0xbed8b219	-0.42323378
118	0xbd4b0016	-0.04956063
119	0xbecb807e	-0.3974647
120	0xba515078	-0.0007984708
121	0x3d58bf7e	0.052916996
122	0xbd44e13f	-0.048066374
123	0x3db666b3	0.08906307
124	0x3df0b13c	0.11752555
125	0x3c8b32dd	0.016992027
126	0xbeafff27	-0.34374353
127	0xbe9c3ed1	-0.30516675
128	0x3e7f8191	0.2495177
129	0x3ee23198	0.44178462
130	0x3e9794f7	0.2960584
131	0xbf5ed0b4	-0.87037206
132	0xbea3c124	-0.31983292
133	0xbe0ad8e2	-0.13559297
134	0xbeaeccd9	-0.3414066
135	0xbf218d8d	-0.63106614
136	0xbea02703	-0.31279764
137	0xbedc3511	-0.43009236
138	0x3f5a0bd9	0.8517433
139	0xbd2a2046	-0.041534685
140	0xbe57dff4	-0.21081525
141	0xbe390f53	-0.18072252
142	0x3d36e981	0.04465628
143	0xbee0b541	-0.43888286
144	0xbf4e0d64	-0.8048918
145	0x3cfe8860	0.031070888
146	0xbe2956fe	-0.16537091
147	0xbe7af0c8	-0.24505913
148	0xbd7c238b	-0.061557334
149	0x3f0d1ede	0.55125225
150	0x3eef5f76	0.46752518
151	0x3baac6e9	0.0052117
152	0xbe8856ae	-0.2662863
153	0xbf4ddff3	-0.80419844
154	0xbe4bafc5	-0.1989127
155	0xbf420de2	-0.75802433
156	0xbe294aa9	-0.16532387
157	0xbe008a5d	-0.12552781
158	0xbf6fbfcd	-0.9365204
159	0xbdc22aa9	-0.09480793
160	0x3cb48fbe	0.022041198
161	0xbe930e45	-0.28721824
162	0xbd76b049	-0.060226712
163	0x3b998c14	0.004685888
164	0xbe654ce0	-0.22392607
165	0xbe87aa34	-0.26497042
166	0xbdc01cc5	-0.09380487
167	0xbe2254a4	-0.158526
168	0xbea027e9	-0.3128045
169	0x3d4258f4	0.047448114
170	0xbe4e27c8	-0.20132363
171	0xbebb3a30	-0.3656783
172	0xbe336b18	-0.17521322
173	0xbe3f6710	-0.18691659
174	0xbf828a6f	-1.0198497
175	0x3ed3c9e5	0.4136497
176	0xbe9174c7	-0.28409407
177	0xbeea8535	-0.45804754
178	0x3d93090a	0.071794584
179	0xbe338aae	-0.17533371
180	0xbdaf03a8	-0.08545619
181	0x3ec4bfaa	0.38427478
182	0x3ea9e6b4	0.33183825
183	0x3c876dea	0.016531903
184	0x3eb9f85e	0.36322302
185	0x3e501f74	0.20324498
186	0x3d391f89	0.04519609
187	0xbf426e88	-0.7594991
188	0x3e75bf25	0.23998697
189	0xbdede2cf	-0.11615526
190	0xbd995552	-0.07486977
191	0x3d051680	0.03249216
192	0x3f24fb42	0.6444589
193	0xbd412b20	-0.047160268
194	0x3e725b9f	0.23667763
195	0x3f0a9f09	0.5414892
196	0x3be4f0ed	0.0069867284
197	0xbd38af74	-0.0450892
198	0xbe197a14	-0.14987975
199	0x3e8c7c10	0.27438402
200	0xbe878fb4	-0.26476824
201	0x3cf655a9	0.030070143
202	0xbba17982	-0.004927815
203	0xbdc2a6c4	-0.09504464
204	0xbf1a522a	-0.6028162
205	0xbedacd51	-0.4273477
206	0xbf6a3634	-0.9148896
207	0xbf190d20	-0.5978565
208	0xbdd26bfa	-0.10274501
209	0x3d802eb6	0.062589094
210	0x3e34fea5	0.17675264
211	0x3e80bcce	0.25144047
212	0xbed3aab4	-0.41341174
213	0xbe257267	-0.16156922
214	0x3de31d55	0.11089579
215	0xbf82fb5a	-1.0232956
216	0xbe7bca06	-0.24588785
217	0xbf5fd900	-0.8744049
218	0xbdd98908	-0.1062184
219	0xbe6faa08	-0.23404706
220	0xbda4e0e2	-0.080507055
221	0xbedc4d08	-0.4302752
222	0xbe08ad50	-0.13347363
223	0xbe266950	-0.16251111
224	0x3d49116c	0.04908888
225	0x3d92d35c	0.0716922
226	0xbe885df5	-0.26634184
227	0xbf291888	-0.66053057
228	0xbe25afa9	-0.1618029
229	0x3ed2504b	0.41076884
230	0xbef490e3	-0.4776679
231	0x3f3c4bde	0.73553264
232	0xbee279ba	-0.44233495
233	0xbec367bc	-0.3816508
234	0x3ecb62f4	0.39723933
235	0xbdeaa9fb	-0.114582025
236	0xbe0ddbc1	-0.1385336
237	0xbe8b3ece	-0.27196354
238	0xbd9dfc86	-0.07714181
239	0xbf2760e4	-0.6538222
240	0xbf54c7af	-0.83117193
241	0x3eb114cd	0.34586182
242	0xbe09a194	-0.13440543
243	0xbe9d4ef1	-0.3072429
244	0xbdec964c	-0.11552104
245	0xbe8de142	-0.2771092
246	0xbe9df6c9	-0.30852345
247	0x3edb6bdb	0.42855725
248	0xbf28a911	-0.65882975
249	0x3f7fadfd	0.9987486
250	0xbf08d5a8	-0.53451014
251	0x3e28fa60	0.1650176
252	0xbe2e4139	-0.17017068
253	0xbca8c4b1	-0.020601602
254	0x3f4582fa	0.7715298
255	0x3f8f4860	1.1193962

net.network.0.bias_0 f4 [128]
0	0xbf0436d4	-0.5164616
1	0x3efda447	0.49539396
2	0x3e804a55	0.2505671
3	0x3e7c5cb6	0.24644741
4	0xbdbdd1d9	-0.09268541
5	0xbe1a4b77	-0.1506785
6	0xbf96d56b	-1.178388
7	0xbf4203b1	-0.7578688
8	0xbed4daee	-0.4157328
9	0xbf1842da	-0.5947701
10	0xbe5e7f26	-0.21728191
11	0xbeeac992	-0.4585691
12	0xbd3ae7e9	-0.045631323
13	0x3d216b57	0.039409008
14	0xbe9f4944	-0.31110585
15	0x3b605c63	0.0034234754
16	0xbf119463	-0.56867045
17	0xbe787b5c	-0.24265808
18	0xbeb4a4ed	-0.35282078
19	0x3e2a244e	0.16615412
20	0xbe94d3ba	-0.29067785
21	0xbd815682	-0.06315328
22	0xbe9dd1e3	-0.30824193
23	0xbed421ff	-0.41432187
24	0xbedfd17b	-0.43714508
25	0x3e5fddc4	0.2186194
26	0x3e52e187	0.20593844
27	0x3f1d4c3c	0.6144445
28	0xbede884c	-0.4346336
29	0x3e9b1397	0.30288383
30	0xbe48ac2e	-0.19596931
31	0xbf1e21a1	-0.61770064
32	0xbed26d29	-0.41098908
33	0xbf0cc7f0	-0.5499258
34	0xbde3d6ee	-0.11124979
35	0x3f2f87cb	0.6856658
36	0xbeae67b8	-0.34063506
37	0xbeb041d3	-0.3442522
38	0xbf06ae1a	-0.5260941
39	0xbee15a17	-0.44014046
40	0xbdea00aa	-0.11425908
41	0xbda2f65b	-0.07957145
42	0xbde4df43	-0.11175396
43	0xbe828dd3	-0.25498828
44	0xbf1017ce	-0.56286323
45	0x3f36daca	0.71427596
46	0xbf4d6445	-0.80231124
47	0xbf0ec479	-0.55768543
48	0xbf190d5b	-0.59786004
49	0xbeedbbd2	-0.46432358
50	0xbee04d5b	-0.43809018
51	0xbe879e9f	-0.26488206
52	0x3f39c92f	0.72572607
53	0xbe2f59d4	-0.1712411
54	0xbe9977dd	-0.2997426
55	0x3e65f11b	0.22455256
56	0xbf1f7389	-0.6228567
57	0x3e49ecc2	0.19719222
58	0xbd3ddef8	-0.046355218
59	0x3ef814ec	0.48453462
60	0xbecee6d2	-0.40410477
61	0xbee72e02	-0.4515229
62	0xbe515799	-0.20443572
63	0xbe7ebe95	-0.24877389
64	0x3e4293c8	0.19001687
65	0xbf07c6b6	-0.53037584
66	0x3ef0d24f	0.47035453
67	0xbf16802c	-0.58789325
68	0x3f0370eb	0.51344174
69	0xbf066032	-0.5249053
70	0x3f36a017	0.7133803
71	0xbde3db6f	-0.11125838
72	0x3d23a171	0.039948884
73	0xbf12ce92	-0.5734645
74	0xbf33f005	-0.70288116
75	0xbf1b7ee8	-0.6074052
76	0xba97d782	-0.0011584612
77	0xbf085e34	-0.5326874
78	0xbf021595	-0.5081418
79	0xbf2d837d	-0.6777876
80	0xbf0b74a3	-0.5447485
81	0xbf5b22fa	-0.85600245
82	0xbf1e58bd	-0.61854154
83	0xbecb1ea3	-0.3967181
84	0xbe98346d	-0.29727498
85	0xbeae19d3	-0.34004077
86	0xbcb048b8	-0.02151905
87	0xbdc349dd	-0.09535573
88	0xbeb86478	-0.36014152
89	0xbe1c3f4c	-0.15258521
90	0xbf51c62b	-0.81943005
91	0xbf675139	-0.9035831
92	0xbf25c9f3	-0.64761275
93	0xbea8f6d6	-0.3300082
94	0xbd6f0ebe	-0.05836367
95	0x3f0bce69	0.5461183
96	0x3d42c172	0.047547765
97	0xbf1304b7	-0.5742907
98	0x3f0d66de	0.5523509
99	0xbe44ee6f	-0.1923158
100	0xbf0aa644	-0.5415995
101	0xbf5e5c0f	-0.8685922
102	0xbdbdf059	-0.09274358
103	0xbea2f367	-0.31826326
104	0xbeb4eb8d	-0.3533596
105	0x3ebeb5f3	0.3724819
106	0x3e8ab80d	0.27093545
107	0xbf1bd162	-0.6086637
108	0xbe9a367c	-0.30119693
109	0xbf3530a1	-0.70777327
110	0xbe1ffd8e	-0.15624067
111	0xbeaf04a9	-0.34183243
112	0xbee4239d	-0.4455842
113	0xbef633fa	-0.4808653
114	0xbf12c39b	-0.5732972
115	0xbf39c136	-0.7256044
116	0x3eba2d4b	0.3636268
117	0x3e2b0e16	0.16704592
118	0xbf1f18ec	-0.621474
119	0xbe08b0ce	-0.13348696
120	0xbecd10c8	-0.40051866
121	0xbeab6bd5	-0.33480707
122	0xbeb14eaa	-0.34630328
123	0xbde59071	-0.11209191
124	0xbe2a7fe0	-0.16650343
125	0xbe59ce08	-0.21270001
126	0xbe42e555	-0.19032796
127	0xbebb4e5b	-0.36583218

net.network.0.bias_1 f4 [128]
0	0xbf5cf331	-0.8630858
1	0x3f0f7177	0.5603251
2	0x3f173910	0.59071445
3	0x3dc49c49	0.096001215
4	0xbe08821c	-0.13330883
5	0xbed65322	-0.418603
6	0xbeea8c28	-0.45810056
7	0xbf98dfe9	-1.1943332
8	0xbee1ae6b	-0.44078383
9	0xbeb6bf84	-0.3569299
10	0xbd5e90b5	-0.054337222
11	0xbf13e110	-0.57765293
12	0xbd9a648b	-0.07538708
13	0xbef43a35	-0.47700658
14	0xbf083dac	-0.53219104
15	0xbe5bab9c	-0.21452183
16	0xbddd8cef	-0.108178966
17	0xbf104d29	-0.5636774
18	0xbf08c05f	-0.53418535
19	0xbe96c1bf	-0.29444692
20	0xbf3651aa	-0.7121836
21	0xbf537086	-0.8259357
22	0x3ea4eeb8	0.32213378
23	0xbf30cd03	-0.69062823
24	0xbeea86ae	-0.45805877
25	0xbed9e745	-0.42559257
26	0x3ed7d7a4	0.42156708
27	0xbe3b5392	-0.18293598
28	0xbf52438e	-0.8213433
29	0x3dfe6029	0.12420685
30	0xbee6119f	-0.4493532
31	0xbeb1f8f3	-0.34760246
32	0xbf25b28e	-0.6472558
33	0xbeb5613b	-0.35425743
34	0x3d49974d	0.049216557
35	0x3ec314ff	0.38101956
36	0xbe4f88da	-0.20267048
37	0xbed7999f	-0.4210939
38	0xbec7b12d	-0.39002362
39	0xbf0bd5aa	-0.546229
40	0xbec03078	-0.3753698
41	0xbe591c2a	-0.2120215
42	0xbec544c7	-0.38529035
43	0xbe968762	-0.29400164
44	0xbe30e4e0	-0.17274809
45	0x3f07d4b2	0.5305892
46	0xbf00174a	-0.50035536
47	0xbf423c7f	-0.7587356
48	0xbed8b062	-0.4232207
49	0xbf26ec34	-0.6520417
50	0xbed33eab	-0.4125875
51	0xbf070ac6	-0.52750814
52	0x3f23aac9	0.6393247
53	0xbe936473	-0.28787574
54	0x3dbb4013	0.091430806
55	0x3e337918	0.17526662
56	0xbf6ab06b	-0.9167544
57	0x3f01318c	0.5046623
58	0x3e398faf	0.18121217
59	0xbe6457a0	-0.22299051
60	0xbf026947	-0.5094189
61	0xbe63a882	-0.2223225
62	0x3c2dc40b	0.010605822
63	0xbf07112c	-0.5276058
64	0xbe2fc9c8	-0.17166817
65	0xbe1e61dd	-0.1546702
66	0x3f482e10	0.78195286
67	0xbe8ff8d7	-0.28119537
68	0x3ea05467	0.31314394
69	0xbec575fd	-0.3856658
70	0x3f19822b	0.59964246
71	0xbb51bb89	-0.0032002649
72	0xbda8d272	-0.08243264
73	0xbf047377	-0.51738685
74	0xbf35b4b5	-0.7097886
75	0xbedc7cb3	-0.43063888
76	0xbe310aae	-0.1728923
77	0xbe57735b	-0.21040098
78	0xbeddf867	-0.43353578
79	0xbef163fb	-0.47146592
80	0xbf2a9246	-0.66629446
81	0xbf15d39b	-0.5852601
82	0xbf266796	-0.6500181
83	0xbefab571	-0.48966554
84	0xbef2e884	-0.4744302
85	0xbdebe00e	-0.115173444
86	0xbef62533	-0.48075256
87	0x3efc8930	0.49323416
88	0xbe2fcc64	-0.17167813
89	0xbecb7435	-0.39737096
90	0xbf2d217c	-0.6762922
91	0xbf7dda44	-0.9916117
92	0xbf37f108	-0.7185216
93	0xbf0c12ea	-0.5471636
94	0xbf0215e9	-0.5081468
95	0x3f2fa3e4	0.6860945
96	0xbd8e527e	-0.06949328
97	0xbe003f33	-0.12524109
98	0x3f312c97	0.69208664
99	0xbee75872	-0.45184666
100	0xbf39b681	-0.72544104
101	0xbf85875f	-1.0431937
102	0x3bb0680b	0.0053834966
103	0xbf27498a	-0.65346587
104	0xbe58c52c	-0.21168965
105	0xbe14bdf3	-0.14525585
106	0x3e27ba0d	0.16379566
107	0xbf0f2a9b	-0.55924386
108	0xbe23b59d	-0.15987249
109	0xbedf0151	-0.43555692
110	0xbe72ad48	-0.23698914
111	0xbeb66d4f	-0.3563027
112	0xbf0b677b	-0.54454774
113	0xbe3df2b4	-0.18549615
114	0xbe02e974	-0.12784368
115	0xbef86635	-0.48515478
116	0x3eb4d6d7	0.3532016
117	0xbea12799	-0.31475523
118	0xbe2b4f34	-0.16729432
119	0xbf3d1eae	-0.7387494
120	0xbded39b0	-0.11583269
121	0xbf05bde3	-0.5224287
122	0xbf27d104	-0.6555331
123	0x3deaf069	0.11471636
124	0xbeaca6ad	-0.33720914
125	0xbe2d539a	-0.16926423
126	0xbe4c1e44	-0.1993342
127	0xbee086fe	-0.4385299

net.network.2.weight_0 f4 [64, 128]
0	0xbe1ebce6	-0.15501747
1	0xbc4b5dc3	-0.012412491
2	0xbe38498a	-0.17996803
3	0x3d8d551e	0.069010004
4	0xbcd49a9a	-0.025952626
5	0x3cf93d7e	0.03042483
6	0xbe415329	-0.1887938
7	0xbecffe49	-0.40623692
8	0xbe310eb5	-0.17290767
9	0x3c96a2f2	0.018388245
10	0x3e24776c	0.16061181
11	0x3e154cfa	0.14580145
12	0x3e40b6c5	0.18819721
13	0xbe603c37	-0.2189797
14	0xbdef9a8c	-0.11699399
15	0xbd08563d	-0.03328537
16	0xbe5deede	-0.21673152
17	0xbe9b3899	-0.30316618
18	0xbe123392	-0.14277485
19	0x3e089bf3	0.1334074
20	0xbcf028b1	-0.029316278
21	0xbe2842a5	-0.16431673
22	0x3e582a0c	0.2110979
23	0xbe71803a	-0.23584071
24	0xbe963f29	-0.29345062
25	0xbd89868f	-0.06715118
26	0xba7894f4	-0.0009482645
27	0xbe477d1e	-0.19481322
28	0xbe246fff	-0.16058348
29	0xbca8be38	-0.020598516
30	0xbee77b01	-0.45211032
31	0xbdb39653	-0.087689064
32	0xbd80c735	-0.06287996
33	0x3d03d08b	0.032181304
34	0xbdeef02e	-0.116669044
35	0xbdd4bc26	-0.10387449
36	0x3e293133	0.16522674
37	0x3e2c5e9a	0.16832963
38	0x3e13b085	0.14422806
39	0x3c5d4010	0.013504043
40	0x3d9f1526	0.077677056
41	0x3ce1fa34	0.027585126
42	0xbebd622b	-0.3698896
43	0x3cfbe099	0.030746745
44	0xbbffaf12	-0.0078028524
45	0xbdab50bc	-0.08365008
46	0xbe2ad2ae	-0.1668193
47	0xbed970d9	-0.42468908
48	0x3dd778a5	0.10521058
49	0xbc7e705d	-0.015529719
50	0xbe35108a	-0.1768209
51	0xbe886332	-0.2663818
52	0xbd929431	-0.071571715
53	0xbe941863	-0.28924856
54	0x3e24255b	0.16029875
55	0xbdadd318	-0.084875286
56	0xbe275242	-0.16339973
57	0xbe6a984d	-0.2290966
58	0xbe1db24b	-0.15400045
59	0xbca0b4a2	-0.019617382
60	0xbd27abc5	-0.040935297
61	0x3ddfabd1	0.10921443
62	0xbe1e1a79	-0.15439786
63	0x3d5ca3be	0.053867094
64	0x3d586003	0.05282594
65	0xbdd8a9fa	-0.105792955
66	0x3d2f379b	0.04277764
67	0xbd257d9a	-0.040402986
68	0xbdad94ba	-0.08475633
69	0xbecfe073	-0.4060093
70	0xbdda67bf	-0.10664319
71	0xbef89191	-0.48548558
72	0xbda87c2d	-0.0822681
73	0xbdb90182	-0.09033491
74	0xbe78c4b9	-0.24293794
75	0xbe1f2cdf	-0.1554446
76	0x3db6c7f0	0.08924854
77	0xbf0552a3	-0.5207922
78	0xbe19a3d7	-0.15003906
79	0xbe998ec6	-0.2999174
80	0x3d11f3ea	0.035633005
81	0xbd771244	-0.060320154
82	0xbeb03bb3	-0.34420547
83	0x3d8c3cf3	0.06847563
84	0xbf310767	-0.6915192
85	0xbdf40967	-0.11915856
86	0xbe0a987f	-0.13534735
87	0x3d2c8d2e	0.042126827
88	0xbec88926	-0.39167136
89	0xbd9d4946	-0.076799914
90	0x3ec3af26	0.38219565
91	0xbe64d4f8	-0.22346866
92	0x3d5976bd	0.053091753
93	0xbe3b1a7a	-0.18271819
94	0x3df28ba6	0.11843042
95	0xbe3aec54	-0.18254215
96	0xbd6ee3db	-0.05832277
97	0x3dcdabc9	0.10042531
98	0xbe228db9	-0.15874375
99	0x3e308461	0.17237999
100	0xbcb06974	-0.021534659
101	0xbdd53200	-0.10409927
102	0xbe11a35d	-0.14222474
103	0x3dba37ab	0.09092649
104	0x3d8157b8	0.06315559
105	0xbdeaa30f	-0.11456882
106	0xbe004739	-0.1252717
107	0x3e523eb0	0.20531726
108	0xbcc9dc1a	-0.024641085
109	0xbd8639c5	-0.065539874
110	0x3e7dee18	0.24797857
111	0xbd03b33c	-0.032153353
112	0x3db5a171	0.08868683
113	0xbbc4de63	-0.006007956
114	0x3d2938db	0.041313987
115	0x3d5b3fc6	0.053527616
116	0xbc8d2ac4	-0.017232306
117	0xbd9176de	-0.0710275
118	0xbe040ff3	-0.12896709
119	0xbe19bf1a	-0.15014306
120	0x3e4d0685	0.20022018
121	0xbe46a0a0	-0.19397211
122	0xbe82d9d3	-0.25556812
123	0x3e04ec50	0.12980771
124	0x3d33e0f3	0.0439157
125	0x3e3292f0	0.17438865
126	0x3e559f80	0.20861626
127	0x3da0cbec	0.07851395
128	0xbd166fc1	-0.03672767
129	0xbe55639a	-0.20838776
130	0xbea167ea	-0.31524593
131	0xbdcdcbf2	-0.10048665
132	0x3df8ed83	0.12154677
133	0x3d8a3d39	0.067499585
134	0xbe8c8160	-0.27442455
135	0xbe6879fc	-0.22702783
136	0xbed57c3d	-0.4169635
137	0xbd04a85a	-0.032387115
138	0xbdc3433e	-0.0953431
139	0xbe8e4772	-0.27788883
140	0xbe7638be	-0.24045083
141	0xbeef954b	-0.4679359
142	0x3d00a815	0.031410296
143	0xbd4f687f	-0.050636765
144	0xbe7ec2d1	-0.24879004
145	0xbe2235af	-0.15840791
146	0xbde7df13	-0.11321845
147	0xbdb29b63	-0.08721044
148	0x3d010abb	0.031504374
149	0xbe563ec5	-0.20922382
150	0x3da94874	0.082657725
151	0x3ea0fc79	0.3144262
152	0xbd5f1620	-0.05446446
153	0x3d3bd983	0.045861732
154	0xbea49604	-0.32145703
155	0xbbcf0b6e	-0.006318501
156	0x3db310a7	0.087434106
157	0xbe9f9995	-0.3117186
158	0xbe9c650b	-0.3054584
159	0xbf35b272	-0.7097541
160	0x3ec5d561	0.38639358
161	0xbf134e72	-0.57541573
162	0xbe8a3e19	-0.27000502
163	0x3e4d8512	0.20070294
164	0xbcf4f411	-0.029901536
165	0xbe7810d3	-0.24225168
166	0xbde82640	-0.113354206
167	0x3ed62fe4	0.41833413
168	0x3d582b5f	0.052775737
169	0xbdf4e9d6	-0.11958663
170	0xbed9cb1a	-0.42537767
171	0xbe96eddb	-0.29478344
172	0x3b70a27b	0.003671794
173	0xbdd2f881	-0.103013046
174	0x3ea40eea	0.3204263
175	0xbe9de083	-0.3083535
176	0xbec6d45b	-0.3883389
177	0xbe39e695	-0.18154366
178	0xbe2275ff	-0.15865324
179	0xbe06245d	-0.13099809
180	0x3cfa885a	0.030582596
181	0xbecfceb4	-0.4058739
182	0xbe8a7027	-0.2703869
183	0xbd3e7d00	-0.046505928
184	0xbdcd3739	-0.100202985
185	0x3e8b6ee3	0.27233037
186	0xbe3b2990	-0.18277574
187	0xbd74a0c0	-0.059723616
188	0xbeb580cc	-0.35449827
189	0x3c136b7a	0.008997792
190	0xbd0882c8	-0.033327848
191	0xbe1b700e	-0.15179464
192	0x3d0cb7a3	0.034354817
193	0xbc5f6e12	-0.013637083
194	0x3e2ba324	0.16761452
195	0xbe634a5e	-0.22196338
196	0xbde01c91	-0.109429486
197	0xbd74680e	-0.059669547
198	0x3d0ea9f4	0.03483005
199	0xbeed7935	-0.46381536
200	0xbe3dd5a8	-0.18538535
201	0xbd56448f	-0.052311476
202	0xbd8b5440	-0.06803179
203	0xbf0e5516	-0.5559858
204	0xbe501fb8	-0.203246
205	0xbe83fad7	-0.25777313
206	0xbec23988	-0.37934518
207	0xbe2a9a04	-0.16660315
208	0xbe857bb5	-0.26070943
209	0x3b95c4ff	0.004570603
210	0x3cf08d80	0.029364347
211	0x3e00db9d	0.12583776
212	0xbe237eef	-0.1596639
213	0xbdc1c12f	-0.09460675
214	0xbcf4bd87	-0.02987553
215	0x3db6dde9	0.08929045
216	0xbed022a0	-0.40651417
217	0xbd659a5a	-0.056055404
218	0x3e209a19	0.15683784
219	0xbdffc9e0	-0.124896765
220	0xbe953df7	-0.29148838
221	0xbaed4385	-0.0018101787
222	0xbca2770f	-0.019832162
223	0xbe04ad5e	-0.1295676
224	0xbe1aecfc	-0.15129465
225	0xbe839e7c	-0.2570685
226	0xbd858e9b	-0.065213405
227	0x3db7532f	0.08951413
228	0xbe201c20	-0.15635729
229	0x3ecff3a3	0.40615568
230	0xbe761f85	-0.24035461
231	0xbe7802d9	-0.24219836
232	0x3dc022eb	0.0938166
233	0xbe9235aa	-0.28556567
234	0xbe5a503d	-0.21319671
235	0x3ed485a7	0.4150822
236	0x3d4897e1	0.048972968
237	0x3daafc38	0.08348888
238	0xbd7b0205	-0.061281223
239	0x3dc1f666	0.09470825
240	0xbd929048	-0.07156426
241	0x3d2cd3b6	0.04219409
242	0x3c968848	0.01837553
243	0xbe943602	-0.28947455
244	0x3de65246	0.11246161
245	0x3ce2f94b	0.027706763
246	0xbe99ba95	-0.30025163
247	0xbe61c9ae	-0.22049591
248	0x3e0d7c71	0.13817002
249	0x3d7e789d	0.062126745
250	0x3dca11a1	0.09866644
251	0xbd7095fb	-0.058736783
252	0x3b45750b	0.0030129577
253	0x3e35bbdf	0.17747448
254	0xbe38bc2c	-0.18040532
255	0x3e2a8920	0.16653872

net.network.2.weight_1 f4 [64, 128]
0	0x3ec6be96	0.3881728
1	0x3e16ad13	0.1471446
2	0xbe9cbf98	-0.30614924
3	0x3dddd464	0.10831526
4	0xbd44483c	-0.04792045
5	0x3ebf45af	0.37357852
6	0xbed2397a	-0.41059476
7	0xbe584280	-0.21119118
8	0xbd474b69	-0.0486559
9	0xbe280fe2	-0.16412309
10	0x3ed064a2	0.40701777
11	0xbe867d45	-0.26267448
12	0x3d8760d4	0.066102654
13	0xbf21d122	-0.63209736
14	0xbde1eaab	-0.110310875
15	0xbd40928a	-0.04701475
16	0xbe2afa45	-0.16697033
17	0xbebf48f7	-0.37360355
18	0x3e9a7099	0.3016403
19	0x3e592cd5	0.21208508
20	0x3e6546ee	0.22390339
21	0x3d1956bc	0.037436232
22	0x3e67e93c	0.22647566
23	0x3e2c26b3	0.16811638
24	0xbed07c07	-0.40719625
25	0x3ea127c0	0.3147564
26	0x3e1b947d	0.15193363
27	0xbdf890fa	-0.12137027
28	0xbd455241	-0.048174147
29	0x3df7c667	0.12098389
30	0xbe89630c	-0.2683338
31	0xbdbdd803	-0.092697166
32	0xbe7c06ae	-0.24611923
33	0xbcc39d8b	-0.023878833
34	0x3cb83e4b	0.022490641
35	0x3e5d08c2	0.21585372
36	0x3e9d3970	0.30707884
37	0x3edf0ec7	0.43565962
38	0x3e4dffb8	0.2011708
39	0x3e8668f6	0.26251954
40	0x3e3fd88b	0.18734948
41	0xbc953ef9	-0.018218504
42	0xbecda8c2	-0.40167814
43	0x3d89ce3d	0.0672879
44	0xbc015b94	-0.007895369
45	0x3d8f1f4b	0.069883905
46	0xbdd793da	-0.10526247
47	0xbe323118	-0.1740154
48	0x3b9e4cfb	0.004830954
49	0x3e3ea326	0.18616924
50	0xbe658db0	-0.2241733
51	0xbde2e8d4	-0.11079565
52	0x3e32c596	0.17458186
53	0xbe855a8a	-0.26045638
54	0xbdb392b9	-0.087682195
55	0x3e97a850	0.296206
56	0xbe509d34	-0.20372468
57	0xbe4c534b	-0.19953649
58	0xbe8e61fe	-0.27809137
59	0x3efc39a7	0.49262735
60	0x3e475f5a	0.19469967
61	0x3e42459e	0.1897187
62	0xbe22d142	-0.15900138
63	0x3eed59f4	0.4635769
64	0x3ea7c9ec	0.32771242
65	0x3d3f68c3	0.046730768
66	0x3eb71962	0.35761553
67	0xbbd4bb6f	-0.0064920704
68	0x3e224f1e	0.15850493
69	0xbe43b27a	-0.19111052
70	0x3cef67de	0.029224332
71	0xbef43f44	-0.47704518
72	0xbd0d66c6	-0.03452184
73	0xbe050082	-0.12988475
74	0xbe698b1d	-0.22806974
75	0xbe2b4da6	-0.1672884
76	0x3e31b9c6	0.17356023
77	0xbed035af	-0.40665957
78	0xbe30a582	-0.17250636
79	0xbeb4de12	-0.35325676
80	0x3dc1b946	0.09459166
81	0xbeb4f213	-0.35340938
82	0xbd796cce	-0.06089478
83	0x3df7b2d5	0.120946564
84	0xbf144d3a	-0.5793034
85	0x3bdcc196	0.0067369444
86	0xbd0e12d7	-0.034685936
87	0x3e78ad2d	0.24284811
88	0xbe1bffc6	-0.15234289
89	0x3e027998	0.12741697
90	0x3ea9f225	0.33192554
91	0x3e091331	0.13386227
92	0x3ea2599d	0.31708995
93	0xbf0948b8	-0.53626585
94	0x3de63341	0.11240245
95	0x3dc06397	0.09393995
96	0x3efce01e	0.49389738
97	0x3dd59838	0.10429424
98	0x3e7ba387	0.245741
99	0x3e79b045	0.24383648
100	0x3dbbd797	0.0917198
101	0xbcb72dc2	-0.022360686
102	0xbe1ac84e	-0.15115473
103	0x3d80ac52	0.062828675
104	0x3e886f69	0.266475
105	0xbe76e672	-0.24111345
106	0x3de3717b	0.11105629
107	0x3dbcbb7c	0.09215447
108	0x3e0e16e5	0.13875921
109	0x3d333f5f	0.043761607
110	0x3eaaa4c6	0.33328837
111	0x3dfe7beb	0.12425979
112	0x3e943e60	0.28953838
113	0xbd6f75a8	-0.058461815
114	0xbc06ead2	-0.008234696
115	0xbe2cf0d3	-0.16888742
116	0x3e333725	0.17501505
117	0xbe5876ce	-0.2113907
118	0xbe80debc	-0.25169933
119	0xbed3666a	-0.41289073
120	0x3d60f518	0.05492124
121	0xbe0719e6	-0.13193473
122	0xbe44a711	-0.19204356
123	0x3e169ba7	0.14707814
124	0x3e9dc289	0.3081248
125	0x3e891c78	0.26779532
126	0x3dc97fbf	0.09838819
127	0x3d7f4712	0.062323637
128	0xbea67438	-0.32510543
129	0xbe95af5c	-0.2923535
130	0xbecbbbf7	-0.39791843
131	0xbeba0ab6	-0.36336297
132	0x3b07a6ac	0.002069871
133	0x3e30c637	0.17263113
134	0xbee0ef34	-0.43932498
135	0xbe4f458e	-0.20241377
136	0x3df68873	0.120377444
137	0xbe3b6dec	-0.1830365
138	0xbe118a2b	-0.14212863
139	0xbdfa7654	-0.122296005
140	0xbeb01aaf	-0.34395358
141	0x3d9c8aea	0.07643683
142	0xbe563a5d	-0.20920701
143	0xbe43ecde	-0.19133326
144	0xbd09b7d8	-0.033622593
145	0xbc7f6d0f	-0.015589966
146	0xbeeccd76	-0.46250504
147	0xbceb66a6	-0.02873547
148	0xbd9bbabd	-0.07603977
149	0xbef328cd	-0.47492066
150	0xbe68e45c	-0.22743362
151	0x3e8dea41	0.27717784
152	0xbe38cfa3	-0.18047957
153	0x3e1c13dc	0.15241951
154	0xbea4b0bc	-0.32166088
155	0xbddf3c93	-0.109002255
156	0xbc258399	-0.010102176
157	0xbde5d149	-0.112215586
158	0xbee7c52b	-0.45267615
159	0xbe789055	-0.24273808
160	0x3e2b5a8f	0.16733764
161	0xbe8afdbf	-0.27146718
162	0xbd929e1f	-0.071590655
163	0x3cc003cd	0.023439312
164	0x3def866a	0.11695559
165	0xbeca69fd	-0.39533988
166	0xbe9a3869	-0.30121163
167	0x3e119864	0.14218289
168	0xbdaa9f60	-0.083311796
169	0x3c82e464	0.015978046
170	0xbecc22b1	-0.39870217
171	0xbf0784d7	-0.5293707
172	0x3bf1f96a	0.007384469
173	0xbe67b81a	-0.22628823
174	0x3dd3bb37	0.10338443
175	0xbe99bbd6	-0.3002612
176	0xbe5c37c2	-0.21505645
177	0xbf070bd6	-0.52752435
178	0xbdccbc3c	-0.0999684
179	0xbe4fcefa	-0.20293799
180	0xbe26f608	-0.16304791
181	0xbd84b532	-0.06479873
182	0x3d3b7b1a	0.045771696
183	0xbe4d6004	-0.20056158
184	0xbdb92f1e	-0.0904219
185	0x3e6b4ade	0.22977778
186	0xbd8a76bd	-0.06760929
187	0xbce81b6d	-0.02833339
188	0xbe7770fd	-0.24164195
189	0xbbba2430	-0.0056805834
190	0xbee34201	-0.44386294
191	0xbde24093	-0.11047473
192	0xbe5921aa	-0.21204248
193	0xbec05fe2	-0.37573153
194	0xbe5ee99e	-0.21768805
195	0xbe8a7a4f	-0.2704644
196	0xbe8cb4ab	-0.2748159
197	0xbe34a91e	-0.17642638
198	0xbc9a32ff	-0.018823145
199	0xbe175949	-0.14780153
200	0xbe26db38	-0.16294563
201	0x3df1b492	0.11802019
202	0xbe39331b	-0.18085901
203	0xbef00f26	-0.46886557
204	0xbd7db354	-0.0619386
205	0xbe1471f5	-0.14496596
206	0xbc82f94d	-0.015988017
207	0xbea84378	-0.32863975
208	0xbe91d5f4	-0.28483546
209	0xbe2c640e	-0.16835043
210	0x3cde7c5c	0.027158909
211	0x3e782a1d	0.24234815
212	0xbe51b2a9	-0.2047831
213	0xbe26f906	-0.16305932
214	0x3d68e606	0.056859992
215	0xbe88f054	-0.26745856
216	0xbf10e8c4	-0.5660517
217	0xbdac9b13	-0.084280156
218	0x3f095a0a	0.53653014
219	0xbe8bd706	-0.27312487
220	0xbe1c9f78	-0.15295208
221	0x3e06514f	0.13116954
222	0x3e40c66d	0.18825693
223	0xbd4f57b0	-0.050620735
224	0x3da04614	0.07825866
225	0xbe844741	-0.25835612
226	0xbe84da74	-0.25947917
227	0x3e154c97	0.14579998
228	0xbeb30da4	-0.34971344
229	0x3e43a9e4	0.19107777
230	0x3b2e2e6e	0.0026577967
231	0xbe5810d1	-0.21100165
232	0xbe69fb95	-0.22849877
233	0xbea6043b	-0.32425103
234	0xbd0a0176	-0.0336928
235	0x3eabede8	0.33579946
236	0x3de6da0e	0.112720594
237	0xbdd90a36	-0.10597651
238	0x3d7cedef	0.06175035
239	0xbd57a68c	-0.052649066
240	0x3e684fc4	0.22686678
241	0xbdc8afbd	-0.097991444
242	0xbe04de37	-0.12975393
243	0x3da8987f	0.08232211
244	0x3da3e8a1	0.08003355
245	0xbdb2c76f	-0.08729445
246	0xbe895642	-0.26823622
247	0xbc951da5	-0.018202612
248	0xbe56058c	-0.20900553
249	0x3e115e30	0.14196086
250	0x3e42c204	0.19019324
251	0xbe50a9af	-0.20377229
252	0x3e1ce1fe	0.15320584
253	0xbd50cd13	-0.050976824
254	0x3de6fc6e	0.11278616
255	0x3de31333	0.11087646

net.network.2.bias_0 f4 [64]
0	0xbe6ee0a9	-0.23327889
1	0xbea8fb82	-0.33004385
2	0xbe63cbdc	-0.22245735
3	0x3e468bd9	0.19389285
4	0xbe2073fd	-0.15669246
5	0xbe1864c4	-0.14882189
6	0xbe91f9ab	-0.28510794
7	0xbdf25405	-0.11832432
8	0xbca73456	-0.020410698
9	0xbde5704c	-0.112030596
10	0x3e11781f	0.14205979
11	0xbe7ec629	-0.2488028
12	0xbd0b19ef	-0.03396028
13	0xbe085e21	-0.13317157
14	0xbe0a7f07	-0.1352502
15	0xbd902b86	-0.070395514
16	0xbc7026b1	-0.014657662
17	0xbe06749b	-0.13130419
18	0xbf1b9bbd	-0.6078451
19	0xbec095e2	-0.37614352
20	0xbdc19674	-0.09452525
21	0xbd778dda	-0.060438015
22	0x3d205cde	0.039151065
23	0xbe2e9c34	-0.17051774
24	0x3dd6c6d2	0.10487141
25	0xbe803b2c	-0.25045145
26	0xbeadf512	-0.33976036
27	0xbf1c62f7	-0.6108851
28	0xbe18bf96	-0.14916834
29	0x3e61cf32	0.22051695
30	0xbd6da9dd	-0.058023322
31	0xbe8aa069	-0.27075508
32	0xbeb7d8f9	-0.35907724
33	0x3e541561	0.2071128
34	0x3e80d7ed	0.25164738
35	0x3d8c07c0	0.06837416
36	0xbc8be505	-0.017076978
37	0xbc36e7be	-0.01116365
38	0xbe9b403c	-0.30322444
39	0xbea5d912	-0.32392174
40	0xbe7e9e78	-0.24865139
41	0xbe8b1623	-0.27165326
42	0x3e1f53f3	0.15559368
43	0xbea8cdfe	-0.3296966
44	0xbeeb07ce	-0.45904392
45	0xbe5865c5	-0.21132572
46	0xbe469e9b	-0.1939644
47	0xbddab754	-0.10679498
48	0xbecd1bb4	-0.40060198
49	0xbdbfad4c	-0.09359226
50	0x3d10fe29	0.035398636
51	0xbd421ae6	-0.047388934
52	0xbe93432a	-0.2876218
53	0xbec63ca3	-0.38718137
54	0xbe0e750f	-0.13911842
55	0xbf2092a2	-0.62723744
56	0xbec2f79d	-0.3807954
57	0xbde71e65	-0.11285094
58	0xbe37cd5a	-0.17949429
59	0xbeb77b61	-0.35836318
60	0xbdb34f90	-0.0875541
61	0xbe9ff467	-0.31241152
62	0x3d19e134	0.037568286
63	0xbf155541	-0.5833321

net.network.2.bias_1 f4 [64]
0	0xbd92b395	-0.07163159
1	0xbe7de4dd	-0.24794336
2	0xbe8f24fc	-0.27957904
3	0x3c9e2c00	0.01930809
4	0xbe2bb1e1	-0.16767074
5	0xbe6f4f81	-0.23370172
6	0xbe8f2614	-0.2795874
7	0xbe82d91d	-0.2555627
8	0xbe0e9916	-0.13925585
9	0xbe76b398	-0.24091947
10	0x3d60f574	0.054921582
11	0xbea39bfa	-0.31954938
12	0xbd6cc761	-0.05780733
13	0xbcdc02ab	-0.026856741
14	0xbe775923	-0.24155097
15	0xbd99193e	-0.07475518
16	0xbddf3154	-0.108980805
17	0xbdea097e	-0.11427592
18	0xbef555f2	-0.47917134
19	0xbf1756ac	-0.59116626
20	0xbe793a6f	-0.24338697
21	0xbde3fc01	-0.1113205
22	0xbddd512a	-0.108064964
23	0xbe698a17	-0.22806583
24	0x3e653729	0.22384323
25	0xbe462036	-0.19348225
26	0xbec51366	-0.38491362
27	0xbf08ce2e	-0.53439605
28	0xbe04fa4f	-0.1298611
29	0x3ec5496c	0.3853258
30	0xbd900ec2	-0.07034065
31	0xbf05647e	-0.52106464
32	0xbeb5364d	-0.3539299
33	0x3e903799	0.28167418
34	0x3d8d8a83	0.06911185
35	0x3d256db8	0.04038784
36	0xbd7484ea	-0.05969707
37	0xbc383811	-0.011243836
38	0xbe38477c	-0.17996019
39	0xbe915bb9	-0.2839029
40	0xbe2c01ff	-0.16797636
41	0xbe6e1be3	-0.23252825
42	0x3e2a1e95	0.16613229
43	0xbece91be	-0.40345567
44	0xbed73c69	-0.42038277
45	0xbd64d74d	-0.05586939
46	0x3d0d730c	0.034533545
47	0xbdf289f8	-0.11842722
48	0xbdfbfe6a	-0.12304385
49	0xbd91cfa6	-0.07119684
50	0xbca1a049	-0.01972975
51	0x3c3cc0d1	0.01152058
52	0xbe07207e	-0.13195989
53	0xbebb099d	-0.36530772
54	0xbe3930a3	-0.1808496
55	0xbf0a293c	-0.5396917
56	0xbef5bdc5	-0.47996345
57	0xbe96a83a	-0.29425222
58	0xbde3b6f3	-0.11118879
59	0xbe699f34	-0.22814637
60	0xbd264b26	-0.04059901
61	0xbeab8be9	-0.3350518
62	0x3e0ae388	0.13563359
63	0xbf0149dd	-0.5050333

net.network.4.weight_0 f4 [16, 64]
0	0xbdd37858	-0.10325688
1	0xbded6135	-0.115908064
2	0x3d5dc95d	0.054147113
3	0xbe3eb270	-0.18622756
4	0xbd2952ae	-0.041338615
5	0x3d36f006	0.044662498
6	0x3dd54efc	0.10415456
7	0xbe966da7	-0.29380533
8	0x3d8e642a	0.069526985
9	0xbe67e82a	-0.22647157
10	0x3d5ab08d	0.05339103
11	0x3e537471	0.20649888
12	0x3dcd6dfe	0.10030745
13	0xbdf1665d	-0.11787102
14	0xbcebbe4f	-0.02877727
15	0xb9d57567	-0.00040713997
16	0x3eec7cfd	0.46189108
17	0x3cee2794	0.029071607
18	0x3e56cf02	0.20977405
19	0x3e39a5dc	0.18129677
20	0xbec6601f	-0.3874521
21	0x3e32862a	0.17433992
22	0xbe093d53	-0.134023
23	0xbdbaa4c6	-0.09113459
24	0xbd97c2f6	-0.07410233
25	0x3e3c1b88	0.18369877
26	0xbe83464d	-0.25639573
27	0x3e570ff6	0.21002182
28	0x3c9cb52d	0.01912936
29	0xbd8705ad	-0.065928794
30	0xbb8e7fbb	-0.0043487228
31	0x3d046eec	0.032332346
32	0xbeb08ebc	-0.34483898
33	0xbdbbb502	-0.09165384
34	0xbe675af0	-0.22593284
35	0xbca70ce9	-0.020391898
36	0xbd9da01a	-0.076965526
37	0x3d1a34d6	0.037648045
38	0xbe03e5d4	-0.12880641
39	0x3d60d9f8	0.05489537
40	0xbec6b42c	-0.38809335
41	0xbc5ee552	-0.013604479
42	0x3c07e6b2	0.008294748
43	0x3e992141	0.29908183
44	0x3e6c286d	0.23062296
45	0xbd7ea2e6	-0.06216707
46	0x3dc214ac	0.09476599
47	0xbe3ae80b	-0.1825258
48	0x3d175bdb	0.036952835
49	0xbd1ab081	-0.037765983
50	0x3d90cb9e	0.07070087
51	0xbd863510	-0.065530896
52	0x3d349460	0.044086814
53	0x3dc8a83f	0.097977154
54	0xbde3e7de	-0.111282095
55	0xbe3e2e62	-0.18572381
56	0x3cb12884	0.021625765
57	0x3f02e6ae	0.5113324
58	0x3e277b9f	0.16355751
59	0xbc8640f5	-0.016388396
60	0xbd7b91ef	-0.06141847
61	0xbbbd6653	-0.0057800203
62	0xbdf18482	-0.11792852
63	0xbf15ea65	-0.5856078
64	0xbec2f978	-0.38080955
65	0x3e47232e	0.19447014
66	0x3e9fd008	0.31213403
67	0x3e033321	0.12812473
68	0x3e10bbec	0.14134187
69	0xbe4f7780	-0.2026043
70	0x3dde737f	0.10861873
71	0xbf134a1f	-0.57534975
72	0x3c800cf1	0.015631171
73	0xbf31cc00	-0.69451904
74	0x3e8c7b02	0.27437598
75	0x3dcb2432	0.09919013
76	0x3e034c87	0.12822162
77	0x3bf15624	0.007365005
78	0x3e0db1ea	0.138374
79	0xbd5e3e5d	-0.054258693
80	0xbe1589ef	-0.14603399
81	0xbe0c8926	-0.13724193
82	0x3f27d52e	0.6555966
83	0x3e14f4c7	0.145465
84	0xbf34dd8c	-0.70650554
85	0x3e483454	0.19551212
86	0xbc252b3c	-0.010081109
87	0x3e251b20	0.16123629
88	0x3dd90a34	0.10597649
89	0x3ea24619	0.31694105
90	0xbdcfb880	-0.101426125
91	0x3d8ba6ac	0.068188995
92	0xbcfae81d	-0.030628258
93	0x3e23fa4c	0.1601345
94	0x3d5aa9a3	0.053384434
95	0xbefa67e8	-0.489074
96	0xbeea4713	-0.4575735
97	0x3e197701	0.14986803
98	0x3e7afbd5	0.24510129
99	0x3d12edf3	0.035871457
100	0xbd633a27	-0.05547538
101	0x3c020581	0.007935883
102	0x3e28ca8c	0.16483516
103	0x3e12912c	0.14313191
104	0xbf2f10dc	-0.683851
105	0x3d8044b2	0.062631026
106	0x3ee3c888	0.4448893
107	0x3d72b0a8	0.059250504
108	0xbd23d87e	-0.040001385
109	0x3e4699a0	0.19394541
110	0x3e883e6c	0.26610124
111	0xbdc47f33	-0.09594574
112	0xbe7089a3	-0.23490004
113	0xbdc4a2a9	-0.096013375
114	0x3cabdf96	0.020980638
115	0x3d15ac27	0.03654113
116	0x3e32f577	0.1747645
117	0x3edaa7d7	0.42706177
118	0x3eebf53b	0.46085533
119	0x3e8d322f	0.2757735
120	0xbd82e0cc	-0.06390533
121	0x3f12911f	0.5725269
122	0x3e8178be	0.2528743
123	0x3f13addd	0.5768717
124	0x3dec253e	0.11530541
125	0x3c9347b6	0.01797853
126	0x3e838999	0.25690916
127	0xbecff425	-0.40615955
128	0xbdcaf3fb	-0.09909817
129	0x3d384dd9	0.044996116
130	0x3ed06ca5	0.4070789
131	0xbea182e9	-0.3154519
132	0x3ddcfb2f	0.10790097
133	0x3c6fec33	0.014643717
134	0x3ea58b82	0.32333
135	0xbf34d2b4	-0.7063401
136	0xbda20f7c	-0.0791311
137	0xbefd3c99	-0.49460295
138	0xbcab80ff	-0.020935534
139	0x3ead8e16	0.33897465
140	0x3ee7295a	0.45148736
141	0x3cfcb1f3	0.030846572
142	0xbd6b0640	-0.057379007
143	0x3dc97b50	0.09837973
144	0x3c003726	0.007825648
145	0xbc7b801e	-0.01535037
146	0xbf1a6e10	-0.6032419
147	0x3ef8f750	0.48626184
148	0xbf09299e	-0.5357913
149	0x3cad114b	0.02112641
150	0xbe62c113	-0.22143964
151	0x3e22b56c	0.1588952
152	0xbe68931b	-0.22712366
153	0xbe76ccf1	-0.24101616
154	0xbf2aabab	-0.66668195
155	0xbed0a3ca	-0.4074996
156	0x3d944b97	0.0724098
157	0x3d81db34	0.06340638
158	0x3d228def	0.03968614
159	0x3e10bb0a	0.1413385
160	0xbf3ba327	-0.73295826
161	0xbe3e90b6	-0.1860989
162	0xbf223526	-0.6336235
163	0x3db97c1e	0.090568766
164	0xbd33ec8f	-0.04392677
165	0x3ddd8421	0.10816217
166	0xbe3270e8	-0.17425883
167	0x3cff7131	0.031181904
168	0xbef5c223	-0.47999677
169	0x3e1d2c08	0.15348828
170	0xbdaede9c	-0.08538553
171	0x3e6065d5	0.21913846
172	0x3ee3d61a	0.44499284
173	0x3e90ac25	0.28256336
174	0x3eeb5089	0.4595988
175	0x3ccc4de3	0.024939483
176	0x3d9dad17	0.0769903
177	0x3d590891	0.052986685
178	0xbba0c6c5	-0.0049065077
179	0x3d106b3b	0.035258513
180	0x3e8394d0	0.25699472
181	0x3e617eca	0.22021022
182	0xbb1e088b	-0.0024113979
183	0xbec6ae1e	-0.38804716
184	0xbdf43bd3	-0.11925473
185	0x3f41e4cd	0.7573975
186	0x3e0db39a	0.13838044
187	0x3d7caae8	0.061686426
188	0xbdbc0519	-0.0918066
189	0xbd969c17	-0.073539905
190	0xbc769fa5	-0.015052711
191	0xbee96aa7	-0.45589182
192	0x3e1a0d05	0.15044029
193	0x3e3b7714	0.18307143
194	0x3dfc0c88	0.12307078
195	0xbe6d3f35	-0.23168643
196	0x3e9373aa	0.28799182
197	0x3e050eb7	0.12993895
198	0x3e1066f8	0.1410178
199	0xbf105682	-0.56382
200	0xbd8d75dc	-0.069072455
201	0xbf25780b	-0.64636296
202	0x3e6ed236	0.23322377
203	0x3ea71a55	0.32637277
204	0x3e585f77	0.21130167
205	0x3c3421ce	0.010994388
206	0x3ebe6660	0.3718748
207	0xbd12e2e8	-0.035860926
208	0xbe481c9a	-0.1954216
209	0x3cbb5d8a	0.022871751
210	0xbe1aba15	-0.15110047
211	0x3e339c3c	0.17540067
212	0xbf103733	-0.5633423
213	0xbc231e22	-0.009955915
214	0xbd8e00b1	-0.069337256
215	0x3dbd6c33	0.09249153
216	0x3daf5cde	0.08562635
217	0x3de444bd	0.11145923
218	0xbe0d7724	-0.1381498
219	0xbf24d8c4	-0.6439326
220	0x3d865262	0.06558682
221	0x3e917377	0.28408405
222	0x3d73cbb1	0.059520427
223	0x3d891b73	0.06694689
224	0xbf09a6dc	-0.5377023
225	0x3e48e49c	0.19618458
226	0xbe88d40c	-0.2672428
227	0x3de4fcf3	0.11181059
228	0x3cc00bba	0.023443092
229	0x3dbe0854	0.09278932
230	0x3e831907	0.25605032
231	0x3de9d388	0.114172995
232	0xbf169473	-0.58820266
233	0x3922b059	0.00015515219
234	0xbdaefbb1	-0.085441
235	0x3e37c6b8	0.17946899
236	0x3ec4044e	0.38284534
237	0xbe401172	-0.18756655
238	0x3ec09c4b	0.37619242
239	0xbd900718	-0.07032603
240	0x3dee82ba	0.11646028
241	0x3e3f23b5	0.18665965
242	0xbdd1d87c	-0.10246369
243	0xbc2cfe64	-0.010558698
244	0x3e54206e	0.20715496
245	0x3ee610f3	0.44934806
246	0x3f1355d5	0.57552844
247	0x3d675f48	0.05648735
248	0x3dbb6cb2	0.09151591
249	0x3f80bab7	1.0056981
250	0x3c243ff5	0.010025014
251	0x3e379769	0.17928852
252	0x3d59af27	0.053145554
253	0x3db41ddf	0.0879476
254	0xbd420ec2	-0.047377355
255	0xbea73a31	-0.32661584
