models/adult/rs/adam_epochs40_lr0.004_batch128_dropout0/bezier_47.pth (torch, 87766 bytes, 19 tensors)

coeff_layer.binom f4 [2]
0	0x3f800000	1.0
1	0x3f800000	1.0

coeff_layer.range f4 [2]
0	0x00000000	0.0
1	0x3f800000	1.0

coeff_layer.rev_range f4 [2]
0	0x3f800000	1.0
1	0x00000000	0.0

net.network.0.weight_0 f4 [128, 6]
0	0xbee1e8f5	-0.44123045
1	0xbeb0747d	-0.34463874
2	0xbc800d08	-0.015631214
3	0x3f7d4ca3	0.98945063
4	0x3dafb4ab	0.085793816
5	0xbeae373e	-0.3402652
6	0x3f1a3575	0.6023782
7	0xbe86763c	-0.2626208
8	0xbf27f486	-0.6560749
9	0xb9b220ec	-0.00033975334
10	0x3dcbb69b	0.099469386
11	0x3de5af76	0.11215107
12	0xbed1d95f	-0.40986153
13	0x3d6a5daa	0.05721823
14	0xbed1c15a	-0.40967828
15	0xbf40d20f	-0.75320524
16	0x3cdb50dd	0.026771957
17	0xbf404b2f	-0.7511472
18	0xbe9fccd4	-0.3121096
19	0xbf1b5ce6	-0.60688627
20	0xbe37c800	-0.17947388
21	0xbdbfc812	-0.09364332
22	0xbea9090b	-0.33014712
23	0xbe1618d0	-0.14657903
24	0xbef37c1d	-0.47555628
25	0x3d73afd6	0.059493862
26	0xbe72f121	-0.23724796
27	0xbf0213bf	-0.5081138
28	0xbe087d15	-0.13328965
29	0xbf283581	-0.6570664
30	0xbe08a8e3	-0.13345675
31	0x3e54d447	0.20784102
32	0xbf09aa9f	-0.5377597
33	0xbf4245d9	-0.7588783
34	0xbe67f53a	-0.2265214
35	0xbdf262ba	-0.11835237
36	0x3f00f193	0.50368613
37	0x3d6cbcdc	0.057797298
38	0xbf82b016	-1.0209987
39	0xbe25b653	-0.16182832
40	0xbe9a1db7	-0.30100796
41	0xbeecdc16	-0.46261662
42	0xbe47955f	-0.19490574
43	0xbe19fb35	-0.15037234
44	0xbedc9cbd	-0.43088332
45	0xbf17e9c2	-0.5934106
46	0xbe34068d	-0.17580624
47	0xbee0270a	-0.43779784
48	0xbea01bf8	-0.31271338
49	0xbed47c8a	-0.41501266
50	0xbeef66f2	-0.4675823
51	0xbf36e726	-0.71446455
52	0xbe409068	-0.18805087
53	0xbef788b2	-0.48346478
54	0xbe9cff32	-0.3066345
55	0x3f0000a6	0.5000099
56	0xbf263d54	-0.6493733
57	0xbf9ddd84	-1.2333226
58	0x3e15a8ca	0.14615169
59	0x3eac86e1	0.33696654
60	0xbd5c0263	-0.053713214
61	0x3eaadc9a	0.3337143
62	0xbe9b18d1	-0.3029237
63	0x3f88b9ed	1.068174
64	0x3ee864b4	0.4538933
65	0x3e99d687	0.30046484
66	0x3df8161e	0.121135935
67	0xbdd39801	-0.10331727
68	0xbef75c01	-0.4831238
69	0xbca275d3	-0.019831574
70	0xbf365b6a	-0.71233237
71	0x3f32b2a6	0.69803846
72	0xbdf79f57	-0.120909385
73	0xbcff4145	-0.031159053
74	0xbe843486	-0.25821322
75	0xbedb3151	-0.42811063
76	0x3d947d6d	0.072504856
77	0xbf81ea56	-1.0149639
78	0xbdc5f6cc	-0.096662134
79	0xbf06e1a2	-0.5268804
80	0xbed3a384	-0.4133569
81	0xbefbeb4e	-0.4920296
82	0xbeafa3ed	-0.34304753
83	0x3d8443ee	0.06458269
84	0xbe6e6b46	-0.23283109
85	0xbdf0720f	-0.11740505
86	0xbe1db267	-0.15400086
87	0xbeced727	-0.40398523
88	0xbd128a86	-0.035776637
89	0xbd8c72c8	-0.0685783
90	0xbdde7102	-0.10861398
91	0xbcfa739b	-0.030572703
92	0xbdaa1cbf	-0.08306264
93	0xbd8d9f6e	-0.069151744
94	0xbf0c9ceb	-0.5492694
95	0xbf891676	-1.070998
96	0x3de46500	0.11152077
97	0x3ee7a4c0	0.45242882
98	0x3c2f2cf4	0.01069187
99	0x3e02d934	0.12778169
100	0xbe997e57	-0.29979202
101	0x3e513565	0.20430525
102	0xbd98506a	-0.07437213
103	0x3c820497	0.01587133
104	0x3e98357f	0.29728314
105	0xbf0cc4bc	-0.5498769
106	0xbdf5b43f	-0.1199727
107	0xbe0c97b4	-0.13729745
108	0x3eed3ea3	0.4633685
109	0x3c82ccb6	0.015966754
110	0xbe374dbd	-0.17900749
111	0xbe6204b4	-0.22072107
112	0xbddad647	-0.106854014
113	0x3e5754f4	0.21028501
114	0x3e1153de	0.14192149
115	0x3eddfdaf	0.43357608
116	0x3e9da889	0.30792645
117	0xbf18e0ad	-0.5971783
118	0x3e8ebc48	0.27878022
119	0x3d4ba2ee	0.04971593
120	0xbe60474e	-0.219022
121	0xbf6028e4	-0.87562394
122	0xbe3534cc	-0.17695922
123	0xbecd4f73	-0.40099677
124	0xbe8986a5	-0.26860538
125	0xbee159b2	-0.44013745
126	0xbf834f41	-1.0258561
127	0x3e3d948d	0.18513699
128	0xbf3466e1	-0.7046948
129	0xbf48d7fc	-0.78454566
130	0x3d1e37b1	0.03862733
131	0xbdc89163	-0.09793355
132	0x3bab0b19	0.005219829
133	0xbe0d3343	-0.13789086
134	0xbe89033e	-0.26760286
135	0x3f39e9fa	0.72622645
136	0x3ddb4f58	0.10708493
137	0xbe91d7bf	-0.28484914
138	0x3dc5b832	0.09654273
139	0xbe0d05f4	-0.13771802
140	0x3f1841ce	0.5947541
141	0x3ea22849	0.3167136
142	0xbf099774	-0.53746724
143	0xbe98c2ce	-0.29836124
144	0xbe72ac11	-0.2369845
145	0xbcc44cb2	-0.023962352
146	0xbf809617	-1.0045804
147	0xbf32f9c8	-0.69912386
148	0xbe8f31ea	-0.2796777
149	0xbefaca50	-0.48982477
150	0x3f1b7bda	0.6073586
151	0xbe264edc	-0.1624102
152	0xbea5d6a6	-0.32390326
153	0xbf46b38d	-0.7761772
154	0xbe3bc1ac	-0.18335599
155	0xbf73c5e0	-0.9522381
156	0xbebde9c2	-0.37092406
157	0xbdbbc0c6	-0.09167628
158	0xbe976504	-0.29569256
159	0x3f0dec3b	0.55438584
160	0xbdf0ec94	-0.11763874
161	0xbf0c2252	-0.5473987
162	0xbf7c0ff6	-0.98461854
163	0x3e7f7b5f	0.24949406
164	0x3dc0d462	0.09415509
165	0xbed9a8e0	-0.42511654
166	0x3d3b7bbc	0.0457723
167	0xbf335813	-0.70056266
168	0xbfe30bf7	-1.7738026
169	0x3dddd429	0.10831482
170	0xbe73b2ef	-0.23798726
171	0xbf60697c	-0.87660956
172	0x3dace107	0.08441358
173	0xbc7671ba	-0.015041763
174	0x3ca504c0	0.020143867
175	0x3ea57abf	0.3232021
176	0xbf24722b	-0.64236706
177	0xbf013055	-0.50464374
178	0xbdc0a49b	-0.09406396
179	0xbf4989a9	-0.7872568
180	0xbf102ff5	-0.56323177
181	0xbee35d95	-0.44407335
182	0xbed1680b	-0.4089969
183	0x3ce9efa1	0.028556647
184	0xbe0e323e	-0.13886353
185	0x3e892164	0.26783288
186	0x3e860e03	0.26182565
187	0xbe2ebe35	-0.17064746
188	0xbef1bad9	-0.47212866
189	0x3e3f566c	0.18685311
190	0xbea83460	-0.3285246
191	0xbf7e6fd4	-0.99389386
192	0x3d191461	0.03737295
193	0x3eb51981	0.3537102
194	0x3f2bfc46	0.67181814
195	0xbf74adc5	-0.9557765
196	0x3ebfb126	0.3743984
197	0x3ecb2e96	0.3968398
198	0xbc861d9f	-0.016371546
199	0x3d80840d	0.06275187
200	0x3f3c39ea	0.7352587
201	0xbf94978f	-1.1608752
202	0x3e582e94	0.21111518
203	0x3d0ff9c6	0.035150312
204	0xbf246173	-0.64211196
205	0xbefe836b	-0.4970964
206	0xbc4582b4	-0.012055088
207	0xbf84ba4a	-1.0369351
208	0xbe19260b	-0.14955918
209	0xbe58a727	-0.21157514
210	0xbdd83bb8	-0.105582654
211	0x3c6c489c	0.014421608
212	0xbe9c8cdc	-0.30576217
213	0x3e2ca9da	0.16861668
214	0x3d039089	0.03212026
215	0xbec015d1	-0.37516645
216	0x3cdfa6e2	0.027301256
217	0xbd2e25f1	-0.042516652
218	0xbb05bd39	-0.0020406975
219	0x3fc20c5e	1.5160024
220	0x3d105c94	0.03524454
221	0x3d005f71	0.03134102
222	0xbee5e88e	-0.44903988
223	0xbf003e49	-0.5009504
224	0xbd94eabb	-0.07271334
225	0x3f15a907	0.5846104
226	0xbdd86df0	-0.10567844
227	0x3e0d493a	0.13797465
228	0x3e289544	0.1646319
229	0x3e7120b5	0.23547633
230	0xbe3bcaa7	-0.18339024
231	0x3f070158	0.52736425
232	0xbe872fbd	-0.2640361
233	0x3f287a50	0.65811634
234	0x3f479269	0.7795778
235	0xbeb350b6	-0.35022515
236	0xbf1b5c37	-0.60687584
237	0xbdf1713d	-0.117891766
238	0xbe8d8299	-0.276387
239	0x3e2d584c	0.16928214
240	0xbf91da27	-1.13947
241	0x3edaf206	0.42762774
242	0xbf03eeaa	-0.5153605
243	0x3ec94ded	0.39317265
244	0x3d949500	0.07254982
245	0x3e8b1064	0.27160943
246	0x3e9878c0	0.29779625
247	0xbec8ef73	-0.39245185
248	0xbdaea1a2	-0.08526923
249	0xbf1de613	-0.6167919
250	0xbd81b641	-0.0633359
251	0xbf92b5a4	-1.1461682
252	0xbe7c98e4	-0.24667698
253	0x3e4d0815	0.20022614
254	0xbe8531c6	-0.26014537
255	0x3f1a26ee	0.6021565

net.network.0.weight_1 f4 [128, 6]
0	0xbe4785a7	-0.19484578
1	0xbdab3c58	-0.08361119
2	0xbe6f16bf	-0.2334852
3	0x3fb5d3c4	1.4205251
4	0x3ed9329c	0.42421424
5	0xbf128adf	-0.5724315
6	0x3e44aa15	0.19205506
7	0x3e05336c	0.13007897
8	0xbef45723	-0.4772273
9	0x3c9c240d	0.01906016
10	0xbceeabb6	-0.029134613
11	0xbf1281e9	-0.5722948
12	0x3d3b44b8	0.045719832
13	0xbd8c3109	-0.0684529
14	0xbcd02eab	-0.025412878
15	0xbdbab856	-0.091171905
16	0xbccdf935	-0.025143245
17	0xbf08b08b	-0.53394383
18	0xbdf24bd6	-0.11830871
19	0xbf533775	-0.82506496
20	0x3d1551ce	0.03645497
21	0x3e97c2de	0.2964086
22	0xbe40baf0	-0.18821311
23	0xbe6f8b10	-0.23392892
24	0xbf19bd5c	-0.60054564
25	0xbe929289	-0.28627422
26	0xbee126ad	-0.4397482
27	0xbf10c2dd	-0.5654734
28	0xbe8d939d	-0.27651682
29	0xbe590653	-0.21193819
30	0x3e021038	0.127015
31	0x3e221df1	0.15831734
32	0xbf3f4d95	-0.74727756
33	0xbe1bfbaa	-0.15232721
34	0xbea3668d	-0.31914178
35	0xbe30cd3c	-0.1726579
36	0x3f26df27	0.65184253
37	0x3df2d393	0.11856761
38	0xbf79c6cb	-0.9756896
39	0xbd70fa8d	-0.058832694
40	0xbe579d8a	-0.2105619
41	0xbd01cd70	-0.03169006
42	0xbdcd2e98	-0.10018653
43	0xbca75f07	-0.020431055
44	0xbf48d63d	-0.784519
45	0xbea295ba	-0.31754857
46	0xbe33e323	-0.17567115
47	0xbea0dc42	-0.31418043
48	0x3e34b317	0.17646442
49	0xbeecfabd	-0.46285048
50	0xbee61059	-0.44934347
51	0xbda39da8	-0.07989055
52	0xbeb4fc01	-0.35348514
53	0xbf320c64	-0.69550157
54	0xbf194cbc	-0.5988271
55	0x3f168a43	0.5880472
56	0xbf62e9ee	-0.886382
57	0xbf9f11f7	-1.2427357
58	0x3e070bd9	0.13188113
59	0x3e193d5c	0.14964813
60	0x3e17b255	0.14814122
61	0x3e4c41d9	0.19946994
62	0xbca5cfc4	-0.020240672
63	0x3fb255a8	1.393239
64	0x3ea488bb	0.32135567
65	0x3daeccd2	0.0853516
66	0x3d8aec6a	0.06783374
67	0xbe3dbd71	-0.18529297
68	0xbeb9432d	-0.36184064
69	0x3e0ab102	0.13544086
70	0xbf203f5f	-0.62596697
71	0x3f1eb368	0.619925
72	0xbedde09b	-0.43335423
73	0x3a665d44	0.00087877014
74	0xbe0e1920	-0.13876772
75	0xbeee330e	-0.46523327
76	0xbd6df783	-0.058097374
77	0xbf6c53c7	-0.92315334
78	0xbf05d1ac	-0.5227306
79	0xbd22e0e4	-0.039765254
80	0xbf163eeb	-0.58689755
81	0xbeadb3c7	-0.33926222
82	0x3c1f7a17	0.009733698
83	0x3bb1d032	0.00542643
84	0x3d15638b	0.036471885
85	0x3d7b2caa	0.06132189
86	0xbdc2f6e7	-0.09519749
87	0xbe1afd0f	-0.15135597
88	0xbe1afb0c	-0.1513483
89	0xbebed1b3	-0.37269363
90	0x3dcddb6c	0.10051617
91	0xbe1719ca	-0.14755931
92	0xbe20af51	-0.15691878
93	0xbdf6c5d5	-0.12049452
94	0xbee3c4c4	-0.44486058
95	0xbf92f688	-1.1481485
96	0x3e61373a	0.21993724
97	0x3eb39599	0.3507507
98	0x3e984fb5	0.29748312
99	0x3f4f1980	0.80898285
100	0xbe33ba2f	-0.17551492
101	0x3e95cc2b	0.2925733
102	0x3e106110	0.14099526
103	0x3e46817b	0.1938533
104	0x3e8c3809	0.273865
105	0xbf036582	-0.51326764
106	0xbd66fd47	-0.056393888
107	0xbe18b899	-0.14914168
108	0x3f5203fa	0.8203732
109	0x3e51d8c1	0.20492841
110	0xbec4bac8	-0.38423753
111	0xbf06b672	-0.5262214
112	0xbe68c5f2	-0.2273176
113	0xbe54a986	-0.20767793
114	0xbdd6fb29	-0.10497124
115	0xbee0ede0	-0.43931484
116	0x3ecd857d	0.40140906
117	0xbf719199	-0.9436279
118	0xbe965265	-0.29359737
119	0x3dc26e3a	0.0949368
120	0x3d9946c0	0.074841976
121	0xbf1264be	-0.5718497
122	0xbed6595b	-0.41865048
123	0xbf411749	-0.75426155
124	0xbed9b4da	-0.4252079
125	0xbf2dee2c	-0.67941546
126	0xbf309cdf	-0.68989366
127	0x3d4d6e64	0.050154105
128	0xbef35df1	-0.4753261
129	0xbee45052	-0.4459253
130	0xbc68dddb	-0.014213051
131	0xbe32d59f	-0.17464302
132	0xbe8467eb	-0.25860533
133	0xbec1578a	-0.377621
134	0x3e8f1ea6	0.2795307
135	0x3edc48f4	0.4302441
136	0xbebfaa1d	-0.37434474
137	0xbdc9522f	-0.098301284
138	0xbdd0e060	-0.10199046
139	0x3dfe8641	0.12427951
140	0x3ea7e6b2	0.32793194
141	0x3f3d606e	0.73975265
142	0xbe69957d	-0.22810932
143	0xbe9ba95e	-0.30402654
144	0xbf174ca5	-0.59101325
145	0xbc82885d	-0.015934164
146	0xbefe5beb	-0.49679503
147	0xbedfc4bb	-0.4370478
148	0xbd38cf97	-0.045119848
149	0xbf6cca82	-0.924965
150	0x3f187c58	0.59564734
151	0xbbe97404	-0.007124426
152	0xbe69dc12	-0.22837856
153	0xbf2a8d16	-0.6662153
154	0xbda06e17	-0.07833498
155	0xbf3a5c0f	-0.7279672
156	0xbbce5ed4	-0.0062979255
157	0xbe613aef	-0.21995138
158	0xbf003be2	-0.50091374
159	0x3f460c09	0.77362114
160	0xbe3656c4	-0.17806536
161	0xbeec4f97	-0.46154472
162	0xbf5306cd	-0.8243225
163	0x3e3c1ee5	0.1837116
164	0xbdc74d35	-0.09731523
165	0xbeaba875	-0.3352696
166	0xbe600325	-0.218762
167	0xbf13e918	-0.5777755
168	0xbfcececd	-1.615686
169	0x3e8981ff	0.26856992
170	0xbd384bf6	-0.044994317
171	0xbefee739	-0.49785784
172	0x3c2ed15f	0.010670035
173	0x3dc98874	0.098404795
174	0xbebefbaa	-0.3730138
175	0xbe631bac	-0.22178525
176	0xbea46945	-0.32111564
177	0x3ecf4793	0.40484294
178	0xbe480803	-0.19534306
179	0xbe98f700	-0.29875946
180	0x3d0f0051	0.03491241
181	0xbe906fe9	-0.2821038
182	0xbe73084b	-0.23733632
183	0xbedad96e	-0.4274401
184	0xbdfc0adf	-0.12306761
185	0xbf0b7280	-0.5447159
186	0x3db49ab3	0.08818569
187	0xbe61389b	-0.2199425
188	0xbeb8c275	-0.3608586
189	0x3f876efc	1.0580745
190	0xbed1deb1	-0.40990213
191	0xbf3c8603	-0.73641986
192	0x3da05a60	0.07829738
193	0x3c865951	0.016400011
194	0x3efdd5a4	0.49577057
195	0x3e1985fd	0.14992519
196	0x3e7e6044	0.2484141
197	0xbd305335	-0.043048102
198	0x3cc59836	0.024120431
199	0x3db776e0	0.089582205
200	0x3f1410a4	0.5783789
201	0xbf911e3d	-1.1337353
202	0x3e53083f	0.20608614
203	0x3da6be0f	0.081417195
204	0xbf479089	-0.7795492
205	0xbf044ddb	-0.516813
206	0x3df83459	0.121193595
207	0xbf49e2e0	-0.7886181
208	0xbe3e00e5	-0.18555029
209	0xbe908789	-0.28228405
210	0xbda6da9e	-0.08147167
211	0xbd9d6fa5	-0.0768731
212	0xbe7df263	-0.24799494
213	0x3eab2a93	0.3343092
214	0xbde289e9	-0.110614605
215	0xbea8807f	-0.32910535
216	0xbea277a1	-0.31731895
217	0xbeab2901	-0.3342972
218	0xbe0a4b6a	-0.1350533
219	0x3fc934a0	1.5719185
220	0xbe4eb200	-0.20185089
221	0xbf0adb3c	-0.54240775
222	0xbea6c88e	-0.32574886
223	0xbf477225	-0.77908546
224	0xbe017960	-0.12643957
225	0x3f1929a8	0.5982919
226	0xbe75164f	-0.23934291
227	0x3def4338	0.11682743
228	0x3dfb1d59	0.12261457
229	0x3c4bdd12	0.012442844
230	0xbecd8368	-0.40139318
231	0x3e95beb0	0.29247046
232	0xbecd5ae9	-0.4010842
233	0x3f348af9	0.70524555
234	0x3f672998	0.9029784
235	0xbf09f03c	-0.53882194
236	0xbf258bc8	-0.64666414
237	0xbe01e5b4	-0.12685281
238	0xbc0bb81a	-0.00852778
239	0x3d82ab2a	0.06380303
240	0xbf720421	-0.9453755
241	0x3f04825d	0.5176142
242	0xbec9fa08	-0.3944857
243	0xbaa2a319	-0.0012408226
244	0x3d9c8ccc	0.076440424
245	0x3e8ee9b4	0.27912676
246	0x3d85dede	0.06536649
247	0xbd8406a6	-0.064465806
248	0xbdce3027	-0.10067778
249	0x3bcb974e	0.0062131053
250	0x3cc2fcf8	0.023802266
251	0xbfa31ce4	-1.2743192
252	0xbfa2ede8	-1.2728853
253	0x3d663c4c	0.056209847
254	0xbf231e4d	-0.6371811
255	0x3bb39458	0.0054803304

net.network.0.bias_0 f4 [128]
0	0xbe2ce4f4	-0.16884214
1	0x3e338d9c	0.17534488
2	0x3f09efd6	0.53881586
3	0xbe00c126	-0.1257368
4	0x3e11f9b9	0.14255418
5	0xbe8c0b3b	-0.27352318
6	0xbed9b027	-0.42517206
7	0xbd71fc9b	-0.059078794
8	0x3cd901af	0.02649006
9	0xbe18af24	-0.14910561
10	0xbf621351	-0.88310724
11	0xbe44cbc3	-0.19218354
12	0x3f31ffdd	0.6953104
13	0xbeaf18a4	-0.34198487
14	0xbe2b58f5	-0.16733153
15	0x3ed8e495	0.42361894
16	0xbe43b1de	-0.1911082
17	0xbeaa7017	-0.33288643
18	0xbf71c499	-0.9444061
19	0xbe3688ff	-0.17825697
20	0xbea99c6c	-0.33127153
21	0xbda89ed0	-0.08233416
22	0xbf21989b	-0.6312348
23	0xbda107a8	-0.078627884
24	0xbcfb571b	-0.030681184
25	0xbeb42702	-0.3518601
26	0xbe700521	-0.23439457
27	0x3ee54b21	0.4478388
28	0xbec4776e	-0.38372368
29	0xbebf576c	-0.37371385
30	0xbe9d6366	-0.30739897
31	0xbeb7f7a2	-0.35931116
32	0xbea68870	-0.3252597
33	0xbf3fdd9f	-0.7494754
34	0xbebe8e60	-0.37217999
35	0x3ddbf7dc	0.10740635
36	0xbef78b7d	-0.4834861
37	0xbe8223fd	-0.25418082
38	0xbf1bd420	-0.6087055
39	0x3e73ea02	0.23819736
40	0x3f1f656e	0.62264144
41	0x3ef8065f	0.4844236
42	0xbe650948	-0.22366822
43	0xbf80677c	-1.0031581
44	0xbf373810	-0.7156992
45	0xbe813fca	-0.2524398
46	0xbea92bdb	-0.33041272
47	0xbeca75ee	-0.39543098
48	0xbd98855d	-0.07447312
49	0x3f33b999	0.70205075
50	0xbe4b610e	-0.19861242
51	0xbeb73516	-0.3578269
52	0xbda0a0e9	-0.07843191
53	0xbf55b86b	-0.83484524
54	0x3e81ac29	0.2532666
55	0xbf52cbc9	-0.823422
56	0xbf0485c9	-0.5176664
57	0xbedc6018	-0.43042064
58	0xbeef8d3c	-0.4678744
59	0xbd3d5c10	-0.046230376
60	0xbeb30912	-0.34967858
61	0xbed372f0	-0.41298628
62	0x3d8d363e	0.068951115
63	0xbd3a153a	-0.0454304
64	0x3d8a06ec	0.067396015
65	0x3e407b1d	0.18796964
66	0xbf0d21c9	-0.5512968
67	0xbf06614a	-0.524922
68	0x3eae97c3	0.3410016
69	0xbecfbadb	-0.40572247
70	0xbf308d50	-0.68965626
71	0x3f4de151	0.8042193
72	0x3e172374	0.14759618
73	0xbe75ed41	-0.24016286
74	0x3ef7d15d	0.4840192
75	0xbeee0c3f	-0.46493718
76	0xbf776cea	-0.96650565
77	0xbeb20fe1	-0.3477774
78	0xbf22b954	-0.6356404
79	0x3d40bb63	0.047053706
80	0xbe0a3afe	-0.13499066
81	0xbeccaa0b	-0.39973482
82	0xbe202d4e	-0.15642282
83	0xbed1dff2	-0.4099117
84	0xbe5c336c	-0.21503991
85	0xbf5c463b	-0.86044663
86	0x3f1504a8	0.5821023
87	0xbe0ca165	-0.13733442
88	0xbdfbc4ef	-0.122934215
89	0xbe800cbf	-0.25009724
90	0x3d99dcbf	0.07512807
91	0xbf089ba0	-0.53362465
92	0xbf0f6839	-0.56018406
93	0xbf0db46d	-0.5535343
94	0xbee6fbae	-0.4511389
95	0xbefe8568	-0.49711156
96	0x3d3ad28b	0.045610946
97	0xbe74a57f	-0.23891257
98	0xbf4d0f4a	-0.80101454
99	0x3dfa1365	0.122107305
100	0xbecbe269	-0.39821175
101	0x3dcf62e5	0.101262845
102	0xbeef349e	-0.4671983
103	0xbe13dd09	-0.14439787
104	0xbf05d0a5	-0.5227149
105	0xbf145f30	-0.57957745
106	0x3f3cb1d3	0.7370884
107	0xbda0116f	-0.07815825
108	0x3f18ed05	0.59736663
109	0xbdccc05a	-0.09997626
110	0x3e9e358c	0.30900228
111	0xbed9e6a7	-0.42558786
112	0x3f2b7621	0.66977125
113	0xbd2964fa	-0.041356064
114	0xbe71a0d8	-0.23596513
115	0xbf128d27	-0.5724663
116	0xbef34a7f	-0.47517774
117	0xbf19cb2d	-0.60075647
118	0xbe8dda1d	-0.2770547
119	0xbf32efd0	-0.69897175
120	0x3dc5022e	0.09619556
121	0xbdc09067	-0.094025426
122	0xbf1091a9	-0.5647226
123	0xbd4a054e	-0.049321465
124	0xbf1fd4f6	-0.6243433
125	0xbf11bc74	-0.5692818
126	0xbe1af1bc	-0.15131277
127	0xbee0b6e1	-0.43889526

net.network.0.bias_1 f4 [128]
0	0xbf4e1117	-0.8049483
1	0x3ed2ed4b	0.41196665
2	0x3e9f7ae1	0.31148437
3	0xbebb4127	-0.36573145
4	0xbe663292	-0.22480229
5	0xbed9af39	-0.42516497
6	0xbf4ebcd8	-0.807569
7	0xbe93ec1f	-0.28891084
8	0xbe26c502	-0.1628609
9	0x3cb45085	0.022011051
10	0xbf27ee51	-0.65598017
11	0xbecf6ea7	-0.4051411
12	0x3f1f2bdf	0.62176317
13	0x3e9338f9	0.28754404
14	0xbea79414	-0.32730162
15	0x3f07c57a	0.530357
16	0xbf161df5	-0.5863946
17	0xbf164bbf	-0.5870933
18	0xbf72f0fb	-0.94898957
19	0xbf39a597	-0.72518295
20	0xbe9f7821	-0.3114634
21	0xbe382ada	-0.17985097
22	0xbea59387	-0.32339117
23	0x3d609f18	0.054839224
24	0x3f0e1065	0.55493766
25	0xbee180ce	-0.44043583
26	0xbf488bf0	-0.7833853
27	0x3f033fd5	0.51269275
28	0xbeb03b39	-0.34420183
29	0xbe64d6ae	-0.22347519
30	0xbef04e63	-0.46934804
31	0xbf022614	-0.5083935
32	0xbed07c56	-0.4071986
33	0xbf162887	-0.5865559
34	0xbf208dd2	-0.627164
35	0x3d915b6f	0.07097518
36	0xbe7c84fd	-0.24660106
37	0xbeed21cd	-0.4631485
38	0xbf20f7a1	-0.6287785
39	0x3ef68391	0.48147252
40	0x3e9c482a	0.30523807
41	0x3f4363f1	0.76324373
42	0xbe610b80	-0.21977043
43	0xbf1f9d90	-0.62349796
44	0x3ab6b5ca	0.0013939675
45	0xbd481aac	-0.04885356
46	0xbe137795	-0.14401086
47	0xbd60aff9	-0.05485532
48	0x3e312e02	0.17302707
49	0x3eee6b6d	0.46566334
50	0x3ea9efc0	0.33190727
51	0xbe050eb5	-0.12993892
52	0x3d33ce9e	0.043898217
53	0xbf265672	-0.64975655
54	0xbf14f44d	-0.58185273
55	0xbeebfdb6	-0.46092004
56	0xbe798fec	-0.24371308
57	0xbf1b1a30	-0.60586834
58	0xbf019b00	-0.50627136
59	0xbf1edc41	-0.6205483
60	0xbf2425e2	-0.64120305
61	0xbf10f42b	-0.5662257
62	0xbd131f96	-0.035918795
63	0x3ea9ae5d	0.3314084
64	0x3d9472c4	0.07248452
65	0xbead7ddd	-0.3388509
66	0xbf36ee27	-0.7145714
67	0xbf37bee8	-0.71775675
68	0xbed0807b	-0.40723023
69	0xbec9cf9d	-0.3941621
70	0xbf150c32	-0.58221734
71	0x3ed54e02	0.41661078
72	0xbe70c577	-0.23512827
73	0xbeb40ed3	-0.3516756
74	0x3b9002e1	0.0043948744
75	0xbeb98ec3	-0.3624173
76	0xbf516146	-0.8178905
77	0xbed7267a	-0.42021543
78	0xbe3a60ad	-0.18200941
79	0x3be4473a	0.0069664987
80	0xbf251d5a	-0.6449791
81	0x3d62516e	0.05525344
82	0xbe92a144	-0.2863866
83	0xbf28d24a	-0.65945876
84	0xbe32a4b7	-0.17445646
85	0xbe534844	-0.20633036
86	0x3e9d4ceb	0.30722746
87	0xbeead8cc	-0.45868528
88	0xbed968b6	-0.424627
89	0xbd4f272a	-0.05057446
90	0x3c9f3559	0.019434618
91	0xbf18a2a9	-0.596232
92	0xbe30f728	-0.17281783
93	0xbf349f6b	-0.7055575
94	0xbede47df	-0.43414208
95	0xbe57ac33	-0.21061783
96	0xbebc45c2	-0.3677197
97	0xbe1f2059	-0.15539683
98	0xbd33d687	-0.04390576
99	0x3ed505cc	0.41605985
100	0xbd6da950	-0.058022797
101	0xbdb5116e	-0.08841215
102	0xbf18e5f7	-0.597259
103	0xbec3f9fc	-0.3827666
104	0xbf341006	-0.7033695
105	0xbf251d01	-0.6449738
106	0x3ed77e67	0.42088625
107	0x3d023192	0.031785555
108	0x3f774edd	0.9660471
109	0xbe022706	-0.12710199
110	0x3ea42880	0.3206215
111	0xbe6eec51	-0.23332335
112	0x3ed7322b	0.42030463
113	0xbe83cb70	-0.25741148
114	0xbf040e57	-0.5158438
115	0xbe36ec32	-0.17863539
116	0xbedb76c6	-0.42864054
117	0xbeb21b04	-0.34786236
118	0xbef9c073	-0.4877964
119	0xbeaaf08d	-0.3338665
120	0xbf128409	-0.5723272
121	0xbeaf77c0	-0.3427105
122	0x3c0e3619	0.00867989
123	0xbe8703cf	-0.26370093
124	0xbf5967d9	-0.84924084
125	0xbf002182	-0.5005113
126	0xbec56846	-0.38556117
127	0xbe160bb1	-0.14652897

net.network.2.weight_0 f4 [64, 128]
0	0x3e7cb4be	0.24678323
1	0xbf11f11e	-0.5700854
2	0xbcae70d4	-0.021294035
3	0xbe9556f8	-0.29167914
4	0x3dc298d5	0.09501807
5	0xbe15b1da	-0.14618626
6	0x3f166b1c	0.58757186
7	0x3eb7e148	0.35914063
8	0x3eeb9129	0.46009186
9	0xbf8e54a7	-1.1119584
10	0x3e51e9a5	0.20499285
11	0xbe5f510d	-0.21808262
12	0xbecb4434	-0.39700472
13	0x3da4fa1c	0.08055517
14	0xbd199194	-0.03749235
15	0xbf561777	-0.83629555
16	0x3e5cf1ff	0.21576689
17	0x3decc87a	0.11561675
18	0xbf2df4b3	-0.67951506
19	0xbd2a8fba	-0.041640975
20	0xbd91d108	-0.07119948
21	0xbf1d07b5	-0.61339885
22	0x3e0d7bdf	0.13816784
23	0x3c8f2ed8	0.017478392
24	0x3c837f61	0.01605195
25	0x3d82bf43	0.063841365
26	0x3ee4bfac	0.44677484
27	0x3e3ef691	0.18648745
28	0xbe66ea6d	-0.22550364
29	0x3e370412	0.17872646
30	0x3e6506c3	0.2236586
31	0x3ed606a9	0.41801956
32	0x3e519005	0.20465095
33	0x3ede2962	0.43390948
34	0xbe4e6372	-0.20155123
35	0xbe01602a	-0.1263434
36	0x3f4fab2f	0.8112058
37	0xbd8a3e7c	-0.06750199
38	0xbdaf4ecd	-0.08559952
39	0xbf86eb13	-1.0540489
40	0xbece33ec	-0.40273988
41	0xbf090569	-0.5352388
42	0x3f3c54fa	0.73567164
43	0x3d8c6789	0.06855685
44	0x3e25b44d	0.1618206
45	0xbe39e4b7	-0.18153654
46	0xbdd7f79e	-0.10545276
47	0xbe54a92a	-0.20767656
48	0x3d69edad	0.05711143
49	0xbe840d45	-0.25791374
50	0xbf397821	-0.7244893
51	0x3dd057af	0.10172974
52	0x3ef78cc9	0.48349598
53	0x3de0ded4	0.10980001
54	0xbf6fe117	-0.93702835
55	0xbdd3e9bd	-0.103473164
56	0xbf208111	-0.6269694
57	0xbecf02ad	-0.4043173
58	0x3f02832e	0.50981414
59	0xbe7c6ba2	-0.24650434
60	0x3f83c973	1.0295852
61	0xbdaa55e6	-0.08317165
62	0xbe2957c2	-0.16537383
63	0xbf93c6b6	-1.1545017
64	0x3df0aaad	0.11751304
65	0x3b5a49b6	0.0033308095
66	0x3e7b0f1b	0.24517481
67	0x3e630aad	0.22172041
68	0x3e86c542	0.2632237
69	0xbe212b8e	-0.15739271
70	0x3f1e4158	0.61818457
71	0xbdd4a15c	-0.10382339
72	0xbc915152	-0.017738972
73	0x3e3b40b6	0.18286404
74	0xbefce645	-0.49394432
75	0xbdabfb1b	-0.08397504
76	0xbdd98d25	-0.10622624
77	0x3e4b1d52	0.19835404
78	0xbd6e807b	-0.058227997
79	0xbe083435	-0.13301165
80	0xbedfdd27	-0.43723413
81	0xbee80a95	-0.45320573
82	0x3de7dfec	0.113220066
83	0x3f3edf79	0.7455974
84	0x3f89be2f	1.0761164
85	0xbbaf94db	-0.005358321
86	0xbead0a43	-0.33796892
87	0x3d0aff03	0.033934604
88	0xbd9c3f69	-0.07629282
89	0xbe056d20	-0.13029909
90	0x3cf4c114	0.029877223
91	0x3f853099	1.0405456
92	0xbcc9d127	-0.024635864
93	0x3f322708	0.69590807
94	0x3e4868a1	0.19571163
95	0xbf2fe954	-0.68715405
96	0xbe00809d	-0.12549062
97	0x3e93d312	0.2887197
98	0x3e2c56a8	0.16829932
99	0x3e1fbfdf	0.15600537
100	0x3e056f23	0.13030677
101	0xbe82acd9	-0.25522497
102	0x3e88819f	0.26661393
103	0x3f261637	0.6487765
104	0x3dae9bac	0.08525786
105	0x3d4536fd	0.048148144
106	0xbdf9ea0f	-0.12202846
107	0x3f0e7704	0.55650353
108	0xbf01adad	-0.50655633
109	0x3dba27a8	0.09089595
110	0x3e02e2b8	0.12781799
111	0x3d466b69	0.048442278
112	0xbf328ded	-0.6974781
113	0xbd8de175	-0.06927768
114	0x3e3befbb	0.18353169
115	0xbdc7da6f	-0.0975846
116	0xbeb39964	-0.35077965
117	0xbd27e318	-0.040988058
118	0x3eb25254	0.34828436
119	0x3f043893	0.51648825
120	0xbe9e2c94	-0.30893385
121	0xbdb9b064	-0.09066847
122	0x3e6e0cf6	0.23247132
123	0x3c2afb5d	0.010435906
124	0x3f397dcc	0.72457576
125	0x3f2fde23	0.6869833
126	0xbeb1a950	-0.34699488
127	0xbe0955c8	-0.13411629
128	0xbc22e003	-0.009941104
129	0xbe190ea0	-0.14946985
130	0x3ca12564	0.01967115
131	0x3e0d1ed3	0.1378129
132	0xbd76367a	-0.060110547
133	0x3d52e36e	0.051486425
134	0xbcad7706	-0.021174919
135	0xbe2ca0cc	-0.16858214
136	0x3ec05d88	0.3757136
137	0x3e081663	0.1328979
138	0xbeb04329	-0.3442624
139	0xbe779519	-0.2417797
140	0x3e7204e1	0.23634674
141	0xbde3dbfb	-0.11125942
142	0x3a2d3041	0.00066066167
143	0x3e375e37	0.17907034
144	0xbe50a89f	-0.20376824
145	0xbde8e312	-0.11371435
146	0xbc7a5ed8	-0.015281402
147	0xbec252c9	-0.37953785
148	0x3ebec4d9	0.37259558
149	0x3e317235	0.17328723
150	0xbdcd3d10	-0.100214124
151	0xbe6d274d	-0.23159523
152	0x3e218df2	0.15776804
153	0x3f12b09c	0.57300735
154	0x3daa148e	0.08304702
155	0xbd89d2cb	-0.06729659
156	0x3eb8ff8e	0.36132473
157	0x3e0be1ce	0.13660356
158	0x3e46b0b3	0.19403343
159	0x3dd996ca	0.10624464
160	0xbee8a82a	-0.454408
161	0xbf1edef0	-0.62058926
162	0x3c113959	0.00886377
163	0x3e1bc916	0.15213427
164	0xbf1dbbe4	-0.61614823
165	0x3e41df37	0.18932806
166	0x3dea07be	0.11427258
167	0xbd3558a4	-0.044273987
168	0xbe108b89	-0.14115728
169	0x3df62e47	0.120205455
170	0x3ca7bd4b	0.020476004
171	0xb9ca8177	-0.000386249
172	0xbe840921	-0.25788215
173	0x3e2c191a	0.1680645
174	0xbda2239e	-0.0791695
175	0xbd2a99f7	-0.04165074
176	0x3d6182d5	0.05505641
177	0x3e3e3f9a	0.1857895
178	0xbd06e114	-0.032929495
179	0xbde9d266	-0.114170834
180	0x3e2ead10	0.17058206
181	0x3e41cea1	0.18926479
182	0xbe584ad5	-0.21122296
183	0x3da1f542	0.07908107
184	0xbe40febb	-0.18847172
185	0x3e112f02	0.14178088
186	0xbf037b05	-0.5135959
187	0x3d80d7ac	0.06291136
188	0xbea0ab7e	-0.31380838
189	0x3e097c51	0.13426329
190	0xbdc7edfb	-0.09762188
191	0x3e5c0351	0.2148564
192	0x3be5d5cf	0.0070140134
193	0x3a2cc698	0.0006590872
194	0x3ef1fc21	0.47262672
195	0xbedf7ad0	-0.43648386
196	0x3b1eef1b	0.0024251405
197	0x3cb99244	0.022652753
198	0xbf042e28	-0.5163293
199	0x3dd37ca5	0.103265084
200	0xbeace5a2	-0.33768946
201	0xbeb34bce	-0.35018772
202	0x3dae35fe	0.08506392
203	0x3ecd5f97	0.40111992
204	0x3e04abdc	0.12956184
205	0xbdbb771d	-0.091535784
206	0xbcb9ead6	-0.022694986
207	0xbe80379b	-0.25042424
208	0x3e962dd7	0.29331848
209	0xbe393557	-0.18086754
210	0xbef5f733	-0.4804016
211	0xbe33cb87	-0.17558108
212	0x3dfb275f	0.12263369
213	0x3ec1185d	0.377139
214	0xbcb0c792	-0.021579538
215	0x3dcafd99	0.09911651
216	0x3d7f098c	0.062264964
217	0x3dd73d81	0.10509778
218	0xbf0d4de4	-0.55196977
219	0xbf2ef5cf	-0.68343824
220	0x3d2bd57a	0.041951634
221	0xbed64f38	-0.41857314
222	0xbf0581a1	-0.52150923
223	0x3eedb993	0.46430644
224	0x3d955932	0.07292403
225	0xbe521908	-0.20517361
226	0xbd9e6142	-0.07733394
227	0x3daf07ea	0.08546431
228	0xbe6152b1	-0.220042
229	0x3e61ef49	0.22063936
230	0xbd99de12	-0.0751306
231	0x3cabc3ea	0.020967443
232	0x3cba051b	0.022707513
233	0x3c9afd0f	0.018919496
234	0x3d9ce5ca	0.07661016
235	0xbd73704a	-0.05943326
236	0xbe6d7bb1	-0.23191716
237	0x3e10b776	0.14132485
238	0x3d772f65	0.060347933
239	0x3e9cd2aa	0.30629474
240	0x3e505a55	0.20346959
241	0x3d0b88ba	0.03406594
242	0xbccbdc37	-0.02488528
243	0x3dd332b3	0.103124045
244	0x3e547fb8	0.20751846
245	0xbd226b84	-0.039653316
246	0x3b849dd2	0.004047134
247	0xbf00a8bc	-0.5025747
248	0x3da9390d	0.08262835
249	0xbbdf956b	-0.006823232
250	0x3de446d5	0.11146323
251	0x3e2056e8	0.15658152
252	0xbeae25a1	-0.34013084
253	0xbf0d3bb0	-0.551692
254	0x3e0ea1cd	0.1392891
255	0xbe2f91fc	-0.17145532

net.network.2.weight_1 f4 [64, 128]
0	0x3f3358a2	0.7005712
1	0xbf351a2e	-0.7074307
2	0xbe415117	-0.1887859
3	0xbeae1703	-0.34001932
4	0xbcc6191b	-0.024181893
5	0xbe0b94d1	-0.13630988
6	0x3ca358f2	0.019939873
7	0x3e8806ab	0.26567587
8	0x3e32e76b	0.17471091
9	0xbf70a699	-0.9400421
10	0x3ec5dd8c	0.3864559
11	0xbeb596c9	-0.35466602
12	0xbe82bd05	-0.25534835
13	0x3db6e1dc	0.08929798
14	0xbe3e0239	-0.18555535
15	0xbfa09225	-1.25446
16	0x3ec815a8	0.39079022
17	0x3e285291	0.16437747
18	0xbf213804	-0.629761
19	0x3d9ac7ed	0.07557664
20	0xbeef13f5	-0.46694914
21	0xbbece27a	-0.0072291465
22	0x3dd0d5cf	0.10197031
23	0x3df001c0	0.11719084
24	0xbc6ac977	-0.0143302595
25	0xbf0dbc49	-0.55365425
26	0x3f1712d0	0.5901308
27	0x3dcb4597	0.099253826
28	0x3e2b6c6e	0.16740581
29	0x3e0d3c05	0.13792427
30	0x3ede48fc	0.43415058
31	0x3edd297c	0.43195713
32	0x3eb6793d	0.35639372
33	0x3e9b49ed	0.30329838
34	0xbf2b920e	-0.67019737
35	0xbe6b614c	-0.22986335
36	0x3f218768	0.6309724
37	0xbece06ed	-0.4023966
38	0xbe05cff6	-0.13067612
39	0xbf876f17	-1.0580777
40	0xbef10b1f	-0.47078797
41	0xbf2e4b39	-0.6808353
42	0x3faf6a42	1.3704302
43	0x3f2aa68a	0.6666037
44	0x3d7c192e	0.06154745
45	0x3e5313f6	0.20613083
46	0xbebf7901	-0.37397006
47	0xbea0b863	-0.31390676
48	0x3ddc3c94	0.10753742
49	0x3c136e31	0.00899844
50	0xbf27858a	-0.6543814
51	0xbe20d835	-0.15707476
52	0x3f13009f	0.5742282
53	0xbe209f93	-0.15685873
54	0xbf1a22af	-0.6020917
55	0xbdc354c5	-0.09537653
56	0xbf886102	-1.0654604
57	0xbf4ab1ef	-0.79177755
58	0x3f7bb9c5	0.98330337
59	0xbf0f0f55	-0.5588277
60	0x3edd26d8	0.43193698
61	0xbe9fd4ec	-0.31217134
62	0xbd930a50	-0.07179701
63	0xbf801425	-1.0006148
64	0xbd118d4e	-0.03553515
65	0x3c3c5a69	0.011496165
66	0xbe1dbe20	-0.15404558
67	0x3f2cffcf	0.6757783
68	0x3cae0f7f	0.021247623
69	0x3dc19510	0.094522595
70	0x3e9e0d20	0.3086939
71	0x3dd2c569	0.10291559
72	0x3e5e4451	0.21705748
73	0x3e4db214	0.20087463
74	0xbe921071	-0.2852817
75	0xbdad5c7b	-0.08464905
76	0xbecf5610	-0.40495348
77	0xbe598cbf	-0.21245097
78	0xbdf70ec0	-0.1206336
79	0xbe98d178	-0.29847312
80	0xbea1e28e	-0.3161816
81	0xbf2e5f19	-0.6811386
82	0x3ebf91e9	0.37416008
83	0x3efe87c5	0.4971296
84	0x3f8cc536	1.0997684
85	0xbebc7e92	-0.36815315
86	0xbe591a5e	-0.21201465
87	0x3e0300c0	0.12793255
88	0xbe4f872d	-0.20266409
89	0xbdf7e512	-0.121042386
90	0x3dfacf9e	0.12246631
91	0x3f5682c3	0.83793277
92	0xbdbb28ea	-0.09138663
93	0x3f226271	0.6343146
94	0x3e182606	0.14858255
95	0xbf0fa612	-0.5611278
96	0x3e773acf	0.24143527
97	0x3e31459e	0.17311713
98	0xbdc274fa	-0.09494968
99	0xbe3a8a83	-0.182169
100	0x3dd6eac0	0.10493994
101	0xbf213c99	-0.6298309
102	0xbd97716b	-0.0739468
103	0x3f125919	0.571672
104	0xbeb9281d	-0.36163417
105	0xbdd9684a	-0.10615595
106	0x3e4ccd8b	0.20000283
107	0x3eb9b575	0.36271253
108	0xbf5590d0	-0.8342409
109	0xbe2bdb40	-0.16782856
110	0x3e896d99	0.2684143
111	0xbd34a08f	-0.044098433
112	0xbf0ec294	-0.5576565
113	0x3e9c42d9	0.3051975
114	0x3eda1274	0.42592204
115	0x3dcddcee	0.100519046
116	0x3ca50686	0.020144712
117	0x3e6d40c6	0.2316924
118	0x3ec65639	0.38737658
119	0x3e9d1329	0.3067868
120	0xbea16f6c	-0.3153032
121	0xbc5f117e	-0.01361501
122	0x3c432b64	0.011912201
123	0xbe902945	-0.28156486
124	0x3f155331	0.58330065
125	0x3e58cf3b	0.21172802
126	0xbc583d22	-0.013198169
127	0x3e105db3	0.14098243
128	0xbe3648cc	-0.17801207
129	0xbe04e0e2	-0.12976411
130	0xbdff2632	-0.12458457
131	0x3e1c21a3	0.15247206
132	0xbddb1a37	-0.106983595
133	0x3e6d126d	0.2315156
134	0x3e836c53	0.25668582
135	0x3de734d7	0.11289375
136	0xbb2d2480	-0.002641946
137	0x3deafd0d	0.11474047
138	0xbec394a9	-0.38199356
139	0x3e4d572d	0.20052786
140	0x3dc630aa	0.09677251
141	0xbb40f248	-0.0029441286
142	0xbe5e3ffe	-0.21704099
143	0x3e03730d	0.12836857
144	0xbe0a198f	-0.13486312
145	0xbd07fd0a	-0.0332003
146	0x3e7955e7	0.24349175
147	0xbe10be4f	-0.14135097
148	0x3f12529f	0.5715732
149	0x3d3b455d	0.045720447
150	0x3deed2c7	0.11661296
151	0xbdd62399	-0.104560085
152	0x3af5d98b	0.001875685
153	0x3e6b6884	0.22989088
154	0xbe142edd	-0.14471002
155	0xbe4502af	-0.19239305
156	0x3ec2617b	0.37964997
157	0xbe3a0f27	-0.18169843
158	0xbdb10458	-0.08643407
159	0xbeb34e42	-0.35020643
160	0xbe8ce1c0	-0.27515984
161	0xbea08aac	-0.31355798
162	0x3df5875b	0.11988708
163	0xbdc1d88d	-0.09465132
164	0xbf69305b	-0.9108941
165	0x3e011ea2	0.12609342
166	0x3e6042a3	0.2190042
167	0xbcadc7a3	-0.021213358
168	0xbda4d30a	-0.08048065
169	0x3e830b33	0.25594482
170	0x3e8d07bb	0.2754496
171	0xbdff869f	-0.12476849
172	0xbcf2ee8e	-0.029654767
173	0x3ccc779a	0.024959374
174	0xbcee5739	-0.029094325
175	0xbe07bf5f	-0.13256596
176	0x3cf5ff07	0.030028833
177	0x3dc4c2a6	0.09607439
178	0xbe3c76e2	-0.18404725
179	0xbd8cff87	-0.068846755
180	0x3dd594f1	0.10428799
181	0x3d479f14	0.048735693
182	0xbc132001	-0.008979798
183	0x3e10518c	0.14093608
184	0xbd5d82f7	-0.054079976
185	0x3e928df2	0.2862392
186	0xbf512cc0	-0.8170891
187	0x3e37e1e8	0.1795727
188	0xbee3888f	-0.44440123
189	0x3da21ea5	0.07916001
190	0xbd9f61db	-0.07782336
191	0x3d679b92	0.056544848
192	0x3d8e6dfc	0.069545716
193	0xbdb7dddd	-0.08977864
194	0x3ee98c15	0.45614687
195	0xbe3ebfc5	-0.18627842
196	0x3d5521ec	0.052034304
197	0xbc5ec624	-0.013597045
198	0xbea8b5f5	-0.32951322
199	0x3e4c4287	0.19947253
200	0xbe5a8a1f	-0.21341752
201	0xbe8a2940	-0.26984596
202	0xbd8b2421	-0.067940004
203	0x3e928f19	0.286248
204	0x3dd664fe	0.104684815
205	0x3d1760cd	0.03695755
206	0x3d39fdec	0.045408174
207	0x3d6a5272	0.057207532
208	0x3e0d59f5	0.13803847
209	0x3c4cfbbb	0.012511189
210	0xbef505f2	-0.47856098
211	0xbd06c96c	-0.032906935
212	0xbe82be3d	-0.25535765
213	0x3d432022	0.047638066
214	0xbde8e69f	-0.113721125
215	0x3dbcae41	0.09212924
216	0xbd6b6a61	-0.057474498
217	0x3d8fc565	0.07020072
218	0xbeafc691	-0.34331182
219	0xbf5e5ccf	-0.86860365
220	0xbd412bb9	-0.047160838
221	0xbe9a2163	-0.30103597
222	0xbec1bdc1	-0.37840083
223	0x3dd081c2	0.10180999
224	0x3e6b81c1	0.22998716
225	0xbe330ff7	-0.17486559
226	0x3d57e0c4	0.052704588
227	0x3e0967b9	0.13418473
228	0xbdabc401	-0.08386994
229	0x3e8eefe0	0.27917385
230	0x3e12b8b7	0.14328276
231	0x3eaca70a	0.3372119
232	0x3eb06e12	0.34458977
233	0x3daa875f	0.08326601
234	0xbd117970	-0.035516202
235	0x3dae3063	0.08505323
236	0x3da8653a	0.082224324
237	0xbd90ac7e	-0.0706415
238	0xbda7e117	-0.08197229
239	0x3e9d4c02	0.30722052
240	0x3e18ef64	0.1493507
241	0x3d92b719	0.07163829
242	0xbde15c5b	-0.110039435
243	0xbc235c35	-0.009970714
244	0xbc22913e	-0.009922324
245	0xbe0b0707	-0.135769
246	0xbcc2d7fc	-0.02378463
247	0xbd9ab39d	-0.0755379
248	0x3e4a4a53	0.19754915
249	0xbe500145	-0.20312984
250	0x3e7a4c25	0.2444311
251	0x3e9a2977	0.3010976
252	0xbe9f2e11	-0.31089833
253	0xbee1eb91	-0.44125035
254	0x3d535feb	0.051605146
255	0x3d883b6d	0.066519596

net.network.2.bias_0 f4 [64]
0	0xbf08310b	-0.53199834
1	0xbe0bcf68	-0.13653338
2	0xbde115a5	-0.109904565
3	0xbd687c9b	-0.056759458
4	0xbe497824	-0.19674736
5	0xbd961d31	-0.073297866
6	0xbd8e1b5f	-0.06938814
7	0xbf42e4ee	-0.7613057
8	0xbc2e231a	-0.010628486
9	0xbedf27ac	-0.43584955
10	0xbd571a97	-0.052515592
11	0xbd4fabc9	-0.050700936
12	0x3ecbef9d	0.39831248
13	0xbcb6a26f	-0.022294251
14	0xbe1b6b45	-0.15177639
15	0xbd813799	-0.063094325
16	0xbe27b587	-0.16377841
17	0xbea8c65c	-0.32963836
18	0x3e0760ec	0.13220567
19	0xbee190b6	-0.44055718
20	0xbea85260	-0.32875347
21	0xbe65153d	-0.22371383
22	0xbeff4782	-0.49859244
23	0xbea36644	-0.3191396
24	0xbeb21e3a	-0.34788686
25	0xbe9dfd50	-0.30857325
26	0xbc94a9ac	-0.018147312
27	0x3e5f4c44	0.21806437
28	0xbe26a558	-0.16274011
29	0xbec68e32	-0.3878036
30	0x3d2887b6	0.04114505
31	0xbe4fe5b3	-0.20302467
32	0xbe2ebb4f	-0.1706364
33	0xbdd9e673	-0.10639658
34	0xbee38a98	-0.44441676
35	0xbdab1867	-0.08354264
36	0xbed453b8	-0.41470122
37	0x3e82bbf5	0.25534025
38	0xbd101279	-0.035173867
39	0xbf4793cf	-0.77959913
40	0xbda73c06	-0.081657454
41	0x3c4fc614	0.012681503
42	0xbe58e890	-0.21182466
43	0xbde6d5f2	-0.112712756
44	0xbe06d62c	-0.13167638
45	0x3e948c63	0.29013357
46	0xbe1614cd	-0.14656372
47	0xbea9c04c	-0.33154523
48	0xbb1f27b7	-0.0024285147
49	0xbe11be8e	-0.14232847
50	0x3d7521f2	0.059846826
51	0xbe946cd5	-0.28989282
52	0xbea449e9	-0.3208764
53	0xbdc64e3e	-0.09682892
54	0xbc7671b8	-0.015041761
55	0x3dcf2778	0.1011495
56	0xbedddb08	-0.4333117
57	0xbdf8c0de	-0.121461615
58	0xbe64ed0d	-0.22356053
59	0xbea3a3ed	-0.31961003
60	0xbeb72d24	-0.35776627
61	0xbe4121a8	-0.18860495
62	0xbec63122	-0.3870936
63	0xbeb9cf84	-0.36291134

net.network.2.bias_1 f4 [64]
0	0xbefb3373	-0.4906269
1	0xbd06b670	-0.03288883
2	0xbe180c12	-0.14848354
3	0xbb8a4698	-0.004219841
4	0xbe19be8f	-0.15014099
5	0xbe478cf3	-0.19487362
6	0xbd0d0639	-0.034429763
7	0xbf6dbfc1	-0.9287072
8	0xbd5cf41c	-0.05394374
9	0xbed1d9ea	-0.40986568
10	0xbda12eb7	-0.07870238
11	0xbd3bd10f	-0.04585367
12	0x3ebe1542	0.37125593
13	0xbe6b9f96	-0.23010096
14	0xbcbe0c03	-0.023199087
15	0xbe5f3720	-0.21798372
16	0x3cddf0d8	0.027092382
17	0xbebed83f	-0.37274358
18	0x3d9ee0b9	0.07757706
19	0xbed5b521	-0.41739753
20	0xbedcc86c	-0.4312166
21	0xbd29b61c	-0.04143344
22	0xbee03562	-0.43790728
23	0xbe683463	-0.22676234
24	0xbe151284	-0.14557844
25	0xbe3cd83b	-0.1844186
26	0xbdf38b6d	-0.11891828
27	0x3eaf142d	0.3419508
28	0xbe3a60e8	-0.1820103
29	0xbefd1ef1	-0.4943767
30	0xbd9cd6a9	-0.07658131
31	0xbe181064	-0.14850003
32	0xbea90d10	-0.33017778
33	0xbd0d796e	-0.034539632
34	0xbe024509	-0.12721647
35	0x3c6ecf50	0.014575794
36	0xbee08d3e	-0.4385776
37	0x3e959ec8	0.29222703
38	0xbd2df1f9	-0.04246709
39	0xbf602958	-0.87563086
40	0xbe44bfb2	-0.19213751
41	0xbdcad177	-0.099032335
42	0xbe4cf741	-0.20016195
43	0xbc1ec525	-0.009690558
44	0xbe36d748	-0.17855561
45	0x3ea63815	0.32464662
46	0xbe20d25d	-0.15705247
47	0xbe18cab6	-0.14921078
48	0xbe4c957e	-0.19978902
49	0xbe485765	-0.19564588
50	0x3de5654f	0.11200964
51	0xbe9cc802	-0.30621344
52	0xbea1a9b6	-0.31574792
53	0xbdd7a6bc	-0.10529849
54	0x3d0e6881	0.03476763
55	0x3e0c02d1	0.1367295
56	0xbeb45187	-0.3521845
57	0xbd84ed52	-0.06490578
58	0xbe7ee8c9	-0.24893488
59	0xbe5bc350	-0.21461225
60	0xbedd3fda	-0.43212777
61	0xbe32cedb	-0.17461722
62	0xbf23678f	-0.6382989
63	0xbedf89eb	-0.4365991

net.network.4.weight_0 f4 [16, 64]
0	0x3f1854d4	0.5950444
1	0x3c824750	0.015903145
2	0xbd51d475	-0.051228005
3	0x3d9d259e	0.076731905
4	0x3d8b076d	0.06788526
5	0x3d9811fa	0.07425304
6	0xbd9091c4	-0.070590526
7	0x3ec3db82	0.3825341
8	0xbcd91630	-0.026499838
9	0x3e1bc5d4	0.15212184
10	0xbdbe873f	-0.0930314
11	0xbccad400	-0.024759293
12	0xbdf63a13	-0.120227955
13	0xbe0f575c	-0.13998169
14	0x3d216d92	0.039411135
15	0xbd8a9a6a	-0.067677334
16	0xbe57a8eb	-0.21060531
17	0x3e472985	0.19449432
18	0xbec7276d	-0.38897267
19	0x3e4b15fb	0.19832604
20	0x3e23c063	0.15991358
21	0x3f171ca1	0.5902806
22	0xbe00bc10	-0.1257174
23	0xbb4697c9	-0.0030302873
24	0xbe9dc2ac	-0.30812585
25	0xbb9f2156	-0.004856269
26	0x3d9f06a3	0.07764938
27	0xbf34040e	-0.70318687
28	0xbe0128a6	-0.12613162
29	0x3eb5d44d	0.35513535
30	0xbdd5e1bc	-0.10443446
31	0x3e75c931	0.2400253
32	0x3f264dd7	0.64962524
33	0x3c975d4e	0.018477108
34	0x3e551547	0.20808898
35	0xbe9efbf2	-0.31051594
36	0xbe60128a	-0.21882072
37	0xbe743567	-0.23848496
38	0x3c0d3976	0.008619657
39	0x3e93c910	0.28864336
40	0xba296ee1	-0.00064633606
41	0xbcd111dc	-0.025521211
42	0x3f22170c	0.63316417
43	0x3ccf6e0a	0.025321025
44	0x3d76e0d9	0.060273025
45	0xbb9e671b	-0.0048340685
46	0x3f039a59	0.5140739
47	0x3dcdb545	0.1004434
48	0xbd3ccae8	-0.046091944
49	0xbd0520c5	-0.032501955
50	0xbd16d713	-0.036826205
51	0x3e49403b	0.19653408
52	0x3e005a69	0.12534489
53	0x3e0a435d	0.1350226
54	0x3d288ed0	0.04115182
55	0xbe532e7f	-0.20623206
56	0x3f46f90c	0.77723765
57	0x3df3f9f1	0.11912907
58	0xbc587d14	-0.013213415
59	0xb9ebf954	-0.00045008457
60	0xbcc2eeac	-0.023795448
61	0x3d383f81	0.044982437
62	0x3d4e051a	0.050297834
63	0x3c73f33e	0.014889536
64	0x3f65b6c7	0.8973202
65	0xbd93d598	-0.07218474
66	0x3d3070c5	0.043076295
67	0x3e4f9955	0.20273335
68	0x3ead9a7b	0.33906922
69	0xbd63c342	-0.055606134
70	0x3d96a4fa	0.073556855
71	0x3e7b223f	0.24524783
72	0x3b05fba2	0.0020444174
73	0xbdb9998c	-0.0906249
74	0xbcd4615d	-0.025925333
75	0xbe85ecfe	-0.26157373
76	0xbf29b8e9	-0.66297776
77	0xbe178cdb	-0.14799826
78	0xbdc4d12a	-0.096102074
79	0x3debbe23	0.11510875
80	0xbe3f0e79	-0.18657865
81	0x3dccfe32	0.100094214
82	0xbeadd6ea	-0.3395303
83	0x3e9e0952	0.30866486
84	0x3e9eb8ad	0.3100027
85	0x3f5b6c76	0.85712373
86	0xbd9f88f6	-0.07789795
87	0x3d6c6570	0.057713926
88	0xbe587b4d	-0.21140786
89	0x3de72bdb	0.11287662
90	0xbd90e810	-0.070755124
91	0xbf33cc79	-0.70233876
92	0xbd8eb607	-0.06968313
93	0x3f30c934	0.6905701
94	0x3dea9f0d	0.11456118
95	0x3e9c7958	0.30561328
96	0x3f028dd2	0.5099765
97	0xbbd7ff19	-0.0065916893
98	0xbc7a6d93	-0.015284914
99	0xbe9573f0	-0.29190016
100	0xbd56f78f	-0.052482184
101	0xbe2fabc9	-0.17155375
102	0xbddaadac	-0.106776565
103	0x3ee416f1	0.44548753
104	0xbe5d48f5	-0.21609862
105	0xbc69524f	-0.014240815
106	0x3f77a7b4	0.9674027
107	0xbe67456f	-0.2258508
108	0x3dbd8ee1	0.092557676
109	0x3c0ff683	0.0087868
110	0x3f24f74a	0.64439833
111	0xbda91197	-0.08255308
112	0xbe524dc5	-0.20537479
113	0x3c81c130	0.01583919
114	0x3e16d61c	0.14730114
115	0xbe105a17	-0.14096867
116	0xbe9d97d3	-0.30779895
117	0x3d3cbfd5	0.046081383
118	0xbc00add5	-0.007853945
119	0x3d88216a	0.06646998
120	0x3f55461c	0.83310103
121	0x3de39ded	0.11114106
122	0x3e15af87	0.1461774
123	0xbdf0d98e	-0.11760245
124	0x3e1471a8	0.14496481
125	0xbe1ef043	-0.1552134
126	0x3d9214d1	0.07132877
127	0x3da47340	0.08029795
128	0x3ebafe86	0.3652231
129	0x3de53626	0.111919686
130	0xbe2a7949	-0.16647829
131	0xbe7c5dac	-0.24645108
132	0x3f159661	0.58432585
133	0xbe468cef	-0.193897
134	0xbdb70dfc	-0.08938214
135	0xbee5ddb1	-0.448957
136	0x3d8329f5	0.06404487
137	0x3d7bb91d	0.061455835
138	0x3d1f3dd4	0.038877323
139	0x3c63346f	0.013867482
140	0x3e814b94	0.25252974
141	0x3caf6e9e	0.021415051
142	0xbc80daf2	-0.015729401
143	0x3e851205	0.2599031
144	0xbdc58dfd	-0.09646223
145	0xbf6ccc16	-0.9249891
146	0x3e78f2fa	0.24311438
147	0x3eeae8ee	0.45880836
148	0x3e47ca1c	0.19510692
149	0xbce4a6b4	-0.027911521
150	0x3f2c076b	0.6719882
151	0x3ebaf436	0.36514443
152	0x3e61b802	0.2204285
153	0xbf0e5001	-0.55590826
154	0xbe9912f0	-0.2989726
155	0x3e9a6fc0	0.30163383
156	0xbe3b62a5	-0.18299349
157	0xbf1bcdcd	-0.608609
158	0xbf0d3ee7	-0.55174106
159	0xbdbf502c	-0.093414634
160	0x3ce544b2	0.027986858
161	0xbd714558	-0.058904022
162	0x3e38b955	0.18039449
163	0x3d2ff66f	0.042959627
164	0x3f1fe0dc	0.62452483
165	0xbecbbebf	-0.39793965
166	0xbd849122	-0.064729944
167	0xbe6f9841	-0.23397924
168	0xbc5a299a	-0.013315583
169	0x3e4abfdc	0.19799751
170	0x3e42e96c	0.19034356
171	0x3de78d8b	0.11306294
172	0x3dd4034d	0.10352192
173	0x3edc8f45	0.43078056
174	0xbda9b2ca	-0.082860544
175	0x3e26b2e4	0.16279179
176	0xbd8d22b3	-0.06891384
177	0xbe47cd23	-0.19511847
178	0xbf102ced	-0.5631855
179	0xbe78a3d6	-0.24281248
180	0x3edd3464	0.43204033
181	0xbd93eb91	-0.07222665
182	0xbd802f3e	-0.06259011
183	0xbe84b47b	-0.25918946
184	0x3ddda116	0.1082174
185	0x3e0d4f9c	0.137999
186	0xbdeddc71	-0.116143115
187	0xbd2194b0	-0.03944844
188	0xbdc51148	-0.09622437
189	0x3ddec88e	0.108780965
190	0x3e51bd76	0.2048243
191	0x3ea8a8a7	0.32941172
192	0xbe0e7e5e	-0.13915393
193	0x3e16871f	0.14699982
194	0xbcd701c5	-0.026245961
195	0xbda37426	-0.07981138
196	0x3ee9672b	0.45586523
197	0xbf54141a	-0.8284317
198	0x3e088d63	0.13335185
199	0xbea05679	-0.31315973
200	0x3dc01d61	0.093806036
201	0x3dd42cf2	0.10360135
202	0xbdc9bc0a	-0.09850319
203	0x3c87c36c	0.016572677
204	0x3ed2a6d2	0.411429
205	0x3e1e98d7	0.15487991
206	0xbd86dc70	-0.06585014
207	0x3e341e78	0.17589748
208	0x3d93953b	0.07206198
209	0xbead0ace	-0.33797306
210	0xbe1bd5a0	-0.1521821
211	0x3f0bcf7c	0.5461347
212	0xbd957e45	-0.072994746
213	0xbd5bd558	-0.053670257
214	0x3e9fb8da	0.31195718
215	0x3db7f5f1	0.089824565
216	0x3ea61cc2	0.32443815
217	0xbdf894b7	-0.1213774
218	0xbf00a962	-0.5025846
219	0xbe2ae20c	-0.16687793
220	0x3c7159cc	0.014730882
221	0xbee5135a	-0.44741327
222	0xbefa7d83	-0.48923883
223	0xbdc207ee	-0.09474169
224	0xbef0068d	-0.46879998
225	0xbda7059a	-0.08155365
226	0xbdf6829b	-0.1203663
227	0x3d238c59	0.039928768
228	0x3e3dbbf4	0.1852873
229	0xbe0aa8aa	-0.13540903
230	0x3dc76892	0.09736742
231	0xbdc87beb	-0.097892605
232	0x3d57b357	0.052661266
233	0x3da10247	0.078617625
234	0x3e7d1f15	0.24718888
235	0x3e20a0c3	0.15686326
236	0x3be24480	0.0069051385
237	0x3de65ead	0.11248527
238	0xbe8a4179	-0.27003077
239	0x3d8fe554	0.07026163
240	0xbc071153	-0.0082438765
241	0x3d6b426a	0.057436384
242	0xbf24bcfb	-0.6435086
243	0xbdff0ff5	-0.124542154
244	0x3ec8c41a	0.39212114
245	0xbd3fd090	-0.04682976
246	0x3e205024	0.15655571
247	0x3e0d9484	0.13826185
248	0xbe4404b1	-0.19142415
249	0x3e17c4b5	0.14821132
250	0xbee7c221	-0.45265296
251	0xbdcf2835	-0.10115091
252	0x3e984e02	0.29747015
253	0x3c9109e2	0.017704908
254	0xbecea52c	-0.4036039
255	0x3ea0e1d6	0.314223
