models/adult/rs/adam_epochs40_lr0.004_batch128_dropout0/model_661.pth (torch, 43811 bytes, 8 tensors)

network.0.weight f4 [128, 6]
000000 20 e5 b9 3a 48 4c 57 be c4 9a 8b 3e 53 1f cb bd
       0.0014182664 -0.21025193 0.27266514 -0.09918084
000010 8e ca b7 bc 12 8c 85 bf 90 18 14 3e b8 c6 a4 3d
       -0.022435453 -1.0433371 0.14462495 0.08045715
000020 03 7f 80 be e9 e0 2f 3f 47 31 b3 bc 03 c8 0f 3e
       -0.25096902 0.6870256 -0.021874083 0.14041142
000030 b8 bf 13 bf 68 b7 cd bd 9f 8b 5b be 3a f6 8b 3e
       -0.57714415 -0.100447476 -0.2143998 0.27336293
000040 4c 0a d0 bb 1a 0a 00 be fc 09 cc 3e 2a 58 16 bd
       -0.0063488837 -0.12503853 0.39851367 -0.036705174
000050 e2 52 c8 bd 7c 58 35 3d 88 20 47 3e 0d 79 29 bf
       -0.09781434 0.04427384 0.19446003 -0.66200334
000060 cf f6 a8 3d 09 b1 0d 3e d8 1f 8b 3e 37 71 87 bf
       0.082502 0.13837065 0.27172732 -1.0581425
000070 b9 23 4e 3e 36 f4 54 3e 3a 83 f8 3e b5 ba 08 bd
       0.20130815 0.20796284 0.48537618 -0.033381183
000080 f4 03 8b be 35 53 37 bf 76 6e 84 be d5 eb 6d bf
       -0.27151453 -0.7161134 -0.25865525 -0.92937976
000090 12 93 55 bf bb 67 70 3e fb 90 70 3d c2 0c 13 be
       -0.83427536 0.2347707 0.058732014 -0.14360335
0000a0 10 ab 6d be ae 73 18 3e e8 5e bf 3e 5a 2f 30 be
       -0.23209786 0.14887878 0.37377095 -0.17205563
0000b0 78 7b 20 3e ec 2c c3 3d b7 89 ad be 8b 2d 27 3d
       0.156721 0.095300525 -0.3389413 0.040814918
0000c0 84 40 83 be c7 ca 6c bf d2 92 dd bd 06 c3 05 bf
       -0.2563516 -0.92496914 -0.108190194 -0.5225071
0000d0 30 aa 62 be 6f 42 eb be 25 2b 47 be 0a 7f 04 3e
       -0.22135234 -0.45949122 -0.19450052 0.12939087
0000e0 8e 8d d8 bd d5 32 f5 3d a1 00 a1 3d 2f 10 9d be
       -0.105738744 0.11972586 0.07861448 -0.3067641
0000f0 11 b6 b4 3d 04 49 9d bd 1c cb bb 3d 32 37 1c 3f
       0.08823789 -0.07679942 0.091695994 0.6102172
000100 59 c7 87 bc e8 32 0c bd 34 6b d5 3e f2 8d 17 3e
       -0.016574549 -0.034228235 0.41683352 0.14800242
000110 4a bc 10 bf 2e df 1e 3e cf 3f f8 3d 1e 23 94 bf
       -0.56537306 0.15514824 0.121215455 -1.1573217
000120 b2 b2 3b bf cb d5 72 3d 00 72 15 bf f0 67 38 be
       -0.7331954 0.05928592 -0.58377075 -0.18008399
000130 69 64 28 3d 78 3d ad 3c 87 b3 f3 be 0e a6 d3 3c
       0.041111384 0.021147475 -0.47597906 0.025836017
000140 00 c3 2b be 14 8c ed be 1a 54 94 bd fc 3b 35 bf
       -0.16773605 -0.46395934 -0.072426036 -0.70794654
000150 e3 95 00 bf bc 77 06 3e 68 66 a1 be 69 ea 52 3e
       -0.5022871 0.13131613 -0.31523442 0.20597233
000160 bd 67 7a bc 52 95 10 be 05 49 82 bd 90 32 fa bd
       -0.015283522 -0.14119461 -0.063615836 -0.12216675
000170 00 b3 54 b9 06 93 6a 3d 55 4e 25 be 7f 79 a2 3d
       -0.00020284578 0.05726912 -0.16143163 0.0793333
000180 7b e6 e2 be 10 23 e1 3d ea 0d 7c 3e 38 92 7a be
       -0.44316468 0.10993016 0.24614683 -0.2446984
000190 b9 42 ff bd b2 ee 97 bf 35 6b c4 bb fa 79 41 3d
       -0.12463898 -1.1869719 -0.0059942254 0.047235467
0001a0 d9 3d 88 bd 55 ef 01 40 c1 c4 b7 3e 1c f9 86 3d
       -0.066524215 2.0302327 0.358923 0.065904826
0001b0 64 9f 36 bf e2 60 2d 3e 5b 5e 8d be d6 d6 2e bf
       -0.7133696 0.16931489 -0.2761105 -0.68296564
0001c0 84 05 4f be 95 7e 89 bf 1f be 83 bf 41 35 06 bb
       -0.20216948 -1.0741755 -1.0292395 -0.002047852
0001d0 10 ba ec be db 36 ac be 6c cf d8 bd a8 11 25 bf
       -0.46235704 -0.336356 -0.105864376 -0.64480066
0001e0 74 99 9b bf 94 f9 f2 be ba b7 5d be aa 39 9f bf
       -1.2156205 -0.47456038 -0.21652117 -1.2439473
0001f0 e2 92 e3 3d a9 55 83 be f9 5c 89 3c 91 5a 34 be
       0.11112 -0.2565129 0.016767966 -0.17612673
000200 fc 60 75 3d d3 79 8f bf 06 22 00 bf 52 e9 4b be
       0.059906945 -1.1209053 -0.50051916 -0.19913223
000210 ef f9 37 bf 85 98 1e 3e 18 ab 54 be 2e e0 1b 3e
       -0.71865743 0.15487869 -0.20768392 0.15222237
000220 29 29 52 bd 58 35 e0 bc 5e 08 ce bd 7e 84 7d 3c
       -0.051308785 -0.027369186 -0.1006019 0.015473483
000230 f0 77 18 be ab 16 30 be ea d2 2a bd 34 c2 85 be
       -0.14889503 -0.17196147 -0.04170505 -0.26124728
000240 08 85 cd be f5 97 70 bd 10 aa 95 be 98 66 1f bf
       -0.40140557 -0.058738668 -0.2923131 -0.6226592
000250 dc 8d 8f be 0c 0e d3 3e 5c 29 0e 3e 62 1b ac be
       -0.28037918 0.41221654 0.13882965 -0.3361464
000260 13 f5 51 be b9 e2 b2 be b0 b6 94 bd 3f ac 62 be
       -0.20503645 -0.349386 -0.072614074 -0.22136019
000270 e9 ab 8a bf 8c 0f 30 3f 50 0a c0 3e 68 b0 d4 3e
       -1.0833713 0.6877372 0.37507868 0.41540837
000280 f8 bc 34 bb 9e ea 39 3e 10 5e 8b bf a7 80 2f 3f
       -0.0027578454 0.18155906 -1.0888081 0.6855568
000290 7e af 0d bf 8c 90 f9 be ba ad 29 bd 1c 1a 0a 3f
       -0.55345905 -0.48743093 -0.041425444 0.5394609
0002a0 97 8c 1c 3e cc 27 b3 be ec e9 d6 3e 90 61 75 bf
       0.15288006 -0.349913 0.41975343 -0.95851994
0002b0 df 5f 19 3e f4 78 89 3e 7b 5c 83 bf d9 19 86 bc
       0.14977978 0.26850092 -1.0262598 -0.016369747
0002c0 e7 78 01 bf 19 3d b5 be d6 6e 26 bc 45 61 70 3e
       -0.5057511 -0.35398176 -0.010158261 0.23474605
0002d0 3c 59 a5 be 92 4a 8a 3e 17 e9 3d 3f fd 5a 79 be
       -0.32294643 0.27010018 0.7418379 -0.24351116
0002e0 81 8f 96 3e f0 5e 91 bd 66 e2 9f 3e 35 fc 59 be
       0.2940636 -0.07098186 0.31227416 -0.21287616
0002f0 3b 1d 49 3e 7b a0 fe bd d2 fb 0d bd b1 f3 53 bf
       0.19640057 -0.12432953 -0.034663983 -0.8279372
000300 32 92 67 bd c1 cc 9c bc 76 11 08 be c0 59 ea 3f
       -0.056535907 -0.019140603 -0.13287911 1.830864
000310 8c ef aa 3e ff 8a a7 be 78 e2 08 3f 1e 5a 6a 3e
       0.33385885 -0.32723233 0.53470564 0.2288594
000320 11 52 34 3d 9c e9 c0 3f d7 e5 29 be 5a e0 ce 3e
       0.044023577 1.5071292 -0.16591583 0.40405542
000330 54 04 9a be f8 1f 83 3e 38 12 bd bf 06 97 44 be
       -0.30081427 0.25610328 -1.4771185 -0.19198236
000340 75 49 87 3d 78 ea 3d be 82 d7 0f 3e 79 7a c4 be
       0.06605808 -0.18546474 0.14047053 -0.3837469
000350 17 94 05 3e e4 9f 6a be 31 fa 9e 3d 8f f4 79 3e
       0.13044773 -0.22912556 0.07762564 0.24409698
000360 39 8b bc 3d 3a 16 bb be 80 3f 94 be a6 f4 bb 3e
       0.09206242 -0.36540395 -0.28954697 0.3671009
000370 d0 b1 1e be c8 82 7f be 92 4f 4c 3e 53 0b e0 3c
       -0.15497518 -0.24952233 0.19952229 0.02734915
000380 eb f7 ef be 86 8b 4c be 91 9e 93 3c 70 4c 2f bf
       -0.46868834 -0.19975099 0.018019946 -0.6847601
000390 8f 7d a1 3d d6 ef 1e be ac de 2b be 66 0c 3b be
       0.078852765 -0.15521178 -0.16784161 -0.18266448
0003a0 b7 4f 6b 3d d1 9e 9a bf c3 84 85 be d5 13 90 bd
       0.05744907 -1.2079717 -0.26077852 -0.07035033
0003b0 30 40 fc bd 40 f8 51 be 2a 0e 3f bd 85 30 5b be
       -0.1231693 -0.20504856 -0.046644367 -0.21405227
0003c0 82 62 5e bd f7 22 3d 3e 5e 6e 93 3e b4 41 a9 3f
       -0.054293163 0.1847037 0.2879514 1.3223176
0003d0 e2 80 f7 bd ee 9c f9 bb c7 5f 77 bf 40 db fc bd
       -0.12085129 -0.0076175844 -0.9663052 -0.12346506
0003e0 11 2f c8 3c 4b 18 4b 3f c4 02 87 be 81 b7 14 bf
       0.024436506 0.79333943 -0.26369298 -0.58092505
0003f0 43 7c b2 be c1 70 c2 3e d1 58 5a be fe 6d dc bd
       -0.3486043 0.3797665 -0.21322943 -0.10763167

network.0.bias f4 [128]
000000 87 3b 27 3e b8 c6 c5 be e5 03 d8 3e 88 a7 6d bf
       0.16331302 -0.38628173 0.4219047 -0.9283376
000010 0e 5d 1b be 96 93 c0 be 0f ca 7d 3d c2 7f db be
       -0.15172216 -0.376126 0.061960276 -0.4287091
000020 cd d7 74 be 11 43 68 be e9 fa b6 be ff 1f e8 3e
       -0.23910446 -0.22681834 -0.35738304 0.4533691
000030 bf 82 87 3c eb 7b d7 3e 39 c7 46 3f 81 00 2a be
       0.016541837 0.4208673 0.7764774 -0.16601755
000040 16 9d 28 3f 77 8b 42 bf 12 7f 04 3c 4d 28 e7 3e
       0.65864694 -0.75994056 0.008086937 0.45147935
000050 d0 ff e6 bd ca ac a1 3d 87 69 3a 3f c9 7c c6 be
       -0.11279261 0.07894285 0.7281727 -0.3876708
000060 63 55 dd be 41 7c 98 3e 40 75 69 bf 58 9b 8d 3d
       -0.43229207 0.29782298 -0.91194534 0.06914395
000070 34 0b 08 be b2 59 32 3d 32 51 26 bf 88 23 0a bf
       -0.13285524 0.04354257 -0.64967644 -0.53960466
000080 4a 02 1e bf 55 97 52 bf a0 7b 6e 3e 52 af 2c be
       -0.6172224 -0.82262164 0.23289347 -0.16863754
000090 06 f4 c5 be 3b aa 39 be 6d ea 3a 3f 63 bd a0 be
       -0.38662738 -0.18131344 0.73013955 -0.3139449
0000a0 81 3f 00 bf 0f b6 f6 3d 38 c3 9d be aa 9f b3 3d
       -0.500969 0.12046444 -0.30813003 0.08770688
0000b0 d8 ca ab be 8a 1a bd 3d 9d cf dd be 48 da e1 be
       -0.33553195 0.092335775 -0.4332246 -0.44111848
0000c0 e4 98 91 3d 33 c5 92 be e7 9c 37 3e 54 33 08 bf
       0.0710924 -0.28666076 0.17930947 -0.5320332
0000d0 02 b6 e3 bd c4 f5 2f 3d e5 8a ba be 3d de a5 be
       -0.111186996 0.04295899 -0.36434093 -0.32396117
0000e0 e8 62 cc be d3 e3 0c bf db 74 45 3f 8b 60 89 bd
       -0.3991921 -0.5503513 0.7713143 -0.06707867
0000f0 37 01 1c be 64 0f a6 be f4 e6 fa bd e0 e0 4b bf
       -0.15234838 -0.32433617 -0.12251082 -0.79640007
000100 30 e8 2b bf 77 94 61 be b3 4c e0 bd 22 74 77 be
       -0.67151165 -0.22029291 -0.10952129 -0.24165395
000110 60 48 cd be 55 b5 05 bf e4 93 1d bf 3c aa 6e be
       -0.4009428 -0.52229816 -0.6155379 -0.23307127
000120 e4 17 1f bf 29 7e 53 3e 1e da 21 be 0c ea ce be
       -0.6214583 0.20653595 -0.15805861 -0.4041294
000130 81 64 30 be 62 b8 01 bf 2f 65 15 bf 7e 72 1c bf
       -0.17225839 -0.5067197 -0.5835752 -0.611122
000140 ce d2 7f bd 2a d8 52 3e b4 cc ad be 58 c9 76 bf
       -0.0624569 0.20590273 -0.3394524 -0.96400976
000150 8e 59 08 bf 66 91 88 be cf d7 45 3f 36 f9 31 3f
       -0.5326165 -0.2667343 0.7728242 0.6952089
000160 87 c4 14 bf ec 66 b0 bf 4f f5 21 bf ea ec be be
       -0.58112377 -1.3781409 -0.63264936 -0.37290126
000170 2e 6c ee bd 5e 3d 84 bd c0 d6 0b be fb 47 74 be
       -0.116417274 -0.06457017 -0.1365614 -0.23855583
000180 84 98 97 be 59 5a fb be da 45 be be 7b a3 01 be
       -0.29608548 -0.49092367 -0.37162668 -0.12660019
000190 ed c9 ae be dd 48 08 bf 4e 2d 30 be 3c 20 6f bf
       -0.34138432 -0.5323618 -0.17204782 -0.9340856
0001a0 fe 48 e9 be 88 27 ff bd 21 5f 33 bf 50 c5 be 3d
       -0.455635 -0.12458712 -0.7006703 0.09314978
0001b0 79 51 c0 be d2 4d 9b 3e 90 25 77 3e 58 fa 17 3e
       -0.3756216 0.3033281 0.24135423 0.14841592
0001c0 6b cc d9 be 6f d8 ab be 8c eb 11 bf 9f d9 22 bf
       -0.4253877 -0.33563563 -0.5700004 -0.63613313
0001d0 28 ea 26 3f 9d a5 17 be 62 04 43 bf c8 6b d0 3e
       0.65201044 -0.1480927 -0.7617856 0.4070723
0001e0 57 27 60 3e 71 b9 00 bf 81 a0 91 be f5 f0 4d bf
       0.21890007 -0.5028296 -0.28442767 -0.80445796
0001f0 83 25 11 bf ba 93 33 be 91 a4 87 bf 1d 35 19 bc
       -0.56697863 -0.17536822 -1.0597097 -0.009351042

network.2.weight f4 [64, 128]
000000 4e 57 29 be 64 23 bc bd 9f 34 31 3d 51 48 02 3f
       -0.1653721 -0.09186438 0.043263074 0.50891596
000010 f5 5b 16 3d 6c c3 79 bf dd d2 83 3e 1b 2d ce bd
       0.03670879 -0.97563815 0.25746813 -0.10067197
000020 bb 04 67 bf 68 ab fb 3c b1 6c a8 bd 89 b5 26 3d
       -0.90241593 0.030721381 -0.08223856 0.04070047
000030 22 ee a0 bd b7 77 ab be dd d2 a5 bd a2 f9 72 3e
       -0.0785792 -0.33489773 -0.080968596 0.2372804
000040 ea b4 4d bf 1f 43 41 3f f7 24 3a be ef 58 c8 be
       -0.8035418 0.75493044 -0.18178163 -0.3913035
000050 d5 aa d1 bc 7f 4e c7 3e a0 3c 32 3e 02 15 c9 3c
       -0.025594154 0.38927075 0.17405939 0.02454615
000060 d3 cd d0 3d 96 54 81 3d 01 bf 33 3e 0a f5 2f 3e
       0.10195508 0.063149616 0.17553331 0.17183319
000070 b5 1b 02 be c3 e8 19 bd ec a1 a3 3e 77 95 bc 3e
       -0.12705882 -0.037575494 0.31959474 0.36832783
000080 cb ce 0d 3f 17 7f b5 be d1 6c a6 be cf 4f dc bd
       0.55393666 -0.35448524 -0.32504895 -0.1075741
000090 36 4c b7 3c c2 c3 5a 3e 14 18 05 bf 39 71 a5 3d
       0.022375207 0.21363738 -0.51989865 0.08078236
0000a0 67 94 82 be 81 94 05 bf 6a b3 94 3e eb 93 a7 be
       -0.25503847 -0.52179724 0.29043132 -0.3273004
0000b0 99 89 ac 3e 9e 27 ee 3d 00 d9 f1 bd a8 4c ec 3e
       0.3369873 0.1162865 -0.118089676 0.46152234
0000c0 b4 aa 0e be 3c 65 50 3c 8e fe da bd e0 e4 54 bd
       -0.13932306 0.012719449 -0.10693084 -0.051976085
0000d0 f4 17 10 3f c8 07 ae 3e 4f 72 2d 3d 5b d2 3b be
       0.5628655 0.33990312 0.04234534 -0.18341963
0000e0 81 51 82 3e ad 68 88 be 85 82 85 be 02 5b 59 3e
       0.25452808 -0.2664236 -0.2607614 0.21226123
0000f0 c2 08 e2 be 80 56 50 bc ee e9 fd be 49 32 a6 bd
       -0.44147307 -0.012715936 -0.49592537 -0.0811506
000100 dd ce bc 3e e8 91 90 be c0 dd 8c bf d2 38 44 be
       0.36876574 -0.28236318 -1.1005173 -0.191623
000110 12 fa a3 3e b7 98 18 be 4c de 40 3e 13 71 31 be
       0.32026726 -0.14902006 0.188348 -0.1732829
000120 a1 49 8a 3e 26 1e 10 3c e7 e1 07 be 4d ac 8c 3d
       0.270093 0.00879625 -0.13269769 0.06868801
000130 a9 cb 95 3e a6 7b 3e 3f 09 f5 45 3f f1 9d 82 be
       0.29256943 0.7440742 0.7732702 -0.25511125
000140 1d 68 13 bd f9 70 bf 3d 0e 6e ea 3e 8f 6c 1f bf
       -0.035987962 0.0934772 0.4578709 -0.6227502
000150 95 25 b7 bd 24 2b 49 bf d8 b4 35 bf be 38 e0 bd
       -0.08942715 -0.7858145 -0.7097907 -0.10948323
000160 0d c6 38 bd 8e a6 b0 3e 13 15 a8 be 31 2c 9d 3d
       -0.04511075 0.3450207 -0.32828578 0.076744445
000170 94 87 78 3e 29 ac 78 bc 8e aa 25 bc 01 0a a7 be
       0.24270469 -0.015177765 -0.010111464 -0.3262482
000180 96 60 a1 3e e8 75 38 3f 04 66 d8 bc a9 9e 1b be
       0.31519002 0.7205491 -0.026415832 -0.15197243
000190 a4 8d 19 be fe 37 1a bf 2e d3 84 3d 3a 1e 1c bf
       -0.14995438 -0.6024169 0.06485592 -0.6098362
0001a0 10 27 95 3c 29 a4 33 bf 5d 72 57 3e 5b b4 f1 3d
       0.018207103 -0.70172364 0.2103972 0.11801978
0001b0 d5 43 ff bd b0 42 90 be 7a 94 74 bd c6 b7 19 bf
       -0.1246411 -0.2817588 -0.05971191 -0.6004604
0001c0 12 13 ae 3d 9b 5f 8e be b8 1a d5 3e 1e 59 3d 3d
       0.08499731 -0.27807316 0.41621947 0.046227567
0001d0 97 1f d5 be 3d 83 3a 3f 7f 44 08 3f 7f 6d d3 be
       -0.41625664 0.72856504 0.53229517 -0.41294476
0001e0 52 49 44 3e 05 c4 52 bd a7 06 e9 bc ee eb 98 3f
       0.19168594 -0.05145647 -0.028445555 1.1947
0001f0 54 d1 95 3e 93 29 68 3e de db 61 3e ea 69 9d bd
       0.29261267 0.2267211 0.22056529 -0.07686217
000200 b9 2a 9f 3e 61 3b 9c 3d 90 d5 bf be c5 c9 88 be
       0.31087282 0.07628513 -0.37467623 -0.26716438
000210 48 74 51 3d e7 2e 2b 3f 70 09 f3 bb 31 c8 54 3e
       0.051136285 0.6686844 -0.0074168965 0.20779492
000220 86 79 3e be b7 5e 6c 3d 5f b0 82 3c e1 ba 56 3c
       -0.18601045 0.057707515 0.01595324 0.013106079
000230 52 26 a8 bc 88 8d 32 bd 07 a6 84 be 8c fc 1a be
       -0.020526085 -0.043592006 -0.2590792 -0.15135401
000240 05 6b cd 3d 55 e9 27 bf c6 2b cf 3c 49 27 11 3e
       0.10030178 -0.6559041 0.025289427 0.14175142
000250 87 50 ae 3e 02 9e 97 be 64 67 46 be 13 f4 6d 3d
       0.34045812 -0.29612738 -0.19375378 0.058094095
000260 3c 2f 4b 3d b8 ae f5 3d 36 34 da 3e 75 ef 83 3c
       0.049605593 0.119962156 0.4261796 0.016105393
000270 5a 31 59 bc 72 35 8a 3d f0 bc 52 3d a3 dd 8d 3e
       -0.013256395 0.06748475 0.051449716 0.27708158
000280 92 47 f3 be 77 ff 93 3e b9 59 09 3e 74 ba 07 be
       -0.4751554 0.28905842 0.13413133 -0.1325472
000290 01 ee 83 be f5 49 04 3d 35 61 c8 3e f8 81 42 3d
       -0.2576752 0.032297093 0.39136663 0.04748723
0002a0 84 f9 f5 bb 24 ec c1 3d c3 63 1b 3e 6a 87 02 bd
       -0.007506551 0.094688684 0.15174775 -0.031867422
0002b0 09 bc 41 be 9f bf dc bc 24 55 b3 3e 94 22 a1 be
       -0.18919386 -0.02694684 0.35025895 -0.31471694
0002c0 59 78 1e be a1 e9 23 bd bd 00 fa bc cf 93 45 bd
       -0.15475596 -0.040017728 -0.03051793 -0.048236664
0002d0 8d 70 cd bd 57 d2 17 bd 1f 4a 49 be 24 9f 9b 3e
       -0.10031233 -0.03706583 -0.19657181 0.30394852
0002e0 4f 4e 81 3e 85 d4 f1 bd 71 96 86 be 6f 1f 87 3e
       0.25255057 -0.11808113 -0.26286653 0.2639117
0002f0 3e b3 3e be d1 68 d2 3d a0 78 6e 3e ee a0 f3 bd
       -0.18623063 0.102738984 0.23288202 -0.11895929
000300 81 6a 8b 3d a1 08 a9 3e 67 c8 ba 3b b0 f2 e5 3e
       0.068074234 0.33014396 0.0057001594 0.44911718
000310 be a1 dc bd 30 8a e8 3c d4 4c 23 bf 4a ef ad be
       -0.107730374 0.028386205 -0.63789105 -0.33971626
000320 c1 e8 bc be fd a1 00 be 9d 1c dc 3c c1 24 96 3e
       -0.36896327 -0.12561794 0.026869113 0.29324916
000330 52 b8 a9 3d 53 5e 2c be 54 dc 28 bf 36 d0 2a 3e
       0.082871094 -0.16832857 -0.65961194 0.16680989
000340 a5 6f 3d be d1 f8 64 3d 74 e0 ac bd fa 26 17 3f
       -0.1849962 0.055901352 -0.084412485 0.5904385
000350 aa 8c 01 3f 30 0d ce 3e a6 12 ed bc 55 9c 85 be
       0.5060526 0.40244436 -0.028939556 -0.26095834
000360 94 28 22 3f 15 81 bd 39 ad 02 b5 be 44 89 cd 3d
       0.6334317 0.00036145063 -0.35353604 0.10035947
000370 af 87 af be cf 15 68 3c f6 3f 66 3d 29 9a d6 3d
       -0.34283206 0.014165356 0.05621334 0.104786225
000380 c3 8c 0b 3c 38 7c d6 be ad d8 2d 3e 7c 21 82 be
       0.008517447 -0.41891646 0.16977187 -0.25416172
000390 dd 30 20 bf d7 ba bf 3e 8f 2e ad 3e 35 fc 00 3f
       -0.6257456 0.37447235 0.33824584 0.5038484
0003a0 bb 45 98 3c 61 07 d5 bd d8 9b ac 3e 40 ae 6f bd
       0.018587938 -0.10401798 0.3371265 -0.058515787
0003b0 0a 5d 2c 3e e6 b6 7e 3d c9 21 04 bd 1d 5e 26 3e
       0.16832367 0.062186144 -0.032258783 0.16246839
0003c0 4c d2 30 3d cc ac 63 3e b3 d8 94 be 24 fc 83 be
       0.043169305 0.22233886 -0.29071578 -0.25778306
0003d0 b2 c9 8d 3e d7 4e 45 bf 97 d1 33 bf 10 43 68 be
       0.27692944 -0.77073425 -0.70241684 -0.22681832
0003e0 85 59 2b be 37 3a 54 3e 2f b3 87 3d f5 28 83 bf
       -0.16733368 0.20725332 0.066259734 -1.0246874
0003f0 4c 56 e8 bd cd 27 2e 3d 2d af c1 be c5 d7 cf 3d
       -0.11344585 0.042518426 -0.3782896 0.10148577

network.2.bias f4 [64]
000000 9f a8 25 bd 69 3e a2 bd 01 39 64 be a0 56 39 bd
       -0.040444013 -0.0792206 -0.2228737 -0.045248628
000010 69 83 c9 bd 9c df 66 bb 30 42 9f bd 47 95 0d bd
       -0.098395176 -0.0035228496 -0.07776296 -0.03456619
000020 01 7a 93 3d 15 0a 76 be 24 33 2b be 69 be 2d bd
       0.07201005 -0.24027283 -0.16718727 -0.042417917
000030 85 f9 a0 bd 7d 42 cf 3e b2 a3 6a be 69 40 59 bd
       -0.07860092 0.40480414 -0.22914007 -0.053039942
000040 5e 41 79 be 87 0f 6d bd fb 5d b2 be 8a 9d b3 bd
       -0.24341342 -0.057876136 -0.34837326 -0.087702826
000050 e1 46 a6 3c e0 69 1e be 77 a7 f3 bd 42 30 01 be
       0.02029747 -0.15470076 -0.11897176 -0.12616065
000060 ad 11 8f be a9 9f 7f bd 7a fa 9c bd 24 76 5f bd
       -0.27943173 -0.062408123 -0.07664962 -0.054556027
000070 ec 1b 25 bf 74 fd b7 bd 52 db 9c 3d f5 ab 68 be
       -0.6449573 -0.08983889 0.076590195 -0.22721846
000080 63 38 26 bf ae 17 a6 be 02 ad 3c be 8c 80 65 be
       -0.6492979 -0.3243994 -0.18425372 -0.22412318
000090 cc 23 a3 3e 24 a2 53 be fc 24 be bd 4c dd 88 bd
       0.31863248 -0.2066732 -0.09284398 -0.06682834
0000a0 e2 d0 08 bf 16 2a 92 3e 25 a6 14 bd e0 66 d6 3e
       -0.5344373 0.28547734 -0.03629126 0.41875362
0000b0 11 dd d9 bd c6 ae de be 52 32 e5 be 7a 5d 25 be
       -0.10637868 -0.43492717 -0.44764954 -0.1614894
0000c0 89 61 eb be 5a 73 c3 3c 0e 0f 31 bd a3 c5 92 be
       -0.4597285 0.023858715 -0.043227248 -0.2866641
0000d0 cd e4 1d bf c7 de cc bd bc 62 9c be 18 94 b4 bd
       -0.6167725 -0.10003429 -0.30544078 -0.08817309
0000e0 ba 7d 6a 3c f6 4d 5f 3e 39 7d 5d 3d 28 30 86 3d
       0.014312202 0.21807083 0.0540745 0.06552154
0000f0 ed aa 2a be f1 50 92 be 4b 51 2a bd 67 80 2d bf
       -0.16666766 -0.28577378 -0.041581433 -0.6777405

network.4.weight f4 [16, 64]
000000 58 4c 09 3e 2c 76 e4 bb d8 25 e5 bb 8d 8e 01 3d
       0.13408029 -0.006972095 -0.0069930367 0.031630088
000010 55 3b 7a bd ba 6e fc bc 68 a4 ad bd 06 61 f9 3c
       -0.06109174 -0.030814517 -0.08478624 0.030441772
000020 f2 cc 76 3e 7a 69 f7 3e 3e f8 c2 3b 43 d6 a0 bc
       0.24101618 0.4832266 0.005950003 -0.019633418
000030 c6 2a 08 3e b6 b0 21 be fc 60 07 3e f3 dd ff bc
       0.13297567 -0.15790066 0.1322059 -0.031233763
000040 7a 76 3d 3e 28 85 f2 3b d0 30 1d bf 95 0f 0f 3f
       0.18502226 0.0074011274 -0.61402607 0.5588315
000050 5a 46 99 3d 51 b1 c1 bd f1 f2 9b 3c 6d 99 ff 3d
       0.074841216 -0.094576485 0.019036742 0.124804355
000060 d3 06 91 3e 72 c7 fd be 02 68 00 3e 6f 50 24 be
       0.2832552 -0.49566227 0.12539676 -0.16046308
000070 2e 93 94 be 65 79 23 3f 44 f0 0d bf 91 73 a4 3e
       -0.2901854 0.6385711 -0.5544474 0.3211942
000080 d9 46 78 3e 4e 6c 37 3e 1d 69 c4 3d 44 08 1e 3e
       0.24245776 0.17912409 0.09590361 0.1543284
000090 c2 c1 65 be 7b 3e 41 3e 0a 85 28 3a 1d ac cb bb
       -0.22437194 0.1887149 0.0006428516 -0.006215586
0000a0 c8 4c 68 3f 46 25 c3 be 72 47 50 3c e7 39 44 be
       0.9074216 -0.38114375 0.012712346 -0.19162713
0000b0 43 ed 61 bb 35 67 a0 be e6 48 78 bf b4 e0 75 3c
       -0.0034473694 -0.3132874 -0.96986234 0.015007187
0000c0 f5 62 0d 3f 58 e8 d1 3e ba 71 6c bc 07 89 02 3e
       0.5522912 0.40997577 -0.014431411 0.12747584
0000d0 f0 f1 3e 3f 01 b6 86 3d 52 09 67 3d 0e 34 ab 3d
       0.7458792 0.06577683 0.056405373 0.08359538
0000e0 4a 3a 0d bd 9d be ae 3e 22 82 8e 3e 52 56 fb 3d
       -0.034479417 0.341298 0.27833658 0.12272324
0000f0 17 8b 09 3e fe 0f c2 bd d4 e8 62 bd 54 09 8f 3f
       0.13431965 -0.094757065 -0.055397823 1.1174722
000100 68 51 87 ba 88 e2 c8 bd 62 a5 d4 3c bd 65 ab 3c
       -0.0010323944 -0.098088324 0.025957767 0.020922536
000110 b7 7e c2 3d 4e 10 2b be b5 fe 04 be 4b f0 58 bd
       0.09496825 -0.16705438 -0.12987788 -0.052963536
000120 c8 f2 0e bd eb 63 75 3e ae 2d bb 3b a5 12 f8 3c
       -0.034899503 0.23963897 0.0057122326 0.030282328
000130 97 ac da 3b d6 a0 0c bf 03 42 82 3e 46 f9 60 3d
       0.0066734063 -0.54932916 0.25440988 0.054925226
000140 cc 24 1c bd 98 53 e3 3d 88 9c a8 3e ec 5f 98 3d
       -0.03812103 0.110999286 0.32931924 0.07440171
000150 79 a8 e0 3d 80 01 6f bd 99 e9 ff 3d 67 03 81 bd
       0.109696336 -0.05835104 0.12495727 -0.06299477
000160 fe 3b dc be c7 86 8a 3e 93 b8 cd bb 74 c0 14 3c
       -0.4301452 0.27055952 -0.0062781065 0.0090790875
000170 78 0c b3 bd 24 54 d7 3d e8 76 9a be 85 53 bc be
       -0.087426126 0.105140954 -0.30168843 -0.3678247
000180 f5 6d ef be fc aa 5a bd 57 28 fc 3d bf 2a da be
       -0.46763578 -0.05338572 0.12312382 -0.42610738
000190 6b 9d ab bd 00 30 8a bd c1 9a 94 3d b2 70 11 3f
       -0.083796345 -0.067474365 0.072560795 0.56812584
0001a0 08 e8 87 3e c2 e8 ae be 5a 4c 94 3e f1 76 82 bd
       0.26544213 -0.34161955 0.28964502 -0.063703425
0001b0 84 ff 8e bd a7 a0 85 3d 6c 13 23 be 00 83 9c 3d
       -0.069823295 0.06524783 -0.15925378 0.07642174
0001c0 b0 51 75 bf d1 61 30 3f 13 d5 62 bc 06 f0 d4 bc
       -0.9582777 0.68899256 -0.013844746 -0.025993358
0001d0 79 ef a8 3e a0 ed 30 3d ff 54 cd 3a 28 77 a8 3d
       0.32995203 0.043195367 0.001566559 0.08225852
0001e0 9a e8 06 be a7 f8 81 be 3c e9 ac 3c 0c 57 85 be
       -0.13174668 -0.2538502 0.021107309 -0.26042974
0001f0 ac c6 44 3d e9 fb 27 3e f6 cf 52 be eb 45 56 be
       0.04804103 0.1640469 -0.20587143 -0.20925109
000200 e6 c9 62 3e 92 db 49 bd 0e b2 0e bd 19 87 0b b9
       0.2214733 -0.049281664 -0.034837775 -0.00013306401
000210 d8 89 a1 bd 6d 68 24 3e 60 3d 1b be b7 c0 e9 bd
       -0.0788762 0.1605546 -0.15160131 -0.114137106
000220 8c 3f 82 bd f0 25 ea 3b 2a 48 ed 3d a6 f1 1e 3d
       -0.06359777 0.007145636 0.1158603 0.038804673
000230 c8 4c 2f bd 81 51 af be 5d dd 82 3e d7 00 8e bd
       -0.042797834 -0.3424187 0.25559512 -0.06933754
000240 dc 85 27 be d2 54 c8 3d 69 d2 fd 3e 8f 87 92 3d
       -0.16359657 0.09781803 0.49574593 0.07154762
000250 6e cc 8d bd fe 57 d6 bc 7c ab 1d bd ae cd 4f 3c
       -0.069237575 -0.026165005 -0.03849362 0.012683315
000260 33 5c 04 bf e8 d6 de bd f3 4a 05 3d f8 8f c3 bd
       -0.51703185 -0.10880834 0.03254218 -0.09548944
000270 ef 41 49 bd 0a ad 45 be ec 39 d3 be f8 e4 df bd
       -0.049135145 -0.1930429 -0.41255128 -0.10932344
000280 2b a5 a7 bd de 54 bd 3d 68 fb 50 3d 8c 74 96 be
       -0.081858 0.09244703 0.05102101 -0.29385793
000290 56 0d ab bd f7 04 c2 3c 65 0c 9a 3d 76 1b 10 3f
       -0.08352153 0.023684008 0.07521895 0.562919
0002a0 91 1e 16 3e a7 6d ae 3b 68 3b e4 3e 46 2b cf bd
       0.14660098 0.00532313 0.44576573 -0.10115676
0002b0 78 da 3f 3d 6a c4 13 3f 17 14 b7 be e5 0a c9 bc
       0.046839207 0.5772158 -0.35757515 -0.024541328
0002c0 24 a5 5f bf da ae 09 3f d2 08 af bd 05 39 77 3d
       -0.8736136 0.5378243 -0.08546604 0.060357112
0002d0 f2 08 1a 3f 30 a1 9e 3e a9 24 17 3e 30 d5 43 bd
       0.601699 0.3098235 0.14760078 -0.047810733
0002e0 c8 10 9e bc ed 4c 05 3e 8b 00 ff b9 f4 de 04 be
       -0.019295111 0.13017626 -0.00048637795 -0.12975675
0002f0 ea c9 a3 3d 07 67 ac 3e 91 82 6b be 93 cc ff be
       0.079974964 0.33672354 -0.22999026 -0.49960765
000300 2d 14 5e bd 57 93 81 3e 8d 5d 57 3d 9d f5 9e bd
       -0.05421846 0.25307724 0.05257945 -0.07761691
000310 91 2a 53 bd 64 95 77 be 1d e6 77 3e e7 57 d0 3d
       -0.051554266 -0.24178082 0.24208875 0.10173016
000320 0c f9 49 be fe 11 17 bf 15 44 47 3e 95 8a bd bc
       -0.1972391 -0.5901183 0.19459565 -0.02313737
000330 2e e3 93 bd c7 18 08 3f 05 2d 94 3e 2e a2 15 3e
       -0.072210655 0.5316281 0.28940597 0.14612648
000340 63 7c de be bf 05 49 bc 0a 66 d7 3d 80 57 3c bb
       -0.43454275 -0.012269436 0.10517509 -0.0028738678
000350 b4 4d a5 3d 89 03 2a 3d 0f ab b7 bd a7 75 25 3c
       0.08071461 0.041507278 -0.08968174 0.010098851
000360 2e 63 a1 bb c2 ad 91 3e 62 f6 78 3d 97 f5 f7 bd
       -0.004925153 0.2845288 0.060781844 -0.121073894
000370 81 5b ca 3e c4 e3 f2 bd ef e7 48 3d 2e c2 53 3e
       0.39522937 -0.11859849 0.049049314 0.20679542
000380 ce 4e 4e be b2 3b 98 3d 8b 51 b9 3d 13 42 d0 bd
       -0.20147249 0.07433261 0.09048756 -0.10168853
000390 ed e2 4f bc fe 51 bb 3d 7d 8c 20 3d ba 14 ca 3e
       -0.012688381 0.09146498 0.03919648 0.39468938
0003a0 66 f4 63 bd 0c ac f1 be 79 65 1a be da 79 df 3d
       -0.055653 -0.47201574 -0.15077771 0.10911913
0003b0 b5 49 6a bd 1e 36 b6 3e c1 0e 2a 3f 79 d1 d8 3b
       -0.0571992 0.35588163 0.6642876 0.006616768
0003c0 21 52 34 bf dd 73 94 3e cb 22 4e bd 33 ac 15 3e
       -0.7043782 0.28994647 -0.05032615 0.1461647
0003d0 58 ac 95 be 35 b8 87 3e 96 50 ba 3d de 67 0f 3e
       -0.2923305 0.26507726 0.09097402 0.14004466
0003e0 f9 fb 73 bd 11 c9 e1 be 0b 4e f7 3e 88 f5 6d 3e
       -0.05956647 -0.44098714 0.4830173 0.23238194
0003f0 b4 d5 63 3e f6 4c b2 3d cd b0 31 3d 76 cc 2f bf
       0.2224949 0.087060854 0.0433815 -0.6867136

network.4.bias f4 [16]
000000 dd 0a 1f 3e b2 36 30 be 77 2a c1 be f6 79 e7 3c
       0.15531488 -0.17208365 -0.3772771 0.028256398
000010 4c 52 88 be c2 30 5d bd d4 8e e5 be 5c fa 94 bd
       -0.26625288 -0.054001577 -0.44835532 -0.07274315
000020 04 53 63 be 73 b8 67 be c4 b6 f0 bd 01 35 03 be
       -0.22199637 -0.22628956 -0.1175361 -0.12813188
000030 92 b8 9d be 51 c0 d8 bc 60 37 18 bc 70 7a 62 3d
       -0.30804878 -0.026458891 -0.009290546 0.055292547

network.6.weight f4 [2, 16]
000000 07 cb c7 be fa 47 0e 3e ef 69 f5 3e de f5 f9 3c
       -0.39022085 0.13894644 0.47932383 0.030512746
000010 04 4c 0d be 6f b3 9c 3d ad 2b bd be ff 44 ff bd
       -0.13798529 0.07651412 -0.36947384 -0.12464332
000020 81 e7 3e be 08 bf 31 3f 8c 1c cd bd ba 48 18 3e
       -0.18642999 0.69432116 -0.100152105 0.14871493
000030 b2 98 73 3d f5 22 20 be c2 c8 82 3e 8d e1 fa 3e
       0.059471793 -0.15638335 0.2554379 0.49000207
000040 f7 08 ad 3e de 45 75 be 46 09 33 be ed 73 97 be
       0.33795902 -0.23952433 -0.17484006 -0.29580632
000050 86 3e 81 3d 96 9a 59 3d 70 90 01 3f 11 20 81 be
       0.063107535 0.05312594 0.5061102 -0.25219777
000060 60 73 65 3e 2a 65 8e be c0 38 33 3d b8 27 f1 bd
       0.22407293 -0.27811557 0.043755293 -0.11775154
000070 b0 3c d7 3c ed ff 2a be bc 10 00 bf 8d de 43 bf
       0.026274055 -0.1669919 -0.50025535 -0.7651146

network.6.bias f4 [2]
000000 e1 98 b7 3e 1f c6 f8 bd
       0.35858825 -0.121471636
