models/adult/rs/adam_epochs40_lr0.004_batch128_dropout0/model_642.pth (torch, 43811 bytes, 8 tensors)

network.0.weight f4 [128, 6]
0	0xbf20ab63	-0.62761515
1	0x3c7b941f	0.015355139
2	0xbf12a63b	-0.572849
3	0xbe7a82b3	-0.2446392
4	0xbdba662f	-0.09101521
5	0xbd1a3616	-0.037649237
6	0x3be408bb	0.0069590486
7	0x3e381c69	0.17979588
8	0xbdf64e21	-0.12026621
9	0x3fc2262d	1.51679
10	0xbe10bee2	-0.14135316
11	0xbe48a1b9	-0.19592942
12	0xbf52e48e	-0.82379997
13	0x3ea36e0a	0.3191989
14	0xbf1cb32f	-0.6121091
15	0xbf591af5	-0.8480676
16	0xbf062921	-0.5240651
17	0xbf644901	-0.89173895
18	0xbd6cc741	-0.05780721
19	0x3dd6bfe0	0.10485816
20	0xbe3af134	-0.18256074
21	0x3dea892d	0.114519455
22	0xbcf7cec3	-0.030249959
23	0xbe761819	-0.2403263
24	0xbf2d0449	-0.67584664
25	0x3d79c826	0.060981892
26	0x3e6d4b22	0.23173192
27	0xbf0a7278	-0.54080915
28	0xbd02aa7c	-0.031900868
29	0xbf407594	-0.7517941
30	0xbe38e48d	-0.18055935
31	0xbe0f38b9	-0.13986482
32	0xbe242ac6	-0.16031942
33	0x3e011ff8	0.12609851
34	0xbde876e5	-0.11350802
35	0xbdc4b189	-0.09604175
36	0xbf112e31	-0.5671111
37	0x3ec2914a	0.38001472
38	0xbeb0b823	-0.34515485
39	0x3f1756ca	0.59116805
40	0xbea525f2	-0.32255512
41	0xbdedc4b8	-0.11609787
42	0xbf3c3ee4	-0.73533463
43	0x3f095fa1	0.53661543
44	0xbf0b80ab	-0.54493207
45	0x3f398084	0.72461724
46	0xbec677a0	-0.38763142
47	0x3e2c0708	0.16799557
48	0xbf26b7b6	-0.6512407
49	0x3cbb3fca	0.022857565
50	0xbd97ad6c	-0.074061245
51	0xbf54ca27	-0.8312096
52	0xbe4f9353	-0.20271043
53	0xbeb36c1b	-0.35043415
54	0xbe6f51d5	-0.2337106
55	0x3d9f364e	0.0777403
56	0xbe41dc93	-0.18931799
57	0xbe97d016	-0.29650944
58	0xbe617397	-0.2201675
59	0xbeeb553d	-0.4596347
60	0xbf544929	-0.82924134
61	0x3e88e224	0.26735032
62	0x3e4b2a6a	0.19840398
63	0xbf157d2f	-0.5839414
64	0x3b19e05d	0.0023479678
65	0xbf423689	-0.75864464
66	0x3e0c78d6	0.1371797
67	0xbf588092	-0.8457118
68	0x3ed3899a	0.4131592
69	0x3ba99825	0.0051756077
70	0xbf11d937	-0.5697207
71	0xbec08376	-0.37600297
72	0x3f1c019d	0.6093996
73	0x3dd3e615	0.10346619
74	0xbee65cad	-0.4499258
75	0x3f24cc88	0.6437459
76	0xbe8ff1c9	-0.28114155
77	0xbf8a97fe	-1.0827634
78	0xbd0c92ce	-0.03431969
79	0xbcc9a934	-0.024616815
80	0xbd9b531e	-0.07584213
81	0x4001e344	2.0294962
82	0x3e974f27	0.29552576
83	0x3dabb385	0.0838385
84	0xbd4e8a29	-0.05042473
85	0x3bf18793	0.007370898
86	0xbe0833fa	-0.13301077
87	0x3e5ed86e	0.21762249
88	0xbc06e5e5	-0.008233522
89	0xbdba55b5	-0.090983786
90	0x3eacdf05	0.337639
91	0xbe8e69a2	-0.27814966
92	0xbe8b3a10	-0.27192736
93	0xbe081c0a	-0.13291946
94	0xbe6962da	-0.22791615
95	0xbe2a85e4	-0.16652638
96	0x3d278e63	0.040907275
97	0xbf4fe74b	-0.812123
98	0xbf5cec29	-0.8629785
99	0xbed31c97	-0.4123275
100	0x3e160b11	0.14652659
101	0x3e879e90	0.2648816
102	0x3d3af468	0.04564324
103	0x3eb0dfc6	0.34545726
104	0xbebe2ca9	-0.37143448
105	0xbe3486e8	-0.17629588
106	0x3d50a0e7	0.0509347
107	0xbf72c7e3	-0.9483625
108	0x3e9e598d	0.30927697
109	0x3f08c920	0.5343189
110	0x3d638a83	0.055552017
111	0x3f8d27d0	1.1027775
112	0xbd881c2d	-0.06645999
113	0xbdfcd134	-0.1234459
114	0xbd87369f	-0.06602215
115	0x3f29d66c	0.66342807
116	0x3e20d5b2	0.15706518
117	0x3eb2cf70	0.34923887
118	0x3ea94afb	0.33065018
119	0x3da5b6af	0.08091485
120	0xbe9d868c	-0.30766714
121	0xbac76fbd	-0.0015215796
122	0xbe68c8d3	-0.22732858
123	0xbe83eead	-0.25768033
124	0xbebb1128	-0.36536527
125	0xbf83261c	-1.0246005
126	0xbe155a29	-0.14585175
127	0x3de22f78	0.1104421
128	0x3e037627	0.1283804
129	0x3e98100d	0.29699746
130	0x3e7c2302	0.2462273
131	0xbd590517	-0.05298337
132	0x3dfb2857	0.122635536
133	0xbed97a50	-0.4247613
134	0x3e3a8d00	0.1821785
135	0xbf210bb2	-0.6290847
136	0xbd49c332	-0.04925842
137	0xbfa36d9b	-1.2767824
138	0x3d19ec6e	0.037578993
139	0x3cede912	0.0290418
140	0x3da5199c	0.08061525
141	0x3d100a4b	0.035166066
142	0xbbfdab17	-0.0077413428
143	0x3d4e59c1	0.050378565
144	0xbe6ec810	-0.23318505
145	0x3c7506f2	0.014955269
146	0xbe869952	-0.2628885
147	0x3fd3c212	1.65436
148	0x3edc1276	0.42982835
149	0xbe5201eb	-0.20508544
150	0xbf910835	-1.133063
151	0xbf6ad8cf	-0.91737074
152	0xbee811f6	-0.45326203
153	0x3d9b9326	0.07596426
154	0xbd403dd9	-0.046933983
155	0xbe7f00d1	-0.24902655
156	0x3dbbf7a7	0.09178095
157	0x3e913778	0.28362632
158	0xbf9f20cd	-1.2431885
159	0xbf35a612	-0.7095653
160	0x3bce3408	0.0062928237
161	0xbefbb45c	-0.4916104
162	0x3e809ddc	0.25120437
163	0xbe6d82ff	-0.23194502
164	0xbe817048	-0.25280976
165	0x3e2b5f72	0.16735628
166	0xbdb241f0	-0.08703983
167	0x3e12e082	0.14343455
168	0x3cac79ef	0.021054236
169	0xbf01fa14	-0.50772214
170	0xbd00293c	-0.031289324
171	0x3f9ff0d7	1.2495373
172	0xbd084752	-0.03327114
173	0x3eb4408e	0.352055
174	0xbe5dff2a	-0.21679369
175	0x3d2b8c16	0.041881643
176	0xbeaa585f	-0.33270547
177	0x3d6fa9aa	0.058511414
178	0xbd1311b3	-0.03590555
179	0xbe89d139	-0.26917437
180	0x3e2b5327	0.16730939
181	0xbdc06317	-0.093939
182	0xbeccaca7	-0.39975473
183	0xbf64066f	-0.89072317
184	0xbd8dd77d	-0.06925867
185	0xbea397f3	-0.31951866
186	0xbe2d0c96	-0.16899332
187	0x3cf06d66	0.02934904
188	0x3e89b539	0.26896074
189	0x3f3fc143	0.7490427
190	0xbd3c6ab3	-0.046000194
191	0xbcdfaee5	-0.027305076
192	0xbf75c209	-0.959992
193	0xbf43f3e9	-0.7654405
194	0xbf43a4ae	-0.76423156
195	0x3ed2e6de	0.41191763
196	0xbdf1cf9c	-0.118071765
197	0x3e9547b2	0.29156262
198	0x3e8a8cf5	0.27060667
199	0xbe7023b5	-0.23451121
200	0xbe61365b	-0.21993391
201	0xbf18fb90	-0.59758854
202	0xbdc2c4da	-0.09510203
203	0xbf1ccd22	-0.6125051
204	0xbfa56e45	-1.2924277
205	0xbe26907e	-0.16266057
206	0xbec0c368	-0.37649083
207	0x3df50692	0.11964144
208	0xbeae48cf	-0.34039924
209	0xbec2fd68	-0.3808396
210	0xbf40a7b4	-0.75255895
211	0x3dbe4712	0.09290899
212	0xbf82c7c0	-1.0217209
213	0xbf3b52ef	-0.7317342
214	0x3cc10ddd	0.02356618
215	0x3d85ff46	0.0654283
216	0xbfd9da99	-1.7019836
217	0x3e16a8ef	0.1471288
218	0xbd85485b	-0.06507941
219	0xbf0dece9	-0.5543962
220	0x3d80393b	0.06260916
221	0x3a3fbc80	0.00073141605
222	0xbf2c85f0	-0.6739187
223	0xbe51b6d8	-0.20479906
224	0xbf027f96	-0.5097593
225	0xbfb04bb9	-1.3773109
226	0xbc68e1d7	-0.014214001
227	0xbf739ce0	-0.9516125
228	0x3d0b69e5	0.034036536
229	0xbf15ccec	-0.5851581
230	0x3e34ec09	0.17668165
231	0xbf4a38e6	-0.7899307
232	0x3dbc407c	0.09191987
233	0x3e5212f6	0.20515046
234	0xbe8fa5f0	-0.28056288
235	0x3ec0b194	0.3763548
236	0xbf82ff77	-1.0234212
237	0xbe2705b8	-0.16310775
238	0xbd1c51e4	-0.038164034
239	0xbe4a8d93	-0.19780569
240	0xbf169a84	-0.5882952
241	0xbd4b8b4d	-0.049693394
242	0xbe3b1355	-0.18269093
243	0xbd4260f0	-0.047455728
244	0xbd94fe36	-0.072750494
245	0xbec5a359	-0.38601187
246	0x3ee98f21	0.4561701
247	0x3db54ce1	0.08852554
248	0x3e4ebcfe	0.20189282
249	0xbd3cd154	-0.04609807
250	0x3ed82130	0.4221282
251	0x3e85e81e	0.26153654
252	0x3e6ca703	0.23110585
253	0xba3a7f51	-0.00071143085
254	0xbedcd28d	-0.43129387
255	0xbe252b6f	-0.1612985

network.0.bias f4 [128]
0	0x3f061876	0.52381074
1	0xbe8c928f	-0.27455565
2	0xbe393b20	-0.1808896
3	0xbeb31986	-0.3498041
4	0x3e9a8353	0.30178317
5	0xbef17660	-0.47160625
6	0xbea0c0ce	-0.31397098
7	0xbf282a67	-0.656897
8	0x3e185305	0.1487542
9	0x3d3252a8	0.04353586
10	0x3e7123dc	0.23548836
11	0xbe5b10d7	-0.21393143
12	0xbe8b2675	-0.27177778
13	0xbf268621	-0.65048414
14	0xbeb51a09	-0.35371426
15	0x3ee3711c	0.44422233
16	0xbdea91ec	-0.11453614
17	0x3f0f6dc8	0.5602689
18	0xbe8fad1a	-0.28061754
19	0xbf2e36ad	-0.6805218
20	0x3f1a68a7	0.60315937
21	0xbc0ccae7	-0.008593298
22	0x3efad532	0.4899078
23	0xbe801f8f	-0.25024077
24	0xbf424e9a	-0.75901186
25	0x3e040cc7	0.12895499
26	0xbe58b553	-0.2116292
27	0xbefa3140	-0.488657
28	0xbed68805	-0.4190065
29	0xbe88c6f0	-0.26714277
30	0xbe1e1ac8	-0.15439904
31	0xbe7936bd	-0.24337287
32	0xbedc7d96	-0.43064564
33	0xbf10ff07	-0.5663914
34	0xbe6a9f57	-0.22912346
35	0xbda448bc	-0.080216855
36	0xbec25b00	-0.37960052
37	0x3ec16d07	0.37778494
38	0xbf55ad60	-0.83467674
39	0xbdebde03	-0.11516955
40	0x3eaf6e17	0.3426368
41	0xbdba0613	-0.0908319
42	0xbf4bfe02	-0.7968446
43	0xbf42a14e	-0.7602738
44	0x3f13ba8d	0.5770653
45	0xbe896e0b	-0.2684177
46	0xbed5e952	-0.41779572
47	0x3ed48332	0.41506344
48	0xbde0b142	-0.10971309
49	0xbd89b168	-0.06723291
50	0xbfb8d59b	-1.4440187
51	0xbeb762d0	-0.35817575
52	0xbefe470a	-0.49663574
53	0x3f2d8536	0.6778139
54	0xbc0d746c	-0.008633714
55	0xbe41a08a	-0.18908897
56	0xbd2e509b	-0.04255734
57	0xbdd7063a	-0.104992345
58	0xbdc7f0c9	-0.09762723
59	0xbe891f06	-0.26781482
60	0xbf25237d	-0.64507276
61	0x3f13f710	0.5779886
62	0xbe978771	-0.2959552
63	0x3eba5076	0.36389512
64	0xbecdc7ed	-0.40191594
65	0xbee12bce	-0.43978733
66	0xbf33c51a	-0.7022263
67	0xbf2c4272	-0.6728889
68	0xbed5e8ca	-0.41779166
69	0xbf03874b	-0.51378316
70	0xbe0d588d	-0.1380331
71	0xbf363c3c	-0.7118566
72	0xbe833c8d	-0.25632134
73	0xbf018fc5	-0.5061
74	0xbf027601	-0.5096131
75	0x3d62b2e7	0.055346396
76	0xbeb902d6	-0.36134976
77	0x3eddc8f0	0.43317366
78	0xbea9361f	-0.33049104
79	0xbf68f4ad	-0.90998346
80	0xbf49477f	-0.7862472
81	0x3f4f7fb6	0.81054246
82	0x3f0c03fd	0.54693586
83	0xbdacfb73	-0.08446398
84	0x3d5f1bae	0.054469757
85	0x3d4ca1d7	0.04995903
86	0xbf670f9a	-0.9025818
87	0xbf542af8	-0.82878065
88	0xbf3adccb	-0.72993153
89	0x3f3d6e7e	0.7399672
90	0xbed3783b	-0.41302666
91	0x3f0a4731	0.5401488
92	0xbee2d113	-0.44300136
93	0x3e70af58	0.23504388
94	0xbf316fb7	-0.6931109
95	0x3f0b10ba	0.543224
96	0xbf18d386	-0.5969776
97	0xbf164528	-0.58699274
98	0xbf086ea4	-0.53293824
99	0xbe801763	-0.25017843
100	0x3b86815d	0.004104777
101	0xbeb71acf	-0.3576264
102	0xbf0890ce	-0.53345954
103	0x3f0a1745	0.53941756
104	0xbd87fee7	-0.06640416
105	0xbf1dafaf	-0.61596197
106	0xbe727f0a	-0.23681274
107	0xbe5bac5f	-0.21452473
108	0xbec73274	-0.3890568
109	0xbf308a70	-0.6896124
110	0xbf4fffb5	-0.8124955
111	0x3c5ad906	0.0133574065
112	0xbe85cc04	-0.26132214
113	0x3f243a68	0.6415162
114	0x3ee390ee	0.4444651
115	0x3f1d0b87	0.61345714
116	0xbe4994cb	-0.19685666
117	0xbf536116	-0.82570016
118	0xbd5bbcca	-0.05364684
119	0x3e924daa	0.28574878
120	0x3e883274	0.26600993
121	0xbed3eeff	-0.41393277
122	0xbea2b48e	-0.31778377
123	0xbed5266e	-0.41630882
124	0xbf1c2d66	-0.6100677
125	0xbe9a7984	-0.30170834
126	0xbf22042a	-0.63287604
127	0xbeb07e4c	-0.34471357

network.2.weight f4 [64, 128]
0	0x3f03135f	0.5120143
1	0xbf199d76	-0.6000589
2	0x3ecc9f51	0.399653
3	0x3d3f19e6	0.046655558
4	0x3e19879e	0.1499314
5	0xbdffb6dc	-0.124860495
6	0x3d445b63	0.047938716
7	0xbec28384	-0.37990963
8	0x3edf9a69	0.43672493
9	0x3da6c837	0.08143657
10	0x3ed0a5d0	0.40751505
11	0x3d3d743a	0.04625342
12	0x3e0ae816	0.13565096
13	0xbf133afb	-0.5751187
14	0x3e26585c	0.16244644
15	0x3d7cc636	0.061712466
16	0xbf89da41	-1.0769731
17	0x3e05bbf3	0.13059978
18	0xbe17e8ea	-0.14834943
19	0x3c6f8efe	0.014621494
20	0x3e10d15b	0.14142363
21	0xbeb5d6dd	-0.3551549
22	0xbbee15b2	-0.00726577
23	0xbe02417d	-0.12720294
24	0xbecb4390	-0.39699984
25	0x3e701e4c	0.23449057
26	0x3ef29252	0.4737726
27	0xbe394990	-0.18094468
28	0xbea9af20	-0.33141422
29	0x3e233830	0.15939403
30	0xbbb67e06	-0.0055692224
31	0xbe2f08fa	-0.17093268
32	0xbedd6310	-0.4323964
33	0x3f188b12	0.59587204
34	0xbe479648	-0.19490921
35	0x3e32aa2f	0.17447732
36	0x3f738924	0.95131135
37	0x3fb65fe0	1.4248009
38	0xbd81fdf8	-0.06347269
39	0x3eac6055	0.33667246
40	0x3dd291a7	0.10281687
41	0xbf273169	-0.6530977
42	0xbe30bb12	-0.17258862
43	0xbf27ebb9	-0.6559406
44	0x3e1561f4	0.14588147
45	0xbd34292f	-0.04398459
46	0xbd1a6a27	-0.03769889
47	0xbe8caee4	-0.2747718
48	0x3ee743de	0.45168966
49	0xbdbf90cc	-0.0935379
50	0xbe2853af	-0.16438173
51	0xbe145158	-0.14484155
52	0xbde47ca5	-0.111565866
53	0x3e283b90	0.16428971
54	0x3f53dd75	0.8275979
55	0xbe51a48c	-0.20472926
56	0x3f3e116f	0.7424535
57	0x3e0fb974	0.14035589
58	0xbe6c3fe9	-0.23071255
59	0xbf42eb0e	-0.76139915
60	0xbe97485e	-0.295474
61	0x3e7b3153	0.24530534
62	0x3f3a24d5	0.7271245
63	0xbe3d8fb4	-0.1851185
64	0xbf2bd8d9	-0.6712776
65	0xbf2cefcf	-0.6755342
66	0x3f31bd0a	0.69429076
67	0xbef94899	-0.486882
68	0x3e956682	0.2917977
69	0xbe98910f	-0.2979817
70	0xbe09616f	-0.13416074
71	0x3f0d6a28	0.55240107
72	0xbddefbe9	-0.10887892
73	0x3e1db1ef	0.15399908
74	0xbeb4490a	-0.35211974
75	0x3cb49095	0.022041598
76	0xbe8d0ce7	-0.27548906
77	0x3e995957	0.29950973
78	0x3dff4746	0.12464766
79	0xbef1110e	-0.47083324
80	0xbf41cdee	-0.7570485
81	0x3decdbcb	0.1156536
82	0x3e06a43c	0.13148588
83	0x3f0175f5	0.50570613
84	0xbeb6c30d	-0.35695687
85	0x3d349a01	0.044092182
86	0x3d6d74f0	0.05797285
87	0x3d50ae62	0.050947554
88	0x3e4e13ce	0.20124742
89	0x3e3491f1	0.17633797
90	0xbe7f9f72	-0.24963167
91	0xbd696c83	-0.05698825
92	0x3e241de0	0.16027021
93	0x3eb1ddaf	0.34739444
94	0x3da3c10c	0.07995805
95	0x3e711071	0.23541428
96	0xbeccc478	-0.39993644
97	0xbf332306	-0.69975317
98	0xbe9479a8	-0.28999066
99	0xbdc9ebb1	-0.09859408
100	0x3dfecd9f	0.12441563
101	0x3e7a08a5	0.2441736
102	0x3e715fea	0.23571745
103	0x3d8f662e	0.07001911
104	0xbe1dbc3e	-0.1540384
105	0x3f6cd9ed	0.9252003
106	0xbf164c58	-0.5871024
107	0xbec01d59	-0.3752239
108	0xbe06d9a0	-0.13168955
109	0xbe80c5e2	-0.25150973
110	0x3ee88f9c	0.45422065
111	0x3c301ac1	0.010748566
112	0x3dc220a6	0.094788834
113	0x3e77f2cf	0.24213718
114	0x3cca092d	0.024662578
115	0x3df45593	0.119303845
116	0xbf1e5d97	-0.61861557
117	0xbed895a3	-0.42301664
118	0xbed8caac	-0.42342126
119	0x3fb00369	1.3751041
120	0x3e3a32a4	0.1818338
121	0xbcd9bf18	-0.026580378
122	0xbe3b125a	-0.1826872
123	0xbe2900ab	-0.16504161
124	0x3f58674f	0.84532636
125	0x3efc8d96	0.49326771
126	0xbf145b28	-0.57951593
127	0xbedc0d23	-0.42978773
128	0xbe188b81	-0.14896967
129	0xbec7c791	-0.39019445
130	0xbd637763	-0.055533778
131	0x3dd86da9	0.10567791
132	0x3ee915fe	0.4552459
133	0x3bbabd89	0.005698864
134	0xbe90295d	-0.28156558
135	0xbf06dc09	-0.52679497
136	0xbdf592ba	-0.119908765
137	0x3e840eb4	0.25792468
138	0x3f0e6855	0.5562795
139	0xbf0e341d	-0.5554827
140	0x3e9223f7	0.28543064
141	0xbf61acf6	-0.8815454
142	0x3e174238	0.14771354
143	0xbe4199c2	-0.1890631
144	0xbe0b1a8c	-0.13584346
145	0xbd094dc7	-0.03352144
146	0x3d648a5c	0.055796012
147	0xbf21ff4d	-0.63280183
148	0xbecd094d	-0.40046158
149	0x3c918996	0.017765801
150	0x3e3bedcf	0.18352436
151	0x3e376baa	0.17912164
152	0xbf5d75a8	-0.86507654
153	0xbc7e97e2	-0.015539141
154	0xbd945970	-0.07243621
155	0x3ce99644	0.028514035
156	0xbeca433f	-0.3950443
157	0x3df70920	0.12062287
158	0x3d8ed9f7	0.06975167
159	0x3e9ab335	0.3021485
160	0x3ef639e4	0.48091042
161	0xbe196768	-0.14980853
162	0x3e03cd28	0.1287123
163	0xbdd6eda2	-0.104945436
164	0x3e810e01	0.25205997
165	0x3e242ab3	0.16031913
166	0xbf28ee2f	-0.6598844
167	0xbe92b530	-0.2865386
168	0xbd43e13d	-0.047822226
169	0x3e2f2fb2	0.17108038
170	0x3e2db4e3	0.16963534
171	0x3e9e4673	0.30913123
172	0xbeaa7336	-0.33291024
173	0xbe7e45ab	-0.24831264
174	0x3dce439f	0.100714915
175	0xbe2cee11	-0.1688769
176	0xbdb59c37	-0.08867686
177	0xbdf706ca	-0.12061842
178	0xbf8ad81b	-1.08472
179	0x3e8a7c20	0.27047825
180	0x3c2735bd	0.010205683
181	0xbeaeee41	-0.34166148
182	0x3e919da3	0.2844058
183	0x3e7c9eb1	0.24669911
184	0x3ec55c8e	0.38547176
185	0x3d199a9b	0.03750096
186	0x3d0ffad6	0.035151325
187	0x3e40cffb	0.18829338
188	0xbf159f65	-0.5844634
189	0x3e0cb8e2	0.13742402
190	0x3e8d9e01	0.2765961
191	0xbe694df6	-0.22783646
192	0xbf38ad4a	-0.7213942
193	0xbe2767ae	-0.16348144
194	0x3e5bb425	0.21455438
195	0xbe3fa0aa	-0.18713632
196	0xbd97c9a6	-0.07411508
197	0xbe7859a1	-0.2425294
198	0xbe324a93	-0.1741126
199	0x3dfded7e	0.12398814
200	0xbeec3f2b	-0.46141943
201	0xbe9d6068	-0.30737615
202	0xbf27595b	-0.6537072
203	0xbd11ac2e	-0.035564594
204	0x3d880404	0.06641391
205	0x3cb00702	0.021487717
206	0x3ec8103f	0.39074895
207	0xbe352ea7	-0.17693578
208	0xbf238708	-0.63877916
209	0xbd3b0bb6	-0.045665465
210	0x3e0214e0	0.12703276
211	0xbeb06a2e	-0.3445601
212	0x3d2f0e3a	0.042738177
213	0xbe8b5228	-0.27211118
214	0xbea14528	-0.31498075
215	0x3dc05434	0.093910605
216	0xbe2a8a6b	-0.16654365
217	0x3e1f04d1	0.15529181
218	0xbe692b29	-0.2277037
219	0xbea6ba89	-0.3256419
220	0xbe3a707e	-0.18206975
221	0xbedb3b66	-0.42818755
222	0xbebf053d	-0.37308684
223	0xbe703673	-0.2345827
224	0xbe7ca29d	-0.24671407
225	0xbf3d2f01	-0.7389985
226	0x3e4a1075	0.1973284
227	0xbe6d65e8	-0.23183405
228	0xbbb816c2	-0.0056179473
229	0xbeb39684	-0.35075772
230	0x3ea0a5e9	0.3137658
231	0xbb40f527	-0.0029442997
232	0xbd0c4786	-0.034247898
233	0xbe056e98	-0.1303047
234	0xbe2d4518	-0.16920888
235	0x3ed0a477	0.40750477
236	0xbdff67f8	-0.12471002
237	0x3e8361e1	0.25660613
238	0xbf007791	-0.50182444
239	0x3e4f7e01	0.2026291
240	0x3d54ebe0	0.05198276
241	0xbe081992	-0.13291004
242	0x3ecdcb7e	0.40194315
243	0x3d3d36bf	0.046194788
244	0x3c4ac4fc	0.012376066
245	0xbf824344	-1.0176778
246	0xb9c8cf74	-0.00038301537
247	0x3ee5af72	0.44860417
248	0xbf1e3898	-0.61805105
249	0xbc95e037	-0.01829539
250	0xbed50a12	-0.41609246
251	0x3f3de1cc	0.74172664
252	0x3f471bfc	0.77777076
253	0x3dffe2ba	0.124944165
254	0x3e5b77a0	0.21432352
255	0x3d17bf9f	0.03704798

network.2.bias f4 [64]
0	0xbe8ad928	-0.27118802
1	0x3dcec8e3	0.1009691
2	0xbcf3122b	-0.02967175
3	0xbe3e2630	-0.18569255
4	0xbeaa9f9e	-0.33324903
5	0xbe8ded27	-0.27719995
6	0x3ece3f1c	0.40282524
7	0xbe0f9690	-0.14022279
8	0xbe36da3d	-0.17856689
9	0xbdb932bb	-0.09042879
10	0x3d5c39e5	0.05376615
11	0xbed7caf4	-0.42147028
12	0xbdc19ec7	-0.094541125
13	0x3c7f650a	0.015588054
14	0xbecd2840	-0.4006977
15	0x3dad44b1	0.084603675
16	0x3e88dcab	0.26730856
17	0xbecf8cdb	-0.40537152
18	0x3e58b88d	0.2116415
19	0xbf1f1a1c	-0.62149215
20	0x3de86260	0.113468885
21	0xbcc3ec28	-0.023916319
22	0xbe49912a	-0.19684282
23	0xbdaf0ddd	-0.08547566
24	0xbdd45b77	-0.10369008
25	0xbe7b33b0	-0.24531436
26	0xbde4f325	-0.11179189
27	0x3d7f3b63	0.062312495
28	0x3e3484ac	0.17628735
29	0xbc843bfc	-0.016141884
30	0x3c91edf3	0.017813658
31	0xbd34d497	-0.044148054
32	0xbe06525c	-0.13117355
33	0xbe816cde	-0.25278372
34	0xbe6de70a	-0.23232666
35	0x3ecac464	0.3960296
36	0xbdb4b11c	-0.088228434
37	0x3e8e9d04	0.27854168
38	0xbda791fd	-0.08182142
39	0xbd289280	-0.04115534
40	0xbd9c77fa	-0.07640071
41	0xbf10989a	-0.5648285
42	0xbe92abcf	-0.28646705
43	0xbe09eee8	-0.13470042
44	0x3c018235	0.007904579
45	0xbe2b4eb7	-0.16729246
46	0xbd2c4f43	-0.042067777
47	0xbe4518ce	-0.19247743
48	0xbf5d157b	-0.863609
49	0x3da85ffa	0.08221431
50	0xbdc73c7a	-0.09728332
51	0xbef85416	-0.48501652
52	0x3d1b333c	0.037890658
53	0xbf08d28e	-0.5344628
54	0xbe41d8a7	-0.18930303
55	0xbdd30c09	-0.1030503
56	0xbd32d158	-0.043656677
57	0x3e4095e0	0.18807173
58	0x3d706748	0.058692247
59	0xbe0de0aa	-0.13855234
60	0xbc0a723d	-0.008450088
61	0xbe795497	-0.24348675
62	0xbe56ba89	-0.20969595
63	0xbe81ce2b	-0.25352606

network.4.weight f4 [16, 64]
0	0xbd710c50	-0.058849633
1	0xbdfca098	-0.12335318
2	0x3c7d7120	0.015468866
3	0x3bd010c0	0.006349653
4	0xbd4e73bc	-0.05040334
5	0x3cdb5e80	0.02677846
6	0xbda3c901	-0.07997323
7	0xbe1955b5	-0.14974101
8	0xbb86bc80	-0.0041118264
9	0x3d1de7cc	0.038551137
10	0xbe388f48	-0.18023407
11	0xbc9c8290	-0.019105226
12	0x3dbc60fa	0.09198184
13	0xbc723bab	-0.014784734
14	0xbdef7dda	-0.11693926
15	0xbe40dfdc	-0.18835396
16	0x3d0cc93b	0.034371596
17	0x3c1bde8c	0.0095135085
18	0xbe214513	-0.15749006
19	0xbdc2585a	-0.09489508
20	0xbd968487	-0.07349496
21	0xbdb91438	-0.090370595
22	0xbcb07bf8	-0.021543488
23	0xbcd805c8	-0.026369944
24	0x3c21eee5	0.009883617
25	0xbe30213f	-0.17200182
26	0x3dd92f34	0.106047064
27	0xbdf36437	-0.11884349
28	0x3b5e44a2	0.003391542
29	0x3de5cd70	0.11220825
30	0xbd59a388	-0.05313447
31	0xbcdca805	-0.026935587
32	0xbe222144	-0.15833002
33	0xbbe8ac40	-0.007100612
34	0xbde849fe	-0.11342238
35	0xbd03e803	-0.032203685
36	0x3cf6ff28	0.030150965
37	0x3ddaeeb2	0.10690059
38	0xbc8caaa8	-0.017171219
39	0xbdd4c286	-0.10388665
40	0xbdb7fc06	-0.089836165
41	0xbe01a61b	-0.1266102
42	0xbe365e4e	-0.17809412
43	0xbd8e5036	-0.06948893
44	0xbdfb444a	-0.122688845
45	0x3cf4365a	0.029811073
46	0x3aeded80	0.0018152446
47	0xbd7c1260	-0.06154096
48	0x3c9f7db8	0.019469127
49	0xbd8688f9	-0.06569094
50	0xbde0cf4a	-0.10977037
51	0xbe0179bc	-0.12644094
52	0x3aca04de	0.0015412827
53	0xbe1031d7	-0.14081512
54	0xbbbde77a	-0.0057954164
55	0x3d8dd760	0.06925845
56	0x3c6dc6be	0.014512716
57	0x3cc4311f	0.023949204
58	0xbe133a3a	-0.1437768
59	0xbcf70edc	-0.030158453
60	0xb7b8e000	-2.2038817e-05
61	0x3c96aa98	0.018391892
62	0xbde2dbe8	-0.110771
63	0xbdf97e0d	-0.121822454
64	0x3f1616a1	0.5862828
65	0x3d759843	0.05995966
66	0xbd8898cc	-0.06669769
67	0x3d681680	0.056662083
68	0xbec9ddcd	-0.39427033
69	0x3c009667	0.007848359
70	0x3d00984f	0.031395253
71	0xbed151b0	-0.40882635
72	0xbc867b9f	-0.016416369
73	0x3deca160	0.11554217
74	0x3dd54938	0.10414356
75	0xbee87e1c	-0.45408714
76	0x3d0e845b	0.034794193
77	0x3dae0ffb	0.08499142
78	0xbddfe5a4	-0.10932472
79	0x3e19eba4	0.15031296
80	0x3e0c3fa6	0.13696155
81	0x3edd55fa	0.43229657
82	0x3ea935ec	0.33048952
83	0xbe8dd083	-0.27698144
84	0xbedea7cf	-0.43487403
85	0x3e1d7e99	0.15380324
86	0x3e9ab796	0.3021819
87	0xbcba0777	-0.022708638
88	0xbbf846d8	-0.0075768046
89	0x3f1594d3	0.5843021
90	0xbd056e14	-0.03257568
91	0x3e45cc70	0.19316268
92	0x3e238bb7	0.15971266
93	0x3dd9bd5f	0.10631823
94	0xbd0499e9	-0.032373343
95	0x3dd0e921	0.10200716
96	0xbd579c06	-0.05263903
97	0x3da4ada4	0.08040932
98	0xbbfc19f6	-0.0076935245
99	0x3eb06d6e	0.34458488
100	0x3da0543e	0.07828568
101	0x3f1ce9b3	0.61294097
102	0xbc506343	-0.012718978
103	0xbdb2cf74	-0.08730975
104	0x3ca216ee	0.019786324
105	0x3f009ad4	0.5023625
106	0xbf15fe52	-0.58591187
107	0xbd12454d	-0.03571062
108	0xbcc3c69e	-0.023898419
109	0xbce690ed	-0.028145278
110	0xbef451c0	-0.4771862
111	0xbd59534a	-0.053057946
112	0xbf244d65	-0.64180595
113	0xbdbae3e2	-0.091254964
114	0x3c979ace	0.018506434
115	0x3ebe523c	0.37172115
116	0x3f1c26bc	0.60996604
117	0xbe63a9d7	-0.22232758
118	0x3e32db07	0.17466365
119	0x3ba95031	0.0051670303
120	0x3e488587	0.19582187
121	0x3eb67d61	0.35642532
122	0x3e57e931	0.21085049
123	0x3e5154da	0.20442525
124	0x3cad93fd	0.02118873
125	0x3e781dee	0.24230167
126	0xbe91d18e	-0.2848019
127	0x3e8a5bd3	0.2702318
128	0x3db6dce1	0.08928848
129	0x3ce66e53	0.028128779
130	0xbd8f71d0	-0.0700413
131	0xbcf0ddd0	-0.029402643
132	0xbd600835	-0.054695327
133	0xbd5e69b6	-0.054300033
134	0xbe388d6c	-0.18022698
135	0xbe1c9282	-0.15290263
136	0x3dc424ca	0.095773295
137	0xbb35f980	-0.0027767122
138	0xbe4163d5	-0.18885739
139	0x3b5799e9	0.0032898134
140	0x3c950c38	0.018194303
141	0xbbf80b9f	-0.0075697447
142	0xbd93426d	-0.07190404
143	0xbe7408d8	-0.23831499
144	0xbdbbcd41	-0.091700085
145	0xbe08b9cc	-0.13352126
146	0x3d47cc0c	0.04877858
147	0xbd9922ba	-0.07477327
148	0xbd2bf8d1	-0.041985337
149	0xbc4e98e9	-0.012609699
150	0xbe4a903d	-0.19781585
151	0xbdee4456	-0.11634128
152	0xbdf2604f	-0.11834776
153	0xbde92d8b	-0.1138564
154	0xbe17e0f2	-0.14831904
155	0xbdc9efdf	-0.09860205
156	0xbe768a3b	-0.24076168
157	0xbc987058	-0.018608257
158	0xbb1dc880	-0.0024075806
159	0xbd20fab2	-0.03930158
160	0xbd98e9c4	-0.07466462
161	0x3c9de62a	0.01927479
162	0xbdeb23b2	-0.11481418
163	0x3ca63d3a	0.020292867
164	0xbcfbee3a	-0.030753244
165	0xbd56a14c	-0.05239992
166	0xbde19646	-0.110149905
167	0x3cf74210	0.030182868
168	0x3bf86e91	0.00758154
169	0xbe28cd81	-0.16484644
170	0xbe0684cf	-0.131366
171	0xbc826548	-0.015917435
172	0xbdbc28ce	-0.091874704
173	0xbd9d8f61	-0.07693363
174	0xbd8cb677	-0.0687074
175	0xbce5c6c8	-0.028048888
176	0xbda5e60e	-0.0810052
177	0xbd694fac	-0.056960747
178	0x3d95a45e	0.07306741
179	0x3dce1544	0.1006265
180	0xbd3d714d	-0.04625063
181	0x3bb97d3c	0.005660681
182	0xbdec2ccb	-0.11531981
183	0x3dc09ab8	0.0940451
184	0xbdd2e5ee	-0.10297762
185	0xbc0c2f7a	-0.008556241
186	0xbe0af603	-0.13570409
187	0xbd314301	-0.04327679
188	0xbdb560dc	-0.08856365
189	0xb8aa23aa	-8.112875e-05
190	0xbe3f5769	-0.18685688
191	0x3c78a5fe	0.015176294
192	0x3e864b3e	0.2622928
193	0x3e0068db	0.12539999
194	0x3d97d024	0.074127465
195	0xbe2aa9d7	-0.16666351
196	0xbe34544b	-0.1761028
197	0x3cd6a5c5	0.026202092
198	0xbc409159	-0.011753404
199	0xbf00d134	-0.5031922
200	0xbd02a12f	-0.031891998
201	0x3dd6d97b	0.104907
202	0x3e606835	0.21914752
203	0xbdce0a56	-0.10060565
204	0x3b4b5fd3	0.0031032457
205	0x3d10c3eb	0.035343092
206	0x3da9bbf6	0.08287804
207	0x3dbc7bc0	0.09203291
208	0x3e3ab2df	0.18232296
209	0x3e455ec4	0.19274431
210	0x3eaf9e96	0.3430068
211	0xbef835c3	-0.48478517
212	0xbf1acea1	-0.6047154
213	0xbd489951	-0.04897434
214	0x3f228a03	0.6349184
215	0x3c8cd759	0.01719253
216	0xbdc910a7	-0.09817629
217	0x3efd4460	0.49466228
218	0xbe3a5cba	-0.18199435
219	0x3da1aa98	0.07893866
220	0x3e5db2fc	0.21650308
221	0xbd8ac4fc	-0.06775853
222	0xbb36c119	-0.0027886091
223	0x3dfc6e0b	0.123256765
224	0xbcb59844	-0.022167332
225	0x3d2a4870	0.041572988
226	0xbcc61e8b	-0.024184486
227	0x3d74a136	0.059724055
228	0x3e8e0f93	0.27746257
229	0x3f19d324	0.600878
230	0x3ccc380d	0.02492907
231	0x3d4de46a	0.05026666
232	0x3e17b056	0.1481336
233	0x3ddc6371	0.107611544
234	0xbf1e3cf4	-0.6181176
235	0x3e685503	0.2268868
236	0xbcdc0642	-0.026858453
237	0xbd0a1ce3	-0.033718955
238	0xbeb62524	-0.3557521
239	0x3d973886	0.07383828
240	0xbf1087d6	-0.5645727
241	0x3d0414d2	0.03224642
242	0x3d85c21f	0.06531166
243	0x3dd7c1d6	0.10535018
244	0x3f218e90	0.6310816
245	0xbe41193f	-0.18857287
246	0xbe2bf930	-0.16794276
247	0x3e809dd8	0.25120425
248	0x3e7d011a	0.24707451
249	0x3e680737	0.22659002
250	0x3e13d893	0.14438085
251	0x3dd938f3	0.10606565
252	0xbc5318b9	-0.012884312
253	0x3e1fac2b	0.1559302
254	0xbe9096f5	-0.2824017
255	0x3e6cf3c7	0.23139869

network.4.bias f4 [16]
0	0xbe3e2f0d	-0.18572636
1	0x3e920703	0.28520975
2	0xbe8ec1a8	-0.27882123
3	0x3e863181	0.26209643
4	0x3e3ec77b	0.18630783
5	0xbe9e4e6d	-0.3091921
6	0x3dc7dc97	0.09758871
7	0xbe9259ca	-0.2858413
8	0xbe485fb0	-0.19567752
9	0xbf041354	-0.5159199
10	0xbcef63e9	-0.029222446
11	0x3c14116a	0.009037355
12	0x3d9333ed	0.071876384
13	0x3dde4eb9	0.10854859
14	0x3e297cf5	0.16551574
15	0xbe2d4934	-0.16922456

network.6.weight f4 [2, 16]
0	0xbd3f63a2	-0.046725877
1	0x3e73aecd	0.2379715
2	0x3ae1bd6d	0.0017222591
3	0x3e15233c	0.14564222
4	0x3de2520d	0.11050806
5	0xbf416ce5	-0.75556785
6	0x3da8a40b	0.08234414
7	0x3f08626e	0.5327519
8	0x3d7a51cc	0.061113164
9	0xbf16bd7e	-0.5888289
10	0xbcdfe6f1	-0.027331801
11	0xbdad13da	-0.08451052
12	0x3e8c39e4	0.27387917
13	0xbe8dd240	-0.2769947
14	0x3f072903	0.52796954
15	0xbc5ad894	-0.0133573
16	0xbd9051b5	-0.070468344
17	0xbe17ceea	-0.14825025
18	0xbd931767	-0.07182198
19	0xbe6b23d4	-0.22962886
20	0xbdfb515d	-0.12271378
21	0x3f5e79a2	0.86904347
22	0xbe9a6a82	-0.30159384
23	0xbdd653ff	-0.1046524
24	0xbdf26b27	-0.11836844
25	0x3f3a754e	0.7283524
26	0x3d26e604	0.040746704
27	0x3e5dbc9b	0.21653979
28	0xbec31649	-0.3810294
29	0x3e957c0b	0.291962
30	0xbe94f982	-0.2909661
31	0xbe1e7309	-0.1547357

network.6.bias f4 [2]
0	0xbd92a694	-0.071606785
1	0xbe260650	-0.16213346
