models/adult/rs/adam_epochs40_lr0.004_batch128_dropout0/model_361.pth (torch, 43811 bytes, 8 tensors)

network.0.weight f4 [128, 6]
-0.57624704 -0.2742976 -0.16479945 0.6869398 -0.21498932 -0.05491475 0.1890459 0.26479572
-0.09689152 -0.64579016 -0.25042343 -0.6362062 -0.5034639 -0.037817307 -0.2963041 0.1230497
-0.033967238 -0.25613886 0.6196118 0.23330085 -0.25578684 -0.28097883 -0.17163758 -1.2136872
-0.0012805023 0.20792598 -0.310612 -0.38952285 0.07131565 -0.9367502 -0.30477235 0.002077383
-0.2636233 0.76050824 -0.029191514 -0.402489 0.103828244 -0.4485385 -0.36617982 -1.0311899
-0.056537375 -0.8178862 -0.7630043 0.49648264 -0.76767117 -1.4060296 0.07075818 0.01765553
-0.014711287 -0.10887565 -0.17461564 -0.37167013 0.05572462 -1.1629556 -0.483112 -0.09972296
-0.35866907 0.05755173 -0.13087806 0.008276561 0.0134856505 -0.12792869 -0.19811052 -0.3832818
0.053496156 -1.1455927 0.22361648 0.41824806 0.5940959 -0.21522689 -0.51410973 0.067048825
-0.3171743 0.39434347 0.65349317 -1.1717017 -0.16715345 -0.82005256 -0.43289387 -0.028576571
-0.30069238 -0.14359948 0.07561844 -0.36743975 0.5333936 -0.10443974 0.06640171 0.090820596
-0.16496141 -1.7897887 -0.53603315 -0.04491906 -0.1990698 0.423534 -0.3558792 -0.3362945
0.4661045 0.026029272 0.021811854 0.6915534 -0.12943166 -0.005325146 -1.0227419 0.056882538
-1.1845828 -1.3446653 0.09432967 -0.16559511 0.0038699275 0.44679052 -0.6472253 -0.35737395
0.06253153 0.83599776 -0.55875695 0.032675922 -0.6842432 -0.74513644 -0.06602185 -0.53720057
-0.25249842 -0.021889606 0.4407368 1.0271689 0.26303262 0.13551526 0.017591517 -0.2560461
-0.41194695 0.77259237 0.08395774 -0.2634159 -0.6347506 0.21274567 0.09458283 -0.63666534
-0.07871942 -0.99040896 0.7316958 -0.10664703 -0.60848254 -0.81273866 0.15081075 -1.0245801
-0.20631088 0.016840896 -0.1392525 0.39774573 -0.091863416 -0.11680059 0.35520706 -0.7957497
-0.44900608 -0.55125785 -0.42484793 -0.07535342 0.092482276 -0.6677259 0.21670604 1.2767164
0.230931 0.2945843 0.32599205 -0.030833809 -1.1436399 -0.14741446 -0.24258551 -0.5430584
0.4580252 0.32827333 0.3964073 -2.2272613 -0.58162594 0.40928677 -1.0090863 0.011632997
-0.61800355 -0.5192841 -0.119337425 -0.547872 0.026417572 -0.29162425 -0.54310185 -0.7996631
-0.104951516 0.46479917 0.08418123 -0.017535074 -0.019442316 0.25254697 -0.02911798 0.07637258
0.10783886 -0.0038987943 0.045093942 -0.8312935 -0.0377243 -0.00882509 -0.25783312 0.22592035
0.31845042 0.57007444 0.0024166834 0.14717811 0.13123605 -0.49021313 0.34372032 0.62534374
0.32310703 -0.09352946 -0.17137554 0.20174521 -0.7167111 -0.5570249 -0.23862065 -0.6070267
-0.36112273 0.27817607 -0.790384 -0.33064407 0.31893927 -0.27018616 0.5187805 0.18547525
0.20231888 -1.2634261 -0.3417197 0.28713194 0.49722618 -0.21632159 -0.13723882 -0.3488103
-0.10373283 -0.38895333 0.04802309 -0.03236506 -0.14745478 0.17085198 -0.074937336 -0.08403289
-0.6053101 0.06830444 -0.39232767 -0.39550716 -0.06685255 -0.021029282 0.532488 0.07871949
-0.4006789 -0.5340243 -0.21491303 -1.2441102 -0.2652337 -0.99599344 -0.07892983 -0.41249365
00000000: ed84 13bf bc70 8cbe 30c1 28be 49db 2f3f
00000010: 2926 5cbe 4aee 60bd 4095 413e 4e93 873e
00000020: 106f c6bd 8152 25bf 8037 80be 69de 22bf
00000030: 03e3 00bf 52e6 1abd 2cb5 97be 7b01 fc3d
00000040: 3b21 0bbd a224 83be e19e 1e3f 6be6 6e3e
00000050: 7ef6 82be 75dc 8fbe c3c1 2fbe 1a5a 9bbf
00000060: 87d6 a7ba 8cea 543e 8908 9fbe 8a6f c7be
00000070: f10d 923d dcce 6fbf 1f0b 9cbe b424 083b
00000080: a2f9 86be abb0 423f 0b23 efbc 0a13 cebe
00000090: e7a3 d43d d7a6 e5be ec7b bbbe 08fe 83bf
000000a0: bc93 67bd fd60 51bf 4054 43bf f932 fe3e
000000b0: 1986 44bf c7f8 b3bf aae9 903d 54a2 903c
000000c0: 9c07 71bc 32fa debd 71ce 32be 8c4b bebe
000000d0: 803f 643d bbdb 94bf 755a f7be 8d3b ccbd
000000e0: 79a3 b7be 5dbb 6b3d e604 06be 6a9a 073c
000000f0: ebf2 5c3c bdff 02be 7cdd 4abe 833d c4be
00000100: c91e 5b3d c8a2 92bf b8fb 643e 9c24 d63e
00000110: ab16 183f 7064 5cbe b29c 03bf e550 893d
00000120: ab64 a2be 63e7 c93e 544b 273f 52fa 95bf
00000130: 462a 2bbe f7ee 51bf 44a4 ddbe 6a19 eabc
00000140: 5af4 99be be0b 13be d7dd 9a3d 1021 bcbe
00000150: 7c8c 083f 81e4 d5bd 9ffd 873d 2600 ba3d
00000160: a5eb 28be cc17 e5bf 7839 09bf 0cfd 37bd
00000170: f4d8 4bbe 73d9 d83e cc35 b6be cb2e acbe
00000180: 40a5 ee3e 573b d53c c6ae b23c a509 313f
00000190: bc89 04be 907e aebb 35e9 82bf aafd 683d
000001a0: 69a0 97bf fe1d acbf ea2f c13d c491 29be
000001b0: 9c9e 7d3b bac1 e43e 8fb0 25bf b8f9 b6be
000001c0: 8810 803d f303 563f b20a 0fbf 30d7 053d
000001d0: 902a 2fbf 43c1 3ebf 7736 87bd fa85 09bf
000001e0: 7947 81be d551 b3bc 41a8 e13e 457a 833f
000001f0: 36ac 863e 83c4 0a3e 161c 903c 7918 83be
00000200: b6ea d2be 9dc8 453f 09f2 ab3d 73de 86be
00000210: 047f 22bf 00da 593e a5b4 c13d 80fc 22bf
00000220: a637 a1bd 718b 7dbf 6a50 3b3f c269 dabd
00000230: 83c5 1bbf a40f 50bf 226e 1a3e 7125 83bf
00000240: 2943 53be ebf5 893c 3598 0ebe 54a5 cb3e
00000250: e322 bcbd 2635 efbd b3dd b53e 41b6 4bbf
00000260: 20e4 e5be 3c1f 0dbf ab85 d9be e552 9abd
00000270: 5967 bd3d 16f0 2abf 30e8 5d3e 716b a33f
00000280: 2d79 6c3e c1d3 963e 6ee8 a63e 2f97 fcbc
00000290: cb62 92bf d1f3 16be 5668 78be e005 0bbf
000002a0: 4782 ea3e 7113 a83e e6f5 ca3e 738b 0ec0
000002b0: 70e5 14bf 098e d13e bd29 81bf 5398 3e3c
000002c0: 7b35 1ebf ceef 04bf 2e67 f4bd 5741 0cbf
000002d0: aa69 d83c c64f 95be b908 0bbf b9b6 4cbf
000002e0: d2f0 d6bd 28fa ed3e 3567 ac3d b7a5 8fbc
000002f0: 7e45 9fbc d64d 813e d488 eebc 3a69 9c3d
00000300: 9fda dc3d ea82 7fbb 6db4 383d a7cf 54bf
00000310: cc84 1abd 1c97 10bc b402 84be aa57 673e
00000320: ef0b a33e 66f0 113f 3861 1e3b dcb5 163e
00000330: be62 063e 37fd fabe 1cfc af3e 8716 203f
00000340: 496e a53e 608c bfbd 127d 2fbe 4c96 4e3e
00000350: 617a 37bf 2f99 0ebf f958 74be 1a66 1bbf
00000360: 14e5 b8be 186d 8e3e 9b56 4abf 2e4a a9be
00000370: 024c a33e d755 8abe cdce 043f 39ed 3d3e
00000380: ae2c 4f3e f2b7 a1bf e2f5 aebe f502 933e
00000390: 6e94 fe3e 6883 5dbe 5588 0cbe 4397 b2be
000003a0: e171 d4bd e424 c7be dcb3 443d 3a91 04bd
000003b0: 63fe 16be d2f3 2e3e bf78 99bd 7019 acbd
000003c0: 9af5 1abf 33e3 8b3d 2cdf c8be ea7f cabe
000003d0: fde9 88bd 9a45 acbc 2251 083f af37 a13d
000003e0: c925 cdbe d1b5 08bf 2912 5cbe 013f 9fbf
000003f0: b6cc 87be 6df9 7ebf f6a5 a1bd 5e32 d3be

network.0.bias f4 [128]
0.29543316 -0.10298832 0.28090507 -0.5561408 0.34659052 -0.4404209 -0.026668057 0.2377416
0.7736177 0.78784573 0.80927044 -0.24595582 -0.83583826 -0.39764914 -0.30080536 0.2515607
-0.78913397 -0.01102842 -0.6190188 0.039473403 -0.4253119 -0.4316725 0.7415815 -0.40808296
0.053103846 -0.32287657 -0.5334564 -0.4781513 -0.29099017 0.46610218 -0.18873544 -0.4955339
-0.37107915 -0.57999897 -0.73227835 -0.20766924 -1.199827 -0.26928192 0.06381885 -0.1582979
-0.25728717 -0.25581425 -0.27437288 -0.6033821 -1.3456384 -0.35957617 -0.41693553 -0.10420784
-0.12747784 -1.0457212 0.5760628 0.43887964 -0.47922713 -0.19775224 -0.098776795 -0.27818468
-0.14987949 -0.24622738 -0.6915477 -0.49883437 -0.541386 0.40086517 -0.4863518 -0.20914453
-0.14394441 -0.50667876 -0.024114875 -0.22110969 -0.4589455 -0.33902192 -0.5224815 -0.60850394
0.23995493 0.600533 -0.0928942 -0.49876586 0.2652005 -0.5487428 -0.31977165 -0.4053088
-0.03617188 -0.7269344 -0.14932835 0.09296637 0.007346406 -0.16980813 -0.84101933 -0.07596828
-0.048305623 -0.6120019 -0.2756281 0.6491788 0.5585028 -0.38276854 -0.6779521 -0.17882028
-0.53599125 -0.15092532 -0.729041 -0.15753071 -0.5176989 -0.56297404 -0.24532162 0.36318654
-0.28409848 -0.21451189 -0.6816548 -0.099480666 -0.36832404 -1.8225161 -0.54623663 -0.34038442
0.35817182 0.26847985 -0.4836671 -0.13299873 -0.3660036 -0.5793345 0.38440692 -0.66166544
-0.3543986 -0.17175885 -0.031104272 -0.4748112 -0.28418908 -0.12494765 -0.29043853 -0.5537692
00000000: 0443 973e 8aeb d2bd cad2 8f3e 3e5f 0ebf
00000010: 5074 b13e d97e e1be f876 dabc 8972 733e
00000020: cf0b 463f 42b0 493f 592c 4f3f d8db 7bbe
00000030: 7ff9 55bf ab98 cbbe 2903 9abe 90cc 803e
00000040: af04 4abf 8cb0 34bc 0478 1ebf ddae 213d
00000050: 7bc2 d9be 2e04 ddbe 49d8 3d3f 40f0 d0be
00000060: 6b83 593d 1450 a5be 9990 08bf 3fd0 f4be
00000070: aafc 94be f2a4 ee3e dd43 41be 9fb6 fdbe
00000080: 16fe bdbe d07a 14bf 9876 3bbf 3fa7 54be
00000090: ee93 99bf 52df 89be 75b3 823d d818 22be
000000a0: 25bb 83be 16fa 82be 9a7a 8cbe 4077 1abf
000000b0: e13d acbf 5e1a b8be 9378 d5be ec6a d5bd
000000c0: 8d89 02be 31da 85bf da78 133f d5b4 e03e
000000d0: 425d f5be 907f 4abe 7d4b cabd 396e 8ebe
000000e0: 027a 19be 0823 7cbe 4509 31bf 3867 ffbe
000000f0: 4698 0abf 333e cd3e 1a03 f9be fc29 56be
00000100: 2a66 13be b3b5 01bf 8f8c c5bc 946a 62be
00000110: e8fa eabe 4894 adbe 59c1 05bf eac6 1bbf
00000120: bfb6 753e 88bc 193f 503f bebd 3d5e ffbe
00000130: 5cc8 873e 687a 0cbf 1cb9 a3be a384 cfbe
00000140: f728 14bd 5f18 3abf 88e9 18be 2765 be3d
00000150: 1fba f03b 2fe2 2dbe 0b4d 57bf 4295 9bbd
00000160: 1edc 45bd 28ac 1cbf 201f 8dbe 9530 263f
00000170: 0afa 0e3f 3dfa c3be 458e 2dbf aa1c 37be
00000180: b936 09bf 2b8c 1abe 6ea2 3abf bb4f 21be
00000190: ea87 04bf 111f 10bf 9735 7bbe 96f3 b93e
000001a0: 5b75 91be 01a9 5bbe ee80 2ebf 85bc cbbd
000001b0: f894 bcbe 3548 e9bf 2ad6 0bbf de46 aebe
000001c0: 4c62 b73e 3176 893e 37a3 f7be d230 08be
000001d0: d364 bbbe 444f 14bf fcd0 c43e e862 29bf
000001e0: bc73 b5be 8de1 2fbe 63ce febc 741a f3be
000001f0: 3b81 91be 8ee4 ffbd 5cb4 94be d1c3 0dbf

network.2.weight f4 [64, 128]
-0.32736441 -0.71862525 0.2051868 -0.77400976 -0.71032864 -0.47524357 -0.683029 -0.3625904
-0.22162282 0.13901415 0.0034309614 0.16061963 0.022355855 -0.011034325 -0.8197817 -0.7632381
-0.36436188 -0.4634959 -1.0093786 -0.32103702 -0.6637378 -0.5933723 -1.1172342 -1.3013794
-0.03727348 0.028271943 -0.6417651 -1.2023611 0.11039116 -0.40886787 0.12180653 -0.41159528
-0.060003642 -0.4403807 0.03223465 -0.64818877 0.06657923 -0.043350346 0.25818452 0.13198134
-0.16496047 -1.2651848 -1.4672002 -1.4108481 0.16749161 -0.036098212 0.04293621 0.43543807
-0.5077488 0.014589891 0.25560787 0.12089832 -0.80412203 -0.28189504 -0.003603077 -0.042649534
0.23661153 -0.17869094 -0.9644093 0.102584414 0.20916535 -0.7196457 0.24543434 0.024915176
-0.54754066 0.047356755 0.21115576 0.02303989 0.32992902 -1.2294108 -0.36741114 -0.22164243
0.36057428 -1.3906435 -0.22398752 0.20544083 -1.1086271 -0.16014972 -0.2814842 -0.034675933
-0.16288361 -0.27170515 -0.8523874 0.40164584 0.3571796 0.064741164 -0.043608185 -0.5422139
-0.1757753 -1.4448813 -0.8370923 0.4041034 0.0882173 -0.33650193 0.059853308 0.119025156
-0.5966463 0.17726302 0.09993324 -0.4425045 0.05259819 -1.5112047 -0.163021 0.10044557
0.03189457 0.10647317 0.17190625 -0.103817135 -0.18793494 0.008689155 -0.752175 -0.37039626
-1.1830399 0.35717994 -0.1454431 0.18546502 -0.068526566 -0.28943753 0.36000186 0.18013915
-0.6107002 -0.6232399 -0.7934095 -0.8854674 0.14551523 -0.76713264 -0.07231617 0.19858971
-0.16581382 0.2871665 -0.032931466 -0.7772316 -0.1387072 0.45060664 -0.65596545 -0.61674774
-0.27460927 -0.21941474 -0.100013144 -0.00825817 -0.00087273034 0.15436654 -0.13798378 -0.11284279
-0.65147644 0.24340537 0.09011334 0.19108284 0.46354192 0.47451797 -0.047587376 -0.30243546
-0.1501322 0.4065732 0.25909075 -0.8689994 -0.012769338 -0.032111093 0.069998376 -0.07706992
0.03516709 0.36478654 0.108362764 -0.24572954 1.0725142 -0.05728854 -0.0074623944 0.26804695
0.01969309 -0.9236689 0.16755743 -0.18136042 0.9151834 -0.43091485 0.1709079 0.20149079
-0.15042073 1.3544662 -0.2512845 -0.2814645 0.5513863 0.19315942 -0.027370518 -0.21992017
-0.3850228 0.07133625 -0.46515968 -0.07920632 -1.1152151 0.110488325 0.9862597 0.07278905
0.27865648 -0.07503097 -0.2814937 0.033162583 -0.103322156 -0.7219741 -0.23325467 0.8671631
0.65988207 -0.14860056 -0.18004556 -0.15997201 -0.006748869 0.52567923 -0.19120844 -0.44478187
-0.31405464 0.6674876 0.37494233 0.25176525 0.18606728 -0.05708001 0.14890361 -0.16174561
-0.24563316 -1.0051931 0.38059112 -0.16943103 -0.26991397 -0.3966697 0.4433329 0.23747586
0.8364355 -0.045697242 0.46209255 0.1667005 0.07744333 -0.22931984 0.2862227 -0.18606511
-0.048462283 -0.012813198 0.50349295 0.17078021 0.23818982 2.7797575 0.9577622 0.53349894
0.082710765 -0.07828901 0.6382922 0.10884374 -0.72363096 0.28541556 0.004252446 0.44462866
0.46116975 -0.017622586 -0.3701894 1.0989679 0.24280122 -0.5606798 -0.14287162 0.2074035
00000000: 4f9c a7be d3f7 37bf 7d1c 523e 8125 46bf
00000010: 19d8 35bf 2053 f3be fdda 2ebf 73a5 b9be
00000020: 18f1 62be ba59 0e3e fbd9 603b 7979 243e
00000030: a023 b73c 50c9 34bc 37dd 51bf 9263 43bf
00000040: a48d babe 564f edbe 5133 81bf f75e a4be
00000050: b8ea 29bf 3fe7 17bf 8801 8fbf 9a93 a6bf
00000060: 14ac 18bd 909a e73c b84a 24bf f8e6 99bf
00000070: c314 e23d 2157 d1be b475 f93d 9ebc d2be
00000080: 61c6 75bd 9479 e1be 7b08 043d b3ef 25bf
00000090: b15a 883d 2290 31bd c330 843e 1e26 073e
000000a0: 66eb 28be 93f1 a1bf 37cd bbbf ac96 b4bf
000000b0: ec82 2b3e b8db 13bd e1dd 2f3d bdf1 de3e
000000c0: d3fb 01bf 700a 6f3c 09df 823e 8a99 f73d
000000d0: f1da 4dbf 8c54 90be 9a21 6cbb 47b1 2ebd
000000e0: 4b4a 723e c2fa 36be 87e3 76bf c717 d23d
000000f0: 712f 563e b33a 38bf 2453 7b3e e91a cc3c
00000100: a02b 0cbf 28f9 413d 3739 583e 27be bc3c
00000110: 75ec a83e 555d 9dbf 501d bcbe 3cf6 62be
00000120: 319d b83e 9b00 b2bf fc5c 65be 155f 523e
00000130: 7ee7 8dbf 4afe 23be b21e 90be 5a08 0ebd
00000140: f6ca 26be f01c 8bbe 1036 5abf 86a4 cd3e
00000150: 3fe0 b63e 0497 843d 7f9e 32bd 88ce 0abf
00000160: 71fe 33be dff1 b8bf ae4b 56bf a4e6 ce3e
00000170: 46ab b43d fb49 acbe be28 753d 76c3 f33d
00000180: d0bd 18bf 7084 353e cca9 cc3d f38f e2be
00000190: 3371 573d 286f c1bf faee 26be 68b6 cd3d
000001a0: e1a3 023d 9b0e da3d 3108 303e 149e d4bd
000001b0: 0472 40be f55c 0e3c 8a8e 40bf 94a4 bdbe
000001c0: da6d 97bf 4ae0 b63e 09ef 14be 8bea 3d3e
000001d0: a857 8cbd 2831 94be 2a52 b83e 6676 383e
000001e0: d956 1cbf a68c 1fbf e31c 4bbf fead 62bf
000001f0: f201 153e ce62 44bf 801a 94bd 1a5b 4b3e
00000200: 19cb 29be 7d07 933e 25e3 06bd a6f8 46bf
00000210: 4309 0ebe eab5 e63e 5aed 27bf 2ee3 1dbf
00000220: 9699 8cbe 42ae 60be b1d3 ccbd 474d 07bc
00000230: f1c7 64ba 4312 1e3e 9f4b 0dbe 1f1a e7bd
00000240: 29c7 26bf 423f 793e 588d b83d 38ab 433e
00000250: 5e55 ed3e 05f4 f23e fbea 42bd d2d8 9abe
00000260: 41bc 19be 5d2a d03e 8ba7 843e bf76 5ebf
00000270: 7c36 51bc ec86 03bd 4f5b 8f3d d6d6 9dbd
00000280: 5e0b 103d 4dc5 ba3e 4ced dd3d 86a0 7bbe
00000290: 2548 893f 63a7 6abd 1a87 f4bb 733d 893e
000002a0: 6753 a13c 9175 6cbf 2d94 2b3e 8cb6 39be
000002b0: 7649 6a3f dfa0 dcbe 7b02 2f3e 9a53 4e3e
000002c0: e407 1abe 265f ad3f 5da8 80be 1d1c 90be
000002d0: a727 0d3f 95cb 453e 2338 e0bc c132 61be
000002e0: b521 c5be bd18 923d 6929 eebe ec36 a2bd
000002f0: 5ebf 8ebf b447 e23d 847b 7c3f 6d12 953d
00000300: 10ac 8e3e d6a9 99bd f11f 90be 7dd5 073d
00000310: 919a d3bd 4bd3 38bf 50da 6ebe 67fe 5d3f
00000320: 08ee 283f bf2a 18be dd5d 38be b4cf 23be
00000330: 9e25 ddbb ea92 063f 25cc 43be 73ba e3be
00000340: c5cb a0be 78e0 2a3f 71f8 bf3e 60e7 803e
00000350: 6c88 3e3e bbcc 69bd 307a 183e a4a0 25be
00000360: 4287 7bbe 2baa 80bf d7dc c23e 547f 2dbe
00000370: 2a32 8abe 4a18 cbbe 88fc e23e df2c 733e
00000380: a320 563f 082d 3bbd 6597 ec3e 89b3 2a3e
00000390: 9c9a 9e3d d2d2 6abe c88b 923e da87 3ebe
000003a0: 6380 46bd 73ee 51bc eae4 003f 02e1 2e3e
000003b0: 08e8 733e 8ce7 3140 e72f 753f 6393 083f
000003c0: 4364 a93d fd55 a0bd 1e67 233f 77e9 de3d
000003d0: e13f 39bf fd21 923e 1a58 8b3b 5ea6 e33e
000003e0: 711e ec3e 3e5d 90bc 7789 bdbe fbaa 8c3f
000003f0: e2a0 783e b688 0fbf f04c 12be 9561 543e

network.2.bias f4 [64]
0.2408159 -0.19976284 -0.01719979 -0.31122965 -0.145666 -0.06383783 -0.14170219 0.42577454
0.030600496 -0.7676611 -0.063203275 -0.16003498 -0.0707774 0.07035835 -0.19627234 -0.08668671
-0.15047146 -0.029866282 -0.21131833 0.0024389413 -0.33684757 -0.06946819 -0.071211874 -0.025582347
-0.13852063 -0.14442696 -0.48928636 -0.26038015 -0.13547134 0.0026372808 -0.15799102 0.32373908
0.009170786 -0.10466281 -0.05207479 0.31286818 -0.08484282 -0.4832198 -0.295811 -0.095812805
-0.41468948 -0.061815754 0.024777878 -0.21937369 0.08640782 -0.031944633 -0.5565167 -0.21809717
-0.34614748 -0.9391144 -0.13771516 0.29937655 -0.02407863 -0.1022351 0.3037353 -0.31337452
0.6375764 -0.27917302 -0.23659478 -0.20423648 -0.16162457 -0.22462285 -0.44403648 -0.24962822
00000000: 7198 763e a18e 4cbe 93e6 8cbc 7e59 9fbe
00000010: 7829 15be 69bd 82bd 611a 11be 1fff d93e
00000020: e4ad fa3c 7085 44bf b870 81bd 36e0 23be
00000030: bef3 90bd 0a18 903d 9efb 48be cd88 b1bd
00000040: 3115 1abe 22aa f4bc d563 58be a5d6 1f3b
00000050: 4977 acbe 5745 8ebd 88d7 91bd 1292 d1bc
00000060: 5ad8 0dbe a9e4 13be be83 fabe 8c50 85be
00000070: 00b9 0abe 3bd6 2c3b 66c8 21be 21c1 a53e
00000080: 1041 163c 7559 d6bd 604c 55bd 4230 a03e
00000090: 13c2 adbd 9668 f7be 8a74 97be 8139 c4bd
000000a0: 2e52 d4be 8432 7dbd fafa ca3c 7fa3 60be
000000b0: 95f6 b03d 60d8 02bd e177 0ebf dd54 5fbe
000000c0: 3e3a b1be cd69 70bf 3405 0dbe e247 993e
000000d0: 8c40 c5bc a360 d1bd 3183 9b3e a072 a0be
000000e0: 3538 233f c4ef 8ebe e745 72be 5e23 51be
000000f0: e980 25be 8803 66be c058 e3be 8a9e 7fbe

network.4.weight f4 [16, 64]
-0.69856566 -0.37441286 -0.045739047 -0.947863 -0.02904193 -0.050591305 0.091194876 0.23790413
-0.049826868 -0.37215403 -0.1417376 0.19961256 -0.04641376 0.16209121 0.45004815 0.14987494
0.13112625 -0.091168985 -0.13066724 0.10502769 0.5278048 0.025934445 0.023182286 -0.034937054
0.28119114 -0.005099858 -0.17366101 -0.68633765 0.10254026 -0.075799674 -0.474348 0.22357617
0.07608516 0.13859448 0.046674617 -0.031589925 -0.66855204 -0.6913837 -0.14484136 -0.6371565
-0.10901585 0.13915361 0.0663829 0.17919295 0.0077577187 0.07082508 -0.18961298 0.43878165
0.5203303 -0.45140868 -0.9191596 -0.72139543 -0.014731666 0.1017534 0.095996596 0.017990276
0.9993089 0.19483894 -0.8555844 0.021521134 -0.01142392 -0.3389145 -0.1549508 0.4072337
-0.30702165 0.09955502 0.02770273 0.33700824 0.057045776 -0.029624218 0.09961259 0.11822444
0.11332133 -1.0239973 0.45003617 -0.24369262 -0.20067485 -0.30721408 0.33868283 -0.48206362
0.04712991 0.005402151 -0.13935183 0.072936065 0.5118586 0.0014163767 -0.035323128 -0.0021208082
0.36220053 -0.037134353 0.43309933 0.0819564 -0.19640349 -0.07541002 -0.17686358 -0.18873513
0.046524484 -0.019333173 -0.052912254 0.061384268 -0.1615868 0.6459006 0.04151752 -0.54741275
-0.06194871 0.533365 0.10695484 0.0971017 0.43725142 0.09179679 -0.18405901 0.37982777
0.39069012 -0.38955745 -0.5198912 -0.22480145 0.036629252 -0.050660063 -0.18018149 -0.057002038
0.3318543 0.014201709 0.03232376 0.19203362 0.6061598 -0.4374189 0.061533406 0.5113471
0.41060713 -0.048112273 0.1293229 0.24753088 0.2965427 -0.062203415 0.21543099 -0.7450632
-0.05153393 0.7419999 0.4858915 -0.06578516 0.18744473 0.18789749 -0.011502328 -0.083932474
0.061278738 -0.024964575 -0.27970836 0.04931198 0.13589647 -0.09940352 0.014943898 -0.042461447
0.767662 0.17462678 0.35359094 -0.24109033 -0.038099207 -0.1040045 0.34459603 -0.049706444
-0.0021869976 0.02883158 0.046010252 -0.07484573 0.3162321 -0.1381991 0.15608004 0.02649691
0.02481626 0.29298875 -0.09679225 0.16738996 0.83657694 -0.12727286 0.162336 0.44942403
-0.11612281 0.47146213 -0.22945574 -0.27562612 -0.010271307 0.033444162 -0.06652602 0.18577375
-0.87270457 0.059094094 0.024516106 0.01228176 -0.47860646 -0.92801744 0.2782092 -0.58637846
-0.6610325 -0.13076863 0.077262565 -0.55549484 -0.02857941 -0.02126865 0.13535617 0.040113717
0.021839054 -0.16847596 0.24776979 0.21691489 -0.06268826 -0.2176179 0.42264634 0.27399006
0.10637509 0.017689466 0.059305597 -0.03267676 0.39447153 0.0055031576 0.031652838 0.020285951
0.09554651 0.13190788 -0.24820775 -0.6279757 -0.041936655 0.004652737 -0.3037983 0.09643213
-0.0866737 0.11262994 0.102741994 -0.02306808 -0.6313609 -0.34443417 0.0127375 -0.47351876
0.0032810322 0.030864537 0.015809098 0.10263877 0.0888468 -0.0097244745 -0.3145525 0.29324403
0.295343 -0.2877398 -0.36952025 -0.5129337 0.17429851 -0.039089374 -0.06791519 0.14508666
0.13181683 0.5711683 -0.41357818 0.22559783 -0.0034466474 0.029998587 -0.12160106 0.48098063
00000000: 33d5 32bf 0bb3 bfbe de58 3bbd 26a7 72bf
00000010: 57e9 edbc d438 4fbd 61c4 ba3d 249d 733e
00000020: 4217 4cbd f98a bebe a923 11be 3c67 4c3e
00000030: 5b1c 3ebd 3dfb 253e b66c e63e d178 193e
00000040: f645 063e ceb6 babd a2cd 05be c218 d73d
00000050: 371e 073f 7974 d43c c7e8 bd3c 281a 0fbd
00000060: 49f8 8f3e b61c a7bb 31d4 31be d3b3 2fbf
00000070: a100 d23d dc3c 9bbd bedd f2be 27f1 643e
00000080: 89d2 9b3d b6eb 0d3e e22d 3f3d 7064 01bd
00000090: 3a26 2bbf 86fe 30bf 4b51 14be b01c 23bf
000000a0: b443 dfbd 497e 0e3e c2f3 873d 5b7e 373e
000000b0: 7634 fe3b bd0c 913d e829 42be fda7 e03e
000000c0: 5e34 053f 0a1f e7be 0b4e 6bbf 5fad 38bf
000000d0: 165d 71bc 1664 d03d dd99 c43d 5860 933c
000000e0: b5d2 7f3f dc83 473e 9407 5bbf 174d b03c
000000f0: 652b 3bbc 3486 adbe 6cab 1ebe ef80 d03e
00000100: f131 9dbe 81e3 cb3d d6f0 e23c 588c ac3e
00000110: d5a8 693d 7dae f2bc b001 cc3d a81f f23d
00000120: 0315 e83d 5812 83bf 246b e63e 8f8a 79be
00000130: b57d 4dbe 2a4b 9dbe d667 ad3e 0bd1 f6be
00000140: 4b0b 413d 8704 b13b 3fb2 0ebe 815f 953d
00000150: 2a09 033f b7a5 b93a fcae 10bd 42fd 0abb
00000160: 5972 b93e 311a 18bd 32bf dd3e c2d8 a73d
00000170: ff1d 49be 9270 9abd ba1b 35be c843 41be
00000180: 7590 3e3d 9a60 9ebc 85ba 58bd 126e 7b3d
00000190: 0377 25be be59 253f 460e 2a3d 3e23 0cbf
000001a0: eebd 7dbd 9c8a 083f 240b db3d 42dd c63d
000001b0: 6bdf df3e f5ff bb3d f779 3cbe c978 c23e
000001c0: 8908 c83e 1374 c7be 9717 05bf 5a32 66be
000001d0: 8e08 163d ed80 4fbd 7f81 38be f87a 69bd
000001e0: cfe8 a93e 49ae 683c eb65 043d 76a4 443e
000001f0: 4a2d 1b3f 5ff5 dfbe 740a 7c3d a5e7 023f
00000200: 193b d23e 6011 45bd 396d 043e bc78 7d3e
00000210: 72d4 973e 02c9 7ebd f199 5c3e 76bc 3ebf
00000220: 3e15 53bd b5f3 3d3f c5c6 f83e 5fba 86bd
00000230: 83f1 3f3e 3368 403e 4374 3cbc cae4 abbd
00000240: 6aff 7a3d 8282 ccbc ef35 8fbe 5cfb 493d
00000250: 7228 0b3e 1394 cbbd 40d7 743c 0eec 2dbd
00000260: 7f85 443f 5dd1 323e df09 b53e 62e0 76be
00000270: ea0d 1cbd 5000 d5bd e46e b03e fc98 4bbd
00000280: bb53 0fbb 3530 ec3c 3f75 3c3d b848 99bd
00000290: 2ce9 a13e 1184 0dbe 72d3 1f3e 0c10 d93c
000002a0: 784b cb3c 9f02 963e 043b c6bd 4668 2b3e
000002b0: e829 563f d153 02be 693b 263e e81a e63e
000002c0: ccd1 edbd 7c63 f13e 72f6 6abe de1e 8dbe
000002d0: fc48 28bc bffc 083d cb3e 88bd 793b 3e3e
000002e0: 9169 5fbf a60c 723d 00d6 c83c 6f39 493c
000002f0: e80b f5be 8d92 6dbf 7071 8e3e e61c 16bf
00000300: 6d39 29bf 36e8 05be d63b 9e3d e934 0ebf
00000310: 5e1f eabc 983b aebc cf9a 0a3e 484e 243d
00000320: d1e7 b23c f684 2cbe 5db7 7d3e f01e 5e3e
00000330: b462 80bd 3ad7 5ebe 1a65 d83e 6d48 8c3e
00000340: 2fdb d93d 80e9 903c 6dea 723d 11d8 05bd
00000350: 2cf8 c93e d553 b43b 68a6 013d b92e a63c
00000360: e3ad c33d dc12 073e 2c2a 7ebe 04c3 20bf
00000370: c5c5 2bbd fd75 983b 738b 9bbe 357e c53d
00000380: fb81 b1bd 87aa e63d 656a d23d 45f9 bcbc
00000390: dea0 21bf ad59 b0be f2b0 503c 0d71 f2be
000003a0: 9606 573b a0d7 fc3c 1582 813c 4734 d23d
000003b0: 50f5 b53d 6753 1fbc 060d a1be 1524 963e
000003c0: 3337 973e a252 93be c231 bdbe 9f4f 03bf
000003d0: 4f7b 323e 2e1c 20bd 1e17 8bbd 9991 143e
000003e0: fefa 063e 1638 123f 85c0 d3be 1e03 673e
000003f0: 26e1 61bb 99bf f53c fa09 f9bd 1843 f63e

network.4.bias f4 [16]
0.13570394 0.024870604 -0.12542874 -0.2934927 -0.44406396 -0.3904597 0.2778 -0.17108332
-0.2544642 -0.18316035 -0.12139117 -0.06546059 -0.3129565 -0.58933294 -0.068984985 -0.13071682
00000000: f9f5 0a3e 70bd cb3c 6470 00be ad44 96be
00000010: 5a5c e3be 55ea c7be cd3b 8e3e 7730 2fbe
00000020: 2249 82be 638e 3bbe ef9b f8bd 3410 86bd
00000030: d63b a0be 86de 16bf 0048 8dbd a1da 05be

network.6.weight f4 [2, 16]
0.39470547 0.32409978 -0.23635723 0.34691724 0.38409278 0.487176 0.29447633 0.44130254
-0.022954829 0.027833791 -0.17782038 -0.27346316 0.20433033 -0.93321925 0.06358199 0.22291973
-0.68279374 -0.45157206 0.13239112 0.012516017 -0.026726743 -0.5360704 -0.17225562 -0.0938277
0.051273994 0.052928083 0.44852078 0.43206036 -0.15685906 0.98264563 0.16740477 -0.09580796
00000000: d616 ca3e 68f0 a53e a107 72be 239f b13e
00000010: cfa7 c43e 226f f93e 9ac5 963e 68f2 e13e
00000020: c40b bcbc b103 e43c 8c16 36be 5d03 8cbe
00000030: f83b 513e 75e7 6ebf 4637 823d 1245 643e
00000040: 92cb 2ebf 7434 e7be 8a91 073e fb0f 4d3c
00000050: 0bf2 dabc e93b 09bf c763 30be bd28 c0bd
00000060: ae04 523d 1ecb 583d 84a4 e53e 0437 dd3e
00000070: a99f 20be aa8e 7b3f 286c 2b3e f736 c4bd

network.6.bias f4 [2]
-0.23014125 -0.08344343
00000000: 26aa 6bbe 64e4 aabd
