models/adult/rs/adam_epochs40_lr0.004_batch128_dropout0/model_366.pth (torch, 43811 bytes, 8 tensors)

network.0.weight f4 [128, 6]
-0.06678384 0.018547902 -0.13968953 0.1938694 -0.076442845 -0.50758076 -0.6177648 0.30569598
-0.71305835 -1.0601828 -0.55161273 -0.109621584 0.5612011 -0.2779553 -0.44263962 0.1742093
-0.18364969 0.29572234 -0.59104407 0.09276176 -0.4060169 0.22735567 0.0068527865 -0.0814452
-0.22871903 -0.027390352 -0.15272057 -0.23546025 -0.054933924 -0.7499467 0.31057236 0.58506656
0.3947455 -0.81580585 -0.6166692 -0.46448505 -0.26208708 0.08697485 -0.027710449 -0.028479114
-0.24388102 -0.6216919 0.5226743 -0.16409993 -0.43345252 -1.1159894 -0.18817237 -0.81448054
-0.29285875 0.2711831 -0.0421944 1.5862987 0.48160952 0.24851058 -0.03606608 -0.00047462905
-0.2821052 -0.5897409 0.044795237 -0.1399614 -0.4266688 0.11353347 -0.06278809 -0.35055986
0.119017676 -0.6558979 -0.2970072 0.015031248 -0.23476936 -0.6156058 -0.40999702 -0.656542
-0.32614058 0.29821947 0.24063522 0.90673584 -0.033958 -0.5058026 0.12369451 0.34202886
-0.21194428 -0.025696112 0.03616478 -0.4311596 0.1501116 -0.08144817 -0.3068842 -0.92870224
0.19024514 -0.7586752 -0.14323239 0.11395692 -0.10446312 0.17109278 -0.072836965 -0.69632196
0.5950378 -0.04312146 -0.09490193 1.4427735 -0.08065059 0.2865487 0.0072207665 0.19470382
0.18012325 0.34917724 0.0663679 0.06463554 -0.4891703 0.24447921 -0.5134318 -0.12331827
-0.17130645 0.6239797 -0.6292354 0.1439896 -0.19204843 0.12511101 -0.027049266 -0.44552818
-0.29348058 0.053283807 -0.29153094 -0.69676477 -0.26834294 -0.123337545 0.08845653 0.2165787
0.14376426 -0.17826623 -0.037137665 -0.061164908 0.4905562 -0.29596248 -0.5274516 0.2723412
-0.38806197 0.18083814 -0.6354891 -0.047317058 -0.18635143 0.17236859 -0.13477117 0.66451323
0.114169724 -0.06965264 -0.49082375 -0.37902483 0.40502328 -1.2486755 -0.07448215 -0.030310709
-0.25310108 0.0047408645 -0.18816698 -0.1842863 0.25794193 0.0174891 -0.63882464 -0.11564273
0.15000716 -0.60996944 -0.44840693 0.10348648 -0.35646316 0.24884874 -0.2847668 -0.5540991
0.42081615 -0.20815986 -0.17413361 -0.107246704 0.05694748 -0.5439568 -1.5107101 0.05983712
-0.25123736 -1.0946484 0.026788779 0.08564053 -0.8713896 0.65694815 -0.7005428 0.116320714
-0.043845832 0.46172953 0.45283592 -0.5117935 -0.27400583 -0.43882573 -0.1337699 -0.3233348
-0.09355506 0.47549674 -0.5823567 0.45533827 -0.0016225615 0.5639228 -0.019053882 0.33385962
0.54548216 0.25050548 0.34131965 0.073463514 -0.049907696 -0.020803811 0.024833938 1.0775044
0.4074307 -0.09833544 -0.48518205 0.4978992 -0.7414719 -1.3932903 -0.6173359 -0.041001778
0.23080163 0.2516753 0.12170908 0.8215295 0.04177049 0.0024681233 -0.59103084 0.5038088
-0.63806 -1.376033 0.012284539 0.09141676 0.27924198 -0.64077723 -0.17898694 -0.3233944
-0.16565876 -0.65805984 -0.22084612 0.43196562 -1.1268624 0.07100581 -0.06827194 0.34406257
-0.042395443 0.16928025 -0.15038012 1.1286826 -0.032038517 0.24625002 -0.34010062 -0.75681496
-0.2914539 0.22653149 -0.010037394 0.23649476 -0.10066982 -0.21667576 -0.12706679 1.7437799
00000000: f7c5 88bd c5f1 973c c60a 0fbe b385 463e
00000010: 118e 9cbd d0f0 01bf d525 1ebf 2f84 9c3e
00000020: fe8a 36bf 12b4 87bf 7e36 0dbf 4881 e0bd
00000030: e0aa 0f3f 2850 8ebe a9a1 e2be ec63 323e
00000040: aa0e 3cbe eb68 973e aa4e 17bf e1f9 bd3d
00000050: 72e1 cfbe edcf 683e 578d e03b becc a6bd
00000060: 5235 6abe bb61 e0bc c862 1cbe 7e1c 71be
00000070: 6502 61bd 82fc 3fbf 5703 9f3e ecc6 153f
00000080: 151c ca3e a7d8 50bf 08de 1dbf fcd0 edbe
00000090: 4730 86be df1f b23d 0601 e3bc 084d e9bc
000000a0: f2bb 79be 3327 1fbf fccd 053f d009 28be
000000b0: 7ded ddbe bed8 8ebf 42b0 40be cc81 50bf
000000c0: 95f1 95be 83d8 8a3e 09d4 2cbd d60b cb3f
000000d0: 8695 f63e 8f79 7e3e 07ba 13bd a2d7 f8b9
000000e0: 1870 90be 42f9 16bf 367b 373d 0b52 0fbe
000000f0: 5574 dabe 3c84 e83d 0b97 80bd 957c b3be
00000100: 8abf f33d ede8 27bf 5411 98be a045 763c
00000110: 6167 70be 5798 1dbf 21eb d1be 2313 28bf
00000120: e6fb a6be 39b0 983e 1469 763e d71f 683f
00000130: 8b17 0bbd 477c 01bf 8c53 fd3d 681e af3e
00000140: ec07 59be a780 d2bc 8521 143d f3c0 dcbe
00000150: dbb6 193e 4cce a6bd ed1f 9dbe 6ebf 6dbf
00000160: 9fcf 423e 8a38 42bf 83ab 12be 3f62 e93d
00000170: c3f0 d5bd f232 2f3e 8c2b 95bd 2842 32bf
00000180: 6654 183f 21a0 30bd f15b c2bd cdac b83f
00000190: 232c a5bd 83b6 923e 2e9c ec3b 7060 473e
000001a0: 3b72 383e 5cc7 b23e e5eb 873d a35f 843d
000001b0: 8874 fabe c258 7a3e 4470 03bf 4a8e fcbd
000001c0: f56a 2fbe 22bd 1f3f 9215 21bf 0272 133e
000001d0: 58a8 44be 1a1d 003e 6c96 ddbc 451c e4be
000001e0: 1643 96be 1f40 5a3d 8b43 95be 2d5f 32bf
000001f0: 3f64 89be 6598 fcbd b228 b53d cfc6 5d3e
00000200: f036 133e 6c8b 36be aa1d 18bd 0e88 7abd
00000210: 2f2a fb3e 6588 97be 1107 07bf 4e70 8b3e
00000220: 0fb0 c6be a22d 393e 6aaf 22bf 88cf 41bd
00000230: e9d2 3ebe 6481 303e 7401 0abe 8a1d 2a3f
00000240: d1d1 e93d 0ba6 8ebd 404d fbbe 8b0f c2be
00000250: 365f cf3e 99d4 9fbf 198a 98bd 2a4e f8bc
00000260: 7796 81be 4159 9b3b d8ae 40be 8cb5 3cbe
00000270: f710 843e 4d45 8f3c 038a 23bf 18d6 ecbd
00000280: 7a9b 193e f526 1cbf 9895 e5be b8f0 d33d
00000290: 5782 b6be 34d2 7e3e f4cc 91be 70d9 0dbf
000002a0: 3775 d73e dc27 55be 1550 32be 29a4 dbbd
000002b0: c341 693d c140 0bbf f35e c1bf c517 753d
000002c0: 2fa2 80be 701d 8cbf 2474 db3c 4d64 af3d
000002d0: 6413 5fbf c12d 283f c656 33bf 8e39 ee3d
000002e0: b097 33bd d067 ec3e 1cda e73e e604 03bf
000002f0: 7e4a 8cbe c4ad e0be fafa 08be 248c a5be
00000300: cc99 bfbd 4f74 f33e 5415 15bf 1922 e93e
00000310: 21ac d4ba 3f5d 103f e316 9cbc a6ef aa3e
00000320: b8a4 0b3f 4142 803e 73c1 ae3e 0a74 963d
00000330: 036c 4cbd c16c aabc 8b70 cb3c aaeb 893f
00000340: c29a d03e 1764 c9bd c869 f8be a5ec fe3e
00000350: 1ad1 3dbf 5657 b2bf ba09 1ebf 7bf1 27bd
00000360: 4357 6c3e 96db 803e 9c42 f93d c24f 523f
00000370: 8917 2b3d 3dc0 213b cc4d 17bf 9df9 003f
00000380: e657 23bf d921 b0bf 1745 493c b638 bb3d
00000390: cef8 8e3e fa09 24bf 5a48 37be f393 a5be
000003a0: 73a2 29be 9c76 28bf 7c25 62be 992a dd3e
000003b0: 073d 90bf 7e6b 913d 29d2 8bbd f828 b03e
000003c0: d8a6 2dbd cd57 2d3e 3ffd 19be ac78 903f
000003d0: d23a 03bd f728 7c3e ab21 aebe a0be 41bf
000003e0: 7239 95be dff7 673e e273 24bc af2b 723e
000003f0: fb2b cebd 40e0 5dbe cc1d 02be 2e34 df3f

network.0.bias f4 [128]
-0.19723845 -0.16099423 -0.19897014 0.5214714 0.45190525 -0.5319824 -0.70602673 -0.34686044
-1.0115428 0.5269402 0.63161856 0.28949168 -0.19960365 -0.47792226 -0.43629456 -0.5044897
-0.6956843 -0.29761606 -0.40559408 0.6323965 0.039574377 -0.3040514 0.08182978 -0.43082592
-1.0470088 -0.06718045 0.5559311 0.30033544 0.45108944 -0.18774086 -0.075760126 0.4134167
-0.35653126 -1.2229561 -1.3421323 -0.032135777 -0.2854067 -0.06271653 -0.16975337 -0.4995656
-0.17258199 -0.58679116 -0.22429207 -0.24264422 -0.105507314 -0.15501009 -0.52570474 -1.0260692
-0.8606914 0.30365774 0.6021473 -1.195516 0.24350831 -0.4495947 -0.42579728 -0.3811188
0.41463244 -0.43023342 0.37678954 -0.29278073 0.67526054 -0.29662198 -0.32040974 -0.3773137
-0.10903704 0.4590678 -0.90943164 -0.2935826 -0.32844755 -0.5872666 0.20457697 -0.26939076
-0.368817 -0.8184797 -0.9727351 -0.22156322 -0.09918306 -0.952264 -0.4365958 -0.4077783
-0.4159545 0.5801703 -0.3508005 0.41855618 -0.28793412 -0.49193472 -0.28481486 -0.035190027
0.46686155 -0.3345532 -0.16939935 -0.2062967 -0.5179545 -0.89756995 -0.5266069 -0.4631658
-0.98557633 -0.3006202 -0.5146822 -0.49033353 0.42044684 -0.35502768 0.07524166 -0.8467774
-0.05617881 0.5100209 -0.14866313 -0.38716394 0.009952322 -0.17684038 -0.08624881 -0.71218055
-0.28897068 0.41782582 -0.40970597 -0.7917143 -0.2329328 -0.6860357 -0.4845707 -0.7279951
-0.44620007 -0.56114656 -0.25408655 -0.28006878 -0.23479085 0.6146422 -0.4077401 -0.17884217
00000000: e0f8 49be acdb 24be d4be 4bbe 267f 053f
00000010: 2060 e73e 0030 08bf 2bbe 34bf b197 b1be
00000020: 3c7a 81bf 8ee5 063f c1b1 213f 4138 943e
00000030: e664 4cbe 3ab2 f4be 0062 dfbe 3d26 01bf
00000040: 5e18 32bf 2261 98be 07aa cfbe bde4 213f
00000050: be18 223d a0ac 9bbe 5f96 a73d 3795 dcbe
00000060: 6204 86bf e795 89bd 8051 0e3f 91c5 993e
00000070: 32f5 e63e 243f 40be 2028 9bbd 5bab d33e
00000080: 448b b6be d389 9cbf feca abbf cea0 03bd
00000090: d420 92be 8671 80bd d4d3 2dbe 10c7 ffbe
000000a0: 55b9 30be f237 16bf d2ac 65be ba77 78be
000000b0: 3814 d8bd f7ba 1ebe 9694 06bf 3c56 83bf
000000c0: 4656 5cbf 0779 9b3e 5326 1a3f ab06 99bf
000000d0: 3e5a 793e 4731 e6be 1a02 dabe 0122 c3be
000000e0: b44a d43e 8e47 dcbe 8fea c03e 5be7 95be
000000f0: e0dd 2c3f d6de 97be bf0c a4be 432f c1be
00000100: d04e dfbd ef0a eb3e 83d0 68bf 7550 96be
00000110: 472a a8be 1b57 16bf a07c 513e 96ed 89be
00000120: 95d5 bcbe e387 51bf 2b05 79bf 78e1 62be
00000130: 7d20 cbbd 93c7 73bf 7c89 dfbe 51c8 d0be
00000140: fdf7 d4be 0a86 143f 209c b3be ff4c d63e
00000150: 1a6c 93be dede fbbe 41d3 91be 6b23 10bd
00000160: 7a08 ef3e 8f4a abbe 0677 2dbe 713f 53be
00000170: ab98 04bf 25c7 65bf b6cf 06bf 1124 edbe
00000180: bb4e 7cbf e4ea 99be 36c2 03bf ff0c fbbe
00000190: cf44 d73e 30c6 b5be 4d18 9a3d 67c6 58bf
000001a0: c01b 66bd bb90 023f 263b 18be 5a3a c6be
000001b0: 100f 233c a515 35be 37a3 b0bd 7751 36bf
000001c0: f7f3 93be 44ed d53e fbc4 d1be caad 4abf
000001d0: f085 6ebe 09a0 2fbf a719 f8be e35d 3abf
000001e0: 5674 e4be 4da7 0fbf a217 82be 2d65 8fbe
000001f0: 036d 70be 3159 1d3f 4fc3 d0be 6722 37be

network.2.weight f4 [64, 128]
0.032273665 0.048307102 -0.049390092 -0.08389245 -0.019918347 -0.1493067 -0.020979084 0.00927554
-0.1786983 -0.19372226 -0.0898316 -0.0681097 0.00032305537 -0.025932534 -0.10131045 -0.10835996
-0.2243997 -0.18286705 -0.14796114 -0.10548264 -0.076441266 -0.25346535 0.019275857 -0.01424405
-0.055375382 -0.07104641 -0.041367732 0.039056994 0.017811034 -0.1709552 -0.22353768 -0.025085315
-0.22019264 -0.05805031 -0.10022084 0.016278703 -0.035449672 -0.08723683 -0.108092874 -0.09997027
0.004754674 -0.1868524 0.05831612 -0.12446682 -0.11176798 -0.19625233 -0.07765696 -0.1311573
-0.0051078196 -0.101451956 -0.099295504 0.030441057 -0.19221711 -0.2499195 -0.080393165 0.051333725
-0.13508047 -0.18090399 -0.051573806 0.010637918 -0.07081745 0.010692404 -0.07667974 -0.013610781
-0.08820848 -0.08221148 -0.23093896 -0.09499698 -0.1846194 -0.041118357 -0.006766072 -0.06349386
-0.03586109 -0.06505847 0.040417124 -0.076572895 0.006575241 -0.26107132 -0.004557713 0.04574142
-0.088260375 0.034986004 -0.07877405 0.04869086 -0.061100837 0.18020302 -0.19687924 -0.07585368
-0.11807579 -0.011717609 0.039256725 -0.11014149 -0.2172358 -0.18056801 -0.09999187 -0.13258459
-0.19240937 -0.042490613 -0.070666924 -0.070643134 0.022172533 -0.077535026 0.05270156 0.018401198
0.016193205 -0.09221555 -0.15233107 0.04483485 -0.018929498 0.0047949813 0.038398944 -0.075833365
-0.18068813 -0.113916844 -0.15944663 -0.10515979 -0.006573279 -0.060045965 -0.10944993 -0.121394455
-0.17959546 -0.053488854 0.054400753 -0.08923521 0.02194113 -0.008394415 -0.036166884 -0.091182865
0.4657338 -0.16979554 -0.81707096 -0.5029092 -0.1962987 0.5402802 -0.21600392 -0.1908415
0.4389546 -0.42976207 -0.2641659 -0.30563048 0.49313897 0.1390857 0.13639863 0.20718257
-1.4038037 0.0101752635 -0.18105178 -0.30520242 -0.4515837 0.024324922 -0.4825027 -0.8467627
0.13536723 0.21948063 -0.58402854 -0.112934366 -0.34615496 -1.1411988 -0.35633823 -0.14481579
-0.15046006 0.48751894 0.6844854 -0.5698644 -0.08542148 -0.5033478 0.22370844 -0.35267878
-0.41280836 0.19662504 0.92939734 0.014040889 -0.27116147 -0.034302734 0.110670626 0.49075532
-1.4936998 0.049042054 -0.04408073 0.340642 -0.8655017 -0.14512877 0.21663527 0.07973743
-0.16684721 -0.17863642 -0.5853174 0.4642325 -0.07776372 0.15170367 -1.1135807 0.14763156
0.11699644 -0.15937743 0.13630944 0.11490948 0.022972971 -1.2482117 -0.45852613 -0.10570433
0.28885412 -0.5772106 0.628509 0.22103475 0.14718401 0.7933166 -0.06428283 -0.119347036
-0.18547992 -0.35767657 -0.11009434 -0.7826648 -0.23903324 0.19633268 0.04137176 -0.27459547
0.19154513 0.17167534 0.069269985 -0.04584541 0.057009935 0.09293775 -0.26168454 0.4453388
1.1397256 0.0673859 0.24911663 0.031257067 -0.51194984 -0.10050233 -0.24799536 0.40704933
0.61230826 -0.16809794 0.15315223 0.24351192 0.21045752 -0.023153901 -0.3445788 0.26895094
-0.2454144 -0.057193223 -0.068363346 0.02131583 0.34196308 0.9584191 -0.09861954 0.27725312
0.60537523 0.15196179 1.0284953 -0.3226952 0.088246085 -0.30995744 0.44588292 -0.17192435
00000000: 6431 043d abdd 453d 444d 4abd cecf abbd
00000010: cd2b a3bc dbe3 18be 54dc abbc 6ff8 173c
00000020: b0fc 36be 215f 46be a1f9 b7bd 197d 8bbd
00000030: c25f a939 7770 d4bc da7b cfbd d4eb ddbd
00000040: 09c9 65be 8041 3bbe 2083 17be 4807 d8bd
00000050: 3d8d 9cbd 36c6 81be 67e8 9d3c e05f 69bc
00000060: 4cd1 62bd c880 91bd 3671 29bd 3afa 1f3d
00000070: 72e8 913c e10e 2fbe 10e7 64be b87f cdbc
00000080: 2e7a 61be 29c6 6dbd 9540 cdbd ea5a 853c
00000090: ad33 11bd 39a9 b2bd cc5f ddbd 37bd ccbd
000000a0: 19cd 9b3b 3c56 3fbe e2dc 6e3d 76e8 febd
000000b0: 9ce6 e4bd 5ff6 48be 9d0a 9fbd 194e 06be
000000c0: 7f5f a7bb 0bc6 cfbd 715b cbbd 865f f93c
000000d0: 90d4 44be e6ea 7fbe 2ca5 a4bd 5043 523d
000000e0: 8952 0abe e53e 39be 0e3f 53bd a94a 2e3c
000000f0: bd08 91bd 312f 2f3c 440a 9dbd c1ff 5ebc
00000100: a6a6 b4bd 7e5e a8bd 437b 6cbe c78d c2bd
00000110: de0c 3dbe b96b 28bd edb5 ddbb 1209 82bd
00000120: 14e3 12bd 603d 85bd 6d8c 253d 40d2 9cbd
00000130: 1f75 d73b 24ab 85be de58 95bb 5b5b 3b3d
00000140: dbc1 b4bd 7c4d 0f3d 4a54 a1bd 1170 473d
00000150: df44 7abd 2487 383e b69a 49be 2d59 9bbd
00000160: b8d1 f1bd 37fb 3fbc a9cb 203d dd91 e1bd
00000170: 1073 5ebe d2e6 38be 8ac8 ccbd 41c4 07be
00000180: f606 45be a30a 2ebd d2b9 90bd 59ad 90bd
00000190: 2ca3 b53c afca 9ebd 97dd 573d 1cbe 963c
000001a0: 9da7 843c 82db bcbd adfc 1bbe bfa4 373d
000001b0: 0912 9bbc 381f 9d3b 3648 1d3d 864e 9bbd
000001c0: 4f06 39be 3c4d e9bd fa45 23be 045e d7bd
000001d0: a964 d7bb c2f2 75bd 4927 e0bd a89d f8bd
000001e0: dfe7 37be 2117 5bbd 53d3 5e3d f3c0 b6bd
000001f0: e2bd b33c ba88 09bc ba23 14bd 15be babd
00000200: a974 ee3e e2de 2dbe 902b 51bf a8be 00bf
00000210: 8702 49be ce4f 0a3f 2230 5dbe f46b 43be
00000220: a8be e03e c609 dcbe c140 87be 997b 9cbe
00000230: b67c fc3e 7b6c 0e3e 15ac 0b3e ab27 543e
00000240: d7af b3bf 26b6 263c a365 39be 7e43 9cbe
00000250: fb35 e7be 0f45 c73c 980a f7be 71c5 58bf
00000260: b59d 0a3e 88bf 603e e582 15bf 224a e7bd
00000270: 393b b1be cd12 92bf f771 b6be 974a 14be
00000280: 3412 1abe 159c f93e 6f3a 2f3f a2e2 11bf
00000290: 75f1 aebd 67db 00bf d313 653e 5092 b4be
000002a0: 9e5b d3be 1358 493e fcec 6d3f c20b 663c
000002b0: add5 8abe 0681 0cbd 48a7 e23d 4844 fb3e
000002c0: 8e31 bfbf 52e0 483d ff8d 34bd a168 ae3e
000002d0: 8591 5dbf a39c 14be a3d5 5d3e 614d a33d
000002e0: ffd9 2abe 77ec 36be 5cd7 15bf e2af ed3e
000002f0: 9642 9fbd 3558 1b3e d089 8ebf ba2c 173e
00000300: d49b ef3d d633 23be b494 0b3e a955 eb3d
00000310: d031 bc3c 67c5 9fbf f0c3 eabe 837b d8bd
00000320: b0e4 933e 13c4 13bf f7e5 203f ef56 623e
00000330: 68b7 163e cc16 4b3f b7a6 83bd 386c f4bd
00000340: 73ee 3dbe 6221 b7be 2479 e1bd b85c 48bf
00000350: 21c5 74be 6f0b 493e 6f75 293d c797 8cbe
00000360: 6824 443e a9cb 2f3e 6cdd 8d3d 66c8 3bbd
00000370: 4083 693d 2656 be3d 84fb 85be 7203 e43e
00000380: 87e2 913f 9e01 8a3d 6e18 7f3e 6907 003d
00000390: 250f 03bf 2ad4 cdbd 7ff2 7dbe c568 d03e
000003a0: 3cc0 1c3f de21 2cbe f0d3 1c3e 305b 793e
000003b0: 2d82 573e 40ad bdbc a26c b0be f0b3 893e
000003c0: ea4d 7bbe 7143 6abd 1502 8cbd 899e ae3c
000003d0: c915 af3e f45a 753f 0bf9 c9bd 1ff4 8d3e
000003e0: dff9 1a3f df9b 1b3e bca5 833f 4e38 a5be
000003f0: 5dba b43d beb2 9ebe c44a e43e f00c 30be

network.2.bias f4 [64]
-0.10477315 -0.5676468 0.17845394 0.01489887 -0.31319088 -0.13523568 -0.1250757 -0.07327491
-0.3866654 -0.20588584 -0.5108392 0.01315069 -0.06751673 -0.10406556 -0.025734413 -0.059909787
-0.4955394 -0.033116255 -0.15584208 -0.0011162169 -0.0056288913 -0.08501097 -0.23727436 -0.3262399
0.04781051 -0.6443279 0.33767855 -0.035282455 -0.27081063 -0.39993057 -0.21864213 -0.05313008
-0.21068813 0.45461744 -0.09298897 -0.0440191 -0.117910974 -0.0005685269 -0.05736888 -0.26552087
-0.48373413 -0.25719064 -0.36490104 0.12680432 -0.16891773 -0.66240835 -0.2604184 0.5787137
0.5583512 -0.033502664 -0.046089422 -0.21675494 -0.057557177 0.18645789 -0.10902426 0.020384163
-0.014725173 -0.2013507 -0.18200082 0.021916568 -0.32781172 -0.3769263 -0.09406251 -0.10309404
00000000: 4e93 d6bd 4d51 11bf a1bc 363e 641a 743c
00000010: 8e5a a0be 397b 0abe d813 00be 2811 96bd
00000020: 02f9 c5be bdd3 52be 5cc6 02bf fe75 573c
00000030: 3646 8abd 5320 d5bd fad0 d2bc f763 75bd
00000040: 57b7 fdbe e9a4 07bd 1195 1fbe 064e 92ba
00000050: 9072 b8bb 3b1a aebd 0df8 72be eb08 a7be
00000060: f4d4 433d acf2 24bf 34e4 ac3e 5684 10bd
00000070: b1a7 8abe b3c3 ccbe b9e3 5fbe ed9e 59bd
00000080: a1be 57be 9ec3 e83e 0071 bebd 5f4d 34bd
00000090: 4f7b f1bd 3209 15ba a1fb 6abd 5af2 87be
000000a0: 00ac f7be 7eae 83be 4fd4 babe fed8 013e
000000b0: c5f8 2cbe 9893 29bf 8f55 85be 9526 143f
000000c0: 1bf0 0e3f 173a 09bd 43c8 3cbd 02f5 5dbe
000000d0: 13c1 6bbd d1ee 3e3e 1c48 dfbd b0fc a63c
000000e0: da41 71bc e12e 4ebe 6c5e 3abe 608a b33c
000000f0: f0d6 a7be 7cfc c0be d8a3 c0bd f822 d3bd

network.4.weight f4 [16, 64]
0.17777213 -0.30685514 0.06269034 0.10748004 -0.64627063 0.08338037 0.08617523 -0.041800614
0.19616805 -0.05093095 -0.5940827 -0.03277518 0.07490865 -0.09467952 0.046503052 0.07988513
0.12712154 -0.55026776 0.13042727 0.5508447 0.007963 -0.30857217 0.34508824 0.096026376
0.094028145 -0.7354984 0.18266329 0.06729484 0.12241983 -0.41857988 0.004719918 -0.0114974305
0.33405018 0.0039838776 -0.11012114 0.44220343 0.3147718 0.30199105 0.006991654 -0.37049264
0.40484428 -0.0008348599 -1.0634538 0.05478105 -0.22434364 0.02906014 0.13121726 0.593251
0.37606114 -0.07284539 0.048775263 0.5535271 0.31864727 0.21586396 0.13587111 -0.1055365
0.34416047 -0.0024473146 -0.4600432 -0.40869716 0.39145425 -0.09144752 -0.04533128 -0.13707782
0.07243342 -0.2773613 0.30489722 -0.32122526 -0.022232836 0.07975448 0.12157306 0.28990948
-0.19576457 0.025182154 -0.5889831 0.050532423 0.05862883 0.07362157 0.1348095 0.108660184
-0.1236287 -0.3431138 0.15865354 0.24354903 0.1304515 -0.62425673 0.2506483 0.07664112
0.13707833 -0.5397377 -0.10580982 0.062230587 0.1629124 -0.17020725 0.20534463 0.058614742
-0.114381336 -0.117015265 0.09123519 0.04252793 0.4266301 0.40031594 0.0024235311 -0.49534157
0.0031746754 0.2074781 -1.0228825 -0.26934397 -0.11547273 0.24971162 0.34943873 0.37585193
0.030288285 0.07741647 0.14519387 0.5925179 0.38828814 0.17463338 0.23993894 0.076234534
0.24434158 0.022604352 -0.28530365 -0.8763446 0.34331793 -0.026944729 0.032986164 0.003857914
0.12834252 -1.0182892 -0.29018858 -0.50187874 0.33159766 0.04601357 0.10678931 -0.37217858
-0.49942723 0.020966321 0.24874084 -0.049490478 -0.05626262 0.06619167 -0.07373093 0.15619278
-0.47713736 0.17334853 0.16241126 -0.67274374 -0.15190254 0.07355993 0.08789117 -0.13468826
0.14663488 -1.0565386 -0.064602636 0.10921191 0.19920121 -0.13571833 0.08804003 0.16449992
0.33533236 -0.17313819 0.034655184 0.2694723 -0.3125127 0.05314097 0.08043247 0.20639345
0.49211797 -0.17211646 -0.65508723 -0.14472893 0.21262556 -0.41375023 0.5842303 -0.7329807
0.0043683005 -0.02651693 0.008534045 0.26729187 -0.16979124 -0.20297232 -0.3579691 0.024384528
-0.6379825 -0.081078 0.25733453 -0.09304779 -0.47486374 0.32051048 0.059216388 0.11502991
-0.11311487 0.636324 -0.102215864 0.4414432 -0.05848568 -0.022497619 0.027754394 -0.63092047
0.13008858 -0.35109565 -0.15414168 -0.10970374 0.093190536 -0.07491245 0.070401885 0.09384762
0.8867788 0.043405056 0.07388984 0.37221378 -0.13319248 -0.16202213 0.013764785 0.42402634
-0.103911094 0.31637338 -0.62373036 0.030831257 0.058667753 -0.04854455 -0.3727856 -0.10985313
-0.026205862 -0.39371324 -0.022221439 -0.27777445 0.016088562 -0.046100467 -0.015543126 -0.2847794
0.4335797 0.23244542 0.30781117 0.2573931 0.12882532 -0.10375374 0.3662567 -0.4569781
-0.22860362 0.0145228645 1.3065641e-05 -0.18131055 0.2526781 0.06142013 0.27681985 0.051438134
0.08248025 0.020828567 -0.47458783 -0.37641776 0.32326937 -0.21066932 -0.11092705 -0.0007511006
00000000: e609 363e 1e1c 9dbe cb63 803d 7f1e dc3d
00000010: fe71 25bf 54c3 aa3d a47c b03d 1f37 2bbd
00000020: 47e0 483e f99c 50bd ce15 18bf 443f 06bd
00000030: b569 993d 56e7 c1bd fc79 3e3d d19a a33d
00000040: 262c 023e 59de 0cbf ba8e 053e 2904 0d3f
00000050: 3e77 023c 2cfd 9dbe 68af b03e 7aa9 c43d
00000060: d491 c03d a049 3cbf 160c 3b3e e1d1 893d
00000070: 3fb7 fa3d 1a50 d6be 8ba9 9a3b b85f 3cbc
00000080: a008 ab3e 308b 823b 3187 e1bd 7d68 e23e
00000090: c529 a13e 929e 9a3e 3f1a e53b 36b1 bdbe
000000a0: c047 cf3e 80da 5aba 411f 88bf 1862 603d
000000b0: 57ba 65be 880f ee3c d15d 063e 4cdf 173f
000000c0: 168b c03e f72f 95bd 92c8 473d f4b3 0d3f
000000d0: bc25 a33e 710b 5d3e cc21 0b3e 8523 d8bd
000000e0: cd35 b03e 2063 20bb c88a ebbe c140 d1be
000000f0: b16c c83e d648 bbbd 4bad 39bd 215e 0cbe
00000100: f957 943d 4d02 8ebe 7d1b 9c3e a377 a4be
00000110: a321 b6bc 5156 a33d 4cfb f83d 046f 943e
00000120: 8276 48be ce4a ce3c 99c7 16bf 16fb 4e3d
00000130: c924 703d e8c6 963d 800b 0a3e 3b89 de3d
00000140: 0b31 fdbd 9dac afbe 1376 223e eb64 793e
00000150: 1495 053e 4acf 1fbf f954 803e 05f6 9c3d
00000160: 435e 0c3e 402c 0abf d2b2 d8bd 80e5 7e3d
00000170: 82d2 263e cf4a 2ebe dd45 523e 0316 703d
00000180: c340 eabd b3a5 efbd 84d9 ba3d c431 2e3d
00000190: 436f da3e 36f6 cc3e 1bd4 1e3b 699d fdbe
000001a0: 370e 503b 2475 543e d0ed 82bf 74e7 89be
000001b0: f77c ecbd 67b4 7f3e a2e9 b23e aa6f c03e
000001c0: 231f f83c 878c 9e3d b4ad 143e 41af 173f
000001d0: b4cd c63e 18d3 323e 8eb2 753e da20 9c3d
000001e0: ae34 7a3e c32c b93c 5213 92be 1f58 60bf
000001f0: 5ec7 af3e 31bb dcbc 801c 073d 0ed5 7c3b
00000200: 396c 033e 4d57 82bf 9993 94be 207b 00bf
00000210: 2bc7 a93e ba78 3c3d 5bb4 da3d 318e bebe
00000220: edb4 ffbe 90c1 ab3c ebb5 7e3e 87b6 4abd
00000230: a273 66bd 808f 873d 3e00 97bd 00f1 1f3e
00000240: 594b f4be 4782 313e 234f 263e ef38 2cbf
00000250: 578c 1bbe 97a6 963d 4900 b43d b8eb 09be
00000260: 7427 163e a83c 87bf 634e 84bd 7eaa df3d
00000270: 67fb 4b3e bff9 0abe 554e b43d ab72 283e
00000280: afb0 ab3e 234b 31be 98f2 0d3d 46f8 893e
00000290: aa01 a0be 59aa 593d c7b9 a43d ce58 533e
000002a0: e3f6 fb3e 4c3f 30be ccb3 27bf d233 14be
000002b0: 84ba 593e 12d7 d3be 1e90 153f a0a4 3bbf
000002c0: f623 8f3b 083a d9bc 61d2 0b3c 7bda 883e
000002d0: c1dd 2dbe fad7 4fbe ba47 b7be 10c2 c73c
000002e0: d252 23bf 390c a6bd 5ac1 833e d78f bebd
000002f0: 5721 f3be f319 a43e e28c 723d cd94 eb3d
00000300: c5a8 e7bd 21e6 223f 8d56 d1bd d804 e23e
00000310: ae8e 6fbd ed4c b8bc 2f5d e33c 0184 21bf
00000320: f135 053e cfc2 b3be 51d7 1dbe 5bac e0bd
00000330: aeda be3d b36b 99bd dd2e 903d 2e33 c03d
00000340: ef03 633f 80c9 313d 8e53 973d ce92 be3e
00000350: 9c63 08be 21e9 25be b185 613c fb19 d93e
00000360: 57cf d4bd b1fb a13e cbac 1fbf d591 fc3c
00000370: 994d 703d a6d6 46bd c1dd bebe aefa e0bd
00000380: adad d6bc c894 c9be bc09 b6bc 7438 8ebe
00000390: 29cc 833c d8d3 3cbd 98a8 7ebc 9bce 91be
000003a0: 29fe dd3e 2c06 6e3e 6d99 9d3e 07c9 833e
000003b0: c9ea 033e d77c d4bd 0086 bb3e 09f9 e9be
000003c0: 1117 6abe 4ff1 6d3c 8034 5b37 79a9 39be
000003d0: 065f 813e ad93 7b3d 55bb 8d3e cbb0 523d
000003e0: 68eb a83d aca0 aa3c 2dfd f2be d4b9 c0be
000003f0: 9083 a53e b3b9 57be b92d e3bd 82e5 44ba

network.4.bias f4 [16]
-0.29831234 -0.4114524 -0.5216691 -0.41254467 -0.077652074 -0.23362531 -0.1384991 -0.14321063
0.21315812 -0.051520217 -0.19464685 -0.5110356 -0.45870715 -0.46904534 0.07201115 -0.2032536
00000000: 65bc 98be e4a9 d2be 1b8c 05bf 0e39 d3be
00000010: 0d08 9fbd 793b 6fbe b5d2 0dbe cfa5 12be
00000020: 1f46 5a3e dd06 53bd 8151 47be 3bd3 02bf
00000030: aadb eabe b626 f0be 957a 933d b621 50be

network.6.weight f4 [2, 16]
0.4036418 0.3080944 0.49062058 -0.30662677 -0.23218603 0.33422023 -0.017513217 0.3230392
0.42103308 0.13566703 0.0024955727 -0.31933963 -0.5868762 -0.016717872 0.25207487 0.053725068
-0.3743037 -0.23241286 -0.1227054 0.0505066 0.2549968 -0.30057597 -0.1990551 -0.10487232
-0.2067605 -0.17784546 -0.25374874 0.10157591 0.9001681 -0.29300368 -0.3747437 0.021174518
00000000: 23aa ce3e 8dbe 9d3e 9f32 fb3e 2ffe 9cbe
00000010: 2dc2 6dbe ea1e ab3e e177 8fbc 6565 a53e
00000020: a691 d73e 4cec 0a3e c38c 233b 7c80 a3be
00000030: 853d 16bf ebf3 88bc f50f 813e d10e 5c3d
00000040: bca4 bfbe a3fd 6dbe f84c fbbd 02e0 4e3d
00000050: f18e 823e 18e5 99be 1ad5 4bbe 4dc7 d6bd
00000060: 06b9 53be 1f1d 36be 5beb 81be 0807 d03d
00000070: 6b71 663f 9404 96be 68de bfbe 2f76 ad3c

network.6.bias f4 [2]
-0.17852348 0.11501909
00000000: dcce 36be 218f eb3d
