models/adult/rs/adam_epochs40_lr0.004_batch128_dropout0/model_805.pth (torch, 43811 bytes, 8 tensors)

network.0.weight f4 [128, 6]
0.15577757 0.11026573 0.21985343 1.3329539 0.0058541414 0.058792643 -0.98089594 -0.22811778
-0.04335695 -0.41700697 0.018599471 -1.0173557 0.09729788 -0.18964988 -0.45096985 0.19037321
-0.15456371 0.837274 0.035846304 -0.89922184 0.11096248 -1.3438749 -0.77220744 -0.08579506
0.3854351 0.08218129 0.41366184 0.555148 0.26385686 0.544146 0.8280621 -0.33277875
0.15510617 0.03885891 -0.0070048384 -0.28233156 0.015063477 0.36674845 -0.67817366 -0.95913255
-0.030279445 0.5278412 0.08245319 0.06331098 0.020600293 0.5660562 -0.1007057 -0.020711621
-0.70351577 0.36160555 -0.37252408 -0.5289068 -0.044237304 -0.049045328 0.0055130073 0.31546834
0.52698535 -0.79889524 -0.37990695 0.16302414 -0.061450433 -0.60811096 0.7485707 -0.3134107
0.32421443 -0.08877424 -0.83946276 -0.5456012 -0.14399475 -1.2622269 -0.3215542 -0.59393495
0.3131179 0.039116323 0.31143802 -0.13856287 -0.05627465 -1.3714042 -1.3703102 0.30493066
-0.29441643 -0.11553901 0.009932754 -0.14036895 -0.14580958 0.0183379 -0.18620199 -0.18653488
0.050791796 -0.80512583 -0.32077911 0.017121265 -0.18186876 -0.26820377 -0.023406032 -0.7995248
-0.41469982 0.2596099 -0.597274 1.1384524 -0.13910796 0.068543114 0.13666035 0.12864663
-0.04069297 1.0696642 -0.022717377 0.056083806 -0.21742696 -0.2622981 0.25912496 0.22732359
-0.14673994 -1.4173198 -0.04755596 0.10520434 0.12262224 0.7483579 -0.106483296 0.0203346
-0.6798309 -0.3811206 -0.39424944 -0.8776835 -0.16904022 -0.6485421 0.22777855 0.06860438
-0.6999125 -0.3610062 -0.12002954 -0.29581088 0.2966083 0.25446907 -0.5750963 -0.69242024
-0.22620866 -0.8650837 -0.73485625 0.35383317 -0.19163531 0.04163505 -0.010844992 -0.44074774
-0.011328631 0.28150794 0.015520571 1.1332809 0.4206224 0.3978797 -0.3507434 0.37757432
-0.21530256 -0.737526 -0.106176384 -0.55848956 0.52875566 0.39597023 -1.2134168 -0.81898457
0.06984463 0.21953715 0.19299844 0.048559733 -0.31461263 1.4734949 -0.07059156 -0.24595493
-0.3873313 0.012282735 -0.6980561 0.793795 -0.15312077 -0.4924401 -1.1548359 0.1585393
-0.6343955 -1.0813966 -0.03886975 -0.8902625 -0.8131658 -0.5634737 -0.7389507 -0.2685977
-0.31102723 0.20938715 0.6035311 0.35268277 -0.26708207 -1.1868349 -0.0991262 -0.9239736
-0.3933542 0.2351779 -0.82632285 -0.96627736 -0.46758866 -0.501526 -0.36131808 -0.8819054
-0.09132175 -0.48071954 -0.34173596 -0.46711424 -0.04254027 -0.8997318 -0.24079093 0.0064214463
-0.2853723 0.09349166 -0.14816327 -0.532524 0.13465525 0.87754357 -0.19815761 -0.36989564
-0.98194796 -0.5328968 -0.9692578 -0.5291164 0.09863736 0.2065731 -0.24312297 -0.12001405
-0.124027126 1.4581418 0.011297789 -0.27745616 0.38116696 0.12902467 -0.536742 -1.1303285
-0.2130719 -1.0197994 -0.5749028 0.3296782 -0.6625091 -0.85625947 -0.20710719 -0.7196482
0.035348695 -0.011631433 -0.050579727 1.7446285 0.23940098 -0.05045249 0.10747857 -0.48104766
-0.32404846 -0.57292235 -0.6711478 -0.14309098 -0.36083284 0.05837579 -0.18040967 0.25548622
00000000: 2884 1f3e 00d3 e13d 4221 613e 3c9e aa3f
00000010: 19d4 bf3b 8ed0 703d ff1b 7bbf b597 69be
00000020: 0f97 31bd f081 d5be eb5d 983c b638 82bf
00000030: 1c44 c73d 9433 42be 85e5 e6be 32f1 423e
00000040: f345 1ebe 9757 563f 93d3 123d 6733 66bf
00000050: 4c40 e33d 1804 acbf 63af 45bf 52b5 afbd
00000060: c057 c53e aa4e a83d 7ccb d33e 2e1e 0e3f
00000070: 3f18 873e 274d 0b3f e1fb 533f fa61 aabe
00000080: 27d4 1e3e 852a 1f3d d888 e5bb c38d 90be
00000090: cdcc 763c 74c6 bb3e ca9c 2dbf b689 75bf
000000a0: 990c f8bc 9a20 073f 38dd a83d 30a9 813d
000000b0: f2c1 a83c 0fe9 103f ca3e cebd 6bab a9bc
000000c0: 9c19 34bf 5d24 b93e 7abb bebe 7066 07bf
000000d0: 2d32 35bd c1e3 48bd 75a6 b43b 1185 a13e
000000e0: 83e8 063f 6684 4cbf 2a83 c2be cdef 263e
000000f0: 73b3 7bbd 29ad 1bbf 54a2 3f3f 5e77 a0be
00000100: 6fff a53e 45cf b5bd 08e7 56bf 85ac 0bbf
00000110: 5c73 13be a790 a1bf c1a2 a4be 1f0c 18bf
00000120: fd50 a03e 7038 203d ce74 9f3e 6de3 0dbe
00000130: 3f80 66bd 2c8a afbf 5366 afbf df1f 9c3e
00000140: c0bd 96be b79f ecbd fdbc 223c e1bc 0fbe
00000150: 1b4f 15be 5d39 963c bcab 3ebe 0003 3fbe
00000160: 0f0b 503d ba1c 4ebf 293d a4be e541 8c3c
00000170: ce3b 3abe 0152 89be 02be bfbc a8ad 4cbf
00000180: 8953 d4be 97eb 843e f3e6 18bf cfb8 913f
00000190: 5172 0ebe 5560 8c3d b1f0 0b3e f1bb 033e
000001a0: acad 26bd c2ea 883f cb19 babc 22b8 653d
000001b0: 2ca5 5ebe f04b 86be 07ac 843e 84c7 683e
000001c0: ff42 16be bc6a b5bf 0aca 42bd 5f75 d73d
000001d0: 5e21 fb3d 6294 3f3f ea13 dabd bf94 a63c
000001e0: 6609 2ebf 3d22 c3be 10db c9be deaf 60bf
000001f0: e118 2dbe db06 26bf c83e 693e 7480 8c3d
00000200: 772d 33bf ced5 b8be 0cd2 f5bd 8674 97be
00000210: 0bdd 973e c549 823e 8339 13bf 7442 31bf
00000220: 3ea3 67be 2076 5dbf 8a1f 3cbf 9f29 b53e
00000230: 0c3c 44be 8489 2a3d 31af 31bc b0a9 e1be
00000240: b99b 39bc cf21 903e fe49 7e3c 590f 913f
00000250: d25b d73e e3b6 cb3e a494 b3be 6c51 c13e
00000260: 4678 5cbe 81ce 3cbf 0173 d9bd 2cf9 0ebf
00000270: 885c 073f 9cbc ca3e 3e51 9bbf f9a8 51bf
00000280: b40a 8f3d 59ce 603e 62a1 453e 92e6 463d
00000290: e814 a1be 7b9b bc3f 4f92 90bd 9cdb 7bbe
000002a0: 4a50 c6be 863d 493c ceb3 32bf 2636 4b3f
000002b0: b1cb 1cbe 1c21 fcbe aad1 93bf 2058 223e
000002c0: be67 22bf 346b 8abf e335 1fbd 3ee8 63bf
000002d0: a22b 50bf d03f 10bf e02b 3dbf a385 89be
000002e0: f63e 9fbe 9669 563e 0481 1a3f d692 b43e
000002f0: fbbe 88be 35ea 97bf ad02 cbbd 8989 6cbf
00000300: b965 c9be 7ad2 703e e589 53bf f45d 77bf
00000310: c867 efbe 0264 00bf affe b8be 8dc4 61bf
00000320: e606 bbbd df20 f6be 04f8 aebe 9929 efbe
00000330: b53e 2ebd d354 66bf e691 76be ff6a d23b
00000340: 511c 92be 8e78 bf3d 1db8 17be 7e53 08bf
00000350: 11e3 093e b2a6 603f d4e9 4abe f662 bdbe
00000360: f160 7bbf ed6b 08bf 4721 78bf 2c74 07bf
00000370: 6202 ca3d e687 533e 3af5 78be edc9 f5bd
00000380: ef01 febd 64a4 ba3f 5d1a 393c bc0e 8ebe
00000390: 5128 c33e 0b1f 043e ec67 09bf 9bae 90bf
000003a0: 852f 5abe c988 82bf d42c 13bf 95cb a83e
000003b0: 329a 29bf d233 5bbf e813 54be dd3a 38bf
000003c0: cbc9 103d c491 3ebc b02c 4fbd fd4f df3f
000003d0: 8825 753e 45a7 4ebd b91d dc3d e14b f6be
000003e0: aee9 a5be 0aab 12bf 58d0 2bbf 7186 12be
000003f0: 15bf b8be 741b 6f3d 50bd 38be 17cf 823e

network.0.bias f4 [128]
-0.4649767 0.3146811 -0.42556116 0.35482758 -0.32163048 -0.86831826 -0.14975733 -0.23418006
-0.12072357 -0.23365732 -0.47235814 -0.11762684 -0.5906932 -0.16072468 0.5982445 0.6319169
-0.31688806 -0.36864474 -0.66966796 -0.25733954 -0.07453785 0.46408767 0.017993506 0.68215746
-1.0892516 -0.6136668 -0.5200314 -0.14222142 -0.49124858 -0.08464516 -0.5296092 -0.3456774
0.12719844 -0.25811973 -0.62804073 -0.37367857 -0.22066024 -0.19630831 0.0023407396 0.026446864
-0.6194695 0.43126887 -1.0095115 -0.20552577 -0.22869863 0.7797914 -0.8041022 -0.21322979
-0.5957956 -0.37947872 -0.20151654 0.23919685 -0.29448953 -0.442298 -0.9237616 -0.42703882
-1.0872986 0.20259495 -0.8448882 -0.0687481 -0.5663616 -0.5575312 -0.44028962 -0.21256259
0.07527749 -1.1904917 -0.72706306 -0.6041439 0.033101495 -0.2439038 -0.07368216 -0.51005024
0.1412532 -0.57131094 0.6535364 -0.22775519 0.09457971 -0.37203768 -0.15611291 -0.5096846
-0.66121805 0.7109995 0.26705956 0.032840494 -0.46560425 -0.7277468 -0.364334 -0.71580833
-0.5733275 -0.6832741 -0.45883828 0.023239916 0.4177139 -0.6797491 -0.37926066 -0.15955338
-0.29893753 -0.32968357 -0.26839468 0.14634225 0.14502919 -0.21077886 0.24109332 -0.48590744
-0.28325272 -0.33536807 -0.31132936 -0.15698074 -0.30695873 0.5148328 0.56609887 0.6304839
-0.098557964 0.42329443 -0.9698274 -0.88512206 -0.0442677 -0.7195646 -0.9806727 -0.580074
-0.6194448 -0.77030814 -0.8276061 0.746021 -0.318625 -0.64235765 0.03475771 0.4095454
00000000: 6d11 eebe e21d a13e 27e3 d9be f6ab b53e
00000010: c0ac a4be 1b4a 5ebf fc59 19be e6cc 6fbe
00000020: eb3d f7bd dd43 6fbe edd8 f1be 57e6 f0bd
00000030: ab37 17bf 0395 24be 8d26 193f 4ec5 213f
00000040: 273f a2be 01bf bcbe 5c6f 2bbf 02c2 83be
00000050: 4da7 98bd e69c ed3e 1e67 933c dfa1 2e3f
00000060: 996c 8bbf 4419 1dbf c720 05bf 7ea2 11be
00000070: ef84 fbbe 715a adbd 7894 07bf a1fc b0be
00000080: 4f40 023e 4528 84be 47c7 20bf cc52 bfbe
00000090: c2f4 61be 0c05 49be 1867 193b 18a7 d83c
000000a0: 8e95 1ebf 46cf dc3e ac37 81bf 5975 52be
000000b0: f92f 6abe 69a0 473f a4d9 4dbf e958 5abe
000000c0: 0f86 18bf 094b c2be 5a5a 4ebe 05f0 743e
000000d0: 55c7 96be e274 e2be a47b 6cbf d5a4 dabe
000000e0: 9a2c 8bbf 0d75 4f3e 984a 58bf cecb 8cbd
000000f0: 13fd 10bf 5dba 0ebf a46d e1be 02aa 59be
00000100: 162b 9a3d 0862 98bf ce20 3abf 2da9 1abf
00000110: 6f95 073d ebc1 79be ace6 96bd a792 02bf
00000120: aea4 103e 6f41 12bf 294e 273f a838 69be
00000130: 02b3 c13d b97b bebe 10dc 1fbe b17a 02bf
00000140: 9645 29bf 1004 363f 08bc 883e c183 063d
00000150: ae63 eebe 9d4d 3abf fc89 babe 373f 37bf
00000160: 97c5 12bf 0deb 2ebf daec eabe a361 be3c
00000170: 99de d53e 0904 2ebf 742e c2be f661 23be
00000180: 570e 99be 49cc a8be 076b 89be beda 153e
00000190: 8882 143e 6ad6 57be 2be1 763e dcc8 f8be
000001a0: 8006 91be 5db5 abbe 9066 9fbe 8fbf 20be
000001b0: b229 9dbe 15cc 033f dbeb 103f 6567 213f
000001c0: c2d8 c9bd 0cba d83e 9c46 78bf 5c97 62bf
000001d0: 0c52 35bd 6335 38bf 5e0d 7bbf bb7f 14bf
000001e0: ef93 1ebf ea32 45bf fedd 53bf 3bfb 3e3f
000001f0: d122 a3be 8d71 24bf 1a5e 0e3d efaf d13e

network.2.weight f4 [64, 128]
-0.5629036 0.23321916 -0.479154 -0.3740287 -0.62662643 -0.3729362 -0.033153053 -0.30039126
0.24603298 -1.1540712 -0.71046954 0.3586388 -0.60883963 0.4802037 0.11452887 0.30213046
0.04718578 -0.4384328 -0.44010973 -0.41916814 -0.07378667 0.24951227 0.6723503 0.69289196
0.16090995 -0.21458176 0.20596218 0.09986465 -0.43400145 0.58718395 -0.26314512 0.33161706
0.69399816 -0.07686294 -0.23570463 -0.816622 -0.023558306 -0.38836575 0.73192644 0.110944495
-0.33237952 0.08892669 0.40999594 -0.42558107 -0.20270678 0.15322171 -0.36403894 0.15993184
-0.58664364 -0.80674565 -0.019717101 -0.107532114 0.10753329 -0.63844067 -0.4117027 -0.39297915
0.004376529 0.23807415 -0.29358616 -0.19958796 0.062049087 -0.14341326 -0.18666586 -0.8586614
0.53236043 -0.23922342 -0.45814484 -0.3267038 -0.61320096 1.0117902 -0.486525 -0.73584574
0.043791145 -0.32015544 0.5708141 0.27309358 -0.11049554 0.112261266 -0.28753367 -0.68085325
-0.39387757 0.3601755 0.17371278 -0.73015964 -0.2776509 -0.211231 -0.25715986 0.040312186
-0.5501585 -0.23891516 -0.31513906 -0.050045013 0.10026857 -0.29993752 -0.5112391 -0.5250334
-0.19812067 -0.28990045 -0.053541504 -0.08738811 -0.020628694 -0.16234411 -0.2565727 -0.6451882
-0.45438793 0.35569984 -0.31077084 0.5070525 -0.28555018 0.4206929 0.3125809 -0.15459374
-0.13550217 -0.0018510185 0.41187173 -0.3941601 0.12678201 -0.23043135 0.4119309 0.3238015
-0.28511775 -0.3237672 -0.6252736 0.66155994 -0.75262594 -0.41825733 0.19457676 0.12574244
-0.22713001 -0.12837143 -0.70521754 0.05949588 0.01244446 0.006633126 -0.8924886 -0.048006557
0.09282687 0.22394165 0.3517287 0.19761883 0.4984598 0.025094533 -0.31044114 -0.24598898
0.60378176 -0.19191015 0.8574294 -0.123198085 0.05016924 -0.4128071 -0.13066845 -0.116374396
0.5614119 -0.033681028 -1.2207632 0.43603015 0.3505084 -0.020113673 -0.120707825 0.2681361
-0.8761057 0.39218977 -0.018552404 0.29329354 -0.34372562 0.5377697 -0.30387896 0.039152633
0.3646431 -0.52970266 0.09981669 0.026951905 0.057635516 -0.5695156 0.46446753 0.24343975
-0.5279474 -0.077396825 0.41197148 0.56943506 -0.4423937 0.16860342 -0.62035763 0.0416205
-0.75727654 -0.028379811 0.065692745 0.19142243 -0.2647678 -0.55989265 -0.3060693 0.26085803
-0.1421907 0.84954214 -0.27307576 -1.0682474 0.23987268 -0.091088295 0.14859286 0.7003018
-0.25518918 -0.08413438 0.1733631 0.18946274 0.121023424 -0.23525532 0.28048602 -1.0724454
-0.7283025 -0.5741875 0.21743818 0.06919412 0.69574004 -0.05127827 0.17072183 0.6025969
-0.7371221 0.20014897 0.24025975 0.10107843 -0.36898443 -0.29334575 0.06839039 0.39904577
0.061399072 0.37129378 0.101331145 -1.4311371 -0.04519529 -0.008730388 -0.1371023 0.3001973
0.18469079 -1.3795593 -0.09300222 -0.06960742 0.121562585 -0.6038663 -0.39572307 0.04023419
0.25919047 -0.5311798 0.35920388 0.5147028 -0.8727368 0.15005614 0.20805888 0.31587
0.37385243 0.22042857 -0.35209608 -0.016416145 0.4141165 0.4937123 -0.6907489 0.49920937
00000000: 731a 10bf 01d1 6e3e ac53 f5be b180 bfbe
00000010: 976a 20bf 7ef1 bebe 7fcb 07bd e2cc 99be
00000020: 12f0 7b3e 9bb8 93bf 55e1 35bf 819f b73e
00000030: eadc 1bbf 42dd f53e 1d8e ea3d d8b0 9a3e
00000040: e045 413d 447a e0be 1056 e1be 359d d6be
00000050: 771d 97bd 2580 7f3e 261f 2c3f 5e61 313f
00000060: 94c5 243e 52bb 5bbe c0e7 523e d685 cc3d
00000070: 7035 debe b051 163f f5ba 86be b6c9 a93e
00000080: dda9 313f 516a 9dbd 8e5c 71be 240e 51bf
00000090: 59fd c0bc e0d7 c6be 885f 3b3f de36 e33d
000000a0: a62d aabe 321f b63d fdea d13e c3e5 d9be
000000b0: 5e92 4fbe 27e6 1c3e 5063 babe 2cc5 233e
000000c0: 472e 16bf e286 4ebf c285 a1bc cc39 dcbd
000000d0: 6a3a dc3d d970 23bf b2ca d2be 9034 c9be
000000e0: fc68 8f3b b6c9 733e ed50 96be c960 4cbe
000000f0: 2f27 7e3d edda 12be 5625 3fbe 3cd1 5bbf
00000100: c648 083f fcf6 74be f691 eabe b845 a7be
00000110: bdfa 1cbf 5782 813f ce19 f9be 6360 3cbf
00000120: 585e 333d 6aeb a3be df20 123f ecd2 8b3e
00000130: 7c4b e2bd 3ce9 e53d 9d37 93be 664c 2ebf
00000140: 52aa c9be ec68 b83e c3e1 313e beeb 3abf
00000150: 4228 8ebe f04c 58be 75aa 83be 641e 253d
00000160: 30d7 0cbf 2da6 74be e859 a1be 00fc 4cbd
00000170: 9c59 cd3d 6991 99be 91e0 02bf 9768 06bf
00000180: 25e0 4abe d56d 94be 564e 5bbd 8af8 b2bd
00000190: 82fd a8bc 893d 26be 7f5d 83be 0e2b 25bf
000001a0: 89a5 e8be 4a1e b63e 5b1d 9fbe 31ce 013f
000001b0: a233 92be 0f65 d73e 9b0a a03e d24d 1ebe
000001c0: 15c1 0abe e09d f2ba dae0 d23e 5acf c9be
000001d0: 25d3 013e 32f6 6bbe 9be8 d23e 4fc9 a53e
000001e0: f4fa 91be d0c4 a5be ee11 20bf fe5b 293f
000001f0: 18ac 40bf d325 d6be 213f 473e a0c2 003e
00000200: c594 68be cd73 03be 2389 34bf f4b1 733d
00000210: d9e3 4b3c b25a d93b 227a 64bf 86a2 44bd
00000220: 041c be3d f650 653e c915 b43e 975c 4a3e
00000230: 1f36 ff3e 0d93 cd3c 24f2 9ebe 89e4 7bbe
00000240: 7191 1a3f 1884 44be 7e80 5b3f 474f fcbd
00000250: 437e 4d3d 745b d3be f3cd 05be b355 eebd
00000260: b1b8 0f3f 1ef5 09bd f841 9cbf 583f df3e
00000270: d675 b33e 6ec5 a4bc aa35 f7bd 2349 893e
00000280: 7748 60bf 19cd c83e 36fb 97bc 922a 963e
00000290: cefc afbe 46ab 093f 0696 9bbe 835e 203d
000002a0: 80b2 ba3e 989a 07bf b16c cc3d 3eca dc3c
000002b0: 3813 6c3d c6cb 11bf b0ce ed3e 4548 793e
000002c0: 9027 07bf 3a82 9ebd eded d23e 7fc6 113f
000002d0: 6d81 e2be 60a6 2c3e c2cf 1ebf 427a 2a3d
000002e0: e0dc 41bf c77c e8bc eb89 863d 3e04 443e
000002f0: a58f 87be 2055 0fbf 1eb5 9cbe 2f8f 853e
00000300: 709a 11be 987b 593f 96d0 8bbe 55bc 88bf
00000310: 2fa1 753e 808c babd ba28 183e fb46 333f
00000320: 28a8 82be a54e acbd 1986 313e 8502 423e
00000330: 21db f73d c5e6 70be dd9b 8f3e e445 89bf
00000340: 0872 3abf f4fd 12bf 1da8 5e3e a6b5 8d3d
00000350: 051c 323f 2a09 52bd b4d1 2e3e ca43 1a3f
00000360: 09b4 3cbf daf3 4c3e a706 763e 3502 cf3d
00000370: 87eb bcbe 6a31 96be 4310 8c3d ba4f cc3e
00000380: 987d 7b3d 381a be3e b486 cf3d 802f b7bf
00000390: b21e 39bd e709 0fbc 8c64 0cbe 76b3 993e
000003a0: 951f 3d3e 6695 b0bf f377 bebd 568e 8ebd
000003b0: cef5 f83d fb96 1abf 379c cabe 9bcc 243d
000003c0: 9db4 843e 66fb 07bf 92e9 b73e 90c3 033f
000003d0: ae6b 5fbf 51a8 193e 630d 553e b6b9 a13e
000003e0: 9669 bf3e 07b8 613e f045 b4be 277b 86bc
000003f0: 1407 d43e dcc7 fc3e ebd4 30bf 5f98 ff3e

network.2.bias f4 [64]
-0.0354942 -0.3269518 -0.060957205 -0.06911887 -0.3229482 0.023214685 0.44210234 -0.39754808
-0.123776354 -0.42498562 -0.26944226 -0.34562495 -0.24290775 -0.8391468 0.02511487 -0.3851137
-0.21700262 -0.5806025 -0.13848501 0.00066831906 -0.05087725 -0.5681554 -0.09768974 -0.32169247
-0.2595226 0.038512085 0.1895887 -0.4945696 -0.19041407 -0.0058111823 -0.28660646 -0.07277807
-0.04725596 0.024095891 -0.11132014 -0.062116396 0.12135881 -0.027727773 0.46193424 -0.040168814
0.10699587 -0.06954808 -0.10314034 -0.13331218 -0.11789657 -0.78143823 0.28757885 -0.10648214
0.13538037 -0.51874083 -0.14753824 0.023282956 0.044562396 -0.10589412 -0.18536699 -0.26622885
-0.27844772 -0.5748864 0.31244493 -0.51897323 -0.05881429 -0.048008084 -0.3885631 -0.1558085
00000000: 5e62 11bd 3a66 a7be 43ae 79bd 328e 8dbd
00000010: 7759 a5be b92c be3c 3d5b e23e 6c8b cbbe
00000020: 757e fdbd b797 d9be 56f4 89be c1f5 b0be
00000030: cfbc 78be 53d2 56bf b3bd cd3c 9f2d c5be
00000040: ef35 5ebe 5ea2 14bf 04cf 0dbe 2232 2f3a
00000050: aa64 50bd a272 11bf 8f11 c8bd e0b4 a4be
00000060: 25e0 84be d9be 1d3d 8a23 423e 3a38 fdbe
00000070: e8fb 42be bb6b bebb 15be 92be ab0c 95bd
00000080: 778f 41bd bf64 c53c d0fb e3bd c36d 7ebd
00000090: f88a f83d 5b25 e3bc a582 ec3e 0e88 24bd
000000a0: a720 db3d 396f 8ebd 3e3b d3bd fd82 08be
000000b0: c273 f1bd 560c 48bf 893d 933e 4f13 dabd
000000c0: 27a1 0a3e 33cc 04bf 4414 17be e6bb be3c
000000d0: 0f87 363d 04df d8bd d8d0 3dbe 264f 88be
000000e0: b390 8ebe c12b 13bf c8f8 9f3e 6edb 04bf
000000f0: 41e7 70bd 20a4 44bd bef1 c6be 438c 1fbe

network.4.weight f4 [16, 64]
-0.30055106 0.2823623 0.077121325 0.096198395 -0.11278187 0.05014916 -0.35262233 0.32735595
-0.10166322 0.10664057 -0.05812346 0.43567556 -0.22105467 0.8366223 -0.027887762 0.46475497
-0.020702835 -0.0460015 0.079193614 -0.36068574 -0.09618503 0.7826204 -0.49979866 -0.28098473
0.09162299 -0.5299214 -0.107635975 0.6865093 0.07570127 0.0018257212 0.8025253 -0.4968239
0.27812135 0.05915802 0.34228596 -0.06853964 -0.5265569 -0.016369924 0.070005216 -0.022964856
-0.5430046 -0.0037855024 0.08073282 -0.016070696 -0.02890851 -0.46801227 -0.15023671 -0.086896464
-0.53648984 0.42353803 -0.07300441 -0.34473425 0.030976916 -0.2578386 -0.22617345 -0.37538192
-0.40487647 0.12173813 -0.06383483 0.32297972 -0.23531625 0.02659668 -0.28196415 -0.091351226
0.16170616 -0.20364828 -0.025734376 0.14227298 0.020209538 0.23646891 0.015634852 -0.5039705
-0.00027388427 -0.29356745 0.14600164 -0.3261511 0.74760616 -0.29655826 -0.07362536 -0.21044418
-0.35814688 0.20481214 -0.11828746 -0.0042239567 -0.09166596 -0.15331663 -0.09877944 0.34880328
-0.037718378 -0.02733779 -0.2703195 -0.60051644 -0.2455944 -0.16093263 0.19064985 0.46695635
0.117683455 0.16800924 0.16936082 0.06483543 0.108172305 -0.03672926 0.4824738 0.18158513
0.18330961 -0.03779013 0.095362045 -0.33392292 -0.07659593 0.042016562 0.22591013 -0.08245263
0.25305545 -0.035208784 -0.15574409 0.17795943 -0.054210503 -0.061226323 0.49653092 0.047072478
0.19244827 -0.6151646 -0.57672817 -0.11796937 0.5590995 0.040229317 0.12259704 0.14033961
0.57761097 -0.09108028 -0.02522904 -0.019312734 -0.51279694 0.2674368 -0.9966251 -0.33358458
-0.08674083 -0.07016584 0.0739916 -0.4569472 -0.20765063 0.21852702 -0.13345316 -0.09434948
0.104077965 -0.6473254 0.09865562 -0.2214233 -0.108135484 0.60207665 0.10884556 0.13792403
0.16362345 -0.011081036 -0.027249085 0.555082 -0.042705454 3.7215013e-05 0.6139459 -0.057690177
-0.01154091 0.006751514 -0.09921962 -0.0859214 -0.5282258 -0.19103794 -0.063869916 0.07495629
0.38706684 -0.047479063 -0.020663325 -0.07830114 0.012112559 -0.40039337 -0.007308605 0.01804025
-0.30603892 0.24800338 -0.08397036 -0.19362783 0.04730099 -0.14577505 -0.24785332 0.261009
-0.10193108 0.06655712 -0.7111877 0.106901914 -0.70386446 -0.029055735 -0.5913646 0.12848493
-0.05061528 -0.34860933 -0.025239287 0.010511255 -0.069049925 0.07577212 0.3181259 -0.21440017
-0.019476004 -0.040273882 0.108984716 0.10475218 0.3093179 -0.49974853 -0.0575875 -0.08312431
0.24554843 0.49536362 0.1006351 -0.06825093 0.07582154 0.025717208 -0.2550164 -0.082843736
0.13742588 -0.24785735 -1.229293 -0.30837092 -0.2898822 -0.026322186 -0.447293 0.0033834653
-0.19928503 0.044990674 0.7003903 -0.059343334 0.09665754 0.22803837 0.6104605 0.0968211
0.038166642 0.0853257 0.079035364 0.10823398 0.023037186 0.5157579 0.23034686 0.09712008
-0.20592524 -0.07086962 -0.13338241 -0.022931151 0.11204656 -0.23289531 0.19333363 -0.18807271
0.08248938 -0.121764384 -0.06375571 0.13498877 0.07319911 0.0028157225 0.79891247 0.17008145
00000000: d4e1 99be cb91 903e c9f1 9d3d aa03 c53d
00000010: 2efa e6bd 3569 4d3d ea8a b4be 339b a73e
00000020: ce34 d0bd 5f66 da3d dd12 6ebd de10 df3e
00000030: 285c 62be e12c 563f e074 e4bc 5df4 ed3e
00000040: fe98 a9bc 126c 3cbd 4330 a23d cdab b8be
00000050: a8fc c4bd cf59 483f 9ce5 ffbe 3bdd 8fbe
00000060: d6a4 bb3d eea8 07bf 4070 dcbd 13bf 2f3f
00000070: 4409 9b3d 0a4d ef3a 4c72 4d3f b45f febe
00000080: ec65 8e3e ae4f 723d 1b40 af3e 835e 8cbd
00000090: 6fcc 06bf 381a 86bc e55e 8f3d cb20 bcbc
000000a0: 5902 0bbf 3116 78bb 4057 a53d b1a6 83bc
000000b0: 8ad1 ecbc 4e9f efbe a7d7 19be c6f6 b1bd
000000c0: 6657 09bf fad9 d83e 5683 95bd 0281 b0be
000000d0: 4dc3 fd3c 6c03 84be 039a 67be 0f32 c0be
000000e0: f84b cfbe d751 f93d d6bb 82bd 995d a53e
000000f0: bef6 70be 48e1 d93c 9b5d 90be 5a16 bbbd
00000100: 4d96 253e 2d89 50be e6d0 d2bc 02b0 113e
00000110: 798e a53c e824 723e a914 803c 3604 01bf
00000120: 2098 8fb9 794e 96be 7481 153e 47fd a6be
00000130: 1e63 3f3f 7cd6 97be e5c8 96bd ae7e 57be
00000140: 075f b7be 46ba 513e b240 f2bd 1e69 8abb
00000150: 5dbb bbbd 09ff 1cbe e04c cabd 5896 b23e
00000160: 967e 1abd 80f3 dfbc 5167 8abe 72bb 19bf
00000170: 197d 7bbe 86cb 24be b739 433e e714 ef3e
00000180: 0604 f13d 9d0a 2c3e ec6c 2d3e 70c8 843d
00000190: 7189 dd3d 6c71 16bd ce06 f73e 74f1 393e
000001a0: 84b5 3b3e d3c9 1abd 2d4d c33d f2f7 aabe
000001b0: 54de 9cbd 8f19 2c3d fc54 673e eddc a8bd
000001c0: 7c90 813e 1637 10bd 617b 1fbe ff3a 363e
000001d0: d50b 5ebd 74c8 7abd 4d39 fe3e 12cf 403d
000001e0: 2911 453e 6d7b 1dbf 75a4 13bf ed99 f1bd
000001f0: 2521 0f3f 7fc7 243d 2814 fb3d 30b5 0f3e
00000200: 50de 133f 4c88 babd 22ad cebc bd35 9ebc
00000210: a946 03bf 7aed 883e d322 7fbf 99cb aabe
00000220: 2da5 b1bd 1cb3 8fbd e888 973d fcf4 e9be
00000230: 5ea2 54be 8cc5 5f3e f2a7 08be 4d3a c1bd
00000240: d426 d53d 1eb7 25bf f50b ca3d cabc 62be
00000250: 2376 ddbd b221 1a3f 6cea de3d f53b 0d3e
00000260: e88c 273e 3c8d 35bc 7939 dfbc db19 0e3f
00000270: eaeb 2ebd 5117 1c38 8f2b 1d3f 894c 6cbd
00000280: 1616 3dbc ce3b dd3b a833 cbbd 8ff7 afbd
00000290: ce39 07bf 739f 43be 3bce 82bd af82 993d
000002a0: a02d c63e 6879 42bd 2246 a9bc 595c a0bd
000002b0: c173 463c 5c00 cdbe 067d efbb 25c9 933c
000002c0: 22b1 9cbe 99f4 7d3e a7f8 abbd 6046 46be
000002d0: afbe 413d 0e46 15be 43cd 7dbe f9a2 853e
000002e0: 3ec1 d0bd 194f 883d 6610 36bf 64ef da3d
000002f0: 7630 34bf 4b06 eebc ac63 17bf 8e91 033e
00000300: f851 4fbd ec7c b2be 9fc2 cebc 6637 2c3c
00000310: 0c6a 8dbd 6a2e 9b3d 66e1 a23e b88b 5bbe
00000320: 248c 9fbc 3af6 24bd 6133 df3d 5088 d63d
00000330: ea5e 9e3e 0adf ffbe dfe0 6bbd 143d aabd
00000340: 0c71 7b3e 4da0 fd3e c619 ce3d 25c7 8bbd
00000350: 5348 9b3d e5ac d23c 8291 82be faa9 a9bd
00000360: 5fb9 0c3e 51ce 7dbe 7959 9dbf cbe2 9dbe
00000370: 716b 94be a0a1 d7bc 9703 e5be 21bd 5d3b
00000380: 6011 4cbe 2448 383d c74c 333f ff11 73bd
00000390: 63f4 c53d e482 693e 2447 1c3f 244a c63d
000003a0: a054 1c3d 3ebf ae3d 4bdd a13d c7a9 dd3d
000003b0: 7bb8 bc3c b608 043f 0ce0 6b3e e4e6 c63d
000003c0: 11de 52be 1724 91bd 6695 08be 1cda bbbc
000003d0: ab78 e53d 1c7c 6ebe 40f9 453e 2296 40be
000003e0: 31f0 a83d 9b5f f9bd 5b92 82bd 7f3a 0a3e
000003f0: 6ae9 953d fc87 383b 8785 4c3f d529 2e3e

network.4.bias f4 [16]
-0.7624503 -0.34535098 0.35391605 -0.01129713 -0.12692943 -0.48915064 -0.16741493 -0.12545876
0.1570122 0.08557779 -0.29603148 -0.7042393 -0.3737278 -0.33895496 -0.07971314 0.18111083
00000000: f12f 43bf d8d1 b0be 7c34 b53e 9917 39bc
00000010: caf9 01be f471 fabe d26e 2bbe 4378 00be
00000020: cec7 203e 6943 af3d 7091 97be 0749 34bf
00000030: 4059 bfbe 818b adbe a540 a3bd 1e75 393e

network.6.weight f4 [2, 16]
-0.36149794 0.29643112 -0.23662187 0.143932 0.56947625 -0.15495692 0.39650282 -0.06305582
0.46667942 0.784531 -0.22795935 -0.020392546 0.061236292 -0.33671984 0.31284285 0.25866354
0.08196817 0.16139416 0.32293016 -0.35205886 -0.7166816 0.05972891 -0.406181 0.043563124
-0.32340592 -0.79371214 0.3163284 0.453147 0.30717957 0.10048006 -0.399484 -0.23671994
00000000: 4216 b9be d2c5 973e 014d 72be e962 133e
00000010: 32c9 113f 07ad 1ebe 6b02 cb3e 6923 81bd
00000020: 9bf0 ee3e 06d7 483f 2d6e 69be 450e a7bc
00000030: e8d2 7a3d 8b66 acbe f02c a03e 8c6f 843e
00000040: eede a73d 8344 253e 1a57 a53e 0f41 b4be
00000050: 7278 37bf 4da6 743d f5f6 cfbe 3f6f 323d
00000060: 7695 a5be b830 4bbf ccf5 a13e e202 e83e
00000070: a446 9d3e 7dc8 cd3d 2b89 ccbe b666 72be

network.6.bias f4 [2]
0.13248406 -0.1781378
00000000: e7a9 073e c169 36be
