models/heloc/rs/sgd_epochs20_lr0.1_batch64_dropout0/bezier_670.pth (torch, 105195 bytes, 19 tensors)

coeff_layer.binom f4 [2]
1.0 1.0
00000000: 0000 803f 0000 803f

coeff_layer.range f4 [2]
0.0 1.0
00000000: 0000 0000 0000 803f

coeff_layer.rev_range f4 [2]
1.0 0.0
00000000: 0000 803f 0000 0000

net.network.0.weight_0 f4 [128, 23]
0.0042316914 -0.17198071 0.13912472 -0.041872438 -0.1863924 0.19098873 0.17694439 -0.12822026
0.039353248 -0.08289071 0.1103344 0.16762775 0.091284454 -0.03949568 -0.011576769 -0.024076816
-0.073033795 -0.17054656 -0.17712322 0.024284555 0.10581442 -0.12855469 0.032226548 0.24559994
-0.054297794 0.082580924 0.14113438 -0.058188163 -0.051716954 0.051246766 -0.1299308 -0.113765895
0.18290272 0.12840672 0.055678766 0.16776688 0.04605756 0.071976975 -0.15236165 0.16286004
0.012924384 -0.087056935 0.14964227 -0.20677763 -0.12158366 0.14863439 0.18766144 -0.05970389
0.20189989 0.12353936 -0.17875136 -0.089204825 0.19676976 -0.034679476 -0.15770403 0.20043738
0.1153025 0.019639205 -0.06978654 -0.1551712 0.13199729 -0.15110916 0.055932973 0.073466025
-0.16332707 0.12781033 0.037305653 0.06749914 0.196704 -0.00628249 -0.098027736 0.041331474
-0.13434644 -0.20944636 -0.11439053 0.12879786 0.0026745414 0.07228185 0.1684957 -0.0953574
0.047307186 0.04750737 -0.060781665 0.14023867 -0.07096264 0.13536018 -0.16785473 -0.1812332
0.013377325 -0.07452239 0.04682037 -0.07751937 -0.096168004 0.2015704 -0.012601528 -0.0052022077
0.11724822 -0.07110769 0.1390236 -0.18703787 0.12937877 -0.061939385 -0.18579039 -0.16377504
0.17610346 -0.16736321 0.18082264 0.058436092 -0.15062149 -0.010965152 0.1781186 0.033984657
0.08661906 -0.07103805 0.14627464 -0.048198372 -0.08114863 0.16866052 -0.09075497 -0.17120785
-0.1468137 -0.13965057 -0.177655 -0.1384171 0.22807817 0.027034946 -0.008816407 0.15912464
0.030519543 0.2072599 0.087983474 -0.005445139 0.123822145 0.022840336 -0.08506194 -0.0133759165
-0.15579651 0.03238176 0.21421598 0.18709677 0.093845926 0.17056306 0.14677788 0.024116635
-0.11935958 0.19996792 -0.09985775 0.23828158 0.014394721 0.17338915 -0.08612873 -0.03753917
0.17977193 0.08053244 0.0793606 -0.117322415 -0.081756674 -0.06284473 0.106922515 -0.10333021
0.0145313395 -0.14930107 0.15671085 0.075014055 0.19611593 0.033665307 0.08302725 -0.13396086
0.21919379 0.048853084 0.12091138 0.08302293 -0.16486411 0.18769422 -0.10556452 0.0059732962
0.13431656 0.1403549 -0.105632335 -0.01316367 -0.027713126 -0.09896517 0.19049671 -0.14846876
0.061513137 -0.14603652 -0.16172762 -0.21242245 0.120251365 0.0019288668 0.15427212 0.034038022
-0.16123474 -0.09927136 0.092769206 -0.16562383 -0.09105282 0.18954588 -0.05656646 -0.1681281
0.055818785 0.22579323 -0.056011114 0.11694952 -0.058656074 0.14533804 -0.0028137672 0.11523724
-0.010013813 0.16364391 0.18249018 -0.170266 0.17349268 -0.07084119 -0.17855038 0.15859658
-0.12821105 -0.07585517 0.10193905 -0.0812631 0.08060079 0.05729763 -0.05937926 0.12531292
0.16250575 -0.043479804 0.17304815 -0.020187708 -0.034770634 -0.1967139 -0.15449469 0.15572615
-0.0005727413 0.16738406 0.076664485 0.0046170303 -0.12878671 -0.16957115 -0.14078218 0.083323024
-0.020452032 -0.0909122 0.004079606 -0.20789316 0.18113835 0.02584632 0.00028041427 0.11122382
-0.09837954 -0.006621098 0.07371886 0.035586316 -0.05482389 -0.0634086 -0.108630694 -0.20474494
00000000: 00aa 8a3b b61b 30be b676 0e3e 6f82 2bbd
00000010: a6dd 3ebe 8d92 433e e930 353e 2c4c 03be
00000020: df30 213d 9bc2 a9bd 00f7 e13d 9ca6 2b3e
00000030: 58f3 ba3d 39c6 21bd 7dac 3dbc be3c c5bc
00000040: be92 95bd c2a3 2ebe ca5f 35be 67f0 c63c
00000050: 3bb5 d83d d7a3 03be fcff 033d 8d7e 7b3e
00000060: 5d67 5ebd 3020 a93d 8885 103e b656 6ebd
00000070: 28d5 53bd 21e8 513d 940c 05be 18fe e8bd
00000080: da4a 3b3e 0d7d 033e 6b0f 643d 15cb 2b3e
00000090: daa6 3c3d aa68 933d b104 1cbe c8c4 263e
000000a0: ccc0 533c e84a b2bd d33b 193e 84bd 53be
000000b0: db00 f9bd 9d33 183e 522a 403e 118c 74bd
000000c0: d8be 4e3e 3402 fd3d 990a 37be 05b1 b6bd
000000d0: 037e 493e 110c 0ebd 2a7d 21be 753f 4d3e
000000e0: b823 ec3d 66e2 a03c 3fec 8ebd 33e5 1ebe
000000f0: 4c2a 073e 5cbc 1abe f919 653d 5b75 963d
00000100: 363f 27be b6e0 023e d0cd 183d fd3c 8a3d
00000110: c66c 493e 59dd cdbb c4c2 c8bd 314b 293d
00000120: 1d92 09be 1b79 56be 9545 eabd 96e3 033e
00000130: 5c47 2f3b 8208 943d 238a 2c3e be4a c3bd
00000140: 2ec5 413d 1797 423d 32f6 78bd ba9a 0f3e
00000150: dc54 91bd dc9b 0a3e 1ce2 2bbe 3295 39be
00000160: 912c 5b3c 329f 98bd b7c6 3f3d 7ac2 9ebd
00000170: bbf3 c4bd 7968 4e3e a476 4ebc 4877 aabb
00000180: d61f f03d e9a0 91bd 345c 0e3e db86 3fbe
00000190: de7b 043e 27b4 7dbd d63f 3ebe a5b4 27be
000001a0: 7754 343e 4361 2bbe 9229 393e af5a 6f3d
000001b0: 853c 1abe 2ea7 33bc b964 363e 7f33 0b3d
000001c0: 5565 b13d 667c 91bd 05c9 153e a86b 45bd
000001d0: 4131 a6bd 58b5 2c3e bedd b9bd 1c51 2fbe
000001e0: 5556 16be 8f00 0fbe 31eb 35be 36bd 0dbe
000001f0: 538d 693e 6478 dd3c b172 10bc 92f1 223e
00000200: 1f04 fa3c f03b 543e ae30 b43d 236d b2bb
00000210: 7796 fd3d a81b bb3c f434 aebd a926 5bbc
00000220: 1f89 1fbe bda2 043d 6f5b 5b3e 4c96 3f3e
00000230: 4b32 c03d 15a8 2e3e f14c 163e 4090 c53c
00000240: cc72 f4bd 64c4 4c3e 3882 ccbd 1600 743e
00000250: d6d7 6b3c ed8c 313e 4264 b0bd acc2 19bd
00000260: 2216 383e 31ee a43d cf87 a23d bc46 f0bd
00000270: 0b70 a7bd bdb4 80bd 31fa da3d ca9e d3bd
00000280: db14 6e3c 61e2 18be cf78 203e f8a0 993d
00000290: 9dd2 483e a2e4 093d 310a aa3d 092d 09be
000002a0: 5674 603e 2c1a 483d 63a0 f73d ed07 aa3d
000002b0: 23d2 28be ea32 403e 3632 d8bd a4bb c33b
000002c0: 488a 093e 32b9 0f3e c455 d8bd 6fac 57bc
000002d0: a306 e3bc 40ae cabd 9211 433e 3208 18be
000002e0: 33f5 7b3d 998a 15be ed9b 25be 4585 59be
000002f0: 5946 f63d 08d2 fc3a 83f9 1d3e 746b 0b3d
00000300: b81a 25be c84e cbbd c8fd bd3d 4b99 29be
00000310: e779 babd 5118 423e 3bb2 67bd c629 2cbe
00000320: 3da2 643d 5736 673e e96b 65bd 3b83 ef3d
00000330: 5a41 70bd 7fd3 143e 2e67 38bb 8101 ec3d
00000340: fa10 24bc 4592 273e b5de 3a3e 365a 2ebe
00000350: 11a8 313e 3015 91bd e9d5 36be 2467 223e
00000360: c249 03be f559 9bbd 6cc5 d03d 456d a6bd
00000370: 0712 a53d ebb0 6a3d ab37 73bd 0852 003e
00000380: e867 263e e117 32bd 8933 313e b160 a5bc
00000390: a76b 0ebd 5e6f 49be db33 1ebe ad76 1f3e
000003a0: 0524 16ba ba66 2b3e 4502 9d3d 754a 973b
000003b0: aae0 03be 0fa4 2dbe 3429 10be 43a5 aa3d
000003c0: 058b a7bc 2d30 babd 37ae 853b f2e1 54be
000003d0: 557c 393e a9bb d33c 9104 9339 50c9 e33d
000003e0: 367b c9bd ccf5 d8bb eaf9 963d f5c2 113d
000003f0: 048f 60bd 5edc 81bd c579 debd a8a8 51be

net.network.0.weight_1 f4 [128, 23]
-0.11751671 0.09606745 0.20681918 -0.18073544 -0.16899736 -0.10147347 0.054420874 -0.0790447
-0.115112655 -0.13660426 0.18866996 -0.18317725 -0.0488918 0.06027707 0.15752141 -0.034444813
0.07563119 0.10608947 0.14094236 -0.14897825 0.17428339 -0.11315486 -0.18306713 -0.13710421
0.09833357 0.0055009313 -0.16838892 0.14469303 0.07494314 0.073915295 0.18084623 0.18074161
-0.004324946 0.2231773 0.017549023 0.09258334 -0.09259414 -0.055315707 -0.17821153 0.17665525
0.111893274 -0.1070049 -0.05949385 -0.15719676 -0.009602095 -0.06364275 -0.07660378 -0.02722371
0.19936228 0.13773827 0.14007558 -0.16520745 0.14825922 0.01942395 0.11811025 -0.05874191
-0.04459728 -0.054104734 0.18991847 0.17657469 -0.05215902 -0.026864076 0.20231557 0.17607541
-0.011235279 0.18436994 0.05231564 -0.16856769 0.052948285 0.22509968 0.10609485 0.097777426
0.114016265 0.1843299 0.17512761 0.06274255 0.1831925 -0.10150168 0.11333519 -0.043410264
-0.08283923 -0.035290085 0.020949218 -0.062381595 0.17034781 -0.055777397 0.12131439 0.074419364
-0.1431736 0.100404054 0.17727168 -0.089251585 0.17650555 0.032785054 -0.0821081 0.17001632
-0.0065674074 -0.09488746 0.0769056 -0.043881364 -0.069526784 0.14154391 0.03752586 0.16857176
-0.091411814 -0.14193808 -0.043016788 0.10843824 -0.095418625 0.10814925 0.014469672 0.05248261
0.08676834 0.110489786 0.111343354 0.174565 0.13721557 0.14062892 0.12341648 0.041678894
-0.11197816 -0.030118553 -0.08756254 -0.0339649 0.13327442 0.002505836 0.12805806 0.19889118
-0.19070981 0.037155103 0.18737438 0.043828856 -0.058306023 -0.12183025 0.16870105 -0.20264366
-0.016410775 0.14651486 0.19162475 -0.182045 0.15428331 0.08277072 0.123896755 -0.027014114
0.06611201 0.15033618 -0.18975386 0.22929972 0.12164514 -0.17687778 -0.1775217 0.1412991
0.2144939 -0.050912283 0.15577753 0.015617508 0.17072605 -0.10978834 -0.071568355 0.056715813
0.1625062 -0.041846443 -0.10771208 -0.05937336 0.17664564 0.060192637 -0.0850044 0.14571328
0.16076261 -0.19642422 0.12445515 0.19158709 0.018888187 -0.075782895 -0.15604451 0.16568297
0.15375374 -0.2032113 -0.18293267 0.058341593 0.06627384 0.07049063 -0.21031658 -0.1685999
-0.17423812 -0.0463928 0.092204645 -0.05528806 -0.007713599 -0.15613958 -0.17363583 -0.22514494
-0.080165856 -0.16663256 -0.17030172 -0.077353776 0.070109054 0.0054444517 -0.09223688 0.12833609
-0.14603595 0.21401677 0.17611533 -0.099663995 -0.023877995 0.15118487 0.18528531 -0.025624115
-0.20026535 -0.061812744 -0.09175152 -0.14148083 0.06359545 -0.052743305 0.1699338 0.08275656
0.17393355 -0.1253013 -0.1900277 -0.1438327 -0.17609479 -0.1674756 0.13618414 0.09717681
0.027191222 -0.012189115 0.065969795 0.043317236 0.19419198 -0.012821733 -0.18827349 0.087404385
-0.07081657 0.16051571 0.116829954 0.061890095 -0.10749078 -0.15251757 -0.15652187 0.14108606
-0.17560834 -0.12179385 -0.08336583 0.12095368 0.09275877 -0.068642735 -0.17956547 -0.07371785
0.111919254 0.1682855 -0.22067834 0.11668199 0.09422573 0.16451089 -0.20638119 -0.10960391
00000000: 9aac f0bd 03bf c43d 68c8 533e b612 39be
00000010: a50d 2dbe 53d1 cfbd 6ce8 5e3d 30e2 a1bd
00000020: 2fc0 ebbd fde1 0bbe b332 413e d192 3bbe
00000030: c542 48bd 17e5 763d 4b4d 213e 0116 0dbd
00000040: 86e4 9a3d 7045 d93d 3253 103e c18d 18be
00000050: 5877 323e bcbd e7bd f375 3bbe 0c65 0cbe
00000060: 1c63 c93d 2841 b43b 256e 2cbe 692a 143e
00000070: ca7b 993d e760 973d c12f 393e 5414 393e
00000080: 47b8 8dbb 9788 643e f8c2 8f3c 569c bd3d
00000090: ffa1 bdbd b992 62bd 157d 36be 1de5 343e
000000a0: 4d28 e53d 6325 dbbd d3af 73bd 30f8 20be
000000b0: 1b52 1dbc 2157 82bd 71e2 9cbd 4204 dfbc
000000c0: a025 4c3e 430b 0d3e f96f 0f3e 242c 29be
000000d0: 44d1 173e fa1e 9f3c c9e3 f13d 5b9b 70bd
000000e0: a3ab 36bd ed9c 5dbd fd79 423e ffcf 343e
000000f0: b2a4 55bd 0d12 dcbc d02b 4f3e 1d4d 343e
00000100: 2d14 38bc 79cb 3c3e ed48 563d 029d 2cbe
00000110: 4de0 583d 8880 663e 4248 d93d 883f c83d
00000120: 5c81 e93d fac0 3c3e a754 333e 2b7f 803d
00000130: d196 3b3e 1de0 cfbd 481c e83d f6ce 31bd
00000140: 9da7 a9bd 568c 10bd b29d ab3c d883 7fbd
00000150: a86f 2e3e d776 64bd ae73 f83d 2e69 983d
00000160: 1a9c 12be a4a0 cd3d b586 353e 89c9 b6bd
00000170: dfbd 343e 9f49 063d 4b28 a8bd c218 2e3e
00000180: 6833 d7bb 5b54 c2bd af80 9d3d f2bc 33bd
00000190: 0f64 8ebd e3f0 103e b7b4 193d 139e 2c3e
000001a0: 1e36 bbbd 3758 11be 5f32 30bd de14 de3d
000001b0: d76a c3bd 5b7d dd3d 3412 6d3c 01f8 563d
000001c0: 99b3 b13d 7848 e23d fc07 e43d 2bc1 323e
000001d0: 3d82 0c3e 0701 103e c8c1 fc3d 7db7 2a3d
000001e0: ce54 e5bd 2fbb f6bc fd53 b3bd c71e 0bbd
000001f0: 1779 083e f438 243b a721 033e 21aa 4b3e
00000200: 6f49 43be f32f 183d 12df 3f3e e385 333d
00000210: 4cd2 6ebd 2382 f9bd f8bf 2c3e d281 4fbe
00000220: e46f 86bc fe07 163e 4739 443e 016a 3abe
00000230: 72fc 1d3e b283 a93d 95bd fd3d b44c ddbc
00000240: bc65 873d baf1 193e d64e 42be 8ccd 6a3e
00000250: 1621 f93d 731f 35be 40c8 35be b6b0 103e
00000260: 4aa4 5b3e 6689 50bd 2584 1f3e 94e0 7f3c
00000270: cfd2 2e3e b6d8 e0bd 6e92 92bd d74e 683d
00000280: 0668 263e 2d67 2bbd 2798 dcbd 7b31 73bd
00000290: 98e2 343e 8e8c 763d c916 aebd dd35 153e
000002a0: f49e 243e 6e23 49be 57e2 fe3d 682f 443e
000002b0: 66bb 9a3c 1034 9bbd 22ca 1fbe cca8 293e
000002c0: 9f71 1d3e 9f16 50be b452 3bbe 98f7 6e3d
000002d0: 94ba 873d 645d 903d 3b5d 57be 74a5 2cbe
000002e0: 7a6b 32be 6006 3ebd cad5 bc3d bc75 62bd
000002f0: 5cc2 fcbb 0ee3 1fbe 97cd 31be 658c 66be
00000300: ff2d a4bd baa1 2abe 9363 2ebe a86b 9ebd
00000310: 5695 8f3d 5f67 b23b b0e6 bcbd 896a 033e
00000320: 738a 15be 3627 5b3e 9457 343e a31c ccbd
00000330: c99b c3bc 35d0 1a3e 6fbb 3d3e aae9 d1bc
00000340: 5c12 4dbe 5c2f 7dbd 39e8 bbbd 5ae0 10be
00000350: 553e 823d 5d09 58bd 2003 2e3e 457c a93d
00000360: a31b 323e fc4e 00be 9f96 42be e148 13be
00000370: 3152 34be b97e 2bbe db73 0b3e a304 c73d
00000380: 20c0 de3c dbb4 47bc 2c1b 873d 6a6d 313d
00000390: 43da 463e 3f12 52bc c4ca 40be 1201 b33d
000003a0: 4708 91bd 3b5e 243e 8b44 ef3d 7880 7d3d
000003b0: 2024 dcbd 912d 1cbe 4547 20be dd78 103e
000003c0: acd2 33be 0e6f f9bd b4bb aabd 90b6 f73d
000003d0: 4ff8 bd3d 9094 8cbd 03e0 37be 62f9 96bd
000003e0: ec35 e53d 0953 2c3e 81f9 61be f8f6 ee3d
000003f0: 6bf9 c03d 8b75 283e 9755 53be 0478 e0bd

net.network.0.bias_0 f4 [128]
0.058927346 0.0880863 -0.09368394 -0.15351065 0.1980145 0.16573101 0.14449258 -0.17437671
-0.076578856 0.030474886 0.19196822 0.08091978 -0.12598217 0.083687596 -0.113733724 0.00038175087
0.18656327 -0.17612557 -0.080743305 0.09325164 0.123978265 -0.06277677 0.025094058 0.19544165
0.19357213 0.14870751 0.17905937 -0.15818936 -0.18379289 -0.059329033 -0.16291025 -0.1884954
0.08463721 0.13578361 -0.18682277 -0.19480582 0.15187949 -0.01058977 0.041647825 0.022882132
-0.19015896 -0.12799472 0.07947114 -0.044962347 -0.17732316 0.089197665 0.107614376 0.080525905
-0.1711559 0.17737593 -0.17029679 0.060777295 -0.08326126 0.034796078 0.15941231 -0.1068255
-0.12441834 -0.031927552 0.07172709 -0.11518468 0.058675043 -0.18275096 0.18797733 -0.07580077
0.11398339 -0.1679588 -0.01308086 0.012241488 0.08908179 -0.18701056 0.091958575 0.04725218
0.12399375 0.21171612 0.14294344 -0.1289101 0.10309917 -0.14651124 -0.031202594 0.035765428
0.16451705 0.20343678 0.16334274 0.049548153 0.1617903 -0.02660066 -0.12644175 -0.14760116
-0.042490747 -0.10209649 0.17916805 0.007981114 -0.05635732 0.053616095 -0.18316264 0.048374046
-0.110084824 -0.023037862 0.16640288 -0.15783802 -0.030388568 -0.084636085 0.02501403 -0.20922391
0.012316558 -0.14508328 -0.11268734 -0.07424168 0.11191596 0.11552137 0.023287157 -0.045117114
0.00093762466 0.056394957 -0.14494386 0.15288866 0.11652811 0.13844018 -0.051728867 -0.09330674
0.13975106 -0.12573542 0.19713862 -0.0028800205 0.10442659 -0.11544121 0.079784736 -0.0990265
00000000: cd5d 713d 9766 b43d 5edd bfbd e531 1dbe
00000010: 50c4 4a3e 64b5 293e ddf5 133e cf8f 32be
00000020: 60d5 9cbd 78a6 f93c 5193 443e 45b9 a53d
00000030: 7801 01be 6764 ab3d 3aed e8bd bc25 c839
00000040: 710a 3f3e 435a 34be bf5c a5bd b7fa be3d
00000050: 51e8 fd3d 1b91 80bd 0e92 cd3c db21 483e
00000060: c637 463e c846 183e 575b 373e 64fc 21be
00000070: 3434 3cbe 0003 73bd f2d1 26be f004 41be
00000080: 4656 ad3d dc0a 0b3e 784e 3fbe 2d7b 47be
00000090: 4c86 1b3e b780 2dbc e996 2a3d 4f73 bb3c
000000a0: 08b9 42be 0c11 03be c4c1 a23d 702a 38bd
000000b0: 3494 35be 44ad b63d ed64 dc3d c4ea a43d
000000c0: 7e43 2fbe 09a2 353e 4862 2ebe 9df1 783d
000000d0: e184 aabd 5586 0e3d fb3c 233e 54c7 dabd
000000e0: 0bcf febd 77c6 02bd a7e5 923d f2e5 ebbd
000000f0: 3e55 703d 1123 3bbe 217d 403e 6f3d 9bbd
00000100: 2070 e93d 64fd 2bbe 1a51 56bc 8690 483c
00000110: 8370 b63d b27f 3fbe c754 bc3d 808b 413d
00000120: 6ff0 fd3d 1ccc 583e c45f 123e 0201 04be
00000130: a825 d33d 0b07 16be 959c ffbc c57e 123d
00000140: 2877 283e bb51 503e 5243 273e 01f3 4a3d
00000150: 5bac 253e a1e9 d9bc f279 01be c224 17be
00000160: c70a 2ebd f717 d1bd d477 373e 38c3 023c
00000170: efd6 66bd 8d9c 5b3d fd8e 3bbe dd23 463d
00000180: 2774 e1bd e6b9 bcbc 8465 2a3e 4aa0 21be
00000190: 72f1 f8bc af55 adbd 39ea cc3c cb3e 56be
000001a0: 63cb 493c b690 14be 9fc8 e6bd 060c 98bd
000001b0: 3234 e53d 7896 ec3d b5c4 be3c b9cc 38bd
000001c0: edca 753a 66fe 663d 2a6c 14be d88e 1c3e
000001d0: 4aa6 ee3d 43c3 0d3e a6e1 53bd 9b17 bfbd
000001e0: e71a 0f3e c9c0 00be b5de 493e babe 3cbb
000001f0: 9cdd d53d 716c ecbd 2e66 a33d 68ce cabd

net.network.0.bias_1 f4 [128]
-0.094431266 0.007429926 0.11218802 -0.15302221 0.18309161 0.14186637 -0.03955361 0.17129242
-0.15793121 0.10891473 0.16497731 0.042331595 -0.10349795 0.17337056 0.20918135 0.1160804
0.18788956 -0.1255166 0.18286937 0.13264164 0.11811198 0.0021085828 0.056296185 -0.078051694
0.12395841 0.16545299 0.14858493 -0.17193784 0.06697531 0.109662324 0.21990287 0.2156641
-0.017643793 0.085359715 -0.11766897 -0.17204502 0.036183316 0.21128145 0.016942047 0.13552096
-0.08563948 0.17497285 -0.091141015 0.13716127 -0.078057505 -0.16874768 -0.1559722 0.09024912
0.20803079 0.009871708 -0.15057273 0.15668309 -0.11431125 0.11308272 -0.08559452 -0.060235802
-0.020230642 0.19443692 -0.043013196 -0.15427248 0.1576733 0.067283355 0.018180091 -0.030624313
-0.018854974 -0.1639677 0.06478267 -0.12807137 0.09151403 -0.14154674 0.15109716 -0.09748495
-0.09367631 0.15277229 -0.09666063 -0.2022871 -0.10473149 0.09387076 0.085421935 0.082369715
0.14446978 0.22059274 0.20985177 0.1835878 -0.012880479 0.048979316 0.03571071 -0.17980686
0.064419776 0.07741624 0.025278507 -0.16396731 0.10443737 -0.16715327 0.080002904 0.13661736
-0.015169412 0.13473761 0.07693079 0.22820637 -0.1947701 0.2135647 0.054734156 0.043979622
0.04780762 -0.05506792 -0.12526464 -0.1709039 0.18393022 -0.08905418 -0.19770907 0.10418598
-0.13506 -0.09065034 -0.037503056 0.14836287 -0.17775369 -0.13674502 -0.07927624 0.18301955
-0.101210326 -0.08702849 0.019057386 -0.10490926 0.041710556 -0.14222395 0.10039497 -0.17506675
00000000: 2e65 c1bd bd76 f33b d5c2 e53d dbb1 1cbe
00000010: 5e7c 3b3e 6b45 113e f702 22bd 4867 2f3e
00000020: b8b8 21be b00e df3d d0ef 283e e563 2d3d
00000030: bcf6 d3bd 0d88 313e a333 563e 90bb ed3d
00000040: 1f66 403e 6c87 00be 1c42 3b3e 36d3 073e
00000050: b2e4 f13d 2630 0a3b d496 663d 91d9 9fbd
00000060: e8dd fd3d 826c 293e a626 183e 7910 30be
00000070: 5a2a 893d a496 e03d 382e 613e 0dd7 5c3e
00000080: b789 90bc 13d1 ae3d 6efc f0bd 922c 30be
00000090: f534 143d 2a5a 583e 0cca 8a3c 02c6 0a3e
000000a0: c063 afbd 152c 333e 24a8 babd 0174 0c3e
000000b0: 9ddc 9fbd 31cc 2cbe 2db7 1fbe 88d4 b83d
000000c0: 0606 553e f2bc 213c bd2f 1abe 8871 203e
000000d0: 041c eabd ea97 e73d 2e4c afbd d1b9 76bd
000000e0: bbba a5bc 791a 473e 9b2e 30bd 9bf9 1dbe
000000f0: 1c75 213e dbcb 893d 6aee 943c d7df fabc
00000100: bf75 9abc 26e7 27be c7ac 843d 2425 03be
00000110: b56b bb3d a1f1 10be 37b9 1a3e 31a6 c7bd
00000120: 5dd9 bfbd 5770 1c3e 02f6 c5bd 5924 4fbe
00000130: 777d d6bd 503f c03d b2f1 ae3d 74b1 a83d
00000140: e3ef 133e 10e3 613e 62e3 563e 71fe 3b3e
00000150: a508 53bc 899e 483d 6545 123d 4a1f 38be
00000160: 84ee 833d 688c 9e3d df14 cf3c 0ce7 27be
00000170: 43e3 d53d 3a2a 2bbe 90d8 a33d 6ce5 0b3e
00000180: 2089 78bc a8f8 093e e48d 9d3d eeae 693e
00000190: d071 47be b4b0 5a3e ec30 603d fa23 343d
000001a0: ecd1 433d e68e 61bd 6045 00be 6f01 2fbe
000001b0: 3458 3c3e 0a62 b6bd 3f74 4abe 765f d53d
000001c0: 2b4d 0abe e3a6 b9bd ce9c 19bd 70ec 173e
000001d0: 1005 36be e306 0cbe 955b a2bd 7a69 3b3e
000001e0: 5c47 cfbd fe3b b2bd 3c1e 9c3c abda d6bd
000001f0: b0d8 2a3d 28a3 11be e19b cd3d b344 33be

net.network.2.weight_0 f4 [64, 128]
-0.007371135 -0.07297317 0.07428235 0.07921242 -0.018239474 0.040118318 -0.03017424 0.049050085
-0.030525904 -0.023901897 -0.023846334 0.008155486 0.010945202 -0.05045235 -0.06671331 -0.04012564
0.07963705 -0.067478456 -0.080697745 -0.00623492 -0.07393686 -0.06947475 -0.04866465 0.069297455
0.045777123 -0.009987936 0.090280585 0.059751455 -0.03583762 0.07866352 0.023254605 -0.019625325
0.05092167 0.007814047 0.049921766 -0.057096545 -0.018185081 -0.0093650315 0.01345522 0.033644296
0.008591156 -0.06308509 -0.013469354 -0.0683836 0.016970836 -0.06582083 0.049202915 0.011438023
0.087417364 -0.0014298682 0.08320333 -0.009493179 -0.061530795 0.06449176 0.07532255 -0.0817617
0.06429267 0.09970597 0.0014209085 -0.07034402 -0.06840137 0.018185252 0.049375847 -0.08598486
-0.047641415 -0.07415428 -0.024374265 -0.010888762 0.006918445 -0.07451823 -0.027561402 0.05183283
-0.07217056 0.03734618 -0.0030375926 -0.037632395 0.06487686 0.050712697 -0.001045065 0.03697122
0.06344004 0.046437085 0.006688237 -0.025883023 -0.08007654 0.08400832 0.0017316735 -0.000106060594
-0.03331196 -0.022441594 0.07955973 -0.06881853 -0.030881934 -0.054459754 0.068477474 0.05143278
-0.027873332 0.033024296 0.05785277 -0.0011429538 0.027127614 -0.047002506 -0.05186063 -0.057199374
0.090407886 0.024825208 -0.04770337 0.05903313 0.09150746 -0.09581975 0.006493132 -0.06394141
-0.053107217 -0.03420588 -0.0446616 -0.008959917 0.08688754 0.012168955 0.059825532 -0.07944117
-0.04483985 0.061549507 -0.06848045 0.060387295 0.01111204 -0.06493428 -0.030492984 0.05389984
0.0750389 -0.075737596 0.07063218 -0.06283359 0.04189771 -0.059742905 0.025538174 0.08569361
-0.033771463 0.09565664 -0.030250208 0.09692822 -0.036142558 -0.065717354 -0.06359452 0.019085852
0.08432689 -0.033790942 0.05632122 -0.024988417 -0.06275627 0.062765285 0.050115734 -0.016330278
0.039761394 0.079666235 0.08196391 0.064053 -0.067434505 -0.06705335 -0.005340913 -0.014691809
0.06871751 -0.06861342 0.012075917 0.03649741 -0.025688069 0.042314578 0.000489586 -0.012593525
-0.041422743 0.012265563 0.009556637 -0.035049636 -0.0067588207 -0.046557173 -0.04842321 -0.036131643
-0.015260578 0.090979435 0.07129871 -0.013329734 0.029343076 0.046170045 0.018154008 0.011901021
0.026545985 0.029417228 0.009741667 -0.018378401 -0.021600865 -0.028200947 -0.0125941755 -0.07696972
0.01617755 0.08967219 0.06813899 0.025084438 -0.027593292 0.043285504 -0.07988224 0.07657365
-0.069174126 -0.020050861 0.03143246 -0.050562773 -0.023794748 0.017292287 -0.040630344 -0.014795057
-0.03039521 -0.016424764 0.101005584 0.0063939462 -0.015794005 0.082561746 0.02390004 0.08964628
-0.0040742983 0.009120517 0.08876681 -0.011512713 -0.009520352 -0.009277334 -0.028513113 -0.061263032
0.01447485 -0.05125164 -0.021213217 0.020178631 0.07276901 -0.010578164 0.027650842 -0.042460658
0.055989657 -0.011680998 0.09526651 -0.08228297 0.007643449 0.071229465 -0.08221581 -0.015539358
0.08208955 -0.073843375 0.025838437 -0.09156628 -0.029137736 -0.021232719 -0.03651839 0.0031158796
-0.060371157 0.012973642 0.062036272 0.0800415 -0.03550712 0.029274534 0.038986214 0.033264026
00000000: 9089 f1bb f572 95bd 5821 983d 1f3a a23d
00000010: f36a 95bc 1b53 243d f82f f7bc bee8 483d
00000020: 7611 fabc e9cd c3bc 6359 c3bc 969e 053c
00000030: 8153 333c 20a7 4ebd fda0 88bd c85a 24bd
00000040: c018 a33d 2532 8abd dc44 a5bd 4d4e ccbb
00000050: 356c 97bd c748 8ebd 9654 47bd d3eb 8d3d
00000060: cb80 3b3d 71a4 23bc 07e5 b83d f1bd 743d
00000070: 78ca 12bd 571a a13d 7180 be3c 4ac5 a0bc
00000080: 3e93 503d 7d06 003c c47a 4c3d 11de 69bd
00000090: e1f8 94bc ca6f 19bc 4873 5c3c 9ace 093d
000000a0: ecc1 0c3c c132 81bd 91ae 5cbc b30c 8cbd
000000b0: 6c06 8b3c 12cd 86bd ff88 493d 8c66 3b3c
000000c0: e007 b33d 6a6a bbba 8266 aa3d 4789 1bbc
000000d0: b707 7cbd 4214 843d b642 9a3d ae72 a7bd
000000e0: e0ab 833d a532 cc3d c73d ba3a 8710 90bd
000000f0: 0416 8cbd 3df9 943c 543e 4a3d d518 b0bd
00000100: a523 43bd 33de 97bd 8aac c7bc c766 32bc
00000110: 20b4 e23b 049d 98bd 73c8 e1bc a94e 543d
00000120: 29ce 93bd 4ff8 183d 5912 47bb 6d24 1abd
00000130: 29de 843d 1eb8 4f3d 90fa 88ba 226f 173d
00000140: daec 813d d034 3e3d 0029 db3b a208 d4bc
00000150: 2bff a3bd 8e0c ac3d 52f9 e23a d96c deb8
00000160: 1f72 08bd 6fd7 b7bc 36f0 a23d bbf0 8cbd
00000170: 1cfc fcbc 3111 5fbd eb3d 8c3d 2eab 523d
00000180: 9d56 e4bc 7c44 073d 07f7 6c3d 2acf 95ba
00000190: bb3a de3c b385 40bd d06b 54bd e449 6abd
000001a0: c527 b93d 3c5e cb3c 9c64 43bd b9cc 713d
000001b0: 4368 bb3d 253d c4bd 57c4 d43b b7f3 82bd
000001c0: f486 59bd 771b 0cbd 15ef 36bd 9ecc 12bc
000001d0: 18f2 b13d 4c60 473c 9e0b 753d 0db2 a2bd
000001e0: fea9 37bd 561b 7c3d 7a3f 8cbd ab58 773d
000001f0: 460f 363c 44fc 84bd 6ccc f9bc 14c6 5c3d
00000200: ffad 993d 501c 9bbd 9ba7 903d e6ae 80bd
00000210: ef9c 2b3d fab4 74bd 6f35 d13c 2280 af3d
00000220: f253 0abd a1e7 c33d 49cf f7bc 4d82 c63d
00000230: 380a 14bd d296 86bd d83d 82bd ef59 9c3c
00000240: 94b3 ac3d 5f68 0abd 14b1 663d 82b4 ccbc
00000250: 5c86 80bd 168b 803d 2846 4d3d 13c7 85bc
00000260: d8dc 223d 0d28 a33d b2dc a73d 382e 833d
00000270: 1a1b 8abd 4453 89bd d302 afbb eab5 70bc
00000280: c4bb 8c3d 3185 8cbd 11da 453c 4f7e 153d
00000290: c96f d2bc 0d52 2d3d 8f57 003a 1355 4ebc
000002a0: e5aa 29bd 80f5 483c 7193 1c3c 3590 0fbd
000002b0: 1979 ddbb bcb2 3ebd 6a57 46bd c6fe 13bd
000002c0: 8107 7abc 6d53 ba3d 0f05 923d f564 5abc
000002d0: e460 f03c cd1c 3d3d b7b7 943c 80fc 423c
000002e0: f776 d93c 66fc f03c 839b 1f3c 4d8e 96bc
000002f0: 4cf4 b0bc ac05 e7bc cd57 4ebc 4da2 9dbd
00000300: c886 843c 0ea6 b73d 748c 8b3d e17d cd3c
00000310: 540b e2bc 244c 313d 4d99 a3bd a5d2 9c3d
00000320: 2aab 8dbd b441 a4bc 53bf 003d e91a 4fbd
00000330: 34ed c2bc 8ea8 8d3c 016c 26bd f766 72bc
00000340: 60ff f8bc 3a8d 86bc 04dc ce3d 4f84 d13b
00000350: 6e62 81bc 2216 a93d 04ca c33c 7898 b73d
00000360: b181 85bb 396e 153c 60cb b53d d19f 3cbc
00000370: 40fb 1bbc f6ff 17bc 5594 e9bc f2ee 7abd
00000380: ec27 6d3c 3ded 51bd 57c7 adbc a84d a53c
00000390: eb07 953d 0950 2dbc 0584 e23c 3aeb 2dbd
000003a0: 6955 653d a861 3fbc 171b c33d f983 a8bd
000003b0: e675 fa3b c1e0 913d c360 a8bd cb98 7ebc
000003c0: 911e a83d 323b 97bd 21ab d33c 1a87 bbbd
000003d0: 43b2 eebc 3df0 adbc 4f94 15bd c933 4c3b
000003e0: bf47 77bd 668f 543c bf19 7e3d ccec a33d
000003f0: ea6f 11bd 26d1 ef3c 02b0 1f3d dc3f 083d

net.network.2.weight_1 f4 [64, 128]
-0.034946527 0.040722128 -0.0065541174 0.052052718 0.06084882 -0.028205762 -0.039424684 0.010623216
-0.06354452 0.036800444 -0.07154815 0.009425746 0.068626635 -0.04615367 0.02914871 0.025099253
-0.016546108 0.015102912 0.053089067 -0.032901224 -0.020392818 0.06373413 0.06628922 0.015411244
0.08641207 0.044838663 -0.0052254987 0.013395857 0.06648066 0.09066065 0.062217835 0.09901873
-0.05996879 0.0015771971 -0.045508552 0.07780369 0.05213983 -0.058684584 -0.09964593 -0.028768359
0.046358097 0.0787121 0.02564399 0.108330786 0.07954808 0.047448944 0.043217484 -0.06567415
0.09553802 -0.045879696 -0.072521426 0.0074574957 0.07340937 0.09456712 -0.00048847985 -0.09819578
-0.08336738 0.034335688 0.065375924 -0.06514565 0.082542256 0.07146597 0.01873404 0.0064420034
0.049048282 -0.06827425 -0.038741313 0.078189194 -0.011571195 -0.07778684 0.09009405 0.027852096
0.066688225 -0.051475476 0.09298475 0.000897928 0.025509896 0.097544886 0.09257439 -0.04054228
0.01759632 0.03767628 0.08426673 -0.08401003 -0.028593402 -0.017457256 0.09163344 -0.07354096
0.0593439 -0.025388533 0.02983746 -0.025539363 0.00038872738 0.052928984 0.066965975 0.037334275
-0.07106825 0.06389027 0.106377944 0.033749368 -0.043138593 -0.05116187 -0.08073016 -0.0660633
-0.0014204376 -0.0316666 -0.020042656 0.08510359 0.03037916 -0.015676538 0.080910884 0.008810436
0.08854418 -0.07006199 -0.08679329 0.011593987 0.056047276 0.018312069 0.07669214 0.012637443
0.016761089 0.044191115 0.063882925 0.071488 0.020565074 0.037890136 -0.06450183 -0.0067262915
-0.011619354 -0.018391874 0.07840592 0.01836685 -0.07650421 0.010331889 -0.085294515 -0.052650232
0.0646477 0.026088336 0.100532025 0.020424917 0.030007822 0.015387873 0.07208661 -0.016304458
0.039195333 0.018281387 0.03945183 -0.03851027 0.10011395 0.08175321 0.10775963 -0.035870112
0.01621005 0.07225734 0.04721803 -0.011273285 0.09452963 -0.053520583 0.034368806 0.045239277
0.06254769 -0.06276397 0.051812194 -0.010519807 0.0676154 0.055766065 0.12115808 0.076369
0.04239776 0.048136577 0.032139592 -0.088868864 -0.06816934 0.024107415 -0.019820578 0.00076502707
0.081530325 -0.014718968 0.013758113 0.08020757 0.084944084 -0.07877505 0.061862595 0.11246795
0.08159015 -0.038555376 0.16243504 0.037207913 -0.064597875 0.0562293 0.053674992 0.05299311
0.10638974 0.068331465 0.10853504 -0.04741393 0.03689396 0.07680902 0.007432754 -0.010623017
0.06656296 -0.07431914 -0.0443445 -0.059326146 -0.06061564 0.0031973904 0.06787306 0.037984483
0.06489597 -0.07317598 -0.031323865 0.0049903463 0.083081186 -0.08094559 -0.0774713 0.019869504
0.004412801 0.110244334 -0.020608716 0.005057983 0.08644916 -0.038621217 0.021269998 -0.04761304
0.003105553 0.031726368 -0.040911444 0.06335277 0.026470484 0.074267805 0.034071147 -0.041978423
0.035824165 -0.0051806513 -0.039454274 0.066427596 0.006047949 0.11660149 -0.03550249 0.08329232
-0.03414648 -0.024675235 0.09303252 -0.055397917 -0.023835775 -0.018693218 0.034220308 0.051863447
0.09455736 0.060950305 0.081547596 0.054192755 0.047244154 -0.046363432 0.081638865 -0.04712941
00000000: 1724 0fbd 3fcc 263d ecc3 d6bb 3b35 553d
00000010: 9d3c 793d c50f e7bc c77b 21bd ff0c 2e3c
00000020: a123 82bd 10bc 163d d687 92bd 726e 1a3c
00000030: 1f8c 8c3d a10b 3dbd 47c9 ee3c f39c cd3c
00000040: b48b 87bc 3472 773c ec73 593d 6fc3 06bd
00000050: d70e a7bc 0a87 823d a4c2 873d 717f 7c3c
00000060: d0f8 b03d bfa8 373d a93a abbb 4c7a 5b3c
00000070: 0327 883d 4aac b93d 21d8 7e3d 55ca ca3d
00000080: d5a1 75bd f4b9 ce3a 2d67 3abd 8b57 9f3d
00000090: 9390 553d 3f5f 70bd 2a13 ccbd 9fab ebbc
000000a0: fde1 3d3d cf33 a13d 5813 d23c 88dc dd3d
000000b0: 1bea a23d d359 423d d104 313d 2b80 86bd
000000c0: 70a9 c33d 59ec 3bbd 1d86 94bd 025e f43b
000000d0: a757 963d 68ac c13d 540d 00ba de1a c9bd
000000e0: 84bc aabd 94a3 0c3d d0e3 853d 156b 85bd
000000f0: ea0b a93d c05c 923d 2178 993c 7117 d33b
00000100: dae6 483d 5fd3 8bbd 36af 1ebd a821 a03d
00000110: 1c95 3dbc b54e 9fbd 3b83 b83d 142a e43c
00000120: d693 883d f3d7 52bd ca6e be3d ee62 6b3a
00000130: 21fa d03c 9dc5 c73d a497 bd3d a90f 26bd
00000140: 2826 903c 7152 1a3d 0994 ac3d 730d acbd
00000150: b63c eabc 8502 8fbc 50aa bb3d a59c 96bd
00000160: 9712 733d 9dfb cfbc b06d f43c ed37 d1bc
00000170: 1bce cb39 10cc 583d 7525 893d d3eb 183d
00000180: 3b8c 91bd e7d8 823d aedc d93d c73c 0a3d
00000190: 18b2 30bd 1c8f 51bd db55 a5bd 324c 87bd
000001a0: fa2d baba d6b4 01bd 7f30 a4bc ca4a ae3d
000001b0: b7dd f83c 156c 80bc 9bb4 a53d a659 103c
000001c0: a756 b53d a97c 8fbd aec0 b1bd b5f4 3d3c
000001d0: d491 653d 3103 963c c510 9d3d 470d 4f3c
000001e0: 8d4e 893c be01 353d 0dd5 823d 4d68 923d
000001f0: 1678 a83c b032 1b3d 8919 84bd 3968 dcbb
00000200: 1a5f 3ebc 8eaa 96bc 4893 a03d 1476 963c
00000210: 3dae 9cbd 1547 293c e4ae aebd c5a7 57bd
00000220: 0366 843d 35b7 d53c bce3 cd3d 2852 a73c
00000230: f7d2 f53c 6b1d 7c3c 25a2 933d ed90 85bc
00000240: 498b 203d d9c2 953c 3e98 213d f2bc 1dbd
00000250: 8b08 cd3d 3a6e a73d 15b1 dc3d 8aec 12bd
00000260: f0ca 843c a8fb 933d b167 413d 96b3 38bc
00000270: c098 c13d 6638 5bbd 4ec6 0c3d d24c 393d
00000280: 0119 803d 658a 80bd 0639 543d 455b 2cbc
00000290: f179 8a3d f56a 643d ba21 f83d 5a67 9c3d
000002a0: 46a9 2d3d dc2a 453d cea4 033d e100 b6bd
000002b0: 5e9c 8bbd ea7c c53c c45e a2bc 198c 483a
000002c0: 5ff9 a63d d427 71bc b569 613c de43 a43d
000002d0: 2af7 ad3d d054 a1bd a263 7d3d 9955 e63d
000002e0: bd18 a73d 3eec 1dbd 5f55 263e 5367 183d
000002f0: e44b 84bd b250 663d 4fda 5b3d 4e0f 593d
00000300: dde2 d93d 5ef1 8b3d 9e47 de3d 1c35 42bd
00000310: 1f1e 173d 0c4e 9d3d 768e f33b 2a0c 2ebc
00000320: 2952 883d a234 98bd 94a2 35bd f9ff 72bd
00000330: 1b48 78bd 4f8b 513b 0801 8b3d 9e95 1b3d
00000340: 2ee8 843d 4add 95bd 744d 00bd 0f86 a33b
00000350: 7826 aa3d cdc6 a5bd 46a9 9ebd 5fc5 a23c
00000360: 4299 903b c8c7 e13d 9cd3 a8bc 70bd a53b
00000370: 420c b13d 4831 1ebd 6b3e ae3c e405 43bd
00000380: 8986 4b3b 82f3 013d c292 27bd 19bf 813d
00000390: a1d8 d83c b819 983d 308e 0b3d 91f1 2bbd
000003a0: 5cbc 123d 74c2 a9bb ce9a 21bd 310b 883d
000003b0: e02d c63b c3cc ee3d 0f6b 11bd 2a95 aa3d
000003c0: 2edd 0bbd b823 cabc d587 be3d ede8 62bd
000003d0: 3e43 c3bc 8522 99bc 982a 0c3d c46e 543d
000003e0: 4aa7 c13d 07a7 793d 6d02 a73d 39f9 5d3d
000003f0: 1683 413d 95e7 3dbd 4732 a73d c50a 41bd

net.network.2.bias_0 f4 [64]
0.00029569503 -0.038165666 0.010149143 -0.03294421 0.10056179 -0.040859044 0.004565592 0.0066882335
-0.0067693675 -0.0057478836 0.07707016 -0.051690966 0.1054182 0.035173625 0.0977931 0.044524767
0.019303348 0.11481345 -0.068115786 0.066825174 0.03860957 0.039959695 0.07292379 -0.023646008
-0.009241866 0.09070331 -0.076662615 -0.05200602 -0.03282222 0.0049210843 0.03417999 0.0032179856
0.052923985 0.07107449 0.018341955 0.100825034 0.048519775 0.052283272 0.13427697 -0.08866987
-0.03976699 0.039023742 0.096705236 0.07944377 0.018819043 0.080090694 0.022750441 0.042922314
-0.03314937 0.06771316 -0.033204544 0.011151461 0.08491012 0.021700962 0.098939195 0.13060153
0.17277722 0.07860984 -0.042936683 -0.0005500236 -0.0067513916 0.059863467 -0.049593993 0.034040272
00000000: 8407 9b39 9a53 1cbd 9748 263c 82f0 06bd
00000010: 57f3 cd3d d05b 27bd f69a 953b f828 db3b
00000020: 92d1 ddbb be58 bcbb f6d6 9d3d e8b9 53bd
00000030: 7fe5 d73d 3812 103d c047 c83d 9a5f 363d
00000040: 0e22 9e3c 5023 eb3d 4a80 8bbd a3db 883d
00000050: 1225 1e3d c7ac 233d 1159 953d 46b5 c1bc
00000060: 326b 17bc a8c2 b93d 4a01 9dbd 4404 55bd
00000070: 9870 06bd 0c41 a13b 5100 0c3d d7e4 523b
00000080: d2c6 583d 818f 913d de41 963c 5b7d ce3d
00000090: acbc 463d fc26 563d e77f 093e 8c98 b5bd
000000a0: b6e2 22bd 5cd7 1f3d 650d c63d 6ab3 a23d
000000b0: 652a 9a3c 9706 a43d 225f ba3c 4fcf 2f3d
000000c0: a2c7 07bd 32ad 8a3d 7d01 08bd 9eb4 363c
000000d0: 5be5 ad3d 37c6 b13c a2a0 ca3d 68bc 053e
000000e0: 83ec 303e 32fe a03d 60de 2fbd 752f 10ba
000000f0: c73a ddbb 6533 753d 1223 4bbd d06d 0b3d

net.network.2.bias_1 f4 [64]
-0.014432457 0.091172785 0.056966797 -0.015316463 -0.028600154 -0.0681961 0.11208003 -0.06285065
0.047286324 0.017756822 0.068385206 -0.020385627 0.065202154 0.004539094 0.035045773 -0.03325733
0.02150241 0.1278025 0.0031320744 0.18287365 0.017752467 0.045697615 0.0334545 0.06475644
-0.02569275 0.011619043 0.034117606 0.08714066 -0.06837733 -0.008723687 0.017670408 0.120223895
0.039926212 -0.025778094 -0.016683217 0.062646665 0.021818835 0.048266068 -0.040886793 0.019127073
0.08114663 -0.03827206 0.112361655 0.06505031 0.071411416 0.06038776 -0.0666957 -0.045048926
0.014220073 0.01615888 -0.06771396 0.07358999 0.04497422 -0.022661563 0.059636906 0.019473787
-0.025859455 0.08542701 -0.035398796 -0.048532035 0.025706515 -0.041691657 -0.058779005 -0.08537409
00000000: 1d76 6cbc ccb8 ba3d 0456 693d e7f1 7abc
00000010: df4a eabc 66aa 8bbd 378a e53d d7b7 80bd
00000020: 4eaf 413d c176 913c 8b0d 8c3d c2ff a6bc
00000030: b588 853d aebc 943b 288c 0f3d d738 08bd
00000040: d225 b03c a9de 023e 7d43 4d3b 3b43 3b3e
00000050: 9f6d 913c 6c2d 3b3d 9607 093d 069f 843d
00000060: 9a79 d2bc cc5d 3e3c e7be 0b3d cd76 b23d
00000070: 6a09 8cbd cced 0ebc 88c1 903c f237 f63d
00000080: ab89 233d 952c d3bc 3eab 88bc e54c 803d
00000090: 6abd b23c a4b2 453d e978 27bd 61b0 9c3c
000000a0: 3430 a63d 2ac3 1cbd de1d e63d 1939 853d
000000b0: 2640 923d 2859 773d c197 88bd 3985 38bd
000000c0: 4ffb 683c a15f 843c 9ead 8abd 59b6 963d
000000d0: e336 383d bea4 b9bc d445 743d 7e87 9f3c
000000e0: 35d7 d3bc 5bf4 ae3d 54fe 10bd 87c9 46bd
000000f0: 7896 d23c dfc4 2abd 41c2 70bd 9cd8 aebd

net.network.4.weight_0 f4 [16, 64]
-0.06359138 0.105154864 0.15221445 -0.010437191 -0.10636974 -0.08947478 0.032847106 0.049080588
0.13259587 0.12640378 0.067219466 0.025638036 0.11762251 0.08279016 0.0537633 -0.036404032
0.049561195 0.11997704 -0.11248226 -0.11056636 -0.04599676 -0.078724295 0.019038856 0.11412324
-0.08678197 0.10041647 0.06526888 0.02002339 0.19278724 -0.053374276 0.23336788 0.15059455
-0.13098635 0.020521166 0.011520371 0.15310039 -0.04612265 -0.010627311 0.049767964 0.103429064
0.011606201 0.10783361 -0.0060379547 0.15057606 -0.004816885 0.05224535 -0.022418343 -0.06113158
-0.024290327 0.07223875 -0.023629302 0.15469363 -0.013953828 -0.05585136 -0.042276047 0.018786026
-0.10569887 0.13786727 -0.032583445 0.03690062 0.121925265 -0.04908579 0.088361725 -0.035907198
-0.05152682 -0.068775944 0.083909675 0.12236688 0.124615334 0.007786624 0.056510244 0.035660848
0.11021668 -0.09639127 -0.12739822 0.055328522 0.10778386 -0.08088455 0.042020027 0.0929646
-0.04773386 0.060475174 -0.08432596 0.015362598 -0.03800913 -0.063335486 0.13129179 0.05532615
-0.027875293 0.11188729 0.12264132 -0.0032761884 0.10347385 -0.011622865 0.07122184 0.1734534
-0.05469478 0.06147229 -0.0939559 -0.045716733 -0.07083391 -0.028925966 0.030168485 -0.06661925
0.0052791755 0.018363016 -0.07871376 -0.047827017 0.07671109 -0.06537969 0.015975026 0.12984255
0.09347351 0.116496176 0.01832337 -0.0110463705 -0.056624122 0.060489163 0.104673326 -0.06513904
-0.061788578 0.046851933 -0.0587836 0.04906196 -0.032762885 -0.04648742 -0.10972891 -0.09673782
-0.04617104 0.1595199 -0.05670703 0.043911513 -0.06559478 0.124671675 -0.009697769 -0.08322626
-0.0046887156 -0.07947268 -0.010713873 0.039246596 0.03329361 0.10911055 -0.037671987 0.061679944
0.073919505 0.15831159 -0.062343743 -0.10766985 -0.0687817 -0.013522744 -0.09135755 0.045907352
-0.06143597 0.10647715 0.018505845 -0.08096261 0.026974784 -0.11871944 -0.035923593 0.09847172
-0.005013268 0.049959354 0.041730225 0.04990369 -0.11231458 0.029874744 -0.01997661 -0.10851089
-0.0048071165 -0.07728419 -0.029101145 0.106089555 0.09279307 0.022605054 -0.1098555 0.025814906
0.07569033 -0.06330467 -0.046051424 0.12294474 -0.106196344 -0.09542423 -0.051886156 -0.07700671
0.11342913 0.07605095 -0.06548908 -0.10267448 0.015780278 -0.11191389 0.08307989 -0.026918745
0.054584704 -0.13592546 -0.12322411 -0.0050027645 0.024944931 0.07754601 0.07094842 0.06747493
0.0119134225 -0.021854615 0.07287741 -0.078980125 -0.028988104 -0.05987639 0.11873405 -0.11569057
0.18652141 -0.12276216 0.06167863 0.37403122 -0.073073134 -0.0002829391 -0.09607956 -0.03136002
-0.10400593 -0.068463005 -0.017904483 0.008533815 -0.06897748 0.03540202 0.0065180967 0.010150026
0.061937705 0.0034313144 0.021093542 0.13638611 0.14473885 -0.08046727 0.054864988 -0.01019625
0.016978452 -0.021773178 0.30024222 -0.089299925 0.12214408 0.10561699 -0.13580874 0.0012414147
-0.06359492 0.09109384 0.114058346 -0.009195393 0.14319415 0.12199664 -0.04129496 -0.05446871
0.18364967 -0.0045612967 0.019030876 -0.036376126 -0.003016518 0.057193436 0.1425383 -0.110133454
00000000: 333c 82bd 6f5b d73d 1bde 1b3e c100 2bbc
00000010: 61d8 d9bd 8e3e b7bd b08a 063d ba08 493d
00000020: 36c7 073e fe6f 013e 5caa 893d dc06 d23c
00000030: 12e4 f03d e38d a93d e836 5c3d 651c 15bd
00000040: ae00 4b3d 86b6 f53d 195d e6bd 9e70 e2bd
00000050: 1967 3cbd 343a a1bd 60f7 9b3c 72b9 e93d
00000060: bfba b1bd 26a7 cd3d b1ab 853d 1808 a43c
00000070: 056a 453e fc9e 5abd fdf7 6e3e 7535 1a3e
00000080: 4921 06be 011c a83c f0bf 3c3c 59c6 1c3e
00000090: 1beb 3cbd 2c1e 2ebc 7ed9 4b3d 9ed2 d33d
000000a0: ef27 3e3c ded7 dc3d 09da c5bb 9c30 1a3e
000000b0: f6d6 9dbb 38ff 553d aca6 b7bc 1c65 7abd
000000c0: 82fc c6bc e9f1 933d 3d92 c1bc 0268 1e3e
000000d0: 999e 64bc 65c4 64bd a629 2dbd 27e5 993c
000000e0: a678 d8bd 142d 0d3e 3876 05bd 1b25 173d
000000f0: f4b3 f93d 2e0e 49bd fef6 b43d 6d13 13bd
00000100: c90d 53bd 67da 8cbd d6d8 ab3d 7d9b fa3d
00000110: 5336 ff3d f026 ff3b 4977 673d 1c11 123d
00000120: 48b9 e13d c968 c5bd ae74 02be 29a0 623d
00000130: c9bd dc3d cda6 a5bd 311d 2c3d 3964 be3d
00000140: 9484 43bd d1b4 773d 17b3 acbd 68b3 7b3c
00000150: 76af 1bbd 09b6 81bd 5b71 063e ac9d 623d
00000160: ba5a e4bc 2a25 e53d 5f2b fb3d 52b5 56bb
00000170: 19ea d33d d46d 3ebc c2dc 913d c59d 313e
00000180: a207 60bd 5eca 7b3d f36b c0bd 7841 3bbd
00000190: 5e11 91bd 26f6 ecbc e623 f73c ac6f 88bd
000001a0: effc ac3b 096e 963c ae34 a1bd 43e6 43bd
000001b0: b41a 9d3d c9e5 85bd 0fde 823c 72f5 043e
000001c0: 0a6f bf3d 8c95 ee3d e41a 963c d6fb 34bc
000001d0: b2ee 67bd 7cc3 773d f85e d63d 9e67 85bd
000001e0: 0516 7dbd d0e7 3f3d 12c7 70bd 32f5 483d
000001f0: 6032 06bd 9869 3ebd 8db9 e0bd 7a1e c6bd
00000200: d81d 3dbd 2f59 233e a145 68bd 8fdc 333d
00000210: 8e56 86bd dd53 ff3d 64e3 1ebc 8872 aabd
00000220: cca3 99bb 93c2 a2bd 3e89 2fbc 0ac1 203d
00000230: e15e 083d 5a75 df3d f14d 1abd 1ca4 7c3d
00000240: 1c63 973d 6f1c 223e 275c 7fbd 0382 dcbd
00000250: 6cdd 8cbd 808e 5dbc ab19 bbbd 5909 3c3d
00000260: 49a4 7bbd b110 da3d 9299 973c bacf a5bd
00000270: 39fa dc3c 2e23 f3bd 9e24 13bd 8bab c93d
00000280: 5746 a4bb 2ea2 4c3d 50ed 2a3d d067 4c3d
00000290: 3005 e6bd e1bb f43c fda5 a3bc f53a debd
000002a0: 0485 9dbb 2c47 9ebd 8665 eebc 7b45 d93d
000002b0: 4b0a be3d 3c2e b93c ecfb e0bd c879 d33c
000002c0: 8803 9b3d e1a5 81bd 6ba0 3cbd 74ca fb3d
000002d0: 787d d9bd c76d c3bd 9486 54bd b2b5 9dbd
000002e0: 884d e83d 9ac0 9b3d 241f 86bd ff46 d2bd
000002f0: a445 813c 1c33 e5bd ca25 aa3d b384 dcbc
00000300: 3694 5f3d 0b30 0bbe ec5c fcbd 3bee a3bb
00000310: 5059 cc3c 71d0 9e3d 684d 913d 4c30 8a3d
00000320: 8430 433c 7308 b3bc c040 953d 55c0 a1bd
00000330: 7678 edbc f240 75bd d62a f33d 2def ecbd
00000340: 78ff 3e3e ba6a fbbd bba2 7c3d 0581 bf3e
00000350: 5ea7 95bd 7157 94b9 5cc5 c4bd 5d73 00bd
00000360: 1001 d5bd 5536 8cbd 6cac 92bc 6ad1 0b3c
00000370: 1144 8dbd b501 113d c295 d53b 4b4c 263c
00000380: 64b2 7d3d e7df 603b 5dcc ac3c cda8 0b3e
00000390: 6c36 143e 06cc a4bd 1cba 603d 2c0e 27bc
000003a0: 6516 8b3c aa5d b2bc 59b9 993e e1e2 b6bd
000003b0: ad26 fa3d b84d d83d 7211 0bbe f7b6 a23a
000003c0: 0e3e 82bd 688f ba3d 6c97 e93d 46a8 16bc
000003d0: 7da1 123e 60d9 f93d e724 29bd 951a 5fbd
000003e0: a90e 3c3e ee76 95bb a4e6 9b3c 22ff 14bd
000003f0: c6b0 45bb aa43 6a3d 8ff5 113e a68d e1bd

net.network.4.weight_1 f4 [16, 64]
-0.10548336 0.21923257 0.030345146 -0.061220933 0.060051605 0.08870506 0.22753541 -0.12046651
0.14583154 0.119367786 -0.14274614 -0.04933174 0.13957861 -0.0749272 0.06442542 0.035854902
0.0039320765 0.20230718 -0.054011803 -0.17140289 0.07457099 -0.11830045 -0.047011703 -0.0024651359
-0.07137372 -0.048861213 -0.099066086 -0.11720255 -0.045822006 0.048768252 0.24003853 0.16558449
0.0141138 0.20397331 -0.092568845 0.1440861 -0.016980238 0.054152306 0.1666216 -0.013681014
-0.057354696 -0.0513235 0.030770576 0.06888684 -0.0014432169 0.080210336 -0.10385315 -0.012936107
-0.047150068 -0.009383647 -0.078380145 0.086316735 -0.11252763 0.06661509 0.044469457 -0.004462524
0.01574936 0.04921413 0.06022271 -0.028454814 0.060792986 0.12333267 -0.032278594 0.08431951
-0.107926324 0.19485489 0.012303939 -0.0346965 -0.049313642 -0.056210242 0.03933697 -0.051529367
0.14387637 0.10273602 0.075308435 0.08152023 0.14480762 -0.039950415 0.11489339 0.0073439404
-0.13945918 0.14067706 0.07974058 0.01782531 -0.09870401 -0.12040293 0.029993847 -0.12792154
0.09509247 0.043297403 0.07665013 -0.01840941 0.017792603 0.048554566 0.12458314 0.06599242
-0.10513624 0.057372145 -0.07165549 0.13383126 0.08224757 -0.013163807 0.15822794 0.018003544
0.010038522 0.09686777 0.033419754 -0.0227823 -0.079033665 -0.026089288 -0.028122637 -0.018755004
0.09369645 0.13617542 -0.10645256 0.039047457 0.05750292 0.10888009 0.13633864 0.14575912
-0.08088394 -0.018310033 0.030327974 0.10347152 0.11588958 0.008860595 -0.08452687 -0.0048173494
0.099682994 0.07615498 0.048314434 0.029249534 0.013320595 0.012638449 0.20086387 0.017867232
0.047210705 0.1586164 -0.062140495 -0.005953024 0.09475333 0.12590602 0.11285672 -0.021129599
-0.058535825 0.18324903 0.086996004 -0.14867644 -0.053225987 -0.014372175 -0.045664478 -0.09607986
-0.05187722 -0.05230422 -0.033314183 -0.0905482 0.1025449 -0.038600434 0.09916747 0.15115713
-0.06683748 0.038498655 -0.033561625 0.12293366 0.030036535 0.081066646 0.13787517 0.058721807
-0.019111974 0.115876116 -0.050490107 0.12750293 0.085234486 -0.046990104 -0.050196867 0.15442273
0.019909836 -0.09689352 0.02076258 0.0010929881 0.11323717 0.09270765 0.1538442 0.047339734
-0.10165055 0.0019651323 0.06298344 -0.07083895 -0.09190622 0.09038063 0.031256642 -0.11684883
0.018227527 0.06077602 0.05079057 0.08878682 -0.040929917 0.10203676 -0.07480083 0.104684874
-0.07841488 0.040482208 0.13941817 -0.087629855 -0.05236384 -0.08408819 0.07608297 0.09107115
0.20238715 -0.12493166 -0.020262375 0.25030032 0.06882565 0.090061136 -0.033854835 0.009681876
-0.07297038 0.034619413 0.0583024 0.23356426 -0.013844077 0.121812545 -0.09689181 0.07099075
0.065261275 0.003028269 0.034074124 0.057493694 0.17559913 0.09962801 -0.020737115 -0.07152964
0.20445316 0.116941065 0.16138144 -0.10522394 -0.0060150046 0.09467376 -0.028358823 0.042507377
-0.024064582 -0.017960943 0.016909337 -0.096487425 0.16156024 0.006691609 -0.07663143 -0.11854378
0.063536786 0.09368221 0.08115142 -0.037439603 0.078853995 0.0877354 -0.07988146 -0.05931196
00000000: a907 d8bd 817e 603e 6296 f83c cdc2 7abd
00000010: acf8 753d 00ab b53d 0bff 683e 25b7 f6bd
00000020: dd54 153e 1977 f43d 0b2c 12be 1410 4abd
00000030: b2ed 0e3e 6f73 99bd 79f1 833d 97dc 123d
00000040: a6d8 803b 9d29 4f3e 7b3b 5dbd 3d84 2fbe
00000050: adb8 983d 8247 f2bd 588f 40bd 1e8e 21bb
00000060: 632c 92bd b222 48bd 29e3 cabd e407 f0bd
00000070: dbaf 3bbd 38c1 473d a9cc 753e fb8e 293e
00000080: 913d 673c 61de 503e bc94 bdbd 4e8b 133e
00000090: 241a 8bbc cfce 5d3d da9e 2a3e 5526 60bc
000000a0: c2ec 6abd 9738 52bd 9312 fc3c 8b14 8d3d
000000b0: 532a bdba 5145 a43d f6b0 d4bd f7f1 53bc
000000c0: 6e20 41bd debd 19bc c585 a0bd d4c6 b03d
000000d0: e374 e6bd 7e6d 883d 9b25 363d 5d3a 92bb
000000e0: cd04 813c c194 493d 17ac 763d 121a e9bc
000000f0: 1102 793d d795 fc3d 8f36 04bd b5af ac3d
00000100: 7a08 ddbd 0a88 473e 7696 493c eb1d 0ebd
00000110: 1afd 49bd b63c 66bd cd1f 213d 7510 53bd
00000120: 5454 133e 4367 d23d 4f3b 9a3d 14f4 a63d
00000130: 7348 143e 0ca3 23bd 3a4d eb3d 70a5 f03b
00000140: 63ce 0ebe a60d 103e 074f a33d 6206 923c
00000150: 5425 cabd d095 f6bd a8b5 f53c ddfd 02be
00000160: d7bf c23d 9e58 313d befa 9c3d 55cf 96bc
00000170: cbc1 913c 27e1 463d 7225 ff3d 0927 873d
00000180: ab51 d7bd 0eff 6a3d 1dc0 92bd 100b 093e
00000190: 6a71 a83d 02ad 57bc 8106 223e 2b7c 933c
000001a0: 9d78 243c 9c62 c63d 27e3 083d f2a1 babc
000001b0: 67dc a1bd 34b9 d5bc 7261 e6bc 18a4 99bc
000001c0: ede3 bf3d 9271 0b3e cd03 dabd 3af0 1f3d
000001d0: 2f88 6b3d 86fc de3d 5b9c 0b3e e141 153e
000001e0: 7ba6 a5bd ecfe 95bc 5f72 f83c e0e8 d33d
000001f0: 8457 ed3d 072c 113c 6c1c adbd dbda 9dbb
00000200: 9926 cc3d 24f7 9b3d 5be5 453d b89c ef3c
00000210: a03e 5a3c 7f11 4f3c 42af 4d3e 4d5e 923c
00000220: 0360 413d 566c 223e 0887 7ebd 9611 c3bb
00000230: 090e c23d 82ed 003e 6d21 e73d fb17 adbc
00000240: 43c3 6fbd a2a5 3b3e f62a b23d a33e 18be
00000250: 7e03 5abd 4579 6bbc ad0a 3bbd 85c5 c4bd
00000260: 357d 54bd f33c 56bd 7474 08bd 5671 b9bd
00000270: 0f03 d23d 7d1b 1ebd 5118 cb3d efc8 1a3e
00000280: 17e2 88bd c4b0 1d3d ea77 09bd a5c4 fb3d
00000290: 2e0f f63c 4506 a63d 262f 0d3e 4786 703d
000002a0: b790 9cbc 7550 ed3d b7ce 4ebd 2190 023e
000002b0: 6b8f ae3d b278 40bd 3b9b 4dbd fe20 1e3e
000002c0: f419 a33c 1c70 c6bd 4916 aa3c 9842 8f3a
000002d0: e4e8 e73d 82dd bd3d 5589 1d3e 4fe7 413d
000002e0: 2a2e d0bd 73c9 003b 76fd 803d 0314 91bd
000002f0: 5439 bcbd 7b19 b93d f706 003d 704e efbd
00000300: e551 953c 47f0 783d c609 503d ddd5 b53d
00000310: 21a6 27bd a6f8 d03d 2d31 99bd 0665 d63d
00000320: fb97 a0bd acd0 253d a3c3 0e3e 4877 b3bd
00000330: 777b 56bd 6e36 acbd 63d1 9b3d 8383 ba3d
00000340: 943e 4f3e 2cdc ffbd 48fd a5bc 5d27 803e
00000350: 76f4 8c3d f971 b83d 5eab 0abd bba0 1e3c
00000360: 7f71 95bd 16cd 0d3d 7fce 6e3d 782b 6f3e
00000370: 44d2 62bc db78 f93d 376f c6bd 9963 913d
00000380: b4a7 853d ec75 463b 4f91 0b3d 827e 6b3d
00000390: 42d0 333e c509 cc3d e2e0 a9bc 227e 92bd
000003a0: 2b5c 513e cc7e ef3d 2d41 253e a67f d7bd
000003b0: 8419 c5bb 51e4 c13d c350 e8bc 371c 2e3d
000003c0: 1623 c5bc d422 93bc 7385 8a3c 339b c5bd
000003d0: 0c70 253e 4945 db3b f0f0 9cbd 15c7 f2bd
000003e0: 931f 823d 75dc bf3d b732 a63d 455a 19bd
000003f0: 347e a13d 9eae b33d e498 a3bd 19f1 72bd

net.network.4.bias_0 f4 [16]
0.08018182 0.016345534 0.14526936 0.35738584 0.27835822 -0.056395393 0.034082107 0.3086193
-0.08067125 -0.09245077 0.15426414 0.023744619 0.03884159 0.0107122455 0.20051005 -0.081033714
00000000: 5e36 a43d 12e7 853c 7ec1 143e 47fb b63e
00000010: f884 8e3e dbfe 66bd ae99 0b3d 5903 9e3e
00000020: f836 a5bd d456 bdbd 6bf7 1d3e 1384 c23c
00000030: 5c18 1f3d 6a82 2f3c 8252 4d3e 01f5 a5bd

net.network.4.bias_1 f4 [16]
0.115782 0.01087024 0.046823606 0.22350143 0.093210556 -0.11133601 -0.12016401 0.17808317
-0.096324325 -0.055146705 -0.10419829 -0.033197448 0.04854467 -0.068431556 0.035117183 -0.12838921
00000000: 1d1f ed3d 1719 323c 1cca 3f3d 8fdd 643e
00000010: 2de5 be3d 2204 e4bd 8c18 f6bd 6f5b 363e
00000020: b045 c5bd 83e1 61bd ea65 d5bd 0cfa 07bd
00000030: c7d6 463d d825 8cbd 09d7 0f3d 7678 03be

net.network.6.weight_0 f4 [2, 16]
0.31074998 0.34093732 -0.012484136 -0.6152715 0.7049333 -0.059243396 0.11884159 -0.46453568
0.22263542 -0.077996776 0.3512471 0.062094923 -0.05219291 -0.19935109 -0.3954228 0.12644273
-0.36073223 -0.051795088 -0.23402102 0.36914685 -0.57508075 0.02429872 -0.17599502 0.49516633
-0.03536165 0.1613874 -0.048144307 0.103322975 -0.37892178 0.040874824 -0.059676144 0.04312849
00000000: 9f1a 9f3e 568f ae3e 438a 4cbc 6f82 1dbf
00000010: 8276 343f 34a9 72bd 3863 f33d 9fd7 edbe
00000020: 8afa 633e c6bc 9fbd a9d6 b33e 3f57 7e3d
00000030: 3cc8 55bd b122 4cbe db74 cabe 347a 013e
00000040: e5b1 b8be 1627 54bd 35a3 6fbe d100 bd3e
00000050: 7e38 13bf 1c0e c73c 0a38 34be 7186 fd3e
00000060: 61d7 10bd bd42 253e f732 45bd ff9a d33d
00000070: 0902 c2be 5c6c 273d f96e 74bd 80a7 303d

net.network.6.weight_1 f4 [2, 16]
0.4585942 0.3934112 0.2776457 -0.3056281 0.5543706 -0.045117393 -0.1697567 -0.36132675
-0.053271446 -0.23599023 0.06411384 0.08539451 -0.06814574 0.22948885 -0.16660544 0.21450351
-0.29666257 -0.094481446 -0.35466087 0.5065194 -0.66649187 0.1263346 -0.18990658 0.5510533
-0.1951286 -0.19353929 -0.073635206 -0.022960966 -0.27271613 -0.007770262 -0.054963417 0.008279781
00000000: dccc ea3e 316d c93e 9427 8e3e 497b 9cbe
00000010: 3beb 0d3f 04cd 38bd b3d4 2dbe d2ff b8be
00000020: 2933 5abd 6ca7 71be 1e4e 833d 51e3 ae3d
00000030: fe8f 8bbd 20ff 6a3e 9e9a 2abe cfa6 5b3e
00000040: 28e4 97be 7d7f c1bd 1c96 b5be 41ab 013f
00000050: 369f 2abf db5d 013e df76 42be d411 0d3f
00000060: cbcf 47be 2a2f 46be 0ece 96bd a318 bcbc
00000070: 73a1 8bbe af9d febb 5221 61bd eba7 073c

net.network.6.bias_0 f4 [2]
-0.51057345 0.18919758
00000000: f1b4 02bf 03bd 413e

net.network.6.bias_1 f4 [2]
-0.5665531 0.65316117
00000000: a009 11bf 9235 273f
