models/heloc/rs/adam_epochs30_lr0.0004_batch32_dropout0/model_208.pth (torch, 52515 bytes, 8 tensors)

network.0.weight f4 [128, 23]
-0.036452617 -0.0414821 0.12807328 0.22339112 0.021107368 0.08980577 0.11981243 -0.22756816
0.1374616 -0.067532726 0.04660017 -0.1110807 -0.14507031 -0.22614026 0.17450683 -0.13389711
-0.21051833 0.28961673 0.15706228 0.18650383 0.03279259 -0.028804552 0.16075735 0.02236758
0.27587712 0.026504297 -0.01626153 0.013662983 0.15023988 -0.005447404 -0.0970143 -0.14932272
-0.032683548 0.1382612 -0.0948759 0.018989937 -0.12710644 0.26399404 -0.12260464 -0.045921765
-0.041115813 0.065604 -0.13188978 0.1544686 -0.23360865 -0.049627967 -0.3444753 0.10704306
-0.029236836 0.23701766 0.14448589 0.15162593 0.04895287 0.104506515 0.18747835 0.27876288
-0.14188907 0.19167973 -0.018885301 -0.025463575 -0.12700923 0.13733123 0.08966789 -0.01945086
-0.11736185 0.07951664 0.21561982 0.1944942 -0.11903442 -0.049392615 0.012829902 0.027647078
0.19530064 0.112565756 -0.29637244 -0.1769691 0.045406483 -0.09294058 0.115221895 0.25228852
-0.0816856 -0.026199467 -0.060421344 0.16559058 -0.28327006 0.07562579 -0.15594354 -0.012668714
0.06026067 -0.24917291 0.20753375 0.12039007 -0.035333477 0.11858173 -0.15871772 0.19787434
-0.0885417 -0.05715045 -0.27689484 0.014407448 -0.011619994 0.20942661 0.28422195 0.15634096
-0.0033212714 0.07780678 -0.073442966 -0.20546454 0.091619916 -0.20560978 -0.08231726 -0.2184971
-0.10029029 -0.16804574 -0.075530015 -0.16914715 -0.06615554 0.13862458 0.0077323555 -0.19711061
0.11247644 -0.045435876 -0.030923408 0.08510656 0.03898528 -0.004500698 -0.14985946 0.0962404
0.075458735 -0.19529243 0.094308294 0.21715912 -0.088160805 -0.16322778 -0.10575799 -0.04949101
-0.1718899 0.009819097 0.1243836 -0.15069725 -0.1855609 -0.21888542 0.14483456 0.15430498
0.10328096 -0.06397084 -0.15488409 0.03181716 -0.17706834 0.033784706 0.008002616 -0.09088
0.14436583 -0.13025518 -0.023922985 0.2377271 0.049178883 0.19451281 -0.073544405 0.12904629
0.15784124 0.054805942 -0.16043057 -0.18775688 0.16732708 -0.19849995 -0.102550164 -0.10129857
-0.23367144 -0.31432632 0.04469208 -0.138359 0.19387025 0.20182201 -0.0075809406 -0.13937469
0.23556879 0.038540646 0.109609924 0.15249279 -0.12294637 -0.15290587 0.039571874 0.20260206
-0.1562946 0.19696762 -0.1352045 0.10011061 0.0045462498 0.007783381 0.15494438 -0.1935182
-0.1431677 -0.26940757 -0.0039304653 0.06274465 0.19328085 0.058001958 0.10037096 0.19405022
-0.09748361 0.052364826 -0.15971453 0.19267492 -0.12021598 0.047734506 0.16231658 -0.058930077
-0.027936144 0.045100007 0.1211042 -0.07004393 0.0118521685 0.22133555 0.17958218 -0.05047384
0.15434545 -0.027196469 0.070551544 -0.09806285 0.16188858 0.0992245 -0.11146548 0.07098191
-0.053027797 -0.32803887 0.027284496 0.27641287 0.090208024 -0.10811067 0.15766492 -0.2605756
0.1280943 -0.122744896 0.053913087 0.0933725 0.2675424 0.07240297 0.19282934 -0.07552789
-0.054713618 -0.03443042 -0.0948909 -0.12293851 0.20150942 -0.23177248 -0.18010385 0.13247946
-0.033238135 -0.26643008 -0.09165232 -0.18330668 -0.08897201 -0.08903702 -0.18000443 -0.18597919
00000000: 574f 15bd 22e9 29bd a425 033e a4c0 643e
00000010: 5ce9 ac3c 16ec b73d 3860 f53d a107 69be
00000020: bcc2 0c3e 994e 8abd d2df 3e3d 477e e3bd
00000030: 508d 14be 5091 67be ebb1 323e 531c 09be
00000040: 1e92 57be a548 943e efd4 203e dcfa 3e3e
00000050: 8651 063d 86f7 ebbc 939d 243e 373c b73c
00000060: c43f 8d3e 8a1f d93c e636 85bc b4da 5f3c
00000070: 7cd8 193e 2380 b2bb 6faf c6bd 0ee8 18be
00000080: 2fdf 05bd 5894 0d3e 4c4e c2bd c990 9b3c
00000090: 3128 02be 3a2a 873e 2418 fbbd 7618 3cbd
000000a0: 0e69 28bd 645b 863d 1d0e 07be 042d 1e3e
000000b0: 1b37 6fbe b246 4bbd 115f b0be 6439 db3d
000000c0: 1782 efbc c2b4 723e 1cf4 133e d443 1b3e
000000d0: ce82 483d 8307 d63d 53fa 3f3e 02ba 8e3e
000000e0: 5e4b 11be b147 443e 59b5 9abc fd98 d0bc
000000f0: b50e 02be 8fa0 0c3e cca3 b73d 6957 9fbc
00000100: 695b f0bd 9fd9 a23d 71cb 5c3e 7d29 473e
00000110: 51c8 f3bd e94f 4abd 8234 523c 207c e23c
00000120: e4fc 473e e088 e63d 21be 97be 6337 35be
00000130: 26fc 393d a157 bebd 75f9 eb3d f62b 813e
00000140: c84a a7bd 44a0 d6bc 5f7c 77bd 9490 293e
00000150: c608 91be b2e1 9a3d aaaf 1fbe 7090 4fbc
00000160: e4d3 763d 2f27 7fbe ba83 543e 128f f63d
00000170: d6b9 10bd fada f23d e686 22be 929f 4a3e
00000180: 5a55 b5bd 9716 6abd 29c5 8dbe 370d 6c3c
00000190: ca61 3ebc ee73 563e 8a85 913e d817 203e
000001a0: b0a9 59bb 2959 9f3d 4469 96bd 4c65 52be
000001b0: 39a3 bb3d 5f8b 52be f495 a8bd b4bd 5fbe
000001c0: ff64 cdbd 2f14 2cbe 7baf 9abd e934 2dbe
000001d0: 8e7c 87bd 9af3 0d3e b35f fd3b 5dd7 49be
000001e0: 0c5a e63d f81a 3abd 1653 fdbc 594c ae3d
000001f0: 07af 1f3d 977a 93bb c274 19be b019 c53d
00000200: 1c8a 9a3d bdfa 47be b524 c13d f65e 5e3e
00000210: a78d b4bd 2f25 27be a597 d8bd 16b7 4abd
00000220: e803 30be 47e0 203c d4bc fe3d 6150 1abe
00000230: ad03 3ebe 8023 60be 834f 143e 2002 1e3e
00000240: f884 d33d 2503 83bd ef99 1ebe b652 023d
00000250: 6751 35be d561 0a3d 681d 033c 4b1f babd
00000260: a3d4 133e 9d61 05be 23fa c3bc bc6e 733e
00000270: cc6f 493d 5e2e 473e 739e 96bd b624 043e
00000280: 22a1 213e 327c 603d e947 24be 5743 40be
00000290: ca57 2b3e 9243 4bbe d205 d2bd a075 cfbd
000002a0: 9147 6fbe 61ef a0be 0b0f 373d fbad 0dbe
000002b0: ec85 463e 6eaa 4e3e 8a69 f8bb 3db8 0ebe
000002c0: f238 713e ccdc 1d3d 2b7b e03d 1227 1c3e
000002d0: 4ecb fbbd 5b93 1cbe 1e16 223d ea76 4f3e
000002e0: b10b 20be e1b1 493e 0c73 0abe cb06 cd3d
000002f0: b5f8 943b bb0b ff3b bda9 1e3e a329 46be
00000300: 8e9a 12be caef 89be 22cb 80bb 4480 803d
00000310: 6aeb 453e 7693 6d3d 4a8f cd3d 1ab5 463e
00000320: 7da5 c7bd 807c 563d 358c 23be 934c 453e
00000330: cc33 f6bd 4285 433d 5136 263e aa60 71bd
00000340: 57da e4bc c9ba 383d 7b05 f83d 3173 8fbd
00000350: 992f 423c c9a5 623e 64e4 373e a8bd 4ebd
00000360: bc0c 1e3e 21cb debc 547d 903d 2dd5 c8bd
00000370: 1fc6 253e 3736 cb3d 0348 e4bd f75e 913d
00000380: ad33 59bd b6f4 a7be bc83 df3c fd85 8d3e
00000390: fcbe b83d 2069 ddbd ea72 213e 2a6a 85be
000003a0: 272b 033e ad61 fbbd f8d3 5c3d 153a bf3d
000003b0: 51fb 883e 0248 943d 0e75 453e 5eae 9abd
000003c0: 631b 60bd e906 0dbd 2956 c2bd 2fc7 fbbd
000003d0: 7c58 4e3e c455 6dbe 256d 38be b2a8 073e
000003e0: b624 08bd 8669 88be 36b4 bbbd bfb4 3bbe
000003f0: f536 b6bd 0b59 b6bd 1553 38be 5471 3ebe

network.0.bias f4 [128]
0.021536134 0.14573461 -0.20121664 0.1824973 -0.15677671 0.00943971 -0.052699093 -0.1876778
-0.089900754 0.043401957 0.22434527 -0.1029297 -0.16714677 -0.10153779 -0.023380334 0.121321164
-0.057349082 0.0026641139 0.25703368 -0.12166809 0.02660031 -0.18515679 0.08387538 -0.1004298
0.042916447 -0.15265477 -0.026053274 0.15798081 0.1839008 0.10782544 0.09327279 0.009239427
-0.08802364 0.20755124 -0.13851348 -0.10793241 -0.11198657 -0.054988682 0.20682374 -0.069768816
0.10173388 0.14723724 0.16635752 -0.090141594 -0.10456401 0.14341034 0.086323775 0.068450406
-0.07988092 0.013113445 -0.005474175 0.14173903 0.045500137 -0.0018314553 0.04398806 0.110249355
0.15558119 -0.12584458 0.0034072476 0.07471682 0.1095355 0.008921993 0.14401409 0.12370259
0.1104412 -0.16674604 0.11410411 0.007030028 0.07714081 -0.16832633 0.13330828 -0.23820059
-0.053011455 0.21768421 0.07080029 0.13971125 0.029276006 -0.009600757 -0.11925584 -0.1264924
0.147917 0.16424307 -0.28047803 0.0040385774 -0.13482937 -0.026490962 -0.17470175 0.003081818
-0.14796612 0.084342495 -0.10741528 -0.08433432 -0.19806856 -0.14446352 0.015287094 0.13458763
-0.03727857 -0.027431585 0.18297175 -0.16291972 0.00881435 0.124773495 -0.121781 -0.18182947
0.03703466 -0.21141136 -0.18258028 0.06857873 -0.16983995 -0.20694576 0.20787878 0.10186939
-0.18466285 0.04501032 -0.10478914 -0.036033787 -0.07804127 -0.1419061 0.080329396 -0.052009083
0.036293965 -0.025352778 -0.11173161 0.15619937 0.209794 -0.15994152 -0.095614925 0.03308644
00000000: 8c6c b03c 743b 153e bc0b 4ebe 92e0 3a3e
00000010: 138a 20be 03a9 1a3c 01db 57bd 9c2e 40be
00000020: e31d b8bd 40c6 313d c4ba 653e cecc d2bd
00000030: 8628 2bbe 0bf3 cfbd 1d88 bfbc 3b77 f83d
00000040: dfe6 6abd 6a98 2e3b eb99 833e 1f2d f9bd
00000050: e5e8 d93c be99 3dbe dbc6 ab3d 24ae cdbd
00000060: 28c9 2f3d 8851 1cbe ad6d d5bc b9c5 213e
00000070: 7e50 3c3e 96d3 dc3d ce05 bf3d f760 173c
00000080: bd45 b4bd 5088 543e 7ad6 0dbe ab0b ddbd
00000090: 3759 e5bd d03b 61bd 9ac9 533e f4e2 8ebd
000000a0: da59 d03d 5cc5 163e a059 2a3e 289c b8bd
000000b0: a825 d6bd 29da 123e 85ca b03d ba2f 8c3d
000000c0: 9c98 a3bd c6d9 563c b560 b3bb 0924 113e
000000d0: 5a5e 3a3d 710d f0ba d32c 343d 6aca e13d
000000e0: ad50 1f3e 67dd 00be 214c 5f3b 2205 993d
000000f0: 2654 e03d 8d2d 123c 6e78 133e c957 fd3d
00000100: ff2e e23d 79bf 2abe 6aaf e93d 265c e63b
00000110: 00fc 9d3d bd5d 2cbe f781 083e dbea 73be
00000120: 8a22 59bd 9ce8 5e3e beff 903d 7710 0f3e
00000130: 3cd4 ef3c 7e4c 1dbc 683c f4bd 3987 01be
00000140: 8e77 173e 562f 283e d19a 8fbe 0b56 843b
00000150: b610 0abe 9303 d9bc 04e5 32be 54f8 493b
00000160: 6e84 17be c2bb ac3d 8bfc dbbd 79b7 acbd
00000170: 7cd2 4abe 3fee 13be b876 7a3c 57d1 093e
00000180: 6ab1 18bd 34b8 e0bc f25c 3b3e 6dd4 26be
00000190: 106a 103c 3f89 ff3d 5168 f9bd 8131 3abe
000001a0: a8b1 173d 387c 58be 53f6 3abe 0173 8c3d
000001b0: 86ea 2dbe 97e9 53be 2dde 543e e6a0 d03d
000001c0: 4218 3dbe be5c 383d b09b d6bd 2a98 13bd
000001d0: 1ad4 9fbd d54f 11be bd83 a43d 7a07 55bd
000001e0: fba8 143d a1b0 cfbc 8bd3 e4bd baf2 1f3e
000001f0: 3dd4 563e b6c7 23be c2d1 c3bd a685 073d

network.2.weight f4 [64, 128]
0.043702286 0.1426836 0.032881416 0.11853951 0.0385996 -0.09994892 -0.087669395 -0.16671197
0.04181306 0.06843654 0.08089348 0.026835553 0.029946102 -0.13636078 0.020590018 0.039431836
-0.09644567 -0.08745545 0.04548 0.0039292504 0.010906818 -0.11573168 0.012913514 -0.14926581
-0.1435251 -0.09558382 -0.1549109 0.07668412 0.14223361 -0.023165006 -0.12681152 0.075001836
-0.004436692 -0.010744924 0.049996898 0.14006658 -0.046663184 0.061954085 0.053774957 -0.113424905
0.01863596 0.03455121 -0.050323464 -0.12858424 0.06028749 -0.024431992 0.053690266 -0.08591034
-0.07658549 -0.06991286 -0.044646434 0.04855486 0.0055420874 -0.081646495 0.07641271 -0.006365683
0.09125963 -0.15175815 0.09240938 0.06781663 0.08621011 -0.013151471 0.0117019545 0.08112486
0.015455145 0.07293214 0.028631214 -0.07508202 0.033949558 -0.031925224 0.1044244 -0.13827185
0.041031566 0.060048293 -0.02975263 0.043596447 0.09591241 -0.0460239 0.049399454 0.0803972
0.044899456 0.051612183 -0.053158835 -0.09970304 0.013152623 0.11214728 0.11159297 -0.047829088
-0.024031132 0.043642502 0.07121033 -0.045703094 -0.12663554 -0.039098475 0.058091212 -0.032617804
0.18047197 -0.00888781 -0.07216957 0.021193895 -0.021428326 0.07075512 0.051846508 0.075002514
-0.016925605 -0.14670222 0.14515632 -0.096391544 0.051926304 -0.0062876903 0.013920013 0.046501026
-0.051312417 0.13764472 0.09254082 0.1268742 0.051259123 0.11954685 0.05754254 -0.0709748
0.049834732 0.018310895 0.067693956 -0.019114375 -0.044315312 -0.061630536 0.077211894 -0.008675195
0.026047824 -0.13114914 -0.012080857 -0.03893253 0.037297137 -0.038682275 0.116033904 0.16648857
0.017799968 -0.0015676949 -0.10476365 0.074192375 -0.0574389 0.053690046 -0.055731505 -0.14010653
0.045944594 -0.05868042 -0.020751933 0.032921664 -0.07611253 -0.0041882424 0.0053946623 0.070547566
0.02241031 0.082949735 0.14108802 -0.068485 0.0094490545 0.076816 0.15322985 0.091801085
0.056021694 0.08441311 0.017148167 -0.066925324 -0.029325958 -0.056765884 -0.06710983 0.04587098
0.07209103 0.05178596 0.0043592295 0.13908188 0.015834263 0.06220664 0.03046741 0.10695991
0.12833455 0.01970688 -0.03722706 0.022617308 -0.014120784 0.03175391 -0.06422572 -0.080384314
0.0069772615 0.122837804 0.0658281 0.020268226 -0.052983075 -0.006862701 -0.08364766 0.004830657
-0.05962571 0.038827993 0.058734827 0.11488442 -0.00878382 0.08094179 -0.07952194 0.12641585
-0.026780104 -0.007506204 -0.054026052 -0.015218054 0.013760286 -0.03829028 -0.11614391 -0.12421709
0.06710691 -0.061672114 0.08487433 0.076185204 -0.0053779087 -0.0977107 -0.09353513 -0.03954402
0.046943925 0.11702617 -0.10607803 0.13178028 0.1172169 -0.02189073 0.06800681 0.029931635
-0.06052823 -0.0098306425 -0.010556697 0.051837523 0.11731083 0.00064681907 0.072314456 0.059693567
0.0062463596 0.103906564 -0.0025512269 0.0034604897 -0.07689229 0.013545303 -0.026525676 0.00685983
0.024707085 -0.0391924 0.044699028 0.030526418 -0.08348682 -0.009881994 0.030558212 -0.0028188399
-0.028169263 0.12712114 -0.0045128316 -0.0021640782 0.10342125 0.09948958 -0.10158219 0.0029648165
00000000: 2b01 333d a61b 123e aaae 063d d8c4 f23d
00000010: 9d1a 1e3d 05b2 ccbd 038c b3bd 8bb6 2abe
00000020: 2c44 2b3d 7528 8c3d 7bab a53d 3cd6 db3c
00000030: 8751 f53c 29a2 0bbe 66ac a83c 4783 213d
00000040: 4f85 c5bd d81b b3bd 3d49 3a3d f1c0 803b
00000050: 83b2 323c bb04 edbd 3493 533c 23d9 18be
00000060: 3ef8 12be 73c1 c3bd f7a0 1ebe 900c 9d3d
00000070: b0a5 113e 8ac4 bdbc e1da 01be 909a 993d
00000080: ac61 91bb 7a0b 30bc 8cc9 4c3d 9d6d 0f3e
00000090: e521 3fbd 91c3 7d3d 2143 5c3d 514b e8bd
000000a0: 71aa 983c 9285 0d3d fa1f 4ebd 96ab 03be
000000b0: 04f0 763d 9a25 c8bc 53ea 5b3d c3f1 afbd
000000c0: dad8 9cbd 792e 8fbd 2edf 36bd 76e1 463d
000000d0: 669a b53b 4736 a7bd 447e 9c3d 3897 d0bb
000000e0: 54e6 ba3d 7d66 1bbe 2141 bd3d 72e3 8a3d
000000f0: ed8e b03d 4479 57bc 8eb9 3f3c ca24 a63d
00000100: 9437 7d3c 725d 953d 028c ea3c 9ac4 99bd
00000110: b10e 0b3d 06c4 02bd 76dc d53d 2397 0dbe
00000120: b710 283d 33f5 753d cabb f3bc 3092 323d
00000130: ba6d c43d 8f83 3cbd 1557 4a3d 4aa7 a43d
00000140: 7ee8 373d 4c67 533d 14bd 59bd 1c31 ccbd
00000150: 197e 573c 79ad e53d db8a e43d 6fe8 43bd
00000160: f0dc c4bc 7bc2 323d b9d6 913d 2b33 3bbd
00000170: bfac 01be b925 20bd 0df1 6d3d 3f9a 05bd
00000180: a5cd 383e 2d9e 11bc a4cd 93bd d29e ad3c
00000190: 758a afbc 0fe8 903d 015d 543d eb9a 993d
000001a0: 91a7 8abc 1b39 16be dca3 143e ee68 c5bd
000001b0: adb0 543d f808 cebb c410 643c dc77 3e3d
000001c0: f82c 52bd bdf2 0c3e 0b86 bd3d 4feb 013e
000001d0: 16f5 513d fbd4 f43d bab1 6b3d 3c5b 91bd
000001e0: 811f 4c3d bb00 963c 21a3 8a3d c095 9cbc
000001f0: f983 35bd 4d70 7cbd 4521 9e3d 6822 0ebc
00000200: 3f62 d53c f64b 06be c9ee 45bc b777 1fbd
00000210: e2c4 183d 4e71 1ebd 2fa3 ed3d fb7b 2a3e
00000220: 3dd1 913c 1d7b cdba 538e d6bd 2cf2 973d
00000230: 0d45 6bbd 18ea 5b3d b846 64bd 1678 0fbe
00000240: 6630 3c3d e15a 70bd f5ff a9bc ded8 063d
00000250: e3e0 9bbd 863d 89bb b5c5 b03b 3e7b 903d
00000260: d495 b73c 8de1 a93d 6179 103e dd41 8cbd
00000270: 35d0 1a3c b551 9d3d 49e8 1c3e 3502 bc3d
00000280: 0177 653d c8e0 ac3d 507a 8c3c 2510 89bd
00000290: fe3c f0bc 5883 68bd e170 89bd 35e3 3b3d
000002a0: 76a4 933d 841d 543d ded7 8e3b 7b6b 0e3e
000002b0: dbb6 813c 64cc 7e3d ca96 f93c cc0d db3d
000002c0: 226a 033e 5370 a13c 677b 18bd ef47 b93c
000002d0: dc5a 67bc 6310 023d c688 83bd 88a0 a4bd
000002e0: 83a1 e43b 6392 fb3d e2d0 863d 8d09 a63c
000002f0: c804 59bd 82e0 e0bb 774f abbd 7d4a 9e3b
00000300: 173a 74bd 1a0a 1f3d ee93 703d 8648 eb3d
00000310: 03ea 0fbc cfc4 a53d 66dc a2bd 2873 013e
00000320: f361 dbbc 9af6 f5bb 6c4a 5dbd 2555 79bc
00000330: d372 613c 45d6 1cbd dcdc edbd 8865 febd
00000340: 596f 893d e69b 7cbd 98d2 ad3d fd06 9c3d
00000350: 2b39 b0bb 8c1c c8bd 598f bfbd e9f8 21bd
00000360: 4648 403d 6bab ef3d 703f d9bd 69f1 063e
00000370: 6a0f f03d 3054 b3bc 2847 8b3d 3033 f53c
00000380: 73ec 77bd b410 21bc fff5 2cbc 9553 543d
00000390: a940 f03d 4b8f 293a 9a19 943d 3e81 743d
000003a0: 43ae cc3b f7cc d43d 7c32 27bb 62c9 623b
000003b0: b479 9dbd 1eed 5d3c 604c d9bc 6dc8 e03b
000003c0: 8366 ca3c 3688 20bd 5416 373d 8a12 fa3c
000003d0: 23fb aabd 16e8 21bc 3755 fa3c 49bc 38bb
000003e0: 3ac3 e6bc 0b2c 023e 60e0 93bb 35d3 0dbb
000003f0: 85ce d33d 31c1 cb3d 530a d0bd 5e4d 423b

network.2.bias f4 [64]
0.03538284 0.017929286 0.036775704 -0.011327789 -0.10150476 -0.030371636 0.0050993366 0.07964366
0.05919768 0.01119351 -0.008168713 0.021308236 0.03334743 0.023241524 -0.015341599 -0.067415036
-0.055277947 0.0022811496 -0.04018846 0.016386 0.06550193 0.015231393 -0.003309423 -0.05787725
-0.017640622 0.102868944 -0.0292893 -0.03305882 -0.06900639 -0.059513576 0.0070709563 0.038943008
-0.112790845 -0.0066024996 0.056560975 -0.06362664 0.07820747 -0.009070664 -0.025145642 0.051462885
0.029112851 0.028661704 0.06405319 0.09766409 -0.011958883 0.015674358 1.1793309e-06 0.079218216
0.15950318 0.08806926 -0.03115195 -0.0676716 -0.07019704 0.012297058 -0.015506083 0.07649878
-0.015221744 0.040550362 0.01848403 0.04867114 0.13829008 -0.08729515 0.0053789364 0.0023742504
00000000: 99ed 103d 70e0 923c 1fa2 163d 3198 39bc
00000010: bae1 cfbd f0cd f8bc 5618 a73b 371c a33d
00000020: 4479 723d fc64 373c 11d6 05bc 9c8e ae3c
00000030: 5197 083d 0265 be3c 545b 7bbc e510 8abd
00000040: 216b 62bd 577f 153b a89c 24bd ef3b 863c
00000050: e025 863d 188d 793c e8e2 58bb b210 6dbd
00000060: 1183 90bc f4ac d23d 1df0 efbc af68 07bd
00000070: 3953 8dbd 82c4 73bd 7bb3 e73b b482 1f3d
00000080: e3fe e6bd c859 d8bb 7bac 673d af4e 82bd
00000090: 3d2b a03d 1f9d 14bc 3cfe cdbc bfca 523d
000000a0: 137e ee3c f3cb ea3c 522e 833d 1c04 c83d
000000b0: 31ef 43bc 8367 803c 8049 9e35 293d a23d
000000c0: cd54 233e a85d b43d 6032 ffbc 6897 8abd
000000d0: 77c3 8fbd 9979 493c 3a0d 7ebc 64ab 9c3d
000000e0: 9f64 79bc 2318 263d d26b 973c 645b 473d
000000f0: ea9b 0d3e cdc7 b2bd ca41 b03b 5099 1b3b

network.4.weight f4 [16, 64]
0.086428694 0.050431944 -0.0775292 0.05700963 -0.3516167 -0.15830341 0.46308854 0.12559882
-0.08102158 0.10633169 0.06513375 -0.15752141 0.1899579 -0.36692852 -0.10972944 -0.03706033
-0.004408525 -0.014066407 0.06801294 0.057207067 0.009768659 -0.11804413 0.3654526 0.038753163
-0.014778511 0.072643705 0.15440537 -0.10734275 -0.060125265 -0.013906907 0.16373935 0.18269648
-0.16357018 0.070192896 -0.02427525 0.100624524 0.18732907 0.28824273 -0.16554978 0.22914082
0.35430697 0.04321516 0.28056413 0.06689095 -0.14021085 -0.09135504 0.17407075 -0.0008935441
0.38006037 0.121954754 0.1412562 0.3922223 -0.38634592 0.005573062 -0.39334488 0.19808483
0.08136631 0.027000887 -0.13342835 -0.0685491 0.2671218 -0.2187146 0.12508668 -0.4979155
0.16531116 0.098904006 0.028047038 0.10233359 -0.3237458 0.043342754 0.3739792 0.007084242
0.011239688 0.09812551 -0.04338772 -0.16547558 0.14781001 -0.18054558 -0.14745526 -0.16415147
0.04490898 -0.089816734 0.13256493 0.21091458 0.0833412 -0.080737434 0.1791618 -0.04326405
-0.12766014 -0.015181924 0.06593036 -0.05789498 -0.12498218 -0.12369669 0.09318217 0.019277724
-0.054332726 0.20078899 0.0043364456 -0.1404375 0.013748387 0.15610151 -0.25010297 0.21693236
0.37347627 -0.010180907 0.13736497 0.049548887 -0.120311186 -0.07466731 0.17405689 0.21750048
0.36425817 0.30645934 0.14344005 0.3834112 -0.365778 -0.016968984 -0.29811478 0.123460226
0.047760207 0.10063742 0.040525448 -0.005487979 0.31631353 -0.29872823 -0.09952972 -0.377481
-0.06865825 -0.004271689 0.11796036 -0.026062254 0.38297755 0.14393555 -0.4898593 0.04631982
0.13695395 -0.008740793 0.17261958 0.21206927 -0.08268277 0.24677962 0.14461277 0.19581662
0.16532886 0.050616544 0.09033636 0.006598177 0.007577719 0.016808262 -0.2680158 -0.08288131
0.15445356 0.051045563 0.12974975 0.13894904 -0.02444164 -0.07579504 0.06402067 -0.05941853
0.085641235 0.0015369272 0.068621166 0.19070025 -0.1252417 -0.037071053 0.37366718 -0.153785
-0.35354552 -0.065200225 -0.1433351 0.046808466 0.13698803 -0.0019213938 -0.0836309 -0.04887603
-0.31501013 -0.29288554 -0.15976469 -0.23123677 0.44219908 -0.08902542 0.41321376 -0.063593864
0.070389576 -0.17648667 0.107051186 0.16519701 -0.15315714 0.2531238 -0.05572822 0.55656666
-0.13860415 0.15954676 0.06563728 -0.09436118 0.3665 0.23156212 -0.39282966 -0.00535923
0.18422225 -0.108104244 0.12360611 0.18044163 0.0025806946 0.23583505 0.118892744 0.21564396
0.17400573 0.081233114 0.0081662275 -0.06572165 0.070013925 0.10639174 -0.3641561 0.038358755
0.15360543 0.04996706 0.10713918 0.18463506 0.18033086 0.084297724 0.0520401 -0.1319215
0.017249307 -0.1541675 0.09121594 0.1667984 -0.10787667 -0.09909009 0.26501068 -0.14886528
-0.24085915 0.02911889 -0.07051494 -0.11628338 0.22826113 0.13965368 0.009069853 0.035648543
-0.29798022 -0.103132606 -0.052953944 -0.23768917 0.34981346 -0.04201225 0.2857678 0.06490969
0.0035466694 -0.10339956 0.12668622 0.11060721 -0.26234207 0.20209 0.11219208 0.5180709
00000000: 8701 b13d ba91 4e3d a1c7 9ebd ee82 693d
00000010: 1b07 b4be 4a1a 22be f119 ed3e fa9c 003e
00000020: a4ee a5bd 6ec4 d93d d864 853d 4b4d 21be
00000030: 5384 423e 0ede bbbe d4b9 e0bd 93cc 17bd
00000040: 6375 90bb ca76 66bc 5e4a 8b3d f551 6a3d
00000050: ba0c 203c 1fc1 f1bd 9a1c bb3e a3bb 1e3d
00000060: 9121 72bc 39c6 943d 711c 1e3e 84d6 dbbd
00000070: e945 76bd ccd9 63bc 4aab 273e c914 3b3e
00000080: f17e 27be 4bc1 8f3d e4dc c6bc 3b14 ce3d
00000090: 31d3 3f3e 8d94 933e e285 29be e4a3 6a3e
000000a0: b967 b53e 6102 313d 1aa6 8f3e 1ffe 883d
000000b0: 6f93 0fbe 5a18 bbbd 9a3f 323e bb3c 6aba
000000c0: 4697 c23e 6ac3 f93d 77a5 103e 5cd1 c83e
000000d0: 22cf c5be 3c9e b63b 8064 c9be c0d6 4a3e
000000e0: 61a3 a63d f730 dd3c 71a1 08be 7863 8cbd
000000f0: 30c4 883e b8f6 5fbe b916 003e c8ee febe
00000100: 5447 293e 2f8e ca3d e7c2 e53c 4694 d13d
00000110: 02c2 a5be 2c88 313d 347a bf3e ee22 e83b
00000120: ab26 383c 07f6 c83d 52b7 31bd 6e72 29be
00000130: 825b 173e f1e0 38be 83fe 16be 5317 28be
00000140: 7bf2 373d d6f1 b7bd 1abf 073e fef9 573e
00000150: cbae aa3d ab59 a5bd 3176 373e a535 31bd
00000160: 57b9 02be 9bbd 78bc 7f06 873d 4923 6dbd
00000170: a8f6 ffbd b154 fdbd 4bd6 be3d 51ec 9d3c
00000180: fe8b 5ebd a19b 4d3e be18 8e3b d9ce 0fbe
00000190: ea40 613c 13d9 1f3e 7f0d 80be 8423 5e3e
000001a0: 4838 bf3e d2cd 26bc 67a9 0c3e c6f3 4a3d
000001b0: b665 f6bd 2deb 98bd f83b 323e 72b8 5e3e
000001c0: 0c80 ba3e 3de8 9c3e f3e1 123e 794e c43e
000001d0: 4147 bbbe 8a02 8bbc 80a2 98be b7d8 fc3d
000001e0: 35a0 433d fe1a ce3d 03fe 253d 81d4 b3bb
000001f0: d9f3 a13e e8f2 98be 3dd6 cbbd 3145 c1be
00000200: b29c 8cbd 86f9 8bbb 3495 f13d 8280 d5bc
00000210: a215 c43e d763 133e d7ce fabe dab9 3d3d
00000220: a83d 0c3e 8b35 0fbc 30c3 303e b028 593e
00000230: 9655 a9bd ccb3 7c3e 5f15 143e 2784 483e
00000240: f84b 293e 4b53 4f3d 4502 b93d 8535 d83b
00000250: 844e f83b 7bb1 893c 5e39 89be adbd a9bd
00000260: 1329 1e3e 2715 513d 1edd 043e a848 0e3e
00000270: d639 c8bc 6e3a 9bbd 451d 833d d860 73bd
00000280: ac64 af3d b872 c93a 4189 8c3d ed46 433e
00000290: 5c3f 00be d1d7 17bd 4e51 bf3e d179 1dbe
000002a0: eb03 b5be b287 85bd 70c6 12be 3cba 3f3d
000002b0: 9746 0c3e 47d7 fbba ad46 abbd 3b32 48bd
000002c0: 0249 a1be 18f5 95be 5b99 23be 55c9 6cbe
000002d0: eb67 e23e f652 b6bd c190 d33e 803d 82bd
000002e0: 6928 903d ecb8 34be a73d db3d 6829 293e
000002f0: 3ad5 1cbe 7199 813e 4643 64bd 277b 0e3f
00000300: 3fee 0dbe 3a60 233e d76c 863d 6f40 c1bd
00000310: e3a5 bb3e 9f1e 6d3e f820 c9be 7b9c afbb
00000320: c2a4 3c3e c265 ddbd 3325 fd3d b1c5 383e
00000330: df20 293b be7e 713e 0a7e f33d c5d1 5c3e
00000340: 8f2e 323e 8c5d a63d a4cb 053c 1399 86bd
00000350: 7663 8f3d eae3 d93d ab72 babe 121e 1d3d
00000360: be4a 1d3e 43aa 4c3d c96b db3d f910 3d3e
00000370: a7a8 383e 49a4 ac3d 0028 553d 6e16 07be
00000380: 6b4e 8d3c 16de 1dbe 6ccf ba3d 33cd 2a3e
00000390: 72ee dcbd bfef cabd 7baf 873e 2470 18be
000003a0: c8a3 76be bd8a ee3c 236a 90bd fb25 eebd
000003b0: 49bd 693e 6001 0f3e b999 143c 3504 123d
000003c0: dd90 98be 3037 d3bd 3ce6 58bd ca64 73be
000003d0: c01a b33e 0915 2cbd 2850 923e 5fef 843d
000003e0: 3d6f 683b 26c3 d3bd 08ba 013e 0886 e23d
000003f0: b351 86be aef0 4e3e f6c4 e53d 4ba0 043f

network.4.bias f4 [16]
0.03290817 0.09711988 -0.0065084263 -0.12447995 0.067232974 -0.08433676 0.11576945 0.08754184
0.019438624 -0.04231907 0.16056012 -0.08194133 -0.11680983 -0.1255051 -0.041764256 0.0046454985
00000000: b8ca 063d cae6 c63d a344 d5bb 58ef febd
00000010: 71b1 893d c0b8 acbd 8918 ed3d 2349 b33d
00000020: c03d 9f3c c356 2dbd df69 243e dbd0 a7bd
00000030: fe39 efbd 6984 00be ff10 2bbd 4439 983b

network.6.weight f4 [2, 16]
-0.2707841 -0.2704436 0.18897744 0.3968062 -0.43521973 -0.1443899 0.28156838 -0.1719269
0.08852982 0.2547326 -0.31947544 0.4577115 0.13273439 0.4067131 0.11359395 -0.3634507
0.32417744 0.19069675 -0.32296437 -0.100950666 0.31159618 0.109740764 -0.3304137 0.27344796
-0.39516354 -0.163698 0.22848557 -0.08792349 -0.32053864 -0.27907467 0.17704664 0.071311586
00000000: 37a4 8abe 9577 8abe 4d83 413e 2f2a cb3e
00000010: 1fd5 debe f2da 13be bb29 903e 9b0d 30be
00000020: 1f4f b53d 506c 823e 4992 a3be 2959 ea3e
00000030: 86eb 073e b33c d03e f2a3 e83d 3616 babe
00000040: 96fa a53e 0246 433e 965b a5be 39bf cebd
00000050: 8989 9f3e c4bf e03d fc2b a9be 5f01 8c3e
00000060: e052 cabe 73a0 27be 1ff8 693e 3b11 b4bd
00000070: a41d a4be e0e2 8ebe b74b 353e cf0b 923d

network.6.bias f4 [2]
-0.002891353 -0.09386782
00000000: db7c 3dbb c63d c0bd
