models/heloc/rs/adam_epochs30_lr0.0004_batch32_dropout0/model_989.pth (torch, 52515 bytes, 8 tensors)

network.0.weight f4 [128, 23]
0	0x3e7258a1	0.23666622
1	0xbe7cbe88	-0.24682057
2	0xbc8095e5	-0.015696475
3	0xbdcbc72b	-0.09950098
4	0x3e655aa0	0.22397852
5	0xbc1b9d9a	-0.009498024
6	0xbe7c27f0	-0.2462461
7	0x3ded0168	0.11572534
8	0xbd737f0e	-0.05944734
9	0xbb8fb1c1	-0.0043852036
10	0xbd892af2	-0.06697644
11	0x3dcc8a74	0.09987345
12	0xbd78c0ba	-0.060730673
13	0x3cd48ead	0.02594694
14	0x3e758ffe	0.2398071
15	0xbe56c22b	-0.20972507
16	0xbb4cfb7a	-0.0031277821
17	0xbe38c81e	-0.18045089
18	0xbca9401a	-0.020660449
19	0x3e500547	0.20314513
20	0xbe3d35a1	-0.18477489
21	0x3ded7a6f	0.11595618
22	0x3e13efb2	0.14446905
23	0xbdcd676d	-0.100294925
24	0xbe6ed8e9	-0.23324932
25	0x3c98ee66	0.018668365
26	0xbe457587	-0.19283114
27	0xbcb4dad2	-0.022076998
28	0x3d32d572	0.04366059
29	0xbd639ed3	-0.05557139
30	0x3c42caba	0.011889154
31	0x3c499d45	0.012305562
32	0x3d07404c	0.033020303
33	0xbd8b8e21	-0.06814218
34	0x3e40beff	0.18822859
35	0x3e09362c	0.13399571
36	0xbd29b779	-0.04143474
37	0xbe61b490	-0.22041535
38	0xbe3fe52c	-0.18739766
39	0xbdf99b60	-0.121878386
40	0x3d6217d3	0.0551985
41	0xbce4f1ca	-0.027947325
42	0x3e6d1fda	0.23156682
43	0xbe5c9827	-0.21542417
44	0x3da6bcbf	0.08141469
45	0x3e148113	0.14502363
46	0x3cbe1918	0.023205325
47	0xbe1d5b1e	-0.1536679
48	0xbcee8f04	-0.02912093
49	0xbe8921b2	-0.2678352
50	0x3e2f2529	0.17104019
51	0xbd67820e	-0.056520514
52	0x3ddf4122	0.10901095
53	0xbd4f5130	-0.050614536
54	0xbbb4101d	-0.005495085
55	0x3d9a3a50	0.075306535
56	0x3e1671a0	0.14691782
57	0x3e0d3ff4	0.13793927
58	0x3d1ad753	0.037803005
59	0xbe1d668a	-0.15371147
60	0xbdd34c11	-0.10317243
61	0x3e12eb2a	0.1434752
62	0xbe125780	-0.14291191
63	0xbe30584a	-0.1722118
64	0xbe3522cb	-0.17689054
65	0x3d92c399	0.071662135
66	0xbd98b84e	-0.07457028
67	0x3d17861b	0.036993127
68	0xbe721634	-0.23641282
69	0x3e0af11d	0.1356854
70	0xbe49e4b2	-0.19716147
71	0xbe048ffa	-0.12945548
72	0x3dd49fa3	0.10382011
73	0x3d2a8a41	0.041635755
74	0xbdc62d86	-0.09676652
75	0x3e6d3bf3	0.231674
76	0xbc4fee82	-0.012691142
77	0xbcb86c13	-0.022512471
78	0xbc5598a4	-0.013036881
79	0xbdb4b2da	-0.08823176
80	0x3e053df8	0.1301192
81	0xbe7b59c0	-0.24545956
82	0x3d8cffdf	0.06884741
83	0xbd996d70	-0.07491577
84	0xbd08f534	-0.03343697
85	0xbd89b847	-0.06724601
86	0x3d9664ae	0.07343422
87	0xbe2bb1ed	-0.16767092
88	0x3e2488bb	0.16067784
89	0xbe8d87ac	-0.27642572
90	0xbe21ea83	-0.15812115
91	0x3e7ccafa	0.24686804
92	0x3e3f1a39	0.18662347
93	0x3db09c76	0.086235926
94	0xbdad654d	-0.08466587
95	0xbe3312eb	-0.17487685
96	0x3dddb30e	0.108251676
97	0xbda8d170	-0.08243072
98	0xbe4f400c	-0.20239276
99	0x3d392a27	0.045206215
100	0xbe2c0608	-0.16799176
101	0x3dbf34c4	0.09336236
102	0x3d1502fc	0.0363798
103	0xbde03f00	-0.10949516
104	0x3e47cc5d	0.19511552
105	0x3e3a3c31	0.18187024
106	0x3d68263c	0.05667709
107	0x3d5e8d19	0.05433378
108	0x3bbfa697	0.0058487165
109	0x3d6a8ae3	0.05726136
110	0x3de1b972	0.11021699
111	0xbdaef947	-0.0854364
112	0x3e3c2dfc	0.18376917
113	0xbe5fa559	-0.21840419
114	0x3e6f4dd4	0.23369533
115	0xbe4cd630	-0.20003581
116	0xbea331ee	-0.3187403
117	0x3c8f0a01	0.017460825
118	0xbe63067d	-0.22170444
119	0xbca6a66f	-0.020343034
120	0xbbde1932	-0.006777906
121	0xbded0167	-0.11572533
122	0xbe685baf	-0.22691225
123	0xbe3ec7d4	-0.18630916
124	0xbd962606	-0.07331471
125	0x3e3b06ec	0.18264359
126	0xbe01995b	-0.12656157
127	0x3e6b23d5	0.22962888
128	0x3e38c634	0.18044358
129	0xbe0088d5	-0.12552197
130	0x3e073869	0.13205113
131	0x3d8c3d54	0.06847635
132	0x3e27f780	0.16403008
133	0x3db780fe	0.0896015
134	0xbe058ebd	-0.13042732
135	0x3dbc4283	0.091923736
136	0x3dcaca96	0.099019215
137	0x3e44f39f	0.19233559
138	0x3e075797	0.13217007
139	0xbe3406b9	-0.1758069
140	0xbe5ef01b	-0.2177128
141	0x3c266685	0.0101562785
142	0x3e346d67	0.17619859
143	0x3daedf77	0.08538716
144	0x3d4b1083	0.049576294
145	0xbe39dc2a	-0.18150392
146	0x3e342576	0.17592415
147	0xbdd2c2e7	-0.10291081
148	0xbe10e5eb	-0.14150207
149	0x3e44ed45	0.19231136
150	0x3ceae1ea	0.028672177
151	0xbde7c7b2	-0.11317386
152	0x3d9651f6	0.073398516
153	0xbe35e3dc	-0.17762703
154	0xbd901fdc	-0.07037327
155	0x3d8335b1	0.06406725
156	0x3d92f20a	0.071750715
157	0x3ba5013c	0.0050355475
158	0x3e29346b	0.16523902
159	0x3e5a191c	0.21298641
160	0xbc84ef4b	-0.016227385
161	0xbe34d7d2	-0.17660454
162	0x3e6ac7ee	0.2292783
163	0x3d4cf261	0.050035838
164	0x3dbfc82e	0.09364353
165	0x3d81e0a5	0.06341676
166	0xbb54c454	-0.0032465653
167	0xbe433706	-0.19063959
168	0x3e783eb7	0.24242674
169	0xbceed3ae	-0.029153671
170	0xbe8e7208	-0.27821374
171	0x3e751e6d	0.23937388
172	0x3d52a69f	0.051428434
173	0x3e3edbe8	0.18638575
174	0x3da63db9	0.081172414
175	0x3e0f5eb1	0.14000966
176	0xbd8a76f7	-0.06760972
177	0xbe1544fc	-0.14577097
178	0xbda21bd1	-0.07915462
179	0xbde1a4d5	-0.11017767
180	0xbe1b1ea4	-0.15148407
181	0xbe5ee111	-0.21765544
182	0xbe7f6e57	-0.24944435
183	0x3ca3c5e9	0.019991832
184	0x3e499359	0.19685115
185	0x3d5fdcaa	0.0546538
186	0x3e681eab	0.22667949
187	0xbc97d1c9	-0.01853265
188	0xbcbccf52	-0.023048077
189	0xbe078abb	-0.13236515
190	0xbea66a49	-0.32502964
191	0x3e342839	0.17593469
192	0x3e64e3d1	0.2235253
193	0x3bc4905e	0.005998655
194	0xbc9da205	-0.019242296
195	0x3a825181	0.0009942503
196	0x3e6595d0	0.2242043
197	0x3e1ed6dc	0.1551165
198	0x3e63f9a5	0.222632
199	0x3df6bbd5	0.12047545
200	0xbdb6e0fd	-0.08929632
201	0x3dc4d461	0.096108206
202	0x3e4fd097	0.20294414
203	0x3e14438e	0.14478895
204	0x3e44f38c	0.19233531
205	0x3d1a5931	0.037682716
206	0xbd64180f	-0.055687007
207	0xbd79eccb	-0.06101684
208	0x3c255c47	0.010092801
209	0xbdc79a59	-0.09746236
210	0xbd79a323	-0.060946595
211	0xbdb6c42a	-0.08924134
212	0x3dabf613	0.08396544
213	0x3cae3fac	0.021270595
214	0xbe27a3cc	-0.16371077
215	0x3c0acbff	0.008471488
216	0xbe2fe1d6	-0.17175993
217	0xbde254e8	-0.11051351
218	0x3e8299da	0.25508004
219	0xbde8eee0	-0.11373687
220	0xbcbb82b5	-0.022889474
221	0x3d0b955f	0.034078
222	0x3dad140e	0.08451091
223	0x3e43b06f	0.19110273
224	0xbe2ddc71	-0.16978623
225	0x3e9868ec	0.2976755
226	0xbc67a78a	-0.0141390655
227	0xbe2f7958	-0.17136133
228	0x3da36dc4	0.079799205
229	0xbe3ff7e6	-0.1874691
230	0x3e12ef42	0.14349082
231	0xbdcbfbdd	-0.099601485
232	0xbe2c4a8c	-0.16825312
233	0xbe5b2c3d	-0.21403594
234	0xbba1a268	-0.0049326904
235	0xbe015e7f	-0.12633704
236	0xbe1eb8f3	-0.1550024
237	0x3e5754fc	0.21028513
238	0x3e2590a5	0.16168459
239	0xbe3ac39f	-0.18238686
240	0xbb967ef2	-0.00459277
241	0xbe23e1c0	-0.16004086
242	0xbe70f5d1	-0.23531272
243	0xbd404280	-0.04693842
244	0xbeae5d72	-0.34055668
245	0x3b22fc25	0.0024869528
246	0x3e404685	0.18776901
247	0x3ce4fba2	0.02795202
248	0x3d676102	0.056489
249	0x3e102fa0	0.14080667
250	0x3df6240e	0.12018596
251	0x3e0d1f0a	0.13781372
252	0xbd34b6ba	-0.044119574
253	0xbd237ad5	-0.039912064
254	0x3da7170e	0.08158694
255	0xbcde4603	-0.027132994

network.0.bias f4 [128]
0	0x3de3aae0	0.11116576
1	0x3d620839	0.055183623
2	0xbdd4b0d1	-0.103852876
3	0x3e00e788	0.12588322
4	0x3cc1f4c0	0.023676276
5	0x3cfa8fde	0.03058618
6	0x3da04064	0.078247815
7	0x3dcefb7b	0.1010656
8	0xbdf2984b	-0.11845454
9	0x3d8fa51b	0.07013913
10	0x3d8d2724	0.06892231
11	0x3d113a53	0.035456013
12	0xbd68bc43	-0.056820165
13	0xbd867498	-0.06565207
14	0x3c71a8d6	0.014749726
15	0x3e0e183c	0.13876432
16	0x3a3b1922	0.0007137229
17	0xbde2c618	-0.1107294
18	0xbe692927	-0.22769605
19	0xbda2db9e	-0.07952045
20	0xbcd4fad4	-0.02599851
21	0xbcd7c975	-0.02634118
22	0x3d9447a6	0.07240228
23	0x3d06bc71	0.032894555
24	0xbe2ac860	-0.16678
25	0x3e11def1	0.14245202
26	0xbdece674	-0.11567393
27	0x3dc83563	0.09775808
28	0xbd91a2d3	-0.071111344
29	0xbdc5b1c2	-0.09653045
30	0xbda2d930	-0.079515815
31	0xbd8f792c	-0.070055336
32	0xbcac9582	-0.021067385
33	0xbdd9af20	-0.106291056
34	0x3e009092	0.12555149
35	0x3e080fd2	0.13287285
36	0xbd2388af	-0.039925274
37	0x3d0a7ea9	0.0338122
38	0x3e75049c	0.2392754
39	0x3e367011	0.17816187
40	0x3bb000f1	0.005371206
41	0x3d7630c7	0.06010511
42	0x3e249959	0.16074122
43	0xbd3d2099	-0.046173666
44	0xbe0ef4e4	-0.13960606
45	0xbc3cc831	-0.011522339
46	0x3d29fd47	0.04150131
47	0xbdf7a278	-0.12091535
48	0xbd894376	-0.0670232
49	0x3d46a232	0.048494525
50	0xbe3f7c66	-0.18699798
51	0x3d442710	0.047888815
52	0x3dee4d7c	0.11635873
53	0x3de5ba80	0.11217213
54	0x3cba42d1	0.022736939
55	0xbd610c1a	-0.05494318
56	0xbe6e5ff3	-0.23278789
57	0xbe59ca9b	-0.21268694
58	0xbe4e82de	-0.2016711
59	0x3dfff40c	0.1249772
60	0xbcafaf4d	-0.021445895
61	0x3c4d8f06	0.0125463065
62	0x3c94d39c	0.01816731
63	0x3e2a69fb	0.16641991
64	0xbc2be6bd	-0.010492024
65	0xbdea963c	-0.11454436
66	0x3e1e861f	0.1548085
67	0x3e212849	0.15738024
68	0xbdfa55b8	-0.12223381
69	0xbd2408b2	-0.040047355
70	0xbe827678	-0.2548101
71	0x3c250524	0.010072026
72	0xbe091764	-0.13387829
73	0xbbc160fb	-0.0059014536
74	0xbda9fe43	-0.0830045
75	0xbe2b4cdb	-0.16728537
76	0xbd897d5f	-0.06713366
77	0x3e59a2c3	0.21253495
78	0xbdb4f3a3	-0.088355325
79	0xbd3e7272	-0.046495862
80	0xbd97cf5f	-0.074126
81	0xbd30e576	-0.04318758
82	0x3e1bd812	0.15219143
83	0x3d93f337	0.07224124
84	0x3cf288dd	0.029606277
85	0x3e42aa1f	0.19010209
86	0x3d2b0b18	0.041758627
87	0x3a962361	0.0011454636
88	0xbd315e6c	-0.04330294
89	0xbc82f508	-0.01598598
90	0x3d6154ae	0.055012397
91	0x3e7ad938	0.24496925
92	0xbdcb4170	-0.099245906
93	0x3dce23df	0.100654356
94	0xbe4c4ffc	-0.19952387
95	0x3d63697e	0.055520527
96	0xbe7d02b0	-0.24708056
97	0xbe5f4443	-0.21803384
98	0x3d20831e	0.039187543
99	0x3d4fd92a	0.050744213
100	0x3dfe5854	0.12419191
101	0xbdb11c26	-0.08647947
102	0xbe534f53	-0.20635729
103	0x3e30f83b	0.17282192
104	0x3dbc8f3d	0.09207008
105	0x3d903922	0.07042147
106	0x3de34eaa	0.11098988
107	0xbc5fed4a	-0.013667414
108	0xbcfe213a	-0.031021703
109	0x3e7e7f3f	0.24853228
110	0x3e3971a9	0.18109764
111	0xbcb61944	-0.022228844
112	0x3e42f256	0.19037756
113	0x3e2463c0	0.16053677
114	0x3cbf95f3	0.023386931
115	0x3def41bb	0.11682459
116	0xbdefb015	-0.11703507
117	0xbe29ec3a	-0.1659402
118	0xbe73f3b7	-0.23823439
119	0x3d84f902	0.06492807
120	0x3e3b3a1d	0.18283887
121	0xbe20d74c	-0.15707129
122	0x3e103e78	0.1408633
123	0x3e546823	0.2074285
124	0xbd63bb66	-0.05559864
125	0x3e5d47ac	0.21609372
126	0xbdb9452c	-0.090463966
127	0x3e0c4ea1	0.1370187

network.2.weight f4 [64, 128]
0	0xbd9a03c9	-0.07520253
1	0xbd88c851	-0.06678832
2	0x3d7c1030	0.061538875
3	0x3caaecc1	0.020864846
4	0xbcb4278b	-0.021991512
5	0x3cd99425	0.026559899
6	0x3d51644a	0.051121034
7	0xbe2f7d46	-0.17137632
8	0xbde92125	-0.11383275
9	0x3de1d52b	0.11026987
10	0x3d9f81a6	0.077884
11	0xbce24001	-0.02761841
12	0xbbea4a39	-0.0071499613
13	0x3e08749f	0.13325737
14	0x3d0fb64e	0.03508597
15	0xbd305e73	-0.043058824
16	0xbded68a4	-0.11592224
17	0x3db79e78	0.089657724
18	0xbd00e31f	-0.0314666
19	0xba5f09ec	-0.00085082534
20	0x3e0efce9	0.13963665
21	0xbb1aa047	-0.0023594068
22	0x3dc1e5b3	0.0946764
23	0xbe02e213	-0.12781553
24	0x3d95ede1	0.073207624
25	0x3d10eeff	0.035384174
26	0xbb6d59a2	-0.0036216755
27	0x3cd981c9	0.026551144
28	0x39fd8a79	0.0004835909
29	0x3d80c870	0.062882304
30	0xbd3badb0	-0.04581994
31	0x3d5d2d2e	0.053998165
32	0xbd4db7f4	-0.05022426
33	0xbdfb2db0	-0.122645736
34	0x3de6088d	0.112321
35	0x3cd28948	0.025700226
36	0x3db4613a	0.08807607
37	0x3d0f97a7	0.035056736
38	0x3d8790ef	0.06619441
39	0x3d924e26	0.07143812
40	0x3d14ce2a	0.036329426
41	0xbcac16fc	-0.021007054
42	0xbd70a4d3	-0.05875094
43	0x3cc88795	0.024478713
44	0xbde131a0	-0.10995793
45	0x3ba3ecdd	0.0050026015
46	0x3c9a105b	0.018806627
47	0x3e112582	0.14174464
48	0xbc4257a8	-0.011861719
49	0x3cfa5f54	0.030563034
50	0x3dc2f45a	0.095192626
51	0xbc88a975	-0.016682366
52	0xbcd39018	-0.025825545
53	0xbd3c86a1	-0.04602683
54	0xbd339fec	-0.043853685
55	0x3df18327	0.117925934
56	0x3da0802a	0.07836945
57	0x3db77844	0.08958486
58	0x3dc77e5e	0.097408995
59	0xbd2b9be7	-0.041896727
60	0x3da29973	0.07939424
61	0xbd725bfa	-0.059169747
62	0xbdb66e74	-0.08907786
63	0xbd5ee258	-0.054415077
64	0xbc37699f	-0.011194616
65	0x3ce16cd1	0.027517708
66	0xbcd4f4fa	-0.02599572
67	0x3d011ac4	0.031519666
68	0x3dfdea31	0.12398184
69	0xbc3e7046	-0.011623448
70	0xbd29c482	-0.04144717
71	0x3de317de	0.11088537
72	0x3e1a2507	0.15053187
73	0xbc6e2771	-0.014535771
74	0x3de34837	0.11097758
75	0x3d03a080	0.032135487
76	0x3d029549	0.03188065
77	0x3cd15503	0.025553232
78	0x3b1796be	0.002313062
79	0x3d33b39d	0.043872464
80	0x3c673def	0.014113887
81	0x3d6d4d9f	0.057935353
82	0xbdc8b688	-0.0980044
83	0x3cfb7d54	0.03069941
84	0x3d2a07ca	0.041511334
85	0x3c8bc253	0.017060434
86	0xbd829cd5	-0.063775696
87	0xbd8b5ec4	-0.068051845
88	0x3d33723c	0.043810114
89	0x3e1aca0b	0.15116136
90	0xbdcfb5ed	-0.101421215
91	0xbd39fec6	-0.045408987
92	0xbddd8c8b	-0.10817822
93	0xbda6aecb	-0.08138808
94	0x3e191d4c	0.14952582
95	0xbc9eeac3	-0.019399052
96	0x3e0adb7f	0.13560294
97	0x3da51ba9	0.080619164
98	0x3d9488f2	0.07252683
99	0x3d7afc13	0.061275553
100	0x3dda5108	0.10659987
101	0x3d9fcf65	0.07803229
102	0x3e0e6da9	0.1390902
103	0x3d9b11ee	0.07571779
104	0x3e00afeb	0.12567107
105	0xbcaf2bca	-0.021383185
106	0xbd0a7b00	-0.03380871
107	0xbd2777a1	-0.04088557
108	0x3d80530c	0.0626584
109	0xbd30cba2	-0.04316295
110	0xbd8b7e1c	-0.06811163
111	0xbc717e8b	-0.014739643
112	0x3dc844a6	0.09778719
113	0xbd69c015	-0.05706795
114	0x3d8f7484	0.070046455
115	0x3d5861ea	0.052827753
116	0x3ccdbe7d	0.025115246
117	0x3e0b478f	0.13601516
118	0x3d25b2dc	0.040453777
119	0xbd9025a8	-0.07038432
120	0xbd76faf5	-0.060297925
121	0xbdcd719b	-0.10031434
122	0xbb6209cf	-0.003449071
123	0x3db4f60b	0.088359915
124	0x3dfa19f0	0.122119784
125	0x3d7500a3	0.05981506
126	0x3d34e638	0.044164866
127	0x3cff3c89	0.031156795
128	0x3db90a2c	0.09035143
129	0x3d506654	0.050878838
130	0xbca7165c	-0.020396404
131	0x3d0e8d76	0.034802876
132	0xbd355a93	-0.04427583
133	0xbc81e286	-0.015855085
134	0x3da1846d	0.07886586
135	0x3cdd36c0	0.027003646
136	0x3e048d9e	0.12944648
137	0x3d39dfd3	0.04537947
138	0x3c6eeb3c	0.014582451
139	0x3dd62f28	0.10458213
140	0xbd621921	-0.055199746
141	0xbd861e89	-0.06548793
142	0xbb47f2cc	-0.0030509708
143	0x3be453a0	0.0069679767
144	0x3de1f7e9	0.11033613
145	0xbc1427e5	-0.009042715
146	0xbdbe55a1	-0.09293676
147	0x3cad93f8	0.021188721
148	0xbe0d1e63	-0.13781123
149	0x3d145dc3	0.03622223
150	0x3ddb47a4	0.10707024
151	0x3dc099f6	0.09404366
152	0x3cd94245	0.026520858
153	0x3c4e3d1e	0.012587814
154	0x3e1946a9	0.14968361
155	0x3e0266e3	0.1273456
156	0xbca245c2	-0.019808654
157	0xbd9ce0fd	-0.076601006
158	0x3da5655c	0.080759734
159	0x3d1b4bff	0.037914272
160	0x3db8b3f5	0.09018699
161	0x3d140827	0.036140587
162	0xbd2e6937	-0.04258081
163	0x3d9f3331	0.07773436
164	0xbde13072	-0.10995568
165	0x3da25741	0.079267986
166	0x3b173e6e	0.0023077982
167	0x3d66a554	0.056310013
168	0xbd0577da	-0.032585002
169	0xbcff1bd9	-0.031141208
170	0xbc551d58	-0.013007484
171	0xba9269a9	-0.0011170405
172	0x3cef3c35	0.029203514
173	0xbd9fd747	-0.07804733
174	0xbda2d32c	-0.07950434
175	0xbb3b45ec	-0.0028575612
176	0x3e53e748	0.20693696
177	0xbda840e6	-0.082155034
178	0xbe06ff09	-0.13183226
179	0x3d010fa3	0.031509053
180	0xbc55dea6	-0.013053572
181	0x3e193b1d	0.14963956
182	0xbd8a2ed7	-0.06747215
183	0x3c423042	0.011852326
184	0x3e0aabec	0.13542145
185	0xbce49047	-0.027900828
186	0xbd1f0a9b	-0.038828474
187	0xbb88a038	-0.00416949
188	0xbd27e6fb	-0.040991765
189	0x3d266f6b	0.0406336
190	0x3e2758ee	0.16342518
191	0x3daf0ccf	0.08547365
192	0x3de2dbc2	0.11077072
193	0xbda3e9f5	-0.08003608
194	0xbd2a1226	-0.041521214
195	0x3be7e5f8	0.007076975
196	0xbdd6a07e	-0.1047983
197	0xbd922026	-0.07135038
198	0x3d57cb0a	0.052683868
199	0xbcfe3e66	-0.031035613
200	0xbdec3787	-0.115340285
201	0x3db39f4e	0.08770619
202	0xbd41f375	-0.04735132
203	0xbe0eb54a	-0.13936344
204	0x3dfd6255	0.12372271
205	0xbd89e8b2	-0.06733836
206	0x3d5c60f5	0.053803403
207	0x3c885900	0.016644001
208	0xbd825c02	-0.06365205
209	0xbd5f1fc7	-0.054473665
210	0x3d060b7c	0.032725796
211	0xbdcf41b1	-0.101199515
212	0x3c0d9be6	0.008643126
213	0xbdcc8e0a	-0.09988029
214	0x3bc3f9fe	0.005980729
215	0xbd0078b3	-0.031365108
216	0xbe030a72	-0.12796953
217	0xbe0a1f7a	-0.1348857
218	0xbd62bd6f	-0.05535644
219	0x3d906126	0.070497796
220	0x3d128fc7	0.035781648
221	0x3d7229fb	0.059122067
222	0xbdf596ec	-0.11991677
223	0x3df1c91b	0.11805936
224	0xbe34191b	-0.17587702
225	0x3c6ca7b9	0.014444285
226	0xbd8a8b04	-0.067647964
227	0xbd23782f	-0.039909538
228	0xbd305607	-0.043050792
229	0xbdeaa3cc	-0.11457023
230	0xbe064498	-0.13112104
231	0xbde3ff47	-0.11132675
232	0xbd38a959	-0.045083378
233	0x3dba85db	0.09107562
234	0xbd952cdb	-0.07283946
235	0x3de1e28c	0.110295385
236	0xbd3d97ed	-0.046287466
237	0x3db75852	0.08952393
238	0xbcbae7c0	-0.022815585
239	0x3d9ee91f	0.07759308
240	0x3ceb83fe	0.028749462
241	0x3cf6b620	0.03011614
242	0xbd7ce6bc	-0.061743483
243	0x3db4dcc0	0.08831167
244	0xbd21df03	-0.03951932
245	0x3c6be88a	0.014398703
246	0xbd1f6dcd	-0.038923074
247	0x3da31cbb	0.07964464
248	0x3dde3ff8	0.10852045
249	0x3d25bb0e	0.040461592
250	0xbd2b895e	-0.04187905
251	0xbcabac9f	-0.020956336
252	0xbcf7c7e4	-0.030246682
253	0x3dec7de1	0.11547447
254	0xbe25900e	-0.16168234
255	0x3d2f80c1	0.0428474

network.2.bias f4 [64]
0	0x3d93afed	0.072112896
1	0xbd004370	-0.031314313
2	0xbd5ca39a	-0.05386696
3	0x3cf11890	0.029430658
4	0x3cdc00cd	0.02685585
5	0xbca847c4	-0.020542033
6	0x3d5951d9	0.05305657
7	0x3cb32464	0.021867938
8	0x3dd22f24	0.102628976
9	0xbad73e75	-0.0016421812
10	0x3c1ec42b	0.009690325
11	0x3cadf43d	0.021234626
12	0xbd5d4e8f	-0.054029997
13	0xbd53e22e	-0.051729374
14	0x3c3b70b3	0.011440444
15	0xbd93a1ad	-0.072085716
16	0x3e0583a4	0.13038498
17	0xbdc99337	-0.09842532
18	0xbde46491	-0.11151994
19	0x3c8f7e3b	0.017516246
20	0xbc3ee31f	-0.01165083
21	0x3ca6e9e6	0.020375203
22	0x3cef1e61	0.02918929
23	0x3c6567ec	0.014001828
24	0x3d0fbc10	0.03509146
25	0x3d458b87	0.048228767
26	0x3d063a97	0.03277072
27	0x3d553207	0.052049663
28	0xbd884ae5	-0.0665491
29	0x3d603239	0.054735396
30	0x3cf0eb38	0.029409036
31	0x3df86ea3	0.12130477
32	0xba075650	-0.0005162703
33	0x3c9122f5	0.017716864
34	0x3c400f3d	0.011722383
35	0x3ce30866	0.027713966
36	0x3b8dc759	0.0043267426
37	0xbd1bcb04	-0.038035408
38	0x3d42b1d9	0.04753289
39	0x3d3feace	0.046854787
40	0x3c4a0a36	0.012331536
41	0x3d836b60	0.064169645
42	0xbd4a0499	-0.04932079
43	0x3bf39d7e	0.007434546
44	0x3ce7e14e	0.028305676
45	0xbd0e7b81	-0.03478575
46	0x3d1b4ca9	0.037914906
47	0x3de47dee	0.11156832
48	0x3d8f4811	0.069961675
49	0x3db72524	0.08942631
50	0x3d5f1e92	0.054472513
51	0xbdcce541	-0.10004664
52	0x3da28288	0.07935053
53	0xbd708add	-0.05872618
54	0x3da1e460	0.07904887
55	0x3cab7544	0.02092994
56	0x3dbc7c28	0.092033684
57	0x3d8b12a2	0.06790663
58	0x3dab924a	0.08377512
59	0x3d82d13b	0.06387564
60	0x3dd36cbf	0.10323476
61	0xbd64849c	-0.05579053
62	0xbd30a057	-0.043121662
63	0xbd52685f	-0.051369067

network.4.weight f4 [16, 64]
0	0xbe16d583	-0.14729886
1	0xbdb76192	-0.08954157
2	0xbdbc1dd7	-0.09185379
3	0xbda19d81	-0.078913696
4	0xbc48dfa1	-0.012260349
5	0xbd7965eb	-0.060888212
6	0xbdc59219	-0.096470065
7	0x3d2ece91	0.042677466
8	0xbcb5bcaf	-0.022184698
9	0x3da07d22	0.07836367
10	0xbdf7b8e2	-0.120958105
11	0xbd64a8aa	-0.055824913
12	0xbd80af79	-0.06283469
13	0xbdc05c03	-0.0939255
14	0xbcd84ff9	-0.026405321
15	0x3c1b6651	0.009484843
16	0x3d219949	0.039452825
17	0x3d861a78	0.06548017
18	0x3db4bb34	0.08824769
19	0xbd494d03	-0.04914571
20	0xbddc662e	-0.10761677
21	0xbc30e7b3	-0.010797429
22	0xbd67df42	-0.0566094
23	0x3d4ac935	0.049508292
24	0x3d7760a3	0.060394894
25	0x3d66b528	0.056325108
26	0xbd5bb744	-0.053641573
27	0x3dceef56	0.101042435
28	0x3d85abbe	0.06526898
29	0xbcf0f5f2	-0.02941415
30	0xbca571fe	-0.020195957
31	0xbdf3b8e7	-0.11900502
32	0xbd4718c0	-0.048607588
33	0x3db30954	0.087420136
34	0xbdbbde3b	-0.091732465
35	0x3d1b1446	0.03786113
36	0xbd810ec8	-0.063016474
37	0x3d0ec83c	0.034858927
38	0x3d5da6ff	0.054114338
39	0xbcbe838f	-0.023256091
40	0x3da30972	0.07960786
41	0x3cb641f8	0.022248253
42	0x3d92e9f1	0.07173527
43	0xbde25180	-0.11050701
44	0x3d1aa770	0.037757337
45	0x3d2626e0	0.040564418
46	0x3dbb6a22	0.091511026
47	0xbcd6eccb	-0.026235959
48	0xbd5c9662	-0.053854354
49	0xbe0bacfc	-0.13640207
50	0xbcf84c8c	-0.030309938
51	0x3dc66709	0.09687621
52	0xbd73c37a	-0.059512593
53	0x3ddc67ef	0.10762011
54	0x3dcb14c2	0.099160686
55	0x3dd270e1	0.10275436
56	0x3d9d901b	0.076935016
57	0x3d47b06c	0.048752233
58	0xbcaf4838	-0.021396741
59	0x3decbf18	0.11559886
60	0xbda0d850	-0.07853758
61	0xbdfeede0	-0.12447715
62	0xbdc26a1f	-0.09492897
63	0x3c88f093	0.016716277
64	0x3df1eb04	0.11812404
65	0xbe5295ec	-0.20565003
66	0xbe972aa0	-0.29524708
67	0x3cd2cf62	0.025733653
68	0x3e075fb4	0.13220102
69	0x3e09b953	0.13449602
70	0x3ddfbbfb	0.10924526
71	0x3ec2c204	0.38038647
72	0x3c8e5d13	0.017378366
73	0x3e060aab	0.13090007
74	0xbe88f2ad	-0.26747647
75	0xbe12eb50	-0.14347577
76	0xbe8382d5	-0.25685754
77	0xbd7a0c22	-0.061046727
78	0x3e9a40ae	0.30127472
79	0x3edaef47	0.4276068
80	0xbe344508	-0.17604458
81	0xbea7116a	-0.32630473
82	0xbd1c9b19	-0.03823385
83	0x3e040e38	0.12896049
84	0xbd091b65	-0.03347339
85	0xbeffd156	-0.49964398
86	0x3f08d379	0.5344768
87	0x3e59226f	0.21204542
88	0x3df3c827	0.119034104
89	0xbed1535c	-0.4088391
90	0xbdefb50a	-0.11704452
91	0x3e56b15e	0.20966098
92	0x3e5abbef	0.21360753
93	0x3c82db77	0.01597379
94	0xbd3824ce	-0.044956975
95	0x3d9e738c	0.077368826
96	0x3e0c90cf	0.13727115
97	0xbc27be06	-0.010238176
98	0x3e395cba	0.18101779
99	0x3d518f83	0.051162254
100	0x3dc50f1d	0.09622023
101	0xba21ab71	-0.00061672094
102	0x3f035fcf	0.5131807
103	0xbe19c14f	-0.15015148
104	0x3d69b484	0.05705692
105	0x3e18cfb6	0.14922985
106	0x3e426768	0.18984759
107	0xbf025c16	-0.5092176
108	0xbc06b7f9	-0.008222573
109	0x3ead1c7b	0.3381079
110	0xbe78ebdc	-0.24308723
111	0xbe0022b7	-0.12513243
112	0x3d411a3b	0.047144156
113	0xbe0bff38	-0.13671577
114	0xbd16c776	-0.036811315
115	0x3e5dac96	0.21647868
116	0x3e90bd17	0.28269264
117	0x3e7b8418	0.24562109
118	0x3a29bcb5	0.0006474958
119	0x3c755c92	0.014975684
120	0xbed024d9	-0.40653113
121	0x3e2ec8ca	0.17068782
122	0x3e042e9d	0.12908407
123	0x3ef41e46	0.47679347
124	0x3d1b8e1f	0.037977334
125	0x3dd35369	0.103186436
126	0x3eb675f5	0.3563687
127	0x3d49fa29	0.049310837
128	0xbd8dd15f	-0.069247
129	0x3e7a04e4	0.24415928
130	0x3ec5e446	0.3865072
131	0x3bcf9029	0.006334324
132	0xbd5a7d31	-0.053342048
133	0xbcc3b5f5	-0.023890475
134	0x3ca1a6a1	0.019732775
135	0xbeb46b15	-0.35237947
136	0xbd2917df	-0.04128253
137	0x3e1c47ac	0.15261716
138	0x3ec5b3fb	0.38613877
139	0x3e017e68	0.12645876
140	0x3eacd8b4	0.3375908
141	0x3e0b2ee7	0.1359211
142	0xbe9783f3	-0.29592857
143	0xbedf7f8a	-0.43651992
144	0x3e8cfd8b	0.27537188
145	0x3ec8329d	0.39101115
146	0xbc826b49	-0.015920298
147	0xbe26bbd6	-0.16282591
148	0xbc0be7b7	-0.008539132
149	0x3efcbb0e	0.4936146
150	0xbf10ff5f	-0.56639665
151	0xbe2d5bec	-0.16929597
152	0xbcaa1f31	-0.020766826
153	0x3e8f886d	0.28033772
154	0x3e2dbaf4	0.16965848
155	0xbe96f8e8	-0.29486775
156	0xbe51aeb9	-0.20476808
157	0x3de3f0e7	0.11129933
158	0x3d0a7fde	0.03381335
159	0x3e130509	0.1435739
160	0x3da05b3a	0.078299
161	0xbe05327e	-0.13007542
162	0x3d8c925a	0.06863852
163	0x3e015eb2	0.1263378
164	0x3d7ee524	0.062230244
165	0x3e792be2	0.24333146
166	0xbf276d45	-0.6540111
167	0x3e39089d	0.18069692
168	0xbdc3655e	-0.09540819
169	0x3d626ae8	0.055277735
170	0xbd89cda0	-0.06728673
171	0x3ef62d8c	0.48081625
172	0x3de118a4	0.10991028
173	0xbe0c9188	-0.13727391
174	0x3ed965be	0.42460436
175	0x3eaad795	0.333676
176	0xba8a1b0f	-0.0010536629
177	0x3d937dc3	0.072017215
178	0x3e50fcb3	0.20408897
179	0xbec41155	-0.38294473
180	0xbe02c3c9	-0.12769999
181	0xbe98e14d	-0.2985939
182	0xbde23283	-0.110447906
183	0xbd948d28	-0.07253486
184	0x3ed2968a	0.41130477
185	0xbd990184	-0.07470992
186	0xbe088ac9	-0.13334192
187	0xbf01703a	-0.5056187
188	0x3dbf88fe	0.09352301
189	0xbdebe26c	-0.11517796
190	0xbdce0a4c	-0.10060558
191	0x3ca93401	0.02065468
192	0xbe02de4b	-0.1278011
193	0x3d97e3e6	0.07416515
194	0x3eb81fa5	0.35961643
195	0xbd733574	-0.05937715
196	0xbdac4304	-0.0841122
197	0x3cb9bfa4	0.02267439
198	0x3e0c4576	0.13698372
199	0xbebaf042	-0.36511427
200	0x3d1765de	0.036962382
201	0x3dbb6ec4	0.09151986
202	0x3ed7e005	0.421631
203	0x3e2b1b45	0.16709621
204	0x3eaea397	0.34109184
205	0x3e0f901a	0.14019814
206	0xbeb58b55	-0.35457864
207	0xbeef8bd8	-0.4678638
208	0x3e16537a	0.14680281
209	0x3e897d18	0.2685325
210	0x3dbf206a	0.09332354
211	0xbb8cb9fa	-0.004294631
212	0x3e070831	0.13186719
213	0x3ee3ec40	0.44516182
214	0xbf135394	-0.57549405
215	0xbe2864f8	-0.16444767
216	0xbdc4d0a8	-0.096101105
217	0x3ea91c29	0.33029297
218	0x3e1d49a7	0.15360127
219	0xbe8cc2ac	-0.27492273
220	0xbe1f8d63	-0.15581279
221	0x3e075671	0.13216569
222	0xbdd48b12	-0.10378088
223	0x3e1dd225	0.15412195
224	0xbe11763a	-0.14205256
225	0x3d61bc93	0.05511148
226	0xbd9c78a1	-0.07640196
227	0xbd638a99	-0.0555521
228	0xbd64aa12	-0.055826254
229	0x3cfedb21	0.031110348
230	0xbef9e839	-0.48809984
231	0x3e16b8e1	0.14718963
232	0x3bdf19d7	0.0068085003
233	0xbcf41ef0	-0.029799908
234	0xbdc135f9	-0.094341226
235	0x3f01c612	0.50692856
236	0x3cc0b104	0.023521908
237	0xbe15a731	-0.1461456
238	0x3ef368c2	0.4754086
239	0x3e033854	0.12814456
240	0x3dd53ec0	0.10412359
241	0x3e3b40fe	0.18286511
242	0x3da0b1bd	0.07846401
243	0xbed5eafa	-0.41780835
244	0xbe37bc1c	-0.17942852
245	0xbe8d67ee	-0.27618355
246	0xbc651c65	-0.013983821
247	0x3d65bf9b	0.056090932
248	0x3e987d02	0.29782873
249	0x3c6e927c	0.014561292
250	0x3d1f3f3a	0.038878657
251	0xbeaab766	-0.33343047
252	0x3d1465ba	0.036229827
253	0xbe3e3c3b	-0.18577664
254	0xbe4cc16b	-0.19995658
255	0x3e2bf017	0.16790806

network.4.bias f4 [16]
0	0xbdc4a841	-0.096024044
1	0xbd76cfee	-0.06025689
2	0xbd1a0354	-0.03760083
3	0x3e1f419c	0.15552372
4	0x3d887511	0.06662954
5	0x3caa2d29	0.020773487
6	0x3ac2824f	0.001483986
7	0xbbdf820b	-0.0068209223
8	0x3deb215a	0.11480971
9	0x3d6a653f	0.057225462
10	0xbd6d19b3	-0.057885837
11	0xbc376f73	-0.011196005
12	0x3daa1dc8	0.083064616
13	0x3e1198ae	0.14218399
14	0xbdc5f058	-0.096649826
15	0xbdd5154e	-0.10404454

network.6.weight f4 [2, 16]
0	0x3dad99ad	0.08476577
1	0x3e904f26	0.28185385
2	0xbef8bf5b	-0.48583493
3	0xbeaac067	-0.33349916
4	0xbeb1e075	-0.3474156
5	0x3eeb9a5a	0.46016198
6	0xbdb1709a	-0.08664055
7	0x3ed731ea	0.4203027
8	0x3eccb700	0.39983368
9	0x3edbc52b	0.42923865
10	0xbef4b4a7	-0.47794077
11	0xbe0b2a04	-0.13590246
12	0x3ca9e4b4	0.020738937
13	0xbefc9790	-0.49334383
14	0xbea71552	-0.32633454
15	0x3e91bdd2	0.28465134
16	0x3e179ed7	0.14806686
17	0xbe8b3717	-0.27190468
18	0x3ee8cf67	0.45470735
19	0x3eb6eece	0.3572907
20	0x3ee6a33a	0.45046407
21	0xbe388457	-0.18019234
22	0x3da947d9	0.08265657
23	0xbec42693	-0.3831068
24	0xbe550968	-0.2080437
25	0xbde08e51	-0.10964645
26	0x3ea51031	0.32238916
27	0x3efb826c	0.49122941
28	0x3e638fa0	0.22222757
29	0x3ee8d21e	0.45472807
30	0x3eea35be	0.45744127
31	0xbeb24616	-0.34819096

network.6.bias f4 [2]
0	0xbe68debf	-0.22741221
1	0xbce81a62	-0.028332893
