ptg/models/german/rs_model_33.pth (torch, 76599 bytes, 8 tensors)

network.0.weight f4 [128, 70]
00000000: 1d76 a13c d3cf c43c 8eca 82bd ae2a e8bc
00000010: 9383 2cbe 0723 e1bc 6af0 b83d 28f1 0bbd
00000020: 6d70 973d d371 05be f9f8 eabc fd3a 123e
00000030: 9347 05be 98fc 593d 64b3 eabd 49bc c1bd
00000040: 8597 11be bd93 c93d 2a34 7c3a 6dcc e8bd
00000050: fa77 0ebe 4f8d 443d 31dc 413d 2f64 03bd
00000060: f7e3 7fbd ab47 3f3d 2f48 103e 4e4d 55bc
00000070: adaa f73d 9b8f d13c 2bbd 693d 92cd 193d
00000080: c5f4 83bd ba0a 2bbd d02e 123d 698e ef3b
00000090: d761 813d 905f f4bd a003 e1bc f2a7 7d3c
000000a0: 3881 1b3d 2e38 9dbd ae21 63bd 4dda e3bc
000000b0: c680 88bd 1860 8cbc 5a05 253d 56b4 163e
000000c0: efc7 7ebd 2265 12bc feee bc3d ef7e a73d
000000d0: 2a44 12be 2a39 973d 6b3f bcbc 521d 8a3d
000000e0: 06b0 a93c 7b3f 00bb 3323 c9bd 170a 70bd
000000f0: b317 1d3b f158 123b 3084 87bd 11fb d73d
00000100: 5252 efbd 4a58 fd3d 1254 9a3d 551f 7bbd
00000110: 001b ab3c 3759 14bc aee3 d5bd 3afc 8cbd
00000120: 9cc3 d5bd 1e9b 6dbd a4da 2abb f940 0f3e
00000130: 5841 1738 bdd0 163d 4a30 38bd 5500 013e
00000140: 5b66 b83d b6a9 3bbb d2c3 cbbc 7ac3 953d
00000150: 3a14 e23d 1cf8 003d 1273 b7bd c4fc c73c
00000160: 1dbd b13d 2e1b 1e3d 899d a3bd 3c88 0a3c
00000170: 768e 0a3e 1961 ea3c be9c 5c3d d98a 003e
00000180: be78 79bd ecbd 6b3d 28d3 2b3e 3825 cb3c
00000190: 8b9f d4bc ea55 43bd b375 d2bc cc6d 6dbd
000001a0: 3738 24bc 1542 9ebd 45b8 95bd a217 e83d
000001b0: e090 01be cdbf 50bc bb67 90bd ff4d 033e
000001c0: a1ef 783d 416a 603d 139e 9ebd f17f 0a3c
000001d0: 21a9 9f3d 0ca1 6a3d 93b4 ce3c 5954 29bd
000001e0: 7080 0fbd c87f 43bd 59a0 a53d 7111 0b3c
000001f0: 451f bebd 1465 c53d 2524 e7bb d294 41bd
00000200: 63eb ab3b 0d45 ce3c 5a57 533d c862 23bd
00000210: 0630 c83d 5d1b b83d 709e 77bc c760 953d
00000220: 147e 11be 753a c83c 01ec 10bc 4cb3 fd3c
00000230: 49a0 0b3e b017 073e 34c4 22bd 979b f23d
00000240: 3307 f13b 7069 30be 112b 093e a468 1c3e
00000250: f715 ebb9 aced 5fbc f48f 073d 534b 093e
00000260: cfd0 833c 5bce 94bd 2b2a 1bbe 77d5 c03d
00000270: 1c1b ffbd cee1 d3bd f89e 5b3d d85f 723c
00000280: ddd8 a3ba ef7b bb3d 0994 ea3c 751c d23b
00000290: df0e e93b 7c03 2dbe 0a5d 043e 0924 043e
000002a0: b54d 1bbc 6ca1 933c e605 00be 940c e5bd
000002b0: 675c 15bb 8163 313e 1ab8 553b 21c5 253d
000002c0: bff3 fd3d 840d 50bd fae9 e8bc bc4e 743d
000002d0: a239 edbc 6684 43bd e53c 173b 18d8 b23c
000002e0: 0564 6fbd 4955 79bd 7452 ba3d 686d 6c3d
000002f0: 421a 9cbd acc4 a53d efbe 7c3d 9492 903d
00000300: 6c09 243d cc02 3e3d f1ec 54bd 3f27 4c3d
00000310: 65cf e4bc d33c 133e 269e 673c 2a57 ed3c
00000320: 5004 17bc 449e 4dbc c175 903d 1996 2dbd
00000330: 6e8c e33c 0e25 393d 5875 f23d 4655 903d
00000340: eb11 ec3d ac49 94bd 2817 703c 7e87 7c3c
00000350: 9ee7 203d 74da 04be 506a 08be 4cf4 e03c
00000360: cb5f 723d fe73 1c3d 1229 1e3c 30c4 a43d
00000370: 63ae eebc 0b93 1e3d cd93 56bc 4aa3 dc3d
00000380: b8b6 9b3c 9f43 e0bd 7250 913d c29f 81bd
00000390: 7285 a53d 093b f1bd b1fe 93ba 95dc 8bbb
000003a0: 170f 3fbd fe33 0cbe d941 e5bc 8680 a83d
000003b0: cd9e e5bc e226 543d b006 b6bd e7b6 443d
000003c0: 00a9 143e cae3 27bd 9543 d7bc 89b9 feba
000003d0: 06b3 043d 3e91 48be 1abd fd3c 4803 213e
000003e0: a665 bebd bb3b 01bb b954 bb3c 931b d3bc
000003f0: 0538 983c 1cbf 2d3e 8c79 393c 1e8e fabc
0.019709641 0.02402488 -0.063862905 -0.028340664 -0.16847067 -0.027482523 0.0903023 -0.03416553
0.073944904 -0.13031702 -0.028683173 0.14280315 -0.13015585 0.053219408 -0.11459997 -0.09459741
-0.14217956 0.09842632 0.000962081 -0.11367116 -0.13912955 0.047986325 0.04732913 -0.032077964
-0.062473264 0.046699207 0.14090036 -0.013018919 0.12093101 0.025581172 0.05706517 0.037549563
-0.064431705 -0.041758277 0.035689175 0.007310678 0.063174896 -0.119322896 -0.027467549 0.015481936
0.03796503 -0.07676731 -0.05545204 -0.027814055 -0.066651866 -0.017135665 0.040288307 0.1471723
-0.06220239 -0.008935245 0.09225272 0.081785075 -0.14283815 0.0738395 -0.022979459 0.06743874
0.020713817 -0.0019569087 -0.09821167 -0.058603372 0.0023970425 0.0022330845 -0.0661701 0.10545934
-0.11685623 0.123703554 0.075355664 -0.061309177 0.020886898 -0.009054474 -0.10443817 -0.06884046
-0.104377 -0.05800926 -0.0026070261 0.13989629 3.606206e-05 0.036820162 -0.044967927 0.12597783
0.09003898 -0.002863509 -0.024873648 0.07312675 0.11039014 0.031486616 -0.08957495 0.02441252
0.086786486 0.03860014 -0.07989032 0.008455332 0.13530907 0.028610753 0.05386042 0.12552966
-0.060906164 0.05755417 0.16779768 0.02479802 -0.025954982 -0.047689356 -0.025690889 -0.05796604
-0.010023168 -0.07727448 -0.07310537 0.113326326 -0.12652922 -0.012741041 -0.07051035 0.12822722
0.060775403 0.05478883 -0.07744994 0.008453355 0.07795931 0.057282493 0.025232589 -0.041340206
-0.035034597 -0.047729284 0.080872245 0.008488045 -0.09283308 0.0963842 -0.0070538693 -0.047261067
0.005246566 0.02517941 0.051596977 -0.039889127 0.09774785 0.08989594 -0.015113458 0.072938494
-0.14208251 0.024441937 -0.00884533 0.030969284 0.13635363 0.1319263 -0.039737895 0.11846083
0.0073555945 -0.17227721 0.13395335 0.15274292 -0.00044839058 -0.013667505 0.03309627 0.1340764
0.016090779 -0.07265922 -0.15152805 0.09415715 -0.124563426 -0.10345803 0.0536184 0.014793359
-0.0012500543 0.09154498 0.028635042 0.0064120837 0.0071123685 -0.1689586 0.12926117 0.12904371
-0.009478976 0.018021308 -0.1250225 -0.1118404 -0.0022790672 0.17323114 0.0032610954 0.0404712
0.124000065 -0.05079414 -0.028431881 0.0596454 -0.028958146 -0.047733687 0.0023077067 0.021831557
-0.058444995 -0.06087235 0.09097758 0.057721525 -0.07622196 0.08094153 0.061705526 0.070592076
0.040048048 0.046389386 -0.051983777 0.049842115 -0.027930925 0.14378671 0.014136827 0.028972227
-0.009217337 -0.0125499405 0.0705371 -0.042379472 0.027776923 0.045201354 0.11838788 0.070475146
0.11526855 -0.07240614 0.014653958 0.015413163 0.039283387 -0.12973958 -0.13321805 0.02746024
0.059173387 0.038196556 0.009653347 0.08045232 -0.029135888 0.03871445 -0.013096762 0.107733324
0.019008026 -0.10950398 0.07095422 -0.063292995 0.08082093 -0.11778838 -0.0011291114 -0.004268239
-0.04664525 -0.13691708 -0.0279855 0.08227639 -0.028029824 0.051794894 -0.08887994 0.04802599
0.14517593 -0.04098872 -0.026277343 -0.0019433956 0.032397293 -0.19586655 0.03097396 0.15723908
-0.09296732 -0.001971944 0.022867547 -0.025769984 0.0185814 0.16967434 0.011320483 -0.030585345

network.0.bias f4 [128]
00000000: 3b72 003e 5167 32bc a211 c83d 2258 5c3d
00000010: 15a8 bdbc 16a6 0fbd 5664 093e c0a2 82bb
00000020: 9b3b 75bd a949 303c 2e78 933c 890f e93d
00000030: 0992 de3d 05d6 173e d894 eb3d af27 373c
00000040: ef9d f93c 2cca 91bd 3c60 4abd e374 073d
00000050: ec9e 18bd 1a68 1dbd 43f8 64bd 1b79 be3d
00000060: 09fc 1abc fbb1 063d 1acb 003d 566d 003d
00000070: e6a3 11be 219f a73c 4886 83bc 4e35 bc3d
00000080: 1588 183d 9184 b0bd d4e4 5f3c fd5d 863c
00000090: 85d5 afbd ca71 c03d d8cf bd3d 7161 65bd
000000a0: e5fe d63d 049b b43d bcb9 8b3d fd9f b6bd
000000b0: ee64 a03d f1ef 94bd 090a c8bd 735d d13d
000000c0: 243a 05bd 24c5 1bbc 15ec 963c 4c94 053e
000000d0: fdec a93d 4568 b7ba 5175 153d 78a1 ff3d
000000e0: 34d9 173d c5e1 1f3c 310b c43d 3081 023e
000000f0: aff7 573d c87b 213c 677f d93b 0624 8cbd
00000100: ab9a 3b3e 7097 473d 6c31 3a3e d424 a63d
00000110: 5994 88bd e670 abbd edde 8d3d 18da 713c
00000120: e0fd 8dbd d503 103c 32bf 9339 b1a4 ec3d
00000130: f2cd e33d d0a3 93bd 6ba5 4c3b 1d31 0b3e
00000140: 11c3 7cba 720c a63d 7601 db3d 7c7d 393d
00000150: c8ec 383d ca78 e43d b9f7 853d d131 9b3d
00000160: 1022 163e caa3 fb3a 8445 983d 8d04 ea3c
00000170: 0ae9 aabd d9d8 513d b38b c9bb c16f 013e
00000180: 6489 a0bd 72f5 95bd 30fd 073d 0999 e73c
00000190: 27c2 bbbc cf88 3ebb 841d bdbd 3175 8a3b
000001a0: c882 153e c956 91bd c37e 71bd cdca 9d3d
000001b0: 7df0 a13c b824 cf3d b423 7dbd 1721 40bd
000001c0: c6ec 0d3d b21a c93d 1d57 b1bd 6ce5 a53d
000001d0: d92a e93c 6b12 c23c 4e98 e2bd 310b 6abb
000001e0: bc3e ac3d 4dc9 6abd a4d1 d33d 94ed df3c
000001f0: 2519 8d3d 9856 de3d 3267 46bd 784a d53d
0.12543575 -0.01088889 0.09768988 0.053794987 -0.023151437 -0.0350705 0.13417181 -0.0039866865
-0.059871297 0.010759749 0.018001642 0.11379916 0.10867698 0.14827736 0.11502999 0.011178895
0.030470816 -0.07118639 -0.049408183 0.033070456 -0.037260935 -0.038429357 -0.055900823 0.09300443
-0.009459504 0.03288458 0.031443693 0.03135427 -0.14222679 0.02046162 -0.016055241 0.091898546
0.037239153 -0.08619035 0.013665397 0.016402239 -0.085856475 0.093967035 0.09268159 -0.05600113
0.10497836 0.088186294 0.068225354 -0.08917234 0.07831751 -0.07272328 -0.09767539 0.10222902
-0.03252615 -0.009507451 0.01842312 0.13044852 0.08297155 -0.0013992867 0.036488835 0.124819696
0.037072375 0.0097584175 0.09572447 0.12744594 0.052726444 0.009856172 0.006637502 -0.068428084
0.1832072 0.048728406 0.18182915 0.08112493 -0.0666892 -0.08371143 0.06927285 0.01476147
-0.069331884 0.008789976 0.00028180477 0.1155485 0.11123265 -0.07208979 0.0031226526 0.13592954
-0.0009642104 0.081078425 0.10693638 0.045285687 0.045147687 0.11155851 0.0654139 0.07577861
0.14661431 0.0019198593 0.07435134 0.028566623 -0.0834523 0.051232193 -0.0061506866 0.12640287
-0.07838705 -0.073222056 0.033200443 0.028271215 -0.022919727 -0.0029073243 -0.09234145 0.004225396
0.1460067 -0.07096631 -0.05895878 0.07704697 0.019767994 0.101144254 -0.061801627 -0.046906557
0.034649633 0.09819545 -0.08659194 0.081003994 0.028462814 0.023690423 -0.11064206 -0.0035712237
0.08410403 -0.05732088 0.1034272 0.027334966 0.068895616 0.1085636 -0.04843826 0.104145944

network.2.weight f4 [64, 128]
00000000: 39ba 5fbd aa3c f63d b484 f83b c197 ecbc
00000010: a137 c93d 0208 f43c 481e 39bc 1336 41bd
00000020: 5b19 103e 134a 8a3d 3fc4 653d 493f 183e
00000030: 9d8e f83c 35ab 60bd c55d c63d be40 f73d
00000040: d764 7cbb 2e38 223e b49e b53d 7fe7 893d
00000050: 7045 01bc 0107 a2bc cae5 e93c d08d c53d
00000060: 2e83 ff3c 08fb aabd 91d7 953c 857c ac3d
00000070: 92a9 383d 2584 913d add4 143d c316 883d
00000080: 6388 733c b909 bc3c 83fd 9dbd e61d 02bd
00000090: 68fb fd3d b998 633b abe1 3bbd 7f12 00b7
000000a0: 150c 113d cf73 b6b8 d0bf 143e d73d b9bd
000000b0: d33c 9c3c 3aa1 913d 1d73 4b3d 5abe 283d
000000c0: 487f ae3d 212c 99bc 0ac8 30bb 3662 ec3d
000000d0: abf7 9c3c c3aa d23c 699c 123e 006a 963d
000000e0: 1dd9 3c3c d581 8a3c 10c1 183e f49d b63d
000000f0: 2d18 f53d d559 b43d 15b2 0f3d 1f62 a1bd
00000100: ac91 96bd 0185 a23c 9cfa 0b3d 96f5 af3d
00000110: e260 f83d 5231 c43c 9428 9b3d 8e3c 303e
00000120: 226b 9d3c 6d5f ac3c d802 603d 6c0d 9c3d
00000130: 66ea 1b3e 7d05 833d 4842 04bb a3c8 fa3c
00000140: b407 96bd 7fec 423d 9468 bdbd eaac 013e
00000150: 8ea3 073e e196 243d 7bb5 7b3b 065e 993d
00000160: 494f 84bc 8344 90bc 6b40 9bbc edca f73d
00000170: 63b4 123d db70 a93b 28e2 a7bc 9a1a a7bd
00000180: 2523 043e 6ba6 d03d a253 803c bdbb f23d
00000190: d815 7b3c b229 80bd cc91 693a fbb8 df3d
000001a0: b16c 1bbd 1476 88bc cfa0 f23d ebbd ca3c
000001b0: d78b 093e 9f4d b23d f516 a5bc 8218 91bd
000001c0: c93e 13bb 1ad1 6a3c 691a 103e b947 5a3d
000001d0: fd59 b93c 5eea 1e3e 98ce 14bd 965b 0a3c
000001e0: d0ac 1f3d c47f 193e cde3 693d 9160 bb3d
000001f0: c9a1 5e3d ed60 e8bc 9baf b5bc b74d 0ebc
00000200: 8ea8 903d c1ec 363d d765 dcbd d90d 963c
00000210: 0033 36bc 1d91 8b3d 2129 cabc f375 febd
00000220: 3ff7 cf3d bf25 56bd f3c0 3fbc 4c8a 253d
00000230: 895f 8f3c 1224 143d 3d6c 6e3d 7813 d1b8
00000240: 1d31 603d 38eb ea3d e056 063c 7f96 2abc
00000250: 82a2 f3bd 8c65 b43d 2ae4 ac3c 5c00 e8bb
00000260: 8621 013e 5472 b8bc a088 dabd 3533 c53d
00000270: 25a7 13bd 59ec bf3d d46c 4e3d a3c6 efbc
00000280: 10ea 043e eceb a83d 07c0 b03b 26ad 0d3c
00000290: 392d a33d 1e03 1ebd 6a89 c73c 7093 7fbc
000002a0: 7979 5ebd 094a 3bbd 694e c5bc d2f1 babd
000002b0: ab0d e13d 22d5 313d 36cb 5dbd 32c0 f43d
000002c0: f997 c33d 1d9d 8ebd a61a 3abc fa30 20bc
000002d0: d3d7 113e e310 1fbd 943c 193e f5aa ae3d
000002e0: d156 103c f581 9c3c 331e 1abc 8640 ce3b
000002f0: bce0 2b3e d5f1 fc3d 42f7 153c 7d8f bfbd
00000300: 80b4 2a3d 307a b5bb 1b8f 5c3d fc76 ba3d
00000310: 6287 cd3c 2491 0a3d 1531 a33c 1de4 7f3d
00000320: b322 543d e5c2 823d 0d80 0e3d bcb7 a73d
00000330: b124 e83d 33d1 3cbc 5a38 883d 716d b23d
00000340: c74f 5dbd 2199 20bc 8cc4 2dbd f540 cf3c
00000350: b973 163e 96ca c13d 064e 463c 0f50 4ebc
00000360: 5089 733d b77b b8bd 90ec 6f3d afbf 1e3d
00000370: 4e17 2e3e a949 573b e888 823d ea32 8ebd
00000380: 4a59 063c 2002 cc3d 1332 be3d 3277 c63d
00000390: 2736 0f3e 835f 633d 0d5f c5bc a7d7 e33d
000003a0: 8459 c93d 4ef6 fc3d b0f9 403c 8381 c03d
000003b0: b7f1 dd3d d55b 453d 3387 e1ba 0980 5dbd
000003c0: a4ef 3ebd 6326 15bd d4aa a33c 11ca fc3b
000003d0: b815 a33d bda6 04bc e170 c6bc 819f 8c3d
000003e0: 4ad0 75bd dc7a 803d c3a7 063e bba3 fc3d
000003f0: d8d2 b1bd 7452 623d 547c 9cbb e3b0 b53d
-0.054620955 0.120232895 0.007584179 -0.028880956 0.098250635 0.029788975 -0.0112987235 -0.04717071
0.14072172 0.0675241 0.056095358 0.14867891 0.03034144 -0.054850776 0.09685854 0.120728955
-0.0038512254 0.15841743 0.08868161 0.067336075 -0.00789009 -0.01977873 0.028551955 0.09646189
0.031190481 -0.08348662 0.018291267 0.08422188 0.04508359 0.07105283 0.036335636 0.066449665
0.01486406 0.022953855 -0.07714369 -0.031766795 0.124014676 0.003472848 -0.04586951 -7.633701e-06
0.035411913 -8.700007e-05 0.14526296 -0.09044998 0.019071972 0.0711083 0.049670327 0.04119716
0.08520371 -0.0186978 -0.0026974701 0.1154217 0.019161066 0.025716191 0.14317478 0.07344437
0.011526373 0.016907612 0.14917397 0.08916846 0.11967502 0.088061966 0.03508194 -0.07880043
-0.073520035 0.019838812 0.034174547 0.08591764 0.12127854 0.023949299 0.07576099 0.172106
0.019216124 0.021041596 0.054690212 0.076197475 0.15226135 0.06397531 -0.0020181108 0.03061325
-0.07325688 0.04758882 -0.09248462 0.12663618 0.13245985 0.04018295 0.0038407731 0.07488637
-0.016151087 -0.017610794 -0.018951615 0.12099252 0.03581656 0.005170924 -0.020493582 -0.08159371
0.12904032 0.10187992 0.01566488 0.118522145 0.015325032 -0.06257953 0.000890997 0.10923954
-0.037945453 -0.016657867 0.11847078 0.024748763 0.13432251 0.08706211 -0.020152548 -0.070847526
-0.0022467843 0.01433208 0.14072575 0.053291056 0.022625918 0.15519091 -0.036329836 0.008444687
0.038983166 0.14990145 0.057102013 0.09149278 0.05435351 -0.02836653 -0.022178462 -0.008685521
0.07063399 0.04465938 -0.10761612 0.01831715 -0.011120558 0.068147875 -0.024677815 -0.12424841
0.1015458 -0.05228209 -0.0117037175 0.040415093 0.01750161 0.03616721 0.058208693 -9.969523e-05
0.054734338 0.11470646 0.008199424 -0.010411858 -0.1189623 0.08808431 0.02110489 -0.007080121
0.12610444 -0.022515453 -0.106705904 0.096289076 -0.036048073 0.093712516 0.050396755 -0.029269522
0.12979913 0.082481235 0.005393985 0.008647239 0.0796761 -0.03857719 0.024357516 -0.015599117
-0.054315064 -0.045724902 -0.02408524 -0.09128155 0.10988935 0.04341615 -0.054148875 0.11950721
0.09550471 -0.06963561 -0.011358893 -0.009777302 0.14242487 -0.038834464 0.14964515 0.08528701
0.008809761 0.019104937 -0.009406614 0.006294313 0.16784948 0.12350813 0.009153189 -0.0935354
0.041676044 -0.0055382475 0.053847414 0.09104726 0.02508897 0.033829823 0.019920865 0.062473405
0.051790904 0.063848294 0.034790087 0.081893414 0.11335123 -0.011524486 0.06651373 0.087122805
-0.05403116 -0.009802134 -0.04242377 0.025299529 0.14692582 0.09462468 0.012103563 -0.01259233
0.059457123 -0.09007972 0.058575213 0.038757022 0.17001078 0.0032850301 0.06373769 -0.06943305
0.008199999 0.09961343 0.09286895 0.096907035 0.13985501 0.05551101 -0.024093175 0.11125117
0.09831527 0.123516664 0.01177828 0.093997024 0.10837119 0.04818328 -0.001720643 -0.054077182
-0.046615258 -0.03641356 0.019978918 0.007714518 0.07963127 -0.008096394 -0.024223747 0.068663605
-0.060013093 0.062734336 0.13149934 0.123359166 -0.086827934 0.055254415 -0.0047755633 0.08871629

network.2.bias f4 [64]
00000000: df2f 16bd 997d 9abc ae1b bd3d 1253 133d
00000010: 52c7 163d 5d03 f1bb 3292 98bd a5a4 c3bd
00000020: e10d 5c3d a4d8 f33c bf6b b33d 985b d4bb
00000030: 7a7a f6bc 69f8 733b 54f7 a9bd 99e0 eebc
00000040: 36d9 963d 28b5 1c3e 6990 973d ef15 a23d
00000050: f653 c73d e1bc 653d 283c 9dbb 6a6f b7bd
00000060: 5a8b 5dbd 23f3 933d 5eaf 523d cb5d 62bd
00000070: 33f4 03bd 0caf 833d 5466 0c3e d039 96ba
00000080: 994f 6d3c 9ce9 59bd 1a8e 71bc cbc1 163e
00000090: 6328 d93b 1844 3dbc 801f af3b a4f3 70bc
000000a0: f6f7 e03d 053a 3fbd ba9e 053d 3bea 5abd
000000b0: 2275 f4bc abb2 e03d 6da0 993d 8984 bebc
000000c0: 17b0 203d eb72 353e 74d6 033e 2600 083d
000000d0: db3c 8b3d 39e9 953d f142 1e3d 2067 d73c
000000e0: aa63 31bd e2b9 f6bc 937b 2f3c 0149 e0bc
000000f0: 7d6a 5c3d fab8 d83d 873f aabc 73a0 083a
-0.036666747 -0.018858718 0.09233795 0.035967894 0.03681118 -0.0073551373 -0.074497595 -0.09552888
0.053724173 0.029766388 0.08760785 -0.0064806454 -0.030087698 0.0037226921 -0.08299127 -0.02915983
0.073656484 0.1530348 0.07400591 0.0791434 0.09732811 0.056088332 -0.004798431 -0.089567974
-0.054087974 0.07224109 0.051436774 -0.05526523 -0.03221531 0.06429872 0.1371091 -0.0011461321
0.01448431 -0.053201303 -0.014743352 0.14722364 0.006627129 -0.011551879 0.0053443313 -0.014706526
0.10984795 -0.04668619 0.032622077 -0.053446036 -0.02984101 0.10971578 0.07501302 -0.023256557
0.039230432 0.17719619 0.12874776 0.033203267 0.06798717 0.07319874 0.03863806 0.026294291
-0.043307938 -0.030117933 0.010710615 -0.027378561 0.053812493 0.105821565 -0.020782245 0.0005211897

network.4.weight f4 [16, 64]
00000000: 16b1 d0bd 402d 0e3d f3d1 8d3d e0a5 9abb
00000010: a068 5b3c 9cc1 9a3d 2c38 4fbd 4663 bdbd
00000020: ef54 bebb b763 923c 0e1a edbd 1cf3 34bc
00000030: 2844 35bd 40e5 753c 3041 9cbd 509a 883c
00000040: 1e74 913d 5451 05be 824a edbd 48b5 c3bd
00000050: 1fc2 abbd 5852 c53d f391 87bd f06a df3c
00000060: 2aec d2bd e0b6 edbd f893 213d 940a ddbd
00000070: b0f4 44bc d795 8abc cab4 0d3c 24d3 fcbd
00000080: 9eb0 6ebd 5137 b0bd cc97 f2bc 0404 56bd
00000090: e8da 80bd 6041 e8bd 8e62 b93d bf48 3c3c
000000a0: cf4b c0bd 97f9 9fbd 689c 81bc 43e5 b3bd
000000b0: 0010 06ba e304 c43d d641 0ebb b0b1 5c3d
000000c0: 0387 a53d 95fb da3d c8ae dc3d c89f e7bd
000000d0: 11f1 80bd aeb6 cb3d f077 48bd fca4 933d
000000e0: 58bf 55bd 87e4 bcbc 3879 dbbc ca9e 843d
000000f0: 76bc 153d dd2d b8bd ee48 723d 5a55 e93d
00000100: 122b 503e c09a e23d bdb0 83bd 1740 4fbe
00000110: 5a36 0c3e 5c02 2abd c1cc f13b dcf9 303e
00000120: 603a 32be 6ed9 9ebd 37bf 7ebd 1ebb 973c
00000130: 83b9 723d 54b1 493d 230d b9bb f077 7c3d
00000140: 8c9d 593c 86f5 5fbd 9d77 dfbd bfe2 4f3d
00000150: 19ee 45bc 9d00 5d3e ef29 fb3c 7806 9fbc
00000160: 9c4e 37bd 2c75 583e bb95 0fbb 2b82 cc3d
00000170: 763d 193e f181 3d3d 4d87 9d3d 814d 0d3e
00000180: 265c a43d 8dbf ca3d d28c 163d 48a6 02be
00000190: 18d3 903d 37e1 f13b 0dcb 4f3e f5ce fb3d
000001a0: 1be8 7fbe 3f66 333e 4db2 2abe 6b93 433e
000001b0: ada6 663e 0aa2 f6bd e024 373e b0f8 663e
000001c0: 54e9 22be 78e7 96bd 0e07 8a3d fa98 863d
000001d0: f604 023e f025 4a3e c383 393d bf50 ac3d
000001e0: 2f95 193e f2b7 bf3d 0985 383d 46ce 9ebc
000001f0: baab cabd 04c5 a8bd 4bff a43d 121c 53bc
00000200: 4d74 d13d 5ad6 a63d dae5 96bc abc4 37be
00000210: 4108 413e f18a 1fbe 323a 35bc 6556 f13c
00000220: 7b54 78be af71 7a3b 7c82 62be 42c5 0bbc
00000230: c96a 3d3e ef02 233e 3565 8b3d a138 593e
00000240: ebb0 fa3d d3c8 2cbd 4717 b7bd c68f 473e
00000250: ca97 a3bd e507 2e3e 9120 643d 5c25 053d
00000260: 58c3 a33d bec5 3e3e f40b 683d 7d7c 36bc
00000270: 4b7a 1a3e c431 083e 88c5 37be a44d 803d
00000280: 74b0 4e3e d443 5d3e cc3c ea3d 150a 14be
00000290: 88fd dc3d d429 48bd 52d8 093e ecee 7c3e
000002a0: 7464 39be 822e dbbc 8cd2 4bbe 0d72 443d
000002b0: a33e d53c b05b 5fbe a3bc 1d3e 9de4 323e
000002c0: 9621 d1bd 8e0a 19be 25b4 a43d bdc7 373e
000002d0: af3e 253e e1c0 1d3e fc8c b13b 6e14 1a3e
000002e0: c58d 3b3c ef8a 9a3d fb08 143d 2189 643e
000002f0: 5fe8 8ebd 4092 23be 3fff ee39 8961 283e
00000300: 278f a23d 8639 1f3e 7c8c ff3c cc7a 61be
00000310: 3ec3 8b3e a613 d6bd 1f43 d2ba c650 e03d
00000320: 13c2 40be d24c 44be ad74 38bd 9c32 1f3e
00000330: 2b90 483e 8c97 633e 3f29 4a3e 6952 543d
00000340: 83b3 b43b c474 3dbd 4915 2abe f7d2 a23d
00000350: 0fa0 fcbc df93 2e3e 0160 533d 9856 cb3d
00000360: a6e2 123d 74d7 433e 763d e83d 5f94 e0bc
00000370: 2b06 2e3e 4ace 4f3e a936 a2bd 8ac8 28bc
00000380: 4b81 1d3d d2b3 433e 5dad ca3d 5f16 dabd
00000390: 03b9 2e3e bebf ce3d d148 883e e3f6 063e
000003a0: 5ed0 c4bc 05b6 983b 1670 3bbe 7377 0a3e
000003b0: 7a88 813e 07d8 d8bd b52d e23d 097f 533e
000003c0: c1ea 1cbe cb95 07bd 224b 283e 96e3 783e
000003d0: ee5b 1fbd 28be 483e 58e8 18bd bbdd 3a3a
000003e0: 9b49 883c f41f 0e3e 4d37 e9bd 128c 483c
000003f0: 8157 7abd 74e5 a2bd e7d3 f53d cdb3 fa3c
-0.101900265 0.034711123 0.0692481 -0.004719481 0.013391644 0.07556459 -0.05059068 -0.092474505
-0.0058084647 0.017869813 -0.11577235 -0.01104429 -0.044254452 0.015008271 -0.07629621 0.016675144
0.07102226 -0.13019305 -0.11586477 -0.09556061 -0.08386635 0.096348464 -0.066196345 0.027272671
-0.10298951 -0.11607146 0.039447755 -0.10793033 -0.012021229 -0.016917152 0.0086490605 -0.123449594
-0.058273904 -0.08604301 -0.029613398 -0.052249923 -0.06291753 -0.11340594 0.09052001 0.011491953
-0.09389459 -0.07811277 -0.01582165 -0.087839626 -0.00051140785 0.095712446 -0.0021706722 0.053880394
0.08082392 0.10692517 0.107755244 -0.11309773 -0.0629598 0.09946953 -0.048942506 0.07209203
-0.052184433 -0.02305819 -0.0267912 0.06475599 0.036556683 -0.08993123 0.059151582 0.11393233
0.2032893 0.110646725 -0.064301945 -0.20239292 0.13692608 -0.041506156 0.007379145 0.17282814
-0.17405081 -0.07756315 -0.062194075 0.018521842 0.05925895 0.04924138 -0.005647318 0.06163782
0.013282191 -0.05467751 -0.10911486 0.05075335 -0.012080693 0.21582265 0.030659644 -0.019412264
-0.044752702 0.21138448 -0.0021909315 0.09985765 0.14964852 0.0462665 0.07691822 0.13799097
0.080253884 0.09899817 0.03675539 -0.12758744 0.07071513 0.007381584 0.20292301 0.12295333
-0.24990885 0.17519473 -0.16669579 0.19099204 0.2252452 -0.12042625 0.1788516 0.22555804
-0.1590932 -0.07368368 0.06739627 0.06572147 0.12697205 0.19741035 0.045291673 0.084138386
0.14998315 0.09361257 0.045048747 -0.019385468 -0.098960355 -0.08240703 0.08056506 -0.01288511
0.10227261 0.08146353 -0.018420149 -0.17946117 0.18850805 -0.15580346 -0.011061238 0.029460141
-0.24250977 0.0038214733 -0.22120088 -0.008530917 0.18497767 0.15919088 0.06806413 0.21213008
0.12240776 -0.04218371 -0.08939987 0.19488439 -0.07987936 0.16995199 0.05569512 0.03250633
0.07996243 0.1863012 0.056652024 -0.011138079 0.15085714 0.13300234 -0.17946446 0.06264809
0.20184499 0.21607906 0.11437377 -0.14456971 0.10790545 -0.048868015 0.13461426 0.24700516
-0.18104726 -0.026755575 -0.19904536 0.04796033 0.026030844 -0.2181232 0.1540399 0.17470022
-0.10211484 -0.14945433 0.08042172 0.17947288 0.16137193 0.15405609 0.005418418 0.15046856
0.011447375 0.07546031 0.036141377 0.22317936 -0.06977915 -0.15973759 0.0004558507 0.16443457
0.079374604 0.15549287 0.031194918 -0.220195 0.27297395 -0.104529664 -0.0016041732 0.10952906
-0.18824033 -0.1916993 -0.045033146 0.1554665 0.19586246 0.2222578 0.19742297 0.051836405
0.0055145635 -0.046253935 -0.16609682 0.079503946 -0.03083804 0.17048596 0.05160523 0.09928626
0.03586068 0.19125158 0.11339848 -0.027414499 0.1699454 0.20293537 -0.07920582 -0.0103017185
0.03845338 0.19111565 0.09896348 -0.10648798 0.17062764 0.10095166 0.26618055 0.13180117
-0.024025138 0.0046603703 -0.18304476 0.13522129 0.25299436 -0.10588079 0.11043874 0.20653929
-0.15323927 -0.033101838 0.16434911 0.24305567 -0.03890603 0.19603789 -0.037330955 0.00071283773
0.01663666 0.13879377 -0.11387501 0.012240427 -0.061118606 -0.07953921 0.12003308 0.030603314

network.4.bias f4 [16]
00000000: b45f b5bd afd7 9bbd 6ce5 b03d 4cc7 e7bd
00000010: d8c7 ec3d b0fc de3d 4f6b 4abd 605d 80bd
00000020: 133d 833d 6435 cabd eaa3 91bb 2a39 553e
00000030: 3a72 113e 8667 073e 73e8 aabd 5fda 063e
-0.088561445 -0.07609498 0.08637509 -0.1131731 0.11561555 0.1088804 -0.049418744 -0.0626781
0.06408133 -0.09873465 -0.004444589 0.20822588 0.1420373 0.13223085 -0.083451174 0.1316924

network.6.weight f4 [2, 16]
00000000: e909 68be dfb2 1dbe 468f b8be 62f3 99be
00000010: 5df2 933e 1565 ac3d 6dfc 8abe 5235 33bd
00000020: 3afa 41be 246b 93bd 0792 5e3e dce1 5b3b
00000030: b806 fa3d 0cbd c63e 0640 303d 3730 a1be
00000040: cfe0 3cbe cbbe bc3e 72fe d5bd 84f6 023d
00000050: c46b a5be 608e ac3e 803d 783c 3c35 e93e
00000060: dc5b 233e cce0 44be fa9c ecbe 7793 ccbe
00000070: ae0c b8be 862e e2be 7383 443e aa1b 463d
-0.2266003 -0.15400265 -0.3604681 -0.300685 0.28895846 0.08417717 -0.2714571 -0.043752022
-0.1894311 -0.0719817 0.21735393 0.003355137 0.12208313 0.38816106 0.043029808 -0.31482098
-0.18445133 0.36864313 -0.10448922 0.031973377 -0.3230878 0.33702374 0.0151513815 0.45548427
0.1595301 -0.19226378 -0.46213514 -0.39956257 -0.35947174 -0.4417612 0.19190769 0.048366226

network.6.bias f4 [2]
00000000: 4cb4 313e 6507 5cbe
0.17353934 -0.21487196
