ptg/models/german/rs_model_651.pth (torch, 76609 bytes, 8 tensors)

network.0.weight f4 [128, 70]
0	0xbdcbd629	-0.09952957
1	0xbc57bf0c	-0.013168108
2	0xbd9d4292	-0.07678713
3	0x3dc6a31a	0.09699078
4	0xbe2d51f1	-0.1692579
5	0xbe287b3d	-0.16453262
6	0x3dda2c6d	0.10653005
7	0x3d87cba2	0.06630637
8	0x3d4f90b0	0.050675094
9	0x3b53ca98	0.00323168
10	0x3c8bf80c	0.017086051
11	0x3dc439d1	0.0958134
12	0xbdfc92ad	-0.12332664
13	0xbd9cf2c9	-0.07663495
14	0xbcc68869	-0.024234967
15	0x3d68121e	0.056657903
16	0x3e087b50	0.1332829
17	0xbdd78428	-0.10523254
18	0xbd0a1370	-0.033709943
19	0xbde98121	-0.114015825
20	0xbd7e430c	-0.06207566
21	0x3d7b1e1f	0.061308023
22	0x3db1e306	0.086858794
23	0xbe5b7b91	-0.21433856
24	0xbd75504a	-0.059891023
25	0x3c9c3480	0.019068003
26	0xbd4fc9c3	-0.050729524
27	0xbdb180f4	-0.08667174
28	0x3bf18253	0.007370272
29	0xbe0abd9f	-0.13548897
30	0x3d9a964b	0.07548197
31	0xbd16c506	-0.03680899
32	0xbddec5e8	-0.10877591
33	0x3db260ad	0.08709846
34	0xbda1efd2	-0.0790707
35	0x3d16c21c	0.03680621
36	0xb9f850ae	-0.00047362357
37	0xbd6e549b	-0.058186155
38	0x3d0df6c1	0.03465915
39	0xbcca4e27	-0.024695469
40	0x3dc52efc	0.09628102
41	0xbdbf0b56	-0.09328334
42	0xbdba3095	-0.090912975
43	0xbd947019	-0.072479434
44	0x3dc280c1	0.09497214
45	0x3cf4f92c	0.02990397
46	0xbc9085aa	-0.017641861
47	0x3db92fb5	0.090423025
48	0x3c6373fb	0.013882632
49	0xbd8fb73b	-0.0701737
50	0xbce438b9	-0.027859079
51	0x3dcd4549	0.10022981
52	0xbe00bff4	-0.12573224
53	0xbd42062d	-0.04736917
54	0xbe1c1100	-0.1524086
55	0x3caf69e2	0.021412794
56	0x3ad4a756	0.0016224186
57	0xbdc6b97e	-0.097033486
58	0xbd50105e	-0.05079686
59	0x3d978fc1	0.07400466
60	0xbb8c77b2	-0.0042867297
61	0x3d1a420b	0.03766064
62	0x3cf87aab	0.03033193
63	0x3d5cec39	0.053936217
64	0xbda3bcfd	-0.07995031
65	0x3dc6487a	0.096817926
66	0xbd3802b8	-0.044924468
67	0x3d475f90	0.04867512
68	0x3da670ce	0.081269845
69	0xbdca3644	-0.098736316
70	0xbc8ab78e	-0.016933229
71	0xbc1e1af0	-0.009649977
72	0x3ba38929	0.004990716
73	0x3b022a38	0.001986159
74	0xbd905a83	-0.07048514
75	0x3c2d0731	0.010560797
76	0x3db7c746	0.08973555
77	0xbdfd2318	-0.12360209
78	0x3d28700f	0.041122492
79	0x3c9edca0	0.019392312
80	0x3ca296ed	0.019847358
81	0xbe2ad8bd	-0.16684242
82	0xbda4aedc	-0.08041164
83	0xbd967ac5	-0.07347635
84	0x38806afb	6.123442e-05
85	0xbd8df217	-0.069309406
86	0xbd11ae8c	-0.03556685
87	0x3dcf8e54	0.10134569
88	0x3df23693	0.118268155
89	0xbd148417	-0.036258783
90	0x3cafb517	0.021448655
91	0xbdd8fe62	-0.10595395
92	0xbc6f8aa4	-0.014620457
93	0xbdab2c02	-0.08358003
94	0x3d369f9c	0.04458581
95	0xbca0c187	-0.019623531
96	0x3bd33213	0.0064451783
97	0xbd9de1ff	-0.07709121
98	0x3e14bfe6	0.14526328
99	0xbd9683ad	-0.07349334
100	0xbd8c338c	-0.06845769
101	0x3da26537	0.079294614
102	0xbd3448f9	-0.044014905
103	0xbd11867c	-0.035528645
104	0x3dd1c765	0.102431096
105	0xbc92fc84	-0.017942674
106	0xbda14ba6	-0.07875757
107	0xbdba4d1d	-0.090967394
108	0xbd917050	-0.071015
109	0x3df3f869	0.11912615
110	0xbd810c2f	-0.06301152
111	0xbda3f780	-0.08006191
112	0xbe22202b	-0.15832584
113	0x3e0d0567	0.13771592
114	0xbde6e02f	-0.112732284
115	0xbd98c68d	-0.074597456
116	0x3d16388c	0.03667502
117	0xbdb50912	-0.08839621
118	0x3ba2fe25	0.004974144
119	0xbe07c32e	-0.13258049
120	0x3d301bfd	0.04299544
121	0xbd25debe	-0.040495627
122	0xbd974f5c	-0.073881835
123	0xbd305b70	-0.04305595
124	0xbd962b7d	-0.073325135
125	0xbd472643	-0.048620474
126	0x3da75612	0.081707135
127	0xbe1ff8ce	-0.15622255
128	0xbe068ec3	-0.13140397
129	0x3d9f723f	0.077854626
130	0x3b7e78e6	0.0038829385
131	0x3c0bb992	0.00852813
132	0xbdbad280	-0.09122181
133	0x3db2e624	0.08735302
134	0x3d706f73	0.058700036
135	0xbc0899be	-0.008337436
136	0xbc76b184	-0.015056971
137	0x3e147352	0.14497116
138	0xbd4e4c83	-0.050365936
139	0x3ddadb20	0.10686326
140	0x3d3d1b1b	0.046168428
141	0xbd1cc4a0	-0.038273454
142	0x3d660004	0.05615236
143	0x3ac0d946	0.001471319
144	0x3ddb00a1	0.10693479
145	0x3d1a5d83	0.037686836
146	0x3c3b2054	0.011421282
147	0x3da3b764	0.07993963
148	0x3db46418	0.08808154
149	0x3dc5e1bb	0.09662195
150	0xbd772afa	-0.06034372
151	0xbc464ed5	-0.012103756
152	0x3deabcab	0.11461767
153	0x3dbb43c9	0.09143788
154	0xbde0d731	-0.109785445
155	0x3d8ab563	0.06772878
156	0xbda840cf	-0.08215486
157	0x3d94dc7b	0.07268616
158	0xbdd23164	-0.10263327
159	0x3cd7d7af	0.026347963
160	0xbe004197	-0.1252502
161	0xbd96b09b	-0.073579036
162	0x3d98003d	0.074219204
163	0xbd97fbf3	-0.074211024
164	0xbd96b128	-0.073580086
165	0xbd85d1a6	-0.06534128
166	0x3ddce504	0.10785869
167	0xbc450909	-0.01202608
168	0xbd7259f5	-0.05916782
169	0x3dd1ed0e	0.10250293
170	0xbe056e05	-0.1303025
171	0xbd5ffd29	-0.05468479
172	0xbc6a8508	-0.014313944
173	0x3c2164a7	0.009850658
174	0xbddfdfe1	-0.109313734
175	0x3d47d895	0.048790533
176	0x3c272e9d	0.010203985
177	0xbd454c9b	-0.04816876
178	0x3ba61df5	0.005069489
179	0xbdaaf7d2	-0.08348049
180	0x3daaf0ce	0.08346711
181	0xbd86fb71	-0.065909274
182	0x3dff4599	0.124644466
183	0x3dd796df	0.10526823
184	0xbd2f929b	-0.042864423
185	0xbde8c6bd	-0.11366031
186	0x3e0861c1	0.1331854
187	0xbd5d2642	-0.053991564
188	0xbd516a83	-0.051126968
189	0x3d539f74	0.05166574
190	0xbe02ee55	-0.12786229
191	0x3d4dc6d8	0.05023846
192	0xbd03dedb	-0.032194953
193	0xbdedc57e	-0.11609934
194	0x3dd48ca5	0.10378388
195	0xbdb81669	-0.089886494
196	0xbd87d081	-0.06631566
197	0xbdfe42c2	-0.12415077
198	0xbddec53e	-0.10877465
199	0xbe096630	-0.13417888
200	0xbdd6073d	-0.10450599
201	0xbdaf5540	-0.08561182
202	0x3d9a9470	0.075478435
203	0x3d7e2e69	0.06205598
204	0x3d6c0bf8	0.0576286
205	0xbd6e8031	-0.05822772
206	0x3d16a2af	0.03677624
207	0xbdcc011f	-0.09961151
208	0x3dba964f	0.091107
209	0xbe066e8b	-0.13128106
210	0xbdc6ed06	-0.097131774
211	0xbd909270	-0.07059181
212	0x3d81fc4a	0.063469484
213	0x3d4519f6	0.04812046
214	0xbd040697	-0.032232847
215	0xbd91bef7	-0.07116502
216	0xbd0c3384	-0.034228817
217	0xbca86af5	-0.020558814
218	0xbcbe2f29	-0.023215847
219	0x3df534b6	0.119729444
220	0x3d908820	0.07057214
221	0xbd8d8937	-0.06910937
222	0xbcb3b24d	-0.021935606
223	0x3c76c6d8	0.0150620565
224	0xbbb7fdbe	-0.005614965
225	0xbd46196a	-0.04836408
226	0xbe09314b	-0.1339771
227	0x3dde0754	0.108412415
228	0x3c976661	0.018481435
229	0xbdce55c3	-0.100749515
230	0x3ddc7b8e	0.10765754
231	0xbccc26b2	-0.024920795
232	0x3decf484	0.11570075
233	0xbc16fc4c	-0.009215426
234	0x3df3c432	0.11902656
235	0x3d053d57	0.0325292
236	0x3cae2896	0.021259587
237	0xbdda04e1	-0.10645462
238	0x3b3d1235	0.0028849964
239	0xbd6dd419	-0.0580636
240	0x3bedafa1	0.0072536026
241	0x3d29b980	0.041436672
242	0xbd0e87e1	-0.034797553
243	0x3d142beb	0.036174696
244	0xbd4afbb1	-0.049556438
245	0xbdcd991b	-0.10038968
246	0xbbb791c0	-0.0056020916
247	0xbb8574d2	-0.004072764
248	0x3d211a6e	0.039331846
249	0xbd4583cd	-0.0482214
250	0xbd8b481f	-0.068008654
251	0x3dbd6ae7	0.09248906
252	0xbdb0b749	-0.08628709
253	0x3d7c0bea	0.0615348
254	0xbdf433ee	-0.11923967
255	0xbd7c0f7a	-0.061538197

network.0.bias f4 [128]
0	0x3dfafddf	0.12255453
1	0x3e3cd078	0.184389
2	0xbd6cc5bc	-0.05780576
3	0x3e08137b	0.13288681
4	0x3e01adcb	0.12663953
5	0x3dbd4d95	0.09243313
6	0xbb87ad7e	-0.004140555
7	0xbd91cf55	-0.071196236
8	0xbddb5632	-0.107098
9	0x3db2194b	0.086962305
10	0x3d01900d	0.03163152
11	0x3a409679	0.0007346641
12	0xbdacf3fe	-0.08444975
13	0x3d9aace5	0.07552508
14	0x3ded9a34	0.116016775
15	0x3d9e7ec0	0.077390194
16	0xbd2a61e4	-0.041597262
17	0xbd026fc3	-0.031844866
18	0x3d9bd14a	0.07608278
19	0xbe185c01	-0.14878847
20	0x3dd3e87b	0.103470765
21	0x3e226cec	0.15861863
22	0xbd868d7d	-0.065699555
23	0x3dab312b	0.083589874
24	0x3e26feeb	0.16308181
25	0xbe16610a	-0.14685455
26	0xbc1a09b3	-0.009401727
27	0xbc8491bd	-0.016182775
28	0x3db685ea	0.08912261
29	0x3d29ffff	0.041503903
30	0x3c959526	0.018259596
31	0x3e00beea	0.12572828
32	0x3ce5304f	0.027977137
33	0x3d8edf61	0.069762
34	0x3d877c5d	0.06615517
35	0xbe01b5be	-0.12666985
36	0x3d0d5e5d	0.03451382
37	0xbdf0a63c	-0.11750457
38	0xbda94b99	-0.08266372
39	0xbd77b434	-0.06047459
40	0xbd3d114a	-0.046159066
41	0x3d088c51	0.03333694
42	0xbd407514	-0.046986654
43	0xbdaf5bba	-0.08562417
44	0x3d271de2	0.040799983
45	0xbda841f9	-0.08215708
46	0xbd41a8d3	-0.047280144
47	0x3cb8f78c	0.022578977
48	0xbdaa36ce	-0.083112344
49	0xbccb2f45	-0.024802813
50	0xbc8415d7	-0.016123695
51	0xba8e4b30	-0.0010856148
52	0xbc9208e1	-0.0178265
53	0x3dc628da	0.096757606
54	0xbdcbbe83	-0.099484466
55	0x3c443b23	0.01197699
56	0x3d3f230f	0.046664294
57	0xbc7b4d75	-0.015338291
58	0xbd1bd6d9	-0.03804669
59	0xbcfb28e9	-0.030659156
60	0x3d9a35c1	0.07529784
61	0xbd39bca5	-0.04534592
62	0x3d1d4d55	0.038403828
63	0x3db50c23	0.088402055
64	0x3db72fa7	0.08944636
65	0x3db0d0e0	0.0863359
66	0x3dffc459	0.12488622
67	0x3d83e62f	0.064403884
68	0x3d0035c7	0.031301286
69	0x3d88b65c	0.06675407
70	0x3dcc0e14	0.09963623
71	0x3daf947d	0.08573244
72	0xbda8f1a8	-0.08249217
73	0xbd83580c	-0.06413278
74	0xbda95606	-0.08268361
75	0x3d4abe0f	0.04949766
76	0x3ce99fbd	0.028518552
77	0x3d88584c	0.06657466
78	0x3d0d86ee	0.034552507
79	0x3cad0ab3	0.021123266
80	0x3d52e94a	0.051492013
81	0x3ce3a98f	0.027790813
82	0x3dafd7fa	0.08586116
83	0xbd31e420	-0.043430448
84	0xbd7bb8b9	-0.061455462
85	0xbc58391d	-0.013197211
86	0xbdfb185c	-0.122605056
87	0xbde1045c	-0.109871596
88	0xbdb4211c	-0.087953776
89	0x3d9fb741	0.07798625
90	0x3dac1929	0.084032364
91	0xbde4fdd7	-0.111812286
92	0x3dc4887e	0.09596346
93	0xbd100ae5	-0.03516664
94	0x3d19d365	0.037555117
95	0xbd9477d9	-0.072494216
96	0x3e0511a5	0.12995012
97	0xbe1e5ceb	-0.15465133
98	0x3dd43b5d	0.10362885
99	0x3de6a0b2	0.11261119
100	0xbd19de87	-0.037565734
101	0xbd02a782	-0.03189803
102	0x3ded3e33	0.11584129
103	0xbac83dd4	-0.0015277215
104	0xbd0375a7	-0.032094624
105	0x3de5c5e6	0.11219387
106	0x3de4ce0b	0.11172112
107	0x3ce82f95	0.028343001
108	0x3d2f5604	0.04280664
109	0xbaceda22	-0.0015781561
110	0x3d83f597	0.06443327
111	0x3cdd3207	0.027001394
112	0xbdf8e691	-0.12153352
113	0x3e035cb0	0.12828326
114	0x3a11c705	0.0005560967
115	0x3af6f8be	0.0018842441
116	0x3db9467b	0.09046646
117	0x3c6a80d9	0.014312946
118	0xbddcf285	-0.107884444
119	0xbd569283	-0.05238582
120	0x3e22c706	0.15896234
121	0xbce50a11	-0.027958902
122	0xbc0ac174	-0.008468974
123	0xbda9d67b	-0.08292862
124	0xbdbdd58e	-0.09269248
125	0xbd7eccc7	-0.06220701
126	0xbbbd4194	-0.00577564
127	0xbc5e5466	-0.013569927

network.2.weight f4 [64, 128]
0	0xbdcc1d2a	-0.099665
1	0xbd4ab773	-0.049491357
2	0xbbd3eb6b	-0.006467273
3	0xbcf27c48	-0.029600278
4	0x3d0a0899	0.033699606
5	0xbc4df422	-0.012570413
6	0xbdbddb6f	-0.09270369
7	0x3db769c1	0.08955718
8	0x3c97d06b	0.018531999
9	0x3d4512ab	0.048113506
10	0x3d72fa6d	0.059320856
11	0x3d7d53e3	0.06184758
12	0xbc2beebf	-0.010493933
13	0xbde8c943	-0.113665126
14	0xbd37eecd	-0.044905473
15	0x3c8bc76c	0.017062865
16	0x3dee659f	0.116404764
17	0xbd90bf0a	-0.07067688
18	0x3e1580ed	0.14599963
19	0xbc98508e	-0.018593099
20	0xbc968752	-0.018375073
21	0x3d982d26	0.074304864
22	0xbd713703	-0.058890354
23	0xbd17cbf8	-0.037059754
24	0x3d60d519	0.054890726
25	0xbc98072c	-0.018558107
26	0x3d6a7710	0.057242453
27	0x3c2cabda	0.0105390195
28	0x3d560863	0.052254092
29	0x3dd47ece	0.103757486
30	0xbd2a2640	-0.041540384
31	0xbd1ba67a	-0.03800056
32	0x3dea55f5	0.11442176
33	0x3d855e11	0.06512082
34	0x3d811933	0.063036345
35	0x3e16c7d9	0.14724673
36	0xbcd5612d	-0.026047314
37	0xbd5b29b2	-0.05350656
38	0x3d009852	0.031395264
39	0x3d810d09	0.063013144
40	0x3db3fc1b	0.0878832
41	0xbd9d18c8	-0.07670742
42	0x3de16582	0.11005689
43	0x3c91fdbd	0.017821187
44	0x3d26c8d3	0.040718865
45	0xbc5aec77	-0.013362042
46	0xbdcc757f	-0.09983348
47	0x3d3d0bba	0.04615376
48	0xbaa07e73	-0.0012244716
49	0x3cd628e1	0.02614254
50	0x3d8964e9	0.067087
51	0x3d89409a	0.06701775
52	0x3d8fb2f3	0.07016554
53	0xba16c871	-0.0005751914
54	0x3dec7f45	0.11547712
55	0x3b76955b	0.0037625644
56	0x3d8f5f85	0.07000641
57	0x3d3d769c	0.046255693
58	0x3d97c8d5	0.074113525
59	0xbc2394f1	-0.009984241
60	0x3c3ab03c	0.011394557
61	0x3dbc11f6	0.09183113
62	0x3d2fd73e	0.04292988
63	0x3db013a2	0.08597495
64	0x3d351a9a	0.044214822
65	0xbdd859ec	-0.10564026
66	0xbdb30746	-0.08741622
67	0xbd222204	-0.03958322
68	0x3d1330a2	0.03593505
69	0x3dc07dee	0.09399019
70	0x3af472c5	0.0018649927
71	0x3aa197fe	0.0012328622
72	0x3d7c6b28	0.06162563
73	0xbd2eaa3a	-0.04264281
74	0x3c10e13a	0.008842761
75	0xbdb8a30f	-0.09015476
76	0x3e003809	0.12521376
77	0xbcaf967c	-0.021434061
78	0x3c4c1223	0.012455496
79	0x3d96ac21	0.0735705
80	0x3ce19312	0.027535949
81	0xbd550ca7	-0.05201402
82	0x3b70e3bb	0.0036756832
83	0x3de6a27c	0.1126146
84	0x3b9a75e7	0.004713762
85	0x3d1e7f1e	0.038695447
86	0x3d38d0c1	0.04512096
87	0x3c3952d2	0.01131125
88	0xbc8c06b1	-0.017093034
89	0x3d3fba3b	0.046808463
90	0x3d80f0f0	0.06295955
91	0x3d7391c5	0.05946519
92	0xbbec7526	-0.0072161136
93	0x3def77a8	0.116927445
94	0xbc807f10	-0.015685588
95	0xbdbaddb0	-0.09124315
96	0x3de98f8d	0.11404333
97	0x3d25e932	0.040505596
98	0x3b6ba4ca	0.0035956376
99	0xbdb8bcd3	-0.0902039
100	0x3da4e24d	0.08050976
101	0x3d533426	0.051563405
102	0xbdddbe93	-0.10827365
103	0x3c80d85c	0.015728168
104	0x3d1b5f97	0.03793296
105	0x3dc21922	0.0947745
106	0x3d9bf5e3	0.076152585
107	0x3cd7e7db	0.026355674
108	0x3d056b49	0.03257302
109	0x3d5df770	0.054191053
110	0x3df61bb5	0.120170034
111	0x3deba7dc	0.11506626
112	0xbc025157	-0.007953963
113	0xbdf17ad6	-0.11791007
114	0xbd0280e3	-0.031861197
115	0xbd40df7f	-0.047088142
116	0xbcef17ff	-0.029186247
117	0x3d9a2715	0.075269856
118	0x3c013633	0.007886457
119	0x3a2f573e	0.00066887203
120	0x3ceaa624	0.028643675
121	0x3dd8ab83	0.10579588
122	0xb95c3fda	-0.00021004622
123	0x3e039a21	0.12851764
124	0xbc663a2a	-0.014051953
125	0x3c5ce7e4	0.013483021
126	0xbacbb49d	-0.0015541498
127	0xbd857090	-0.0651561
128	0x3a196db4	0.0005852834
129	0x3ca6efad	0.020377958
130	0xbd652f33	-0.055953216
131	0xbc8696be	-0.016429301
132	0xbd3134ee	-0.04326337
133	0xbd622110	-0.055207312
134	0x3d7bd34b	0.0614808
135	0xbcc98912	-0.024601493
136	0x3d17ada2	0.037030824
137	0x3d01f5b1	0.03172845
138	0xbcf608ab	-0.03003343
139	0x3da3d511	0.079996236
140	0xbd9d179b	-0.07670518
141	0x3dadec7a	0.0849237
142	0x3d0c1360	0.034198165
143	0xbcf4b6a2	-0.029872242
144	0xbc8cd980	-0.017193556
145	0x3d3f0a2a	0.046640553
146	0xbcdf8174	-0.027283408
147	0x3bdcb296	0.0067351563
148	0xbd8badce	-0.0682026
149	0x3da2e8b1	0.079545386
150	0xbdc2909c	-0.09500238
151	0xbdced611	-0.10099424
152	0xbce22cc0	-0.02760923
153	0xbd617678	-0.05504462
154	0x3df41b8d	0.119193174
155	0x3d5074d7	0.050892677
156	0x3dd368e7	0.10322743
157	0xbcc42454	-0.023943104
158	0x3d919fd4	0.07110563
159	0xbdf56988	-0.11983019
160	0xbdc47d8a	-0.09594257
161	0x3c2a9c26	0.010413205
162	0x3cd4072e	0.02588233
163	0x3d97fae7	0.07420903
164	0xbc77acd6	-0.015116891
165	0x3d381df4	0.04495044
166	0x3dbdbbbc	0.09264323
167	0x3d21e341	0.039523367
168	0x3d01a222	0.031648763
169	0xbd9ff3fc	-0.07810208
170	0xbcdf25e4	-0.027239747
171	0xbcb90c8d	-0.022588992
172	0x3d10807a	0.035278775
173	0x3d62d914	0.055382803
174	0xbc129f1e	-0.008949069
175	0xbd8a6a32	-0.067585364
176	0xbcc6262a	-0.02418812
177	0xbbf2cafb	-0.007409451
178	0xbd46fc13	-0.04858024
179	0x3d1bf356	0.03807386
180	0xbb1e9b2a	-0.0024201372
181	0x3dbb85f1	0.09156407
182	0x3c9284ad	0.01788553
183	0xbd682ed3	-0.05668528
184	0x3d95bb3b	0.07311102
185	0x3d86d334	0.065832525
186	0xbd91c31d	-0.07117293
187	0x3c98a0f1	0.01863143
188	0xbdae94b0	-0.08524454
189	0xbd6e2bea	-0.05814735
190	0x3d0786d7	0.033087578
191	0xbd1a714d	-0.03770571
192	0xbcf10c07	-0.02942468
193	0x3d2be277	0.04196402
194	0xbda650c0	-0.081208706
195	0x3d6371af	0.05552834
196	0x3d7bd3df	0.061481353
197	0x3d39bee5	0.045348067
198	0xbd88c437	-0.0667805
199	0xbd9dbbcd	-0.07701836
200	0xbb89843e	-0.0041966727
201	0xbbd43e50	-0.006477155
202	0xbd33857b	-0.04382847
203	0xbcfc2d5f	-0.030783353
204	0xbce5893e	-0.028019544
205	0x3d6eb3c8	0.05827692
206	0x3b242690	0.00250474
207	0x3c56684f	0.013086393
208	0xbd9155f4	-0.070964724
209	0xbd4a32cf	-0.04936486
210	0xbd418132	-0.04724235
211	0x3b9782c0	0.004623741
212	0x3c3e52f7	0.01161646
213	0xbd25612a	-0.040375866
214	0xbcb4ac29	-0.022054749
215	0x3b849df8	0.0040471517
216	0x3d81c5a1	0.06336523
217	0xbdfeb8ba	-0.124375775
218	0x3ce3e7a8	0.027820423
219	0xbd12f670	-0.035879552
220	0x3b9366e2	0.0044983486
221	0xbcfee4b0	-0.031114906
222	0xbd7ca067	-0.06167641
223	0x3d2998d2	0.041405506
224	0x3d85887d	0.06520174
225	0x3c3118e0	0.010809153
226	0x3d7e3372	0.06206078
227	0xbd2bcdba	-0.041944243
228	0xbc051f6b	-0.008125166
229	0xbc3be786	-0.011468774
230	0x3d815b91	0.06316293
231	0xbbb393de	-0.0054802736
232	0xbd4bff6c	-0.049804136
233	0x3d52b7b2	0.051444717
234	0x3d34a9af	0.044107135
235	0xbdcb6b30	-0.09932554
236	0xbc927fc0	-0.017883182
237	0x3da0edf9	0.0785789
238	0xbcfafc72	-0.030637953
239	0x3ca69f4f	0.020339636
240	0xbd8d7a07	-0.069080405
241	0x3da9e5fc	0.08295819
242	0xbb95bfd3	-0.0045699864
243	0xbdc962de	-0.098333105
244	0xbc5fb063	-0.013652894
245	0x3ce8f380	0.028436422
246	0xbd5d1433	-0.05397434
247	0xba83ec6b	-0.0010064965
248	0xbd8addcb	-0.06780585
249	0xbc95ef63	-0.018302625
250	0x3bb689e6	0.005570638
251	0xbd612aa0	-0.05497229
252	0xbde3a5a6	-0.11115579
253	0x3d3cbc19	0.04607782
254	0xbdb58439	-0.0886311
255	0xbbea562f	-0.007151387

network.2.bias f4 [64]
0	0x3d5030f9	0.050827954
1	0xbd721318	-0.05910024
2	0xbd09d408	-0.033649474
3	0xbd417fe3	-0.047241103
4	0xbba32c83	-0.0049796714
5	0xbd216985	-0.039407272
6	0x3d83823c	0.064213246
7	0xbcab2485	-0.020891437
8	0x3dc1c6a8	0.09461719
9	0xbd8e0a4a	-0.06935556
10	0x3d8b4a06	0.06801228
11	0x3e23bd86	0.15990266
12	0x3d467cb8	0.048458785
13	0x3e1ed531	0.15511014
14	0x3dbcd0cb	0.092195116
15	0xbd06456d	-0.032781053
16	0xbb9c93b2	-0.004778349
17	0x3c9bbba6	0.019010376
18	0x3c94007f	0.018066643
19	0x3dfc24e5	0.123117246
20	0x3d5836a0	0.05278647
21	0x3cb7750f	0.022394685
22	0xbd00df59	-0.031463
23	0x3da0569d	0.0782902
24	0x3d81e656	0.06342761
25	0x3bbf9fc6	0.005847904
26	0x3c83ec4d	0.016103888
27	0x3c2f88b1	0.010713742
28	0x3cf620f9	0.03004502
29	0x3d3f1c6f	0.046657976
30	0x3db6b2ac	0.08920798
31	0x3e1034d2	0.1408265
32	0xbd883ec5	-0.06652597
33	0x3d01b59f	0.031667348
34	0x3c8d0fe5	0.017219493
35	0x3d86ec16	0.065879986
36	0x3e05dc8b	0.13072412
37	0x3d9d41a3	0.07678535
38	0x3e266f10	0.16253304
39	0xbda7cb68	-0.081930935
40	0x3c91a01d	0.017776543
41	0x3d983997	0.074328594
42	0xbd5d4cfa	-0.05402849
43	0xbc9d1a5e	-0.019177612
44	0x3d72019c	0.059083566
45	0xbd97dcb2	-0.07415141
46	0x3db3541c	0.08756277
47	0x3cbb5d62	0.022871677
48	0x3cd8429d	0.026398951
49	0xbb2a95ad	-0.0026029155
50	0xbc8fb931	-0.01754436
51	0xbd57ecce	-0.05271607
52	0xbcd6ef32	-0.026237104
53	0xbd08ae04	-0.03336908
54	0xbcc92876	-0.024555426
55	0x3b20f3c7	0.0024559365
56	0x3dd40590	0.103526235
57	0x3cfbe836	0.030750375
58	0x3d852125	0.065004624
59	0x3d5f1890	0.054466784
60	0xbd91b280	-0.07114124
61	0xbcb3b20d	-0.021935487
62	0x3dfc7747	0.12327438
63	0x3e16a5bc	0.1471166

network.4.weight f4 [16, 64]
0	0xbd6d674c	-0.05795984
1	0x3e399ca0	0.18126154
2	0xbe4ea407	-0.20179759
3	0xbe099e6b	-0.13439338
4	0xbcb641ac	-0.022248112
5	0xbe5d01a9	-0.21582665
6	0x3e269726	0.16268596
7	0x3d74765a	0.05968318
8	0x3dca3df0	0.09875095
9	0xbe1fdd22	-0.15611699
10	0xbcfc8558	-0.030825302
11	0x3e83d8ae	0.2575125
12	0xbdb6022e	-0.088871345
13	0x3e22454f	0.15846752
14	0xbde56f6a	-0.11202891
15	0xbd9a781a	-0.07542439
16	0xbe5a6997	-0.21329342
17	0xbd1011f0	-0.035173357
18	0xbdcf23e0	-0.101142645
19	0x3e575cd1	0.210315
20	0xbe097521	-0.13423587
21	0xbe406638	-0.18788993
22	0xbe10ce76	-0.14141259
23	0xbd551165	-0.05201854
24	0x3e616700	0.22011948
25	0x3e1684d4	0.14699107
26	0xbbc21beb	-0.0059237382
27	0x3ded834c	0.115973085
28	0x3ea25084	0.31702054
29	0xbdb14279	-0.08655257
30	0xbd4919aa	-0.04909674
31	0xbd0a799d	-0.033807386
32	0x3eafecab	0.3436025
33	0x3d68b6b1	0.056814853
34	0x3e998027	0.29980585
35	0xbda3c568	-0.07996637
36	0x3e27e439	0.16395654
37	0x3e61c565	0.22047956
38	0x3de8d04e	0.11367856
39	0xbdb32778	-0.087477624
40	0xbd8ac08d	-0.067750074
41	0x3dd69367	0.104773335
42	0x3d90184e	0.07035886
43	0xbd649d1f	-0.055813905
44	0xbe448262	-0.19190362
45	0xbdae5c58	-0.08513707
46	0x3e78d921	0.24301578
47	0xbd186ca0	-0.037212968
48	0xbea2cdfc	-0.3179778
49	0xbd8ff3d0	-0.070289254
50	0xbe008b70	-0.12553191
51	0xbdf843bb	-0.121222936
52	0x3dd3a616	0.10334413
53	0xbe7284d4	-0.23683482
54	0xbcf7345f	-0.03017634
55	0xbdb1a874	-0.08674708
56	0x3e83d1e8	0.25746083
57	0x3de28e5d	0.1106231
58	0x3e33e671	0.17568375
59	0x3e37e521	0.179585
60	0xbe86b29a	-0.26308137
61	0xbdc68677	-0.09693616
62	0x3e2c95f9	0.16854085
63	0x3e5e3bd4	0.2170251
64	0x3e3b3102	0.18280414
65	0xbdc24261	-0.09485317
66	0x3e3ea137	0.18616186
67	0x3cf3991f	0.0297361
68	0xbccd0b53	-0.025029814
69	0x3db37d6a	0.08764155
70	0xbdc50536	-0.096201345
71	0xbc838f9f	-0.016059695
72	0x3d168971	0.036752168
73	0x3dbd8cc8	0.092553675
74	0x3db5d473	0.08878412
75	0xbda89e29	-0.08233292
76	0x3e2648a3	0.16238646
77	0xbdaf7481	-0.08567143
78	0xbc33e907	-0.010980851
79	0x3e13dc12	0.14439419
80	0x3e49256d	0.19643183
81	0x3d816b93	0.06319346
82	0x3e3850e4	0.17999607
83	0xbe4610fb	-0.19342415
84	0xbd14383b	-0.036186438
85	0x3d8568c5	0.06514124
86	0x3d85130a	0.06497772
87	0x3cb70758	0.022342369
88	0xbdc13096	-0.09433095
89	0xbda5ab36	-0.080892965
90	0x3e25a6b3	0.16176872
91	0x3dab1eac	0.083554596
92	0xbe69c35b	-0.22828428
93	0xbc3d6724	-0.011560235
94	0x3c924745	0.01785625
95	0x3df7e9d2	0.121051446
96	0x3d61753e	0.05504345
97	0x3e1d02e9	0.15333141
98	0xbe0903ab	-0.13380305
99	0x3e289871	0.16464402
100	0xbda0176d	-0.07816968
101	0xbe05b5c2	-0.13057616
102	0xbdea3ce0	-0.11437392
103	0x3c2929a5	0.01032487
104	0x3d83a25d	0.06427453
105	0x3e1c47b4	0.15261728
106	0x3c5b6520	0.013390809
107	0x3cba2614	0.022723235
108	0x3e071602	0.13191989
109	0x3dee33dd	0.11630986
110	0xbd81ab32	-0.06331481
111	0x3d9dabbd	0.07698772
112	0x3dce503d	0.10073898
113	0x3e1bd2af	0.15217088
114	0x3de27bf3	0.11058798
115	0x3dad83e6	0.08472423
116	0x3e172b46	0.14762601
117	0x3c66c1d2	0.014084296
118	0x3df56c3c	0.11983535
119	0x3d083329	0.033251915
120	0xbe07db3a	-0.13267222
121	0xbe166874	-0.14688283
122	0xbcd1d3b9	-0.025613653
123	0xbe43cb10	-0.19120431
124	0x3c4e8dde	0.012607066
125	0x3d83195c	0.06401321
126	0xbd8133c0	-0.06308699
127	0x3dc40aa2	0.095723405
128	0xbdc2a2f5	-0.09503738
129	0x3e050e71	0.1299379
130	0xbddb8fdc	-0.107207984
131	0xbe60f071	-0.21966721
132	0xbd285120	-0.04109299
133	0xbdf1492a	-0.11781533
134	0x3db956ff	0.09049796
135	0xbbc898cf	-0.006121732
136	0x3dd7f106	0.105440184
137	0xbe6f6f8d	-0.23382397
138	0x3dde3127	0.10849219
139	0x3e83fb76	0.25777787
140	0xbe33198a	-0.17490211
141	0x3ddd69cb	0.10811194
142	0xbddf8d44	-0.10915616
143	0x3d809ca1	0.062798746
144	0xbb79a793	-0.0038094267
145	0x3b8fe7ec	0.004391661
146	0x3cdafc62	0.026731674
147	0x3e5274fc	0.20552438
148	0xbe5537f7	-0.2082213
149	0xbd889d2d	-0.06670604
150	0xbc3ea0f3	-0.011635053
151	0x3d62e6ab	0.055395763
152	0x3e471d02	0.1944466
153	0x3cb8d135	0.022560695
154	0xbcebd66e	-0.028788771
155	0x3dfe5c24	0.12419918
156	0x3e44d554	0.19222003
157	0xbcec2c3f	-0.028829692
158	0xbd43500b	-0.047683757
159	0x3e516e2a	0.2045218
160	0x3e029081	0.12750436
161	0xbd9883d9	-0.07447023
162	0x3e374d01	0.17900468
163	0xbe08b228	-0.13349211
164	0x3e597776	0.21236977
165	0x3e6c4dc5	0.23076542
166	0x3e942e50	0.28941584
167	0xbdebf5c6	-0.11521487
168	0xbd3272d1	-0.04356653
169	0x3e31cab9	0.17362489
170	0x3c669c0e	0.014075292
171	0xbe3141ba	-0.17310229
172	0xbe004bba	-0.12528887
173	0xbe1b95c4	-0.1519385
174	0x3dd7f8b2	0.10545482
175	0xbe327798	-0.17428434
176	0xbe60f1e0	-0.21967268
177	0xbdc642ec	-0.09680733
178	0xbc17787d	-0.009245035
179	0xbda2abec	-0.07942948
180	0x3dad87a8	0.0847314
181	0xbe4c080c	-0.19924945
182	0xbe20e353	-0.15711717
183	0x3e092d69	0.13396229
184	0x3df46805	0.11933903
185	0x3e343c4b	0.17601125
186	0x3e26ba5e	0.16282031
187	0x3e83e149	0.25757816
188	0xbe0af185	-0.13568695
189	0xbdf307b3	-0.11866703
190	0x3e31dabb	0.17368595
191	0x3e1e0669	0.15432133
192	0xbe159856	-0.14608893
193	0xbd290d66	-0.041272543
194	0xbdcc9094	-0.099885136
195	0xbe1a5823	-0.15072684
196	0x3c471cca	0.01215286
197	0xbe11916f	-0.14215635
198	0x3e22b5c1	0.15889646
199	0x3d50aad2	0.050944157
200	0x3ddebab2	0.10875453
201	0xbe70e03a	-0.23523036
202	0x3d8f2645	0.06989721
203	0x3ea12961	0.31476882
204	0xbe28123b	-0.16413204
205	0x3e48f2c4	0.19623858
206	0x3ceccb3f	0.028905509
207	0xbd88da55	-0.066822685
208	0xbdf14238	-0.11780208
209	0xbdaf203a	-0.085510686
210	0xbdd50738	-0.104017675
211	0x3e2f4b9d	0.17118688
212	0xbcacee31	-0.021109672
213	0xbdb31db5	-0.087459005
214	0xbe1f0e46	-0.15532789
215	0xbd66295b	-0.056191783
216	0x3e660d7a	0.22466078
217	0x3e5997e6	0.21249351
218	0xbe43843e	-0.19093415
219	0x3d8d61e6	0.06903438
220	0x3e8df3e5	0.2772514
221	0xbe0b27b0	-0.13589358
222	0xbca21080	-0.019783258
223	0xbd4d3a39	-0.050104354
224	0x3e76bd38	0.24095619
225	0x3d475351	0.04866344
226	0x3e7e6fc2	0.2484732
227	0xbcda79db	-0.026669433
228	0x3c762188	0.015022643
229	0x3e129a46	0.14316663
230	0x3e2ab316	0.16669878
231	0xbde2823f	-0.11059999
232	0x3cee8e13	0.02912048
233	0x3d3673d4	0.044544056
234	0xbc72016d	-0.014770848
235	0xbe20832d	-0.1567504
236	0xbd0e38b5	-0.03472205
237	0xbcbecf60	-0.023292243
238	0x3deba46b	0.115059696
239	0xbd8362c7	-0.06415325
240	0xbe8a97d0	-0.2706895
241	0xbd728296	-0.059206568
242	0xbd28955c	-0.041158065
243	0x3d0ca2d0	0.034334958
244	0x3d6b93ca	0.05751399
245	0xbb383224	-0.0028106058
246	0xbd13932a	-0.03602902
247	0x3dcb38de	0.09922956
248	0x3dbf4c5c	0.09340736
249	0x3d60d124	0.054886952
250	0x3ca28a6e	0.019841399
251	0x3e0b5138	0.13605201
252	0xbcf5284a	-0.029926438
253	0xbd2cfa85	-0.0422311
254	0x3e00ad35	0.12566073
255	0x3e2f7601	0.17134859

network.4.bias f4 [16]
0	0x3c956a81	0.018239262
1	0x3d759553	0.05995686
2	0x3c08443c	0.00831705
3	0x3d0c4bcb	0.03425197
4	0x3d2cfc19	0.042232607
5	0x3d8e3bce	0.069450006
6	0x3ce94bb5	0.028478483
7	0xbdad9696	-0.084759876
8	0xbd887e71	-0.06664742
9	0x3d5033db	0.050830703
10	0x3ce9bb06	0.028531563
11	0xbcd8391a	-0.026394416
12	0x3e04f8df	0.12985562
13	0x3d5792ad	0.052630115
14	0xbdc0fb00	-0.094228745
15	0xbda5dbd6	-0.08098571

network.6.weight f4 [2, 16]
0	0x3c9f57b1	0.019450994
1	0xbe566609	-0.20937361
2	0x3e2570fb	0.1615638
3	0x3ece802c	0.40332162
4	0x3dcbd9ef	0.09953677
5	0xbdfd2311	-0.12360204
6	0xbe9b0141	-0.30274394
7	0xbe3c6f7c	-0.18401903
8	0xbdf0ec0d	-0.11763773
9	0xbe2265b5	-0.1585911
10	0xbeb6a07e	-0.3566932
11	0xbe005e9d	-0.12536092
12	0x3eb726ac	0.35771692
13	0xbccf9868	-0.025341228
14	0xbec7798f	-0.3895993
15	0xbea3443f	-0.31888005
16	0xbef9c13c	-0.4878024
17	0x3e9223a6	0.28542823
18	0xbee79d34	-0.45237124
19	0xbe957353	-0.29189548
20	0xbd9f32d7	-0.07773369
21	0x3e8e4d5b	0.27793393
22	0x3e89da34	0.26924288
23	0x3eb142b1	0.34621194
24	0x3e8363e9	0.25662163
25	0x3e81dbd6	0.25363034
26	0x3e066c96	0.1312736
27	0x3e6d05cb	0.23146741
28	0xbe82900b	-0.2550052
29	0xbcbfe998	-0.023426816
30	0x3ef059e0	0.4694357
31	0x3ef543a5	0.4790317

network.6.bias f4 [2]
0	0x3e3f8e88	0.18706715
1	0xbe06e005	-0.13171394
