ptg/models/heloc/loo_model_53.pth (torch, 52545 bytes, 8 tensors)

network.0.weight f4 [128, 23]
000000 a2 9d c1 be 64 0c 9b 3e e1 88 01 bf 68 ae bb be
       -0.37815577 0.3028289 -0.50599486 -0.366565
000010 cc 5f 86 be d9 11 3f 3e a4 cd 40 bd ed 44 12 bf
       -0.26244962 0.18659152 -0.047071114 -0.5713642
000020 ab 55 02 3e a9 88 02 be 7c a6 da be 2c 85 0f bf
       0.12727992 -0.12747444 -0.42705142 -0.5606258
000030 49 e5 38 bf 28 b7 2f bf a2 dc 12 bf fb e9 5a 3e
       -0.7222486 -0.6863885 -0.5736791 0.21378319
000040 24 f5 1e 3e 38 54 8a 3e b6 2d b8 be 52 fe 86 3e
       0.15523201 0.2701738 -0.35972375 0.26365906
000050 33 4b 3d 3d e7 87 a6 3e 29 c4 8d be af ea 64 3e
       0.046214294 0.3252556 -0.2768872 0.2235515
000060 ba b6 d0 bc 7a 77 cb be e6 c9 2c 3f ef 7a 8f be
       -0.025477756 -0.3973959 0.6749557 -0.28023478
000070 10 b3 ad 3e e2 16 44 3c 46 27 a7 be a2 d7 e3 3d
       0.33925676 0.011968346 -0.3264715 0.11125113
000080 88 e7 b3 bc 3d ee 09 3e 2b 7a 1e bf c7 95 1f 3e
       -0.021960989 0.13469787 -0.61905164 0.1558448
000090 e9 92 1b be 73 f8 b7 3e c3 6a c3 3e 05 fc d6 3e
       -0.1519276 0.3593174 0.3816739 0.4198915
0000a0 a1 fe bf be cf 9b 58 3e c8 b9 99 3e 0f ad 16 bf
       -0.37498954 0.21153186 0.30024552 -0.58857816
0000b0 77 f6 b9 be ed 22 26 be 05 7c 0f 3d 6e 64 ed 3e
       -0.3632085 -0.1622426 0.035030384 0.46365684
0000c0 e7 48 01 bf d3 a3 68 3c bc 38 cf 3e 89 56 19 be
       -0.50501865 0.014199215 0.40472972 -0.14974417
0000d0 74 b5 f1 be aa cb b9 be 26 8a 8f be c3 16 e1 be
       -0.4720875 -0.36288196 -0.28035086 -0.43962678
0000e0 50 5e 55 3e ff 0b 40 bf 3e 63 c1 bd f7 d9 cb bc
       0.20836759 -0.75018305 -0.09442757 -0.024884207
0000f0 76 49 f0 3d 47 a1 00 3f 1c 60 b1 3c eb 95 06 3f
       0.117327616 0.5024609 0.021652274 0.52572507
000100 a3 55 80 3e 06 22 92 be 96 d7 0f be d4 29 49 3e
       0.25065336 -0.28541583 -0.14047083 0.19644862
000110 00 c9 a0 3d 53 b5 1d 3e b0 7a 25 be f3 d3 41 bf
       0.07850838 0.15401201 -0.16160083 -0.75714034
000120 fd ce 3f 3f e5 37 8b bd c3 50 59 3e 24 9d 6d 3b
       0.74925214 -0.067977704 0.21222214 0.0036256993
000130 40 64 34 be a5 62 1e bf 26 45 44 3e 29 b0 07 bf
       -0.17616367 -0.6186927 0.19167003 -0.53003174
000140 78 93 74 be a8 66 b6 3e b5 59 af 3d 85 2e 6b bf
       -0.2388438 0.35625196 0.08562032 -0.9186786
000150 51 17 32 3e 41 01 4a bd 05 ee 20 3f 0a ed ba 3d
       0.17391707 -0.049317602 0.6286319 0.09127243
000160 2b 3d 04 3d 85 97 08 3e 6d 55 81 bd 69 0d ee 3e
       0.032284897 0.1333905 -0.06315122 0.46494606
000170 26 a1 29 bf 26 d5 15 bf 20 64 80 bf 7b 50 61 bf
       -0.6626152 -0.58528364 -1.0030556 -0.8801343
000180 96 dc 1b 3f 9a 19 dd bd c6 1e 96 3e 74 21 85 be
       0.6088346 -0.10795899 0.29320353 -0.26002085
000190 a4 da 31 3e 98 b7 ce be da 57 eb bd 30 1b 43 3e
       0.17368561 -0.40374446 -0.11491366 0.1905334
0001a0 d5 ee af bd 1c d3 13 3f e1 96 9c be 81 3a bb be
       -0.085904755 0.57744 -0.3058386 -0.36568072
0001b0 49 f5 d3 be 4c d7 08 3d 49 c9 9d 3e 36 cf 03 3e
       -0.41398075 0.033408448 0.3081763 0.12872013
0001c0 70 8d 32 bf e9 6b cf 3e 21 93 b4 3e 81 2a 3f be
       -0.69747066 0.40512016 0.352685 -0.18668558
0001d0 31 04 fd 3d 60 23 60 be 69 ad 2b bc 81 20 ff 3c
       0.12354315 -0.21888494 -0.010478356 0.031143429
0001e0 2c 73 93 3e 0d d5 c2 3e 50 04 b3 bc b5 b0 e3 be
       0.28798807 0.3805317 -0.021852642 -0.44470754
0001f0 cf c8 09 be 56 6d 76 be 31 ce 8c be 64 c6 2a be
       -0.13455509 -0.24065146 -0.27501062 -0.16677243
000200 0d 0c 79 be ae b1 71 bf 00 df 20 bd f0 ef 54 bd
       -0.24321003 -0.9441174 -0.03927517 -0.051986635
000210 49 e9 0a be 6a 8c c0 be ec 45 88 3f ed c8 a1 be
       -0.13565554 -0.37607127 1.0646338 -0.31598607
000220 38 ac 79 3e 63 26 94 be 4b 2a 85 3e e3 b6 2c 3e
       0.24382102 -0.28935537 0.2600883 0.16866641
000230 24 d5 5c 3f 3e 09 d8 3e 1a a3 a5 3e 58 5b 67 be
       0.86262727 0.4219455 0.32351 -0.22593439
000240 41 80 86 be bc ee 36 be b3 8d 05 3e 12 35 6f 3d
       -0.26269725 -0.17864507 0.13042335 0.05840022
000250 05 6b 62 3e 2b 7e 8f 3e 1f 6b 9c bf 9d fa 05 3f
       0.22111137 0.28025946 -1.2220191 0.5233553
000260 64 eb 3d bf 11 70 fe be f7 2f d0 be d6 4c 5d be
       -0.741873 -0.49694875 -0.40661594 -0.21611342
000270 0a 1c 43 be ed e8 74 3f 39 24 52 be b4 25 58 3f
       -0.19053665 0.95667917 -0.2052163 0.8443253
000280 7a 37 62 3f f9 9b b4 3e 95 2d e6 be 69 fc 9b be
       0.883659 0.35275248 -0.4495665 -0.3046601
000290 28 8c f0 3d 56 0e 24 3d 11 ca 12 3e b6 d4 b1 3d
       0.11745483 0.040052734 0.14334895 0.086831495
0002a0 10 7e 1e bf 45 75 69 be cd c7 c5 3e 0e 2d 2e be
       -0.61911106 -0.22798641 0.38628998 -0.17009374
0002b0 79 28 da 3e f0 75 74 be cd 4e 4f bf bf 79 df bd
       0.42609003 -0.23873115 -0.80979615 -0.10911893
0002c0 bd 55 0c 3f e4 70 b1 3e dd c7 4b 3f 86 ed a8 be
       0.54818326 0.3465644 0.7960184 -0.32993716
0002d0 23 01 ca be a8 3e 5f be 49 8b b2 3d 7e 5c 33 bf
       -0.39453992 -0.21801245 0.08717973 -0.70063007
0002e0 b8 52 ab be 2f 5a 03 3f 16 26 d3 bc 12 f4 c8 be
       -0.33461547 0.51309484 -0.025774997 -0.3924871
0002f0 df 2a c6 be 74 e3 8c 3e fc 77 ae 3e 3a 8a 07 be
       -0.38704583 0.27517283 0.34075916 -0.13236323
000300 64 eb 45 bf 01 d2 09 3d 1d 8d 44 bf 85 11 e5 be
       -0.773123 0.03364754 -0.7677782 -0.4473993
000310 a2 06 7b bc 1d ae 71 3e a2 aa c8 be 0f 1d e5 3d
       -0.015321406 0.23601575 -0.39192683 0.11187183
000320 40 0e 7a 3c c3 07 97 3e 2c c1 15 3e af ea 85 3e
       0.0152621865 0.2949811 0.1462447 0.26155612
000330 13 11 11 3f 82 e8 6f bd ea 03 62 be 56 2d 01 bd
       0.5666668 -0.058571346 -0.22071806 -0.031537376
000340 16 54 90 bc e2 97 2e 3f 3c 03 ed be a3 00 5e be
       -0.01761822 0.68200505 -0.4629153 -0.2167993
000350 3b dc 65 3e 44 6e 11 be 10 e5 25 3e 2a 25 eb 3d
       0.22447293 -0.14202219 0.16200662 0.11481698
000360 90 35 55 bf 42 39 85 be f5 7d 96 3e 22 f2 eb be
       -0.83284855 -0.26020247 0.29392973 -0.4608317
000370 7e b1 01 3e 40 39 62 3f 63 37 c6 3e 26 23 f0 3e
       0.12665364 0.88368607 0.38714132 0.46901816
000380 04 4a 9a bd 2e 28 56 3f 87 57 a5 bd 7e c7 82 3e
       -0.075336486 0.8365506 -0.08073335 0.25542825
000390 16 6d 8b bf 86 02 9a 3e 16 0c 90 be 9f 9d a8 3e
       -1.0892665 0.3008005 -0.2813422 0.32932755
0003a0 62 ea 0a be d2 6b 37 3f 67 c3 ba 3e 55 ae 41 bf
       -0.13565972 0.71648896 0.36477205 -0.75656635
0003b0 ad b3 98 3e 1f ca 0b bf 48 d3 27 be 04 2e 14 3b
       0.29824582 -0.5460529 -0.16389191 0.0022610435
0003c0 d5 45 bc 3e ba af 5d 3e b9 e3 6e 3d 5d 54 2f be
       0.36772028 0.21649066 0.058322642 -0.17122026
0003d0 1c 2d 65 3e f1 81 3c be fd 2d 1e 3f e5 20 d5 be
       0.22380489 -0.18408944 0.6178892 -0.4162666
0003e0 45 f9 95 3e 0c 9b 2e be dd e3 1e be c7 6c 01 be
       0.2929174 -0.17051333 -0.1551661 -0.12639152
0003f0 ba 2f 01 3f 8d f6 64 3e 9b 16 77 3e 38 0d 64 be
       0.5046345 0.22359677 0.24129717 -0.22270668

network.0.bias f4 [128]
000000 f5 b8 26 bf 92 90 c0 be c5 27 52 bf 57 dd 06 bf
       -0.6512597 -0.37610298 -0.82091933 -0.5268149
000010 22 9f 62 bf 45 e5 25 be de 62 0a bf 14 0a 21 bf
       -0.8852407 -0.1620074 -0.5405711 -0.62906003
000020 10 ca 37 be e7 9b d3 be 65 92 d5 3d ea d1 44 be
       -0.17948174 -0.41329882 0.10428313 -0.19220701
000030 ce 06 05 bf 8f d7 3c bf 26 a4 fb be 08 b9 40 bf
       -0.5196351 -0.73766416 -0.49148673 -0.75282335
000040 fd 10 57 3d e4 a0 18 bf f9 37 63 bf 7a 58 4c bf
       0.052506436 -0.596205 -0.8875728 -0.79822505
000050 78 5b 6b bf 70 32 58 be 38 53 06 be d4 ee 11 bf
       -0.91936445 -0.2111299 -0.13117683 -0.5700505
000060 dc 30 54 be 69 38 8a bf 48 50 e7 be a9 86 96 be
       -0.20721763 -1.0798465 -0.45178437 -0.29399613
000070 1b 67 19 bf 90 ab 5b bf ae 8a c1 be a0 41 05 bf
       -0.5992295 -0.8580866 -0.37801117 -0.5205326
000080 7f 15 92 be 9e d9 8b bf 84 ae 13 bf a7 25 d7 3d
       -0.28532025 -1.0925786 -0.57688165 0.105052285
000090 0b 84 19 bf 9c e3 3d bf a1 07 cd be da aa 8e bf
       -0.59967107 -0.7417543 -0.40044883 -1.114589
0000a0 61 91 af be 7d c8 e5 be 9b b4 08 3d 78 e0 55 bf
       -0.34290603 -0.44879523 0.033375364 -0.8354564
0000b0 30 23 a5 be 5b 72 23 bf 53 fe a5 be 53 9e 14 bf
       -0.32253408 -0.6384637 -0.32420596 -0.58054084
0000c0 9a 25 f8 be 37 27 44 bf 41 32 6d be 4e 40 68 bf
       -0.48466188 -0.7662234 -0.23163702 -0.9072312
0000d0 38 b4 be be ae bb 60 bf d3 a6 33 bf 01 9d 5f bf
       -0.3724687 -0.87786376 -0.7017643 -0.87348944
0000e0 a1 4f 4f bf 6c d5 80 be bc 78 15 bf e1 04 c8 3d
       -0.8098088 -0.25162828 -0.5838735 0.097665556
0000f0 26 08 92 3e 7a 91 00 bf df 75 df be 37 7d 89 bf
       0.28521842 -0.5022198 -0.43644616 -1.0741338
000100 09 23 1f bf d3 49 3a bf 4d 5f 90 bf 6d ea de be
       -0.62162834 -0.72768897 -1.1279083 -0.43538228
000110 2e be 2d bf e4 82 67 3e ea 6e 12 bf 16 80 24 bf
       -0.67868316 0.22608525 -0.5720049 -0.64257944
000120 97 ce e4 be 78 7f 83 be 30 2e 47 bd fa 61 fe be
       -0.44688866 -0.25683188 -0.048628032 -0.49684125
000130 b8 dc 1d bf cc 4c de bd 9a 26 b1 be 22 ac 1e bf
       -0.61664915 -0.108544916 -0.34599763 -0.61981404
000140 8b d8 28 bf 83 aa 8f be 78 a3 56 bf c5 a1 0c bf
       -0.6595542 -0.28059778 -0.83843184 -0.5493434
000150 45 4b 5e bf e7 06 18 bf 88 9f 2f bf 65 15 c8 be
       -0.868336 -0.5938553 -0.686028 -0.39078823
000160 7b 29 17 bf bd d3 3c bf bb 45 7b bf 6f ff 26 bf
       -0.5904767 -0.73760587 -0.98153275 -0.6523351
000170 2c 46 22 bf c9 4d 5c bf 58 0d 4d be a7 bc 4d bf
       -0.63388324 -0.8605619 -0.20024621 -0.80365986
000180 e6 5c 2c bf 92 26 89 bf fe 69 53 bf 34 ae 83 be
       -0.6732925 -1.0714896 -0.82583606 -0.25718844
000190 90 f0 67 bf f5 ca ab be 8f 63 3d bf 3f 44 70 be
       -0.90601444 -0.3355328 -0.7398004 -0.23463534
0001a0 3d 0f 02 bf 35 28 6a bf 80 19 14 bf c4 a4 2b bf
       -0.508045 -0.914676 -0.5785141 -0.6704829
0001b0 c9 78 21 bf 2c 43 30 bf 71 1e e9 be 31 ba c4 be
       -0.6307493 -0.68852496 -0.45531037 -0.38423303
0001c0 46 4e 65 bf 4d 47 97 be b9 f8 23 bf 18 2f 90 be
       -0.8957256 -0.29546586 -0.64051396 -0.2816093
0001d0 dd 5c 92 bf 33 76 a4 bf 9a 84 f2 be 88 0c 8f bf
       -1.143459 -1.2848572 -0.47366792 -1.1175699
0001e0 b9 52 15 bf 1a 38 35 be c2 c5 af be fc 58 7b bf
       -0.5832935 -0.17697182 -0.34330565 -0.98182654
0001f0 41 54 87 be 12 c4 1e bf c3 ec 64 bf f0 94 01 bf
       -0.26431468 -0.6201793 -0.8942377 -0.50617886

network.2.weight f4 [64, 128]
000000 fb 0b a3 3d f9 18 ee 3e a0 c2 72 3d 78 69 78 be
       0.079612695 0.46503428 0.05926764 -0.24258983
000010 4c 17 06 3e 1f fa 65 be a9 63 01 bd 31 9f a6 3e
       0.13094825 -0.22458695 -0.031589184 0.32543328
000020 ee 28 f4 be 56 06 91 bd 32 7a 28 3e 4f db 6d be
       -0.47687477 -0.070812866 0.16452864 -0.23228191
000030 f2 e4 0a bd 91 fe 88 be ed d4 7b be b8 61 b2 bd
       -0.033909746 -0.2675672 -0.24592943 -0.087100446
000040 5d 78 4b be b2 c8 9f be ca 2b c7 be 1c f8 1e be
       -0.19870134 -0.31207806 -0.38900596 -0.15524334
000050 e5 fd aa bd e7 87 66 3e d6 9c 0e bc 40 6d a6 be
       -0.08349208 0.2251278 -0.008704385 -0.32505226
000060 f5 39 29 bf 93 dd ec 3d 83 1c 7e 3e e5 e3 d4 bd
       -0.6610406 0.115656994 0.24815564 -0.1039503
000070 4a e2 5e bf 6b 3d e2 be 29 a8 6f bc 4f 3c c2 bd
       -0.8706404 -0.44187483 -0.014627495 -0.09484159
000080 67 53 ac 3d 96 f7 8c 3e 68 06 39 bf 0f 6e c6 be
       0.08414345 0.27532643 -0.722754 -0.38755843
000090 ff 21 ae be ee de 81 be eb f6 01 3d a3 6a bb 3e
       -0.34010312 -0.25365394 0.03172962 0.36604795
0000a0 8e dc 10 be 40 f7 21 3e c5 16 8f 3e 6d 4b 4b bf
       -0.14146635 0.15816975 0.2794706 -0.79411966
0000b0 ea 57 dd be 95 16 64 be 6e 77 4f be 82 78 b9 be
       -0.43231136 -0.2227424 -0.20260403 -0.36224753
0000c0 58 23 1e 3f 47 a6 8f 3e 0b cb 28 bf f1 fc 94 3e
       0.6177268 0.28056547 -0.6593482 0.2909923
0000d0 ed 08 8b be 5a 99 60 3e ef b9 34 be 6d 07 cb 3d
       -0.27155247 0.21933499 -0.17649053 0.09913526
0000e0 4c f6 0f 3e eb 8a 3b be 3a 08 63 3e 25 28 08 be
       0.14058799 -0.18314712 0.22171107 -0.13296564
0000f0 df 70 9a 3e 38 5a ba be 1c 79 01 3c 19 a3 53 be
       0.3016424 -0.36396956 0.00790241 -0.20667686
000100 18 66 ef 3e f4 b3 88 3e 49 97 03 3e dd 8a 00 be
       0.4675758 0.26699793 0.1285068 -0.12552972
000110 99 07 d8 3e 3b 34 a4 bc d6 fc ca 3e 41 83 fd 3e
       0.42193297 -0.020044437 0.39646024 0.495142
000120 fb ac 14 be af e8 9c be de 23 d6 3e cb 77 ca 3e
       -0.14519112 -0.30646273 0.4182424 0.3954452
000130 b9 33 94 be 3c 67 2a bf 1a 4a 8a bf e5 69 d0 3e
       -0.2894571 -0.66563773 -1.0803864 0.4070579
000140 e6 6f a7 bd b3 86 12 3f 94 b3 f4 3e b5 70 2a 3f
       -0.0817564 0.57236785 0.47793257 0.6657823
000150 ac 1e 8c bf 2b 2d 36 3f 4f 65 58 3e 90 65 36 bf
       -1.094686 0.7116267 0.21132396 -0.7124872
000160 8f fa b5 3e 14 6a b2 bd e0 99 5d be 2f ed 16 bf
       0.35542724 -0.08711639 -0.2164073 -0.58955663
000170 9a 43 9f be 35 77 b5 3d ee a4 7e be 42 5d 76 3e
       -0.31106263 0.088606276 -0.24867603 0.24059013
000180 81 91 9b bc dc 0c 88 bd 0e dd b7 bd cf 45 a9 3d
       -0.01899028 -0.06643078 -0.0897771 0.08265268
000190 cc 70 1f be 9a f1 4f bf 32 b8 02 3f ba c1 bd be
       -0.15570372 -0.8122803 0.5106231 -0.37061864
0001a0 7b 5e ae 3e 9f 1a a5 3e 62 81 0f bf c6 63 84 bf
       0.34056458 0.32246873 -0.560568 -1.0342948
0001b0 03 35 dc be c0 5f b4 3d 49 d9 05 bf 19 b0 71 3e
       -0.43009195 0.08807325 -0.52284676 0.23602332
0001c0 01 bc 8c bf 33 5c 67 3e de 7a c5 3d 89 06 3c be
       -1.0994874 0.22593765 0.09642576 -0.18361868
0001d0 80 42 0a 3f f7 c7 09 3f ee 94 17 bf 8e 23 88 bf
       0.5400772 0.5382075 -0.59211624 -1.063585
0001e0 74 6c b3 be e2 fd 01 3e d8 4b ef 3e 62 98 11 3f
       -0.3504368 0.12694505 0.46737552 0.5687314
0001f0 b1 95 b8 3d 89 05 41 bf 7f 07 a2 be 7d e9 f0 bd
       0.09012926 -0.7539907 -0.31646344 -0.11763284
000200 df f8 54 3f 51 68 75 3d f4 1b ba bc 9d 3f c4 be
       0.8319225 0.059913937 -0.022718407 -0.38329783
000210 a5 bb 04 be dc 3c c8 3e 32 bc 22 be d8 26 95 3a
       -0.12962206 0.39108932 -0.15892103 0.0011379374
000220 41 17 80 3f f7 7e 57 3e 53 1e 53 be a9 24 66 3e
       1.0007097 0.21044527 -0.20617037 0.22474922
000230 50 b4 85 bf 15 4d d3 be 1d cc a4 3e 31 3a 2e bf
       -1.0445652 -0.41269746 0.32186976 -0.68057543
000240 1a 3f aa 3d 3c 36 cb 3e b1 7f 06 3f 85 c2 08 3f
       0.08312817 0.39689815 0.5253859 0.53421813
000250 0e 86 6e 3e 8f 64 b1 be b1 0d d7 be 62 3c 05 3e
       0.23293325 -0.34647033 -0.42002633 0.13011315
000260 81 f9 02 bf da df c3 be 63 68 c6 3e c3 ab e2 bd
       -0.5116196 -0.38256723 0.38751516 -0.11067917
000270 7f 67 a1 3d cf cc 7c bd 25 c0 d7 3c cf 67 55 3e
       0.078810684 -0.06171876 0.026336739 0.20840381
000280 f2 c8 6f 3e 00 19 9c bc 40 ee 23 be 12 78 93 be
       0.23416498 -0.01905489 -0.16008854 -0.28802544
000290 3d 1b a2 bd b0 39 05 bc b4 d0 02 be d9 79 11 be
       -0.079153515 -0.00813143 -0.12774926 -0.14206637
0002a0 82 df ff be 05 88 3d 3f 3c e9 86 be 96 f7 47 3e
       -0.4997521 0.74035674 -0.2634982 0.1952804
0002b0 ce 0a 6d bd 8b 8b 27 bf ae b8 0a be 5c 6a 47 3f
       -0.057871632 -0.654473 -0.13547012 0.77896667
0002c0 69 db b2 3d dc b3 96 3d 8e ac 5a bf c7 8c f5 3e
       0.087332554 0.07358524 -0.8541955 0.47958967
0002d0 b2 46 04 bc 3a b4 f5 be fa f4 47 be 0b 66 00 3f
       -0.008073496 -0.47989064 -0.19527045 0.50155705
0002e0 8c 98 85 3e 7d 46 72 bf 20 57 3f 3e 1b 10 12 bf
       0.26092947 -0.94638807 0.1868558 -0.57055825
0002f0 e0 97 32 3e 22 5b 35 bf 8a 72 48 3e 05 da 1f 3f
       0.17440748 -0.7084218 0.19574943 0.62442046
000300 4c 4e 4d 3f c1 df ba 3d f2 bf 2d bd c1 11 88 3e
       0.80197597 0.09124709 -0.04241938 0.26576045
000310 9f 61 47 3e b7 64 e0 bd 2e 1d 6d 3e 75 80 1e 3e
       0.19470833 -0.1095671 0.23155662 0.1547869
000320 16 17 a9 bd 6c 11 db 3d f6 03 5e be 1f 44 3a be
       -0.082563564 0.10696682 -0.21681198 -0.18190049
000330 6f ac 9d 3e dc bc 17 be bb ec 13 bf 5c e5 6f 3f
       0.3079562 -0.14818138 -0.577831 0.9370935
000340 12 d5 57 be f9 a4 2d be 95 25 d0 3e a0 b4 30 3e
       -0.21077374 -0.16957463 0.40653673 0.17256403
000350 72 d7 0c bf 6f 30 56 3d 6b f7 23 bf 37 8c bd be
       -0.55016243 0.052292284 -0.64049405 -0.37021038
000360 51 9c 23 3e dd 7d 1e 3f 24 19 6a be de b9 f6 3e
       0.15977599 0.619108 -0.22861153 0.4818868
000370 b0 11 66 be 9c 2d a1 3e b9 16 05 3f 90 7b da 3e
       -0.22467685 0.3148011 0.519878 0.42672396
000380 fa 10 2a be f5 8f 80 bf 6d 68 80 3f 9a 44 05 3f
       -0.16608039 -1.0043932 1.0031868 0.520578
000390 d8 fd 6d 3e 1e 88 48 bd 69 c1 03 3f 7d 01 09 bf
       0.23241365 -0.048957936 0.51466995 -0.53517896
0003a0 ac d3 a1 be f1 36 28 be e5 d6 5a be 08 b7 f5 3c
       -0.31606805 -0.16427208 -0.21371038 0.029994503
0003b0 63 d7 d8 3b ef 8f 62 3e a1 77 15 bf b5 2b b3 3e
       0.006617473 0.22125219 -0.58385664 0.34994283
0003c0 c7 4d 11 bf 1b aa 09 3e 1f d6 32 3f b9 89 fa bc
       -0.56759304 0.13443796 0.6985797 -0.03058325
0003d0 b7 9e a9 be ff 0e a8 bc 6e bd a1 be a1 12 48 be
       -0.33128902 -0.020514963 -0.31589836 -0.19538356
0003e0 50 51 ba be e0 bd 6e be 73 79 41 3f ae f6 bd 3e
       -0.36390162 -0.23314619 0.7557594 0.37102264
0003f0 a7 1c 49 be e8 ca 5d 3d 64 af 11 bf dc 10 ed 3e
       -0.19639836 0.054148585 -0.5690825 0.46301925

network.2.bias f4 [64]
000000 55 b5 3a bd a4 a1 68 3d 57 d6 02 3e 61 48 77 bc
       -0.045583088 0.056794778 0.12777077 -0.01509294
000010 4a 3e 1c be 5e d9 59 be 1d 0f fb be 10 57 ff be
       -0.15258136 -0.21274325 -0.49034968 -0.4987111
000020 56 c6 d0 be 59 d2 6b bd f7 77 86 be 07 54 27 be
       -0.40776318 -0.05757365 -0.262634 -0.16340648
000030 9d 45 2d bd 5e 84 36 bf cf c2 6f bd ed 6f 0b be
       -0.042302717 -0.71295726 -0.058535393 -0.13616915
000040 b6 8f 20 bd 17 d6 f6 3e 87 24 48 be d9 7a 1b bd
       -0.039199553 0.48210213 -0.19545184 -0.037958954
000050 c4 99 d4 be 31 5c 94 be 81 89 12 bd f5 77 b0 be
       -0.41523564 -0.28976586 -0.035775665 -0.3446652
000060 cb d5 5d 3e 3b 73 fe 3d 8a e9 24 be 94 96 7c be
       0.21663587 0.12424322 -0.16104713 -0.24666816
000070 8b 27 bd bc a8 a0 ae be 64 d7 b1 be 50 c4 3e be
       -0.023090145 -0.34106946 -0.34734643 -0.18629575
000080 70 06 ac bd 2b 2d 2d be ba 45 4f be 1c 61 b6 bd
       -0.08399665 -0.16911761 -0.20241442 -0.08905241
000090 8d 7b d4 be ad 0d 41 be 39 3d 4f be 58 ab 00 bf
       -0.41500512 -0.18852873 -0.20238198 -0.5026145
0000a0 34 c2 97 be 1f 67 8f bd 97 2b f9 be 18 c3 23 bf
       -0.29640353 -0.07002091 -0.4866607 -0.63969564
0000b0 81 92 30 bf 36 45 59 bd 56 1f e7 bc c1 72 7c bd
       -0.6897355 -0.05304452 -0.028213184 -0.061632875
0000c0 ae f3 3e be 68 01 1a 3d 5f 34 30 3e 8a 6c 90 be
       -0.18647644 0.037598997 0.17207478 -0.2820781
0000d0 df 70 06 be ce 67 9a 3b b1 52 b5 3d 38 d1 84 be
       -0.13128994 0.0047120815 0.08853663 -0.2594087
0000e0 7f 88 26 bd 70 91 96 be e3 d8 73 be 34 f1 a2 be
       -0.040657517 -0.29407835 -0.23813204 -0.31824648
0000f0 d5 8f 25 3d 9b ef 9a 3e 8e 69 e5 be 0f 13 25 be
       0.040420372 0.3026093 -0.44807094 -0.16120552

network.4.weight f4 [16, 64]
000000 23 34 cc be ed f1 6a bf 41 b8 e4 3d 20 aa 00 3e
       -0.39883527 -0.917754 0.11167956 0.12564898
000010 ed 43 f4 3c 89 18 6c bc a1 b1 64 be e8 3b de be
       0.029817546 -0.0144101465 -0.22333385 -0.4340508
000020 49 0f 7b bc e1 f0 8f be f4 32 dc be 32 7a 2e bd
       -0.0153234685 -0.28113464 -0.43007624 -0.042597003
000030 79 1b 9f 3e 64 b0 8e bd e1 58 a8 3c e5 88 bf bd
       0.31075647 -0.069672376 0.020550193 -0.093522824
000040 27 f2 fd 3c 61 6b 92 3e ab 32 51 be f5 b4 83 bb
       0.030999256 0.2859755 -0.20429485 -0.0040193745
000050 6a be 82 be 06 de c8 3e df 4f 46 3f b4 88 87 3d
       -0.255359 0.3923189 0.77465624 0.06617871
000060 45 c9 d0 3e 8a 03 4f 3f 25 66 03 3e 41 1f 9a 3e
       0.40778556 0.80864775 0.12831934 0.3010197
000070 88 a3 12 bc 9b ce c0 be e2 64 27 3d 44 b5 04 be
       -0.008950122 -0.37657627 0.040867694 -0.12959772
000080 d5 de 56 3e a4 e9 d5 3d 2b 64 a0 be 27 a0 08 be
       0.20983441 0.10444954 -0.31326422 -0.13342343
000090 62 3e e1 be 21 b4 09 bf d7 23 92 3e 48 56 82 be
       -0.43992907 -0.5379048 0.2854297 -0.25456452
0000a0 88 78 09 be 27 7b f0 3d a2 7b b3 bc 57 30 bb be
       -0.13424885 0.117422394 -0.021909539 -0.36560318
0000b0 73 23 aa be 1e 44 9c 3d cd b7 c4 bd 29 53 e3 bd
       -0.3323017 0.0763018 -0.0960537 -0.11099846
0000c0 87 00 19 3c cb 17 cf 3e af a0 1a be b1 0d 05 bf
       0.009338505 0.4044784 -0.15100358 -0.51974016
0000d0 42 ef 32 bf 57 a5 4b be 26 e4 8c be 51 06 ac bb
       -0.6989633 -0.19887291 -0.27517813 -0.0052497764
0000e0 09 3d e3 3e 35 4a df 3d cc ec 8d be 35 49 39 bc
       0.44382504 0.10902826 -0.27719724 -0.011308958
0000f0 4f 6e 3e bd 9e 16 b1 3e 95 97 26 bf b2 fc 16 3d
       -0.046491917 0.34587568 -0.65075046 0.036862083
000100 20 8b 08 be 41 22 f9 be 0e 22 92 be 78 49 fc bd
       -0.13334322 -0.48658946 -0.28541607 -0.123187006
000110 23 b4 97 bd bd 33 59 3e b7 d7 53 be 42 42 bb be
       -0.07407405 0.21211143 -0.20687757 -0.36573988
000120 5b de bb bc 1d ec 06 3e 86 0d 61 be c4 34 14 bd
       -0.022933176 0.13176008 -0.21977815 -0.036183134
000130 56 c4 d8 be 3a 1d c5 3c a4 4f 5f bd 63 ae b4 3d
       -0.42337292 0.024061788 -0.05451931 0.08822324
000140 5f 62 63 bd ca 75 55 bd b5 ec 13 be 4a bf ab be
       -0.055513736 -0.052114286 -0.14445765 -0.3354438
000150 4b e6 0a 3d 82 18 ab bd aa e4 aa be 0f 86 db bd
       0.03391103 -0.08354284 -0.33377582 -0.10718929
000160 ac 63 25 be 68 a5 f4 be 18 f5 e3 3c be 41 4b bc
       -0.16151303 -0.47782445 0.02782683 -0.012405811
000170 f4 2f 39 bd bb 9a 58 be 44 bb ec bd af ca 0d bd
       -0.045211747 -0.21152775 -0.115591556 -0.034617122
000180 97 10 93 be 0d 17 ec bd af fd 6e bd 0a f0 07 be
       -0.28723595 -0.11527834 -0.0583474 -0.13275161
000190 81 8a 5a be e0 cb 6f be 6e 20 b4 bc c4 1a 85 be
       -0.21341898 -0.23417616 -0.02198812 -0.25996983
0001a0 b3 42 c4 bd e4 12 0b bd a1 0b d4 3c 4c 69 1d 3e
       -0.09583034 -0.033953562 0.025884451 0.15372199
0001b0 03 aa 6f be 5f 89 ad 3d 6e cd d3 bc c3 cf 6a be
       -0.23404698 0.08473467 -0.025854792 -0.22930817
0001c0 49 0e 36 bd 0e aa cc be 39 3a c5 be 4a 6d 85 bd
       -0.044447217 -0.3997349 -0.38520983 -0.06514986
0001d0 0b 97 7e 3d c6 74 dc 3d 7e b3 1b bf 5a c8 b2 3c
       0.062155765 0.1076446 -0.6082076 0.02182405
0001e0 55 68 a2 3e ed 01 1f 3d 76 bb b5 3c 0d c1 a4 be
       0.31720224 0.038820196 0.022184115 -0.32178536
0001f0 40 a8 8e 3c 2c 1b 70 bd 27 3f dc be 9e 82 98 be
       0.017414212 -0.058619663 -0.4301693 -0.29787153
000200 f5 8c 1a 3e ee d4 5d 3d 20 6a da 3c d6 0c b3 3c
       0.15092833 0.054158144 0.026661932 0.021856707
000210 0f 8a cd bd ce b5 40 3d a6 7b 19 3e 1e 43 22 3e
       -0.10036098 0.047048382 0.14988574 0.15845916
000220 80 1e 2e 3e 9e fb 24 be b7 7c d1 3e 2e 3f bf 3d
       0.17003822 -0.1611161 0.40915462 0.093382224
000230 de 3f c6 bd 34 24 80 3e f9 bb 9c ba c8 76 9f 3d
       -0.096801504 0.2502762 -0.0011957876 0.077863276
000240 6f 00 09 3d b9 ea 2c be 7c e4 96 be f4 f1 30 be
       0.03344768 -0.16886415 -0.29471195 -0.17279798
000250 6e 9b 5a 3e 9d b6 6f be 19 1a d6 be d8 13 63 3e
       0.21348354 -0.23409505 -0.41816786 0.22175539
000260 8f fb b3 bd 50 a2 40 3e 09 5c 61 bd 22 d4 32 3e
       -0.08788215 0.18811917 -0.055019412 0.17463735
000270 a1 e0 5a 3c 75 61 f9 3d c5 42 68 be 8c a4 6d bd
       0.01335922 0.121767916 -0.2268172 -0.058018252
000280 f0 69 09 be 57 82 14 3e 87 bd 66 be b5 d0 19 be
       -0.13419318 0.14502846 -0.22533236 -0.15021022
000290 2c ec 71 3c cb 4e ea bd 9a 88 82 be 10 b3 d0 3e
       0.01476578 -0.1144081 -0.25494844 0.40761614
0002a0 52 7f 36 be 1a e5 9a 3d 4c 28 f7 3e a7 1a e1 3c
       -0.17822006 0.07563229 0.48272932 0.02747853
0002b0 46 8e 51 bd 3e 62 cc 3d e9 52 a7 bc fe d6 de bd
       -0.051161073 0.09979676 -0.020425277 -0.1088085
0002c0 56 e9 bf bd 0b bc e3 3d 57 8d 03 bf c3 f6 c7 3d
       -0.09370677 0.11119851 -0.5138754 0.09763863
0002d0 d1 48 5c 3e fa 0f 0b bd 51 5b d4 be 68 bd e5 bd
       0.21512152 -0.033950783 -0.4147592 -0.11217767
0002e0 0d bc f1 bd e8 04 00 3e d5 6e d5 3d 73 6b ae bd
       -0.11803446 0.12501872 0.1042153 -0.08516588
0002f0 cf 52 d9 3c 19 8b db bd 04 e6 59 3e c3 41 aa 3d
       0.026528744 -0.1071989 0.2127915 0.08313324
000300 62 85 b7 3e 7e 1c 24 bf 1d dd a5 3d f7 70 59 bd
       0.3584395 -0.64105976 0.08098815 -0.053086247
000310 e4 60 43 3d f3 c5 94 bc 89 bf 39 3e e0 34 d2 be
       0.047699824 -0.018160796 0.18139471 -0.41055965
000320 2e 34 95 be 3c 56 09 bf 56 b5 27 be d4 51 b4 3c
       -0.29141372 -0.5364721 -0.16377768 0.022011675
000330 92 d8 38 3e 78 6d 91 be 46 33 64 3d 20 60 0d 3d
       0.18051365 -0.2840383 0.05571296 0.0345155
000340 c8 f2 a6 3d 68 a9 9b 3e e7 e9 5b bd 83 eb 6b 3d
       0.081517756 0.30402684 -0.053689864 0.05759765
000350 03 8f 23 be e1 2f 10 3f b7 84 1e 3f be 72 91 bd
       -0.15972523 0.5632306 0.61921257 -0.071019635
000360 85 24 e9 3e f9 e8 19 3f 56 ce 6d bd 59 d7 85 3e
       0.45535675 0.60121113 -0.058058105 0.2614086
000370 1a 96 47 bd 66 f4 b2 be b3 d7 11 bd 12 a7 25 3d
       -0.048727132 -0.34952086 -0.035606097 0.040442534
000380 66 05 b4 3d 0a 7c 24 3d 86 4b 1f be c5 d2 bc 3e
       0.08790092 0.040157355 -0.15556154 0.36879554
000390 55 36 ad be d8 fe 78 be 1d 9b b7 bd d5 2c 59 be
       -0.33830515 -0.24315965 -0.089651324 -0.21208508
0003a0 81 3f 2d be 63 98 2e 3d c1 c5 fc 3d b9 1d 09 bf
       -0.16918756 0.042625796 0.12342406 -0.5356098
0003b0 d5 47 b3 be 31 65 80 3d 25 1d 44 3c 68 39 88 be
       -0.3501574 0.06269301 0.011969839 -0.26606297
0003c0 49 88 5c bd c0 41 44 3e 35 d6 f6 bd ce c0 8e be
       -0.05384091 0.19165707 -0.120525755 -0.27881473
0003d0 ee a7 21 be 44 96 89 bc e2 90 bc be 5d 50 26 3e
       -0.15786716 -0.016795285 -0.36829287 0.16241594
0003e0 72 d7 d7 3d 1d ed 82 be 4b 64 f1 3d 69 b7 bf bd
       0.1053914 -0.25571528 0.117867075 -0.093611546
0003f0 62 0a c4 bc 99 ac b3 3e 87 e7 55 be 15 68 94 be
       -0.023930732 0.3509262 -0.20889102 -0.28985658

network.4.bias f4 [16]
000000 18 1b 90 be 9d 91 c1 be 60 e8 50 bf 66 f9 84 be
       -0.2814567 -0.37806407 -0.81604576 -0.25971526
000010 36 4b d1 be 35 43 63 bf 85 2d 08 be 61 9f e4 3e
       -0.40877694 -0.88774425 -0.13298614 0.44652846
000020 ae e6 25 bf de d7 13 bf 54 31 b0 be d7 1f 17 be
       -0.64805114 -0.5775126 -0.34412634 -0.1475824
000030 87 9e 85 bf f8 9b c4 be 20 09 5a bf 11 e3 e0 be
       -1.0439004 -0.38400245 -0.85170174 -0.43923238

network.6.weight f4 [2, 16]
000000 a1 9e bf be ba 76 db 3d 17 24 89 3e db 98 a0 be
       -0.37425712 0.10716005 0.26785347 -0.3136662
000010 dd f5 a2 bd 25 20 47 3d 95 d2 15 bf 09 af e4 3e
       -0.07957051 0.04861464 -0.5852445 0.4466479
000020 83 74 7a 3e 7b 5c 47 3e 6f 78 1e bf f0 3d ce be
       0.24458508 0.19468872 -0.6190252 -0.4028163
000030 7e c2 b7 3e 85 af ae 3e 83 40 89 3e 83 95 40 bf
       0.35890573 0.34118286 0.2680703 -0.75228137
000040 e3 17 16 3f 93 ea 9c 3e 7f b5 ef 3d 56 b8 a6 3e
       0.586302 0.30647716 0.117045395 0.32562512
000050 c7 de 36 3e 1b 92 f0 be ac 8c 13 3f 49 e2 b5 be
       0.1785842 -0.4698647 0.57636523 -0.35524204
000060 89 8f a2 3c 48 dd b8 3d 78 46 af 3e 8b 90 2d 3e
       0.019843834 0.09026581 0.3423345 0.1694967
000070 2c be a1 ba 18 5b 76 be e6 82 00 bf 13 fc 17 3f
       -0.0012340001 -0.24058187 -0.50199735 0.5936901

network.6.bias f4 [2]
000000 0e 83 e7 3d a0 90 aa be
       0.113042936 -0.33313465
