models/german/rs/adam_epochs100_lr0.004_batch32_dropout0/bezier_846.pth (torch, 153323 bytes, 19 tensors)

coeff_layer.binom f4 [2]
00000000: 0000 803f 0000 803f
1.0 1.0

coeff_layer.range f4 [2]
00000000: 0000 0000 0000 803f
0.0 1.0

coeff_layer.rev_range f4 [2]
00000000: 0000 803f 0000 0000
1.0 0.0

net.network.0.weight_0 f4 [128, 70]
00000000: c6ab 02bf 90ed a6be 37a9 c8bd 4efd 943d
00000010: 4e8a fd3d 4b7a 013e 4b95 c3bd 105c 3fbe
00000020: aa13 8abe 2c8c 2f3e ca6a a73e be7b aabc
00000030: e538 283e 6a58 713d cb93 7b3e d3b8 003e
00000040: 00e8 953e 0056 27bc e885 963c 1bb5 ca3e
00000050: 12a2 9dbe 5e73 0bbe b6a9 1f3e 80ca 323f
00000060: 01da b73e 9bfa d8bd c7c9 6fbd 236d f2be
00000070: 1cb3 603e 5fec 16be aaac 913e 5490 1a3e
00000080: 24f9 9e3d 71cc 16be d543 b13d eacf 223d
00000090: 1863 2dbe 31f9 fa3d 2068 f93d e0da 833e
000000a0: 764f d1bd 8479 a23d 2064 013d 4542 fe3d
000000b0: 5eab 663e d288 703c 6050 14bd ad61 cd3d
000000c0: ac33 5d3d 5c0a e9bd d96b 88be ffa6 9c3c
000000d0: d405 9e3e e80e bcbd cd77 f0bb 50fc 40bc
000000e0: 7567 7bbe 3e87 083e 2b7c a83e 8890 d03e
000000f0: 29d1 093e 321e 0a3e 7622 8a3d 0aec 64be
00000100: e959 2b3c 80e8 52bd 7ee7 69be 3822 923e
00000110: 9386 a3be 6d3a ed3e efcf e33d 93ed 62be
00000120: 144e d6bd 0aa1 7abe 7432 e43e 5b5a fb3e
00000130: 44c7 89be 8792 afbe b7ed b5bd 8626 2c3d
00000140: 536d 873e a59b 6f3e 3dcf be3e 0002 463d
00000150: e6f7 cf3d 3b05 f4be 6ac3 be3e 7859 02be
00000160: 4b24 8ebe a9b0 ac3e 9b2d 273e 66c2 5c3d
00000170: 647a d9bd fefb 8a3d b966 723e 8536 efbd
00000180: 8785 763e e464 49bd 924b e23d d630 4ebe
00000190: 9e7e b13d 9d6f 963e 3372 523c ae75 07bf
000001a0: 6de4 933e 3c76 22be 5f9b 3ebe c27a f93d
000001b0: 2735 2b3e 32c8 ed3b 1239 253d f42f 2e3e
000001c0: 82e5 f8bd bd54 d8be a54d f63e e01a b93d
000001d0: 0604 33be 7fdc a73e 9e4f 02bf b354 8d3e
000001e0: 2682 8ebc dd51 5fbe 9685 483e c146 87be
000001f0: 4067 52bd c85d ea3d 3967 973d 6feb dd3d
00000200: d9df 7e3c f3ba b73e 0c59 4dbe 9171 22be
00000210: 7a85 223d 321e 3bbc f08e 9abe 0e1c db3d
00000220: 989d 62bd d711 b03c f8a4 d7be b9a5 673e
00000230: 4f70 9ebe 74e4 bbbe 3fc5 88be df22 9f3e
00000240: 3925 f83d 304b be3e 4f8a 913d 0fd7 523d
00000250: fd27 86bd 88c7 7f3e 7ccd c2bd 5f6c cebe
00000260: 211b a33e 9a06 c4bb 4782 b83e 6517 233e
00000270: a49c a53e 3ebf 91bd 7841 17bc 3706 1b3f
00000280: dd6e 41bd 3f23 89be 0eb9 0fbc b34f 333e
00000290: 690e 593e 598b d73e 3815 0fbe 7f43 c5bd
000002a0: b2d2 7b3e e9d6 3d3e f6e6 4b3c f664 83bd
000002b0: f1dc 933e 52bd 1d3e 55a9 25be 2dfb 68bd
000002c0: a5b0 01bf f212 3f3e 3a04 7f3e 0f1b 103e
000002d0: 65c2 23be ebeb ef3b a774 1cbd 61db 1f3e
000002e0: fa9b b7bd fb0e 67bd de26 353e d08e f6bd
000002f0: 0218 77bc aea0 d2bd 1316 6ebd 4495 893d
00000300: 811d 593d e36f c53c 09c4 cdbd da0b 6a3d
00000310: 90a8 bebd f394 b13d 9e98 993e df85 b83e
00000320: 74fc 06be 855c 093f 3dc4 a0bd ea2a 8dbd
00000330: 922a 1a3e e7fc d8bd e2eb 97be d5e8 863e
00000340: 47c4 adbe 6d99 be3e 94b9 f53d 853a 36bd
00000350: f104 a63e 4e8e 8dbe 6503 8f3e 6cac 433f
00000360: 32e6 3b3d 3b31 62be 4c30 803c dd61 c9bd
00000370: 86f4 ff3d ae9c 483e 546b 0fbd 4dc4 95bd
00000380: 04a8 4abc a4e5 41be 1b17 893e b5b8 233e
00000390: 3bd4 37bd e24d 933e 59c7 30be d16b 4fbe
000003a0: 4aea 063e 5915 ef3d 3f29 b73e 17ba 0e3e
000003b0: 5445 e0bb 4541 0abe 1650 363e a343 c6bd
000003c0: 9559 543e 6676 95be fee6 c53c 07de ddbc
000003d0: 083d 0b3e 69da ef3d 7120 01be 9b5b d5bd
000003e0: 58e9 8d3e 2f59 5abd a8e2 ac3d 7db3 fcbc
000003f0: d414 b5bd a80d 37bd 17d0 2fbe 3fd8 813e
-0.51043355 -0.3260312 -0.097979 0.072748765 0.12379895 0.12644307 -0.0954996 -0.18687463
-0.26968127 0.17143315 0.3269866 -0.020810958 0.16427954 0.05892221 0.24568097 0.12570505
0.29278564 -0.010213375 0.018374398 0.39591298 -0.30787712 -0.13618228 0.15592083 0.6984024
0.3590851 -0.10594674 -0.05854204 -0.4734889 0.21943325 -0.14738606 0.28452045 0.1509412
0.077623636 -0.14726426 0.08655516 0.039749064 -0.16932333 0.12254561 0.121780634 0.25752926
-0.10220234 0.079333335 0.031589627 0.12414984 0.22526309 0.014681058 -0.036209464 0.10028396
0.054004356 -0.11378929 -0.2664478 0.019122599 0.30863822 -0.09182531 -0.0073385 -0.011778906
-0.24551184 0.13332841 0.32907233 0.4073527 0.13458695 0.13488081 0.06744854 -0.22355667
0.010458448 -0.05149126 -0.22842214 0.28541732 -0.3193861 0.46333638 0.111236446 -0.2216094
-0.10464111 -0.24475494 0.44569743 0.49092373 -0.2690984 -0.3429148 -0.08883231 0.042028926
0.26450595 0.23399217 0.37267485 0.04834175 0.10154705 -0.4766024 0.37258464 -0.12729442
-0.27762064 0.3372853 0.16325991 0.05389633 -0.10619047 0.06786345 0.23671998 -0.11680321
0.24074374 -0.049168482 0.1104957 -0.20135817 0.086667284 0.2938203 0.01284461 -0.5291394
0.28885213 -0.15865415 -0.18613957 0.12181617 0.16719495 0.007256531 0.04033763 0.1701048
-0.1215315 -0.4225215 0.48106113 0.09038329 -0.17482004 0.32785413 -0.50902736 0.27603683
-0.017396044 -0.21808572 0.19582209 -0.26421168 -0.051367998 0.114436686 0.07392735 0.10835921
0.015556299 0.35884818 -0.200535 -0.15863635 0.039678074 -0.011420773 -0.30187178 0.106987104
-0.055326074 0.021492882 -0.4211805 0.22621812 -0.3094506 -0.36697733 -0.26712987 0.31081292
0.12116475 0.3716674 0.071064584 0.051474627 -0.06550596 0.24978459 -0.09511849 -0.40317056
0.31856635 -0.0059822323 0.36036894 0.15926893 0.3234607 -0.07116555 -0.009231918 0.6055636
-0.047224868 -0.26784703 -0.008772148 0.17510872 0.21196903 0.420985 -0.13972938 -0.096320145
0.24592093 0.18539013 0.012445202 -0.06415741 0.28879502 0.15404251 -0.16177876 -0.056880165
-0.50660163 0.18659571 0.24903956 0.14072822 -0.15992124 0.007321825 -0.038197186 0.1561103
-0.08965297 -0.05641077 0.17690608 -0.12038958 -0.0150814075 -0.102845535 -0.05812652 0.06717923
0.053006653 0.024101203 -0.10047156 0.05714021 -0.093094945 0.08670988 0.2999925 0.36039636
-0.1318224 0.536568 -0.078499295 -0.06892951 0.15055302 -0.10595112 -0.29672152 0.26349512
-0.3393881 0.3722643 0.11998287 -0.044489402 0.32425645 -0.27647632 0.27932277 0.7643497
0.04587383 -0.22089092 0.01564803 -0.09833119 0.12497811 0.19591019 -0.035014465 -0.07312832
-0.01236916 -0.18935257 0.2677544 0.15988429 -0.044880133 0.28770357 -0.17263545 -0.20255972
0.13175312 0.116739936 0.35773656 0.13938175 -0.006844202 -0.13501461 0.17803988 -0.096808694
0.20737298 -0.29191893 0.024157997 -0.02708341 0.135975 0.1171158 -0.12610032 -0.10417863
0.2771709 -0.05330771 0.08441669 -0.030847305 -0.08841863 -0.044690758 -0.17169224 0.25360295

net.network.0.weight_1 f4 [128, 70]
00000000: 42c5 24bf 60c6 3ebe 966f a23c 1e4e 1a3e
00000010: 20ca 49bc 61a4 bb3d 5407 6fbe b439 a3bc
00000020: cd43 b5be 23d4 833e ecc2 803e 9b15 1b3c
00000030: ca0c f83d 7959 a13d 24b9 9f3a 4fdc b53e
00000040: 26a0 f73c 731c 21be 33bb c0bb 4abe 813d
00000050: af44 f8be 6407 16be c048 54bd 4f00 c63e
00000060: 3356 4a3d 162b d4bd 55f1 a8bc ea95 eabe
00000070: bb9a 343e af6e 8fbc c423 1d3e 9cc6 853e
00000080: 7148 9a3d 469a 84be 64c0 f13d 9b56 dfbd
00000090: e6f8 4dbd e70a 403e ca0d eebc 4956 5a3e
000000a0: d9aa 8cbe 16f2 123d 9493 333e fb07 d4bd
000000b0: edd4 353e f5d4 afbd 3801 063e ea4a ba3b
000000c0: 2127 843d a72a 01be 280f 6ebe c7b1 47bd
000000d0: 3dec 6c3e ceea 5dbd 003c 873e 419d 88be
000000e0: 11d1 1ebe f00d 383e 8595 393e 03e4 a53d
000000f0: a363 373c d5f8 75bd be6a da3d 1cb9 65be
00000100: abd0 e83d a9f6 fdbd 0d13 d8bd 2efe 8bbc
00000110: 6f22 7abe b656 6c3e f88b c1bd 75bb d3be
00000120: 6712 fbbd 4eba b1bc 2dee b23e 5589 e93e
00000130: 2f47 8ebe c5e1 93be 5b59 353d a68a 0b3b
00000140: a449 ce3e 7d07 8c3e 7a41 da3e a0e0 1e3e
00000150: 269a 2f3e dfb4 d4be 2420 863e 1157 14be
00000160: e62d 11be a312 563e 688c a3bc 7ffc d83b
00000170: 7935 a9bc ccab 0fbe 9a7d a23e ad84 49be
00000180: 1286 993d 8354 16be 075c 003e 5dc4 e6bc
00000190: 9ccf b4bd 04eb bb3e 7346 0f3c 9a15 e4be
000001a0: 1715 823e 7db2 32be 7cd4 63bd 7f11 a53d
000001b0: 4063 2a3e 9980 1ebe ec95 bdbd 6c86 b83d
000001c0: 896f b9bd 2527 23be 7a51 c33e b254 1c3e
000001d0: f6f1 02bb 414c af3e 0a5b ddbe 33d0 9fbb
000001e0: af16 24be 2098 85be 9c19 9b3e 0833 f7bd
000001f0: a252 873d 18dc c4bc cff8 b2bc 628b 393d
00000200: 7f11 823e c5c2 b63e 80ba e5bc 46c2 70bd
00000210: 0ff2 073d 1dd7 6ebd 2822 483c 87e2 62bd
00000220: 8e16 6bbd 2a8b 733d 2bac 9fbe 5bca 9f3e
00000230: a468 e4be 11d9 f0bd 2ff4 b4be de47 ecbc
00000240: 477f 043d 0ce2 e93e e249 f03d 8d46 013e
00000250: 9175 6dbe e0d7 e63e 0449 58be cb5b 95be
00000260: 3854 fa3e d9c8 05be 6ec0 a43e b2cf ea3d
00000270: 6d9a 683e d078 4cbc 2fce e13c 58df ee3e
00000280: 7820 4fbe b588 adbe 9dd0 e1bd b4c5 c53d
00000290: 494e b43c f6f2 c13e 52c8 21be f9a6 55be
000002a0: df55 d33e 8489 b0be df8d 6bbc 85e1 edbd
000002b0: dea1 9a3e 591b 7fbc e811 afbe 1b3a 123e
000002c0: 75f4 04bf b4c2 d13e 6fb4 c23e e0ca 86bc
000002d0: 3d5f f1bd 023d 1e3e 61dd 6cbe f3bb 743e
000002e0: 08c9 c23c 870a 17bd ff95 873e 276f 87be
000002f0: d366 81bb de60 4a3d 5861 76be d39f 873e
00000300: ecb3 50bc ba63 1e3e e1a1 52bd 27b2 773d
00000310: d0ff 4bbe b0a2 053e 56b4 873e b1bb 853e
00000320: b334 81bd 306f f53e b62b 89be 2613 d03c
00000330: 22e3 a93d 6241 14be abb0 bdbe d937 973e
00000340: 2098 54bd 2efc 393e 738e e53c 7a47 27be
00000350: aac8 8a3e 7f0d ebbe 9a38 3d3e faee 403f
00000360: 65ed 90bd 50ef 5ebc e8fc 043e 63d0 8bbe
00000370: f0d5 143e 0ca0 8d3e c6bf 8d3e 6265 843d
00000380: a81a 8b3d 6c89 8fbd 12ca 4c3e 0980 f63d
00000390: 0574 a03d db1b b63e c773 7abe 36f6 10be
000003a0: 2675 d83d 98ba 943d e2f8 e33e d43f c63e
000003b0: cdca 533d 6beb 0b3d c0de 66bd 081c afbd
000003c0: ee7a ea3d d1a5 83bd 8e4d 503d 71b4 ba3d
000003d0: fb50 623d 02c0 343d 3783 3bbe cd4b b9bd
000003e0: 3262 913e c75b b3bd 6a4f 6a3d eb38 b23e
000003f0: 6a13 1ebe bcb5 c0bd c7dc 64bd 4e28 bc3d
-0.6436349 -0.18630362 0.019828599 0.15068862 -0.012316257 0.09162212 -0.23342639 -0.019924976
-0.3540329 0.25747785 0.25148714 0.0094656 0.12111814 0.07878394 0.0012185914 0.35519645
0.030227732 -0.15733509 -0.005881691 0.06335123 -0.484899 -0.14651257 -0.051827192 0.3867211
0.049398612 -0.103597805 -0.020622889 -0.458175 0.1763715 -0.017508833 0.15345675 0.2612809
0.07533348 -0.2589895 0.11804274 -0.109051906 -0.050286196 0.18754159 -0.02905931 0.21321978
-0.27474096 0.035875402 0.17536765 -0.10353085 0.17757006 -0.0858554 0.13086402 0.0056852
0.06452776 -0.12613927 -0.23247969 -0.048753526 0.23136993 -0.054179005 0.26412964 -0.26682475
-0.1550944 0.17974067 0.18123443 0.081001304 0.011193189 -0.060051758 0.10664891 -0.22433895
0.11367925 -0.12400562 -0.10550509 -0.017088976 -0.24427198 0.23079953 -0.09450525 -0.41353956
-0.12259369 -0.021695282 0.3494734 0.4561259 -0.27788684 -0.28883186 0.04427467 0.0021292358
0.40290558 0.27349463 0.4262808 0.15515375 0.17148647 -0.41544244 0.26196396 -0.14486338
-0.14177665 0.20905547 -0.019964412 0.0066218968 -0.02065538 -0.14030379 0.3173645 -0.19679518
0.07496275 -0.14680676 0.12535106 -0.028169805 -0.08828661 0.3670274 0.008744824 -0.4454773
0.25406715 -0.174509 -0.055622563 0.08059978 0.16639423 -0.15478744 -0.09257111 0.09010014
-0.09054477 -0.15932901 0.381481 0.15266684 -0.0019980646 0.34237865 -0.4323352 -0.004877114
-0.16024278 -0.26092625 0.30292976 -0.1207028 0.06607558 -0.02403073 -0.021847157 0.04529894
0.25403973 0.35695472 -0.028043032 -0.058779024 0.03318983 -0.058310617 0.012215175 -0.055391815
-0.057394557 0.05945889 -0.3118604 0.31209072 -0.44611084 -0.11760152 -0.35342547 -0.028842863
0.032347944 0.45680273 0.11732842 0.12624569 -0.2318938 0.45086575 -0.21121603 -0.29171595
0.4889238 -0.13064899 0.32178062 0.11465396 0.22715159 -0.012479976 0.027564136 0.46654773
-0.2022723 -0.33893362 -0.11026118 0.096568495 0.022009986 0.37880677 -0.15799072 -0.20864476
0.41276452 -0.34479916 -0.014377086 -0.1161528 0.3020162 -0.015570485 -0.3419335 0.14279978
-0.5193551 0.4096886 0.38028285 -0.01645416 -0.117857434 0.1545296 -0.23131324 0.23899822
0.0237775 -0.036875274 0.26481625 -0.2645199 -0.003949025 0.049408786 -0.24060571 0.26489124
-0.012738209 0.1546773 -0.05142391 0.060472634 -0.19921803 0.13050342 0.26504773 0.2611976
-0.0630888 0.47936392 -0.2679116 0.025399756 0.08295275 -0.14478067 -0.3704885 0.29534796
-0.05190289 0.18162605 0.028022027 -0.1633586 0.2710622 -0.45908734 0.18478623 0.7536465
-0.070765294 -0.013606861 0.12987101 -0.27307424 0.14534736 0.2766117 0.27685374 0.0646465
0.06792194 -0.07008633 0.19998959 0.120361395 0.07834629 0.35568127 -0.24458228 -0.14156422
0.10569219 0.072621524 0.4452582 0.38720572 0.051707078 0.03416006 -0.056364775 -0.085502684
0.11449228 -0.06428111 0.050855212 0.09116448 0.05525301 0.044128425 -0.18311773 -0.09047661
0.2839523 -0.087577395 0.05720464 0.3480905 -0.15437093 -0.09409663 -0.055874612 0.09187375

net.network.0.bias_0 f4 [128]
00000000: 91c1 f6be 6d6f bfbe 4554 e6be 01de 24be
00000010: 4040 cfbe e546 c6be f7ec 7a3e 0ff2 b5be
00000020: 2521 a3be b733 17be 260e dbbe 1c6e cfbe
00000030: df47 9fbe 4f5b e4be 7c3d cbbe 4915 553e
00000040: 6126 ebbe 2a59 f5bd 4152 bdbe 4c84 efbe
00000050: 45d2 5fbe 4a63 8ebe df69 c5be 930b 9abe
00000060: f891 e4be d024 9ebe d9fc a8be ed5a 56be
00000070: 6624 9abe 72d5 e9be e030 02bf 92f2 c0be
00000080: a38d cbbe f712 9cbe 8def debe 55c2 9dbe
00000090: c2a9 acbe 82a4 b7be 8f8b 03be a59f 05bf
000000a0: 38c8 0f3a 0168 b3be f7e0 74be b5f2 51bd
000000b0: 8a73 71be 5268 debe 5ee4 c0be b4e7 b5be
000000c0: 7afa ef3d 8445 a7be fae3 8abe 891d bcbe
000000d0: 0e8c a7be a9a0 78be 41cb 64be a93b edbe
000000e0: 812d a5be 90cf 82be 5f67 dcbe 9cba b8be
000000f0: 3eaf 95be 2314 dcbe c37b d7be 7b01 973d
00000100: f866 683d b6c8 95be 8b7c b0be dd45 3bbe
00000110: 9262 c0be 72ee 75be 3e6e e6be e461 b3be
00000120: b6c7 3ebe eac5 c9be 18fb 95be 63e4 fdbd
00000130: 0650 ccbe 85f5 c9be 93b3 d0be ee04 21be
00000140: 641b a1be 08a7 cfbe aa58 94be d303 82be
00000150: 08ca b3be b364 c1be 75e4 c2be bbd1 b3be
00000160: 3a9b a9be 91aa bcbe a275 e4bd ae09 92be
00000170: a399 c6be 118f ddbd e51f 15be ab76 84be
00000180: f2da bfbe 853d a9be d0d9 a3be d950 f8be
00000190: bd71 11be 3e15 d6be 4005 c9be a25d f5be
000001a0: b879 88be 13df 50be a43f 58be 9ea7 9fbd
000001b0: c019 99be 2a3e 70be c778 b2be 986c a2be
000001c0: 67dd 6abe e105 6ebe ef70 02be 38f9 05bf
000001d0: 474b 2cbe eef9 89be 77fd 91be 2bc1 e9be
000001e0: 42ac 86be e613 89be d755 26be 7e96 00bf
000001f0: b659 89be eeda 03be 8aa3 c6be 2288 c73d
-0.48194554 -0.373897 -0.44986168 -0.16100313 -0.40478706 -0.38725963 0.24504457 -0.3553624
-0.31861225 -0.14765821 -0.42784232 -0.40513694 -0.3110952 -0.44600913 -0.39695346 0.20808901
-0.45927718 -0.11979897 -0.36976817 -0.46780622 -0.21857555 -0.27810127 -0.38557336 -0.30086955
-0.44642615 -0.3088746 -0.33005407 -0.20933123 -0.30105895 -0.45670658 -0.5085583 -0.37685066
-0.39756498 -0.3048322 -0.43542138 -0.30812326 -0.33723265 -0.35867697 -0.12846206 -0.52196723
0.0005484852 -0.35040286 -0.23913942 -0.051256854 -0.23579231 -0.43438965 -0.3767423 -0.35528338
0.117176965 -0.32670224 -0.27127057 -0.36741284 -0.3272404 -0.24280037 -0.2234316 -0.4633458
-0.3226128 -0.25548983 -0.43047616 -0.36079872 -0.29235262 -0.42984113 -0.4208661 0.07373329
0.056738824 -0.29254693 -0.3447002 -0.1828837 -0.37575203 -0.24016741 -0.45005983 -0.35035622
-0.18630871 -0.3940881 -0.29293132 -0.12397077 -0.39904803 -0.3944513 -0.40762004 -0.15724537
-0.3146621 -0.40557122 -0.28973895 -0.25393543 -0.35115075 -0.3777214 -0.38064924 -0.3512095
-0.3312624 -0.36848882 -0.11155249 -0.2852301 -0.3878909 -0.108183034 -0.14562948 -0.25871786
-0.3747173 -0.33054748 -0.32002115 -0.48499182 -0.14203544 -0.41813082 -0.39261818 -0.47923
-0.26655364 -0.20397596 -0.21118027 -0.07795642 -0.29902458 -0.23461214 -0.3485777 -0.31723475
-0.22936021 -0.2324443 -0.12738393 -0.523334 -0.16825591 -0.26948494 -0.2851369 -0.45655188
-0.26303297 -0.26772994 -0.16243683 -0.5022963 -0.26826257 -0.12876484 -0.38796645 0.09742762

net.network.0.bias_1 f4 [128]
00000000: 51ec 33be 4735 2fbe d1e7 8bbe 99da 97be
00000010: 37e1 cbbe f5a0 eabe 887c d63e ad05 87be
00000020: c633 bfbe 1cb0 31be 9883 89be 736c 40be
00000030: 68da c1be 59b3 69be c622 0dbf f8c4 4e3e
00000040: 67bb e6be 1386 75be 4f18 f4be a8aa b9be
00000050: e2ee 9bbe 6ca2 27be 37b5 5abe 3523 5ebe
00000060: ef56 73be 8cf0 84be 8c5c 89be 6a47 90be
00000070: 5e0c 64be 0feb f0be 40bb c4be 0d6e 86be
00000080: 079a cdbe 1780 aabe dd01 e6be 3dc5 89be
00000090: 10e2 18be d60e bdbe 417f 20be bdef 01bf
000000a0: cb32 b53d f988 10be 75d9 f3be ec21 50be
000000b0: ef54 33be 2ec2 d5be 5163 cabe 3f7e ccbe
000000c0: 8e6e 4abd d4dc aabe e195 8abe aa3c b7be
000000d0: ae09 7ebe c175 b8be de8f aebe 8b1b edbe
000000e0: b945 04bf a907 07be 4d64 d1be bb86 91be
000000f0: cb0d adbe 2940 d1bd 8cd5 aabe c6e8 6dbe
00000100: f4c7 febc 68c4 dbbe 953d 25be 6ea9 a7be
00000110: 1ff8 b9be 7215 93be 2b8e d0be 0aef b0be
00000120: 55a6 9cbd 5e6b babe 3ed3 94be 66e1 02be
00000130: 2545 a1be eb4e b9be 96bb 7cbe 809a a2bd
00000140: 7e3c 7abe d144 b0be 8fe2 9abe 1fb7 a7be
00000150: 2672 d9be 76d2 b6be e390 43be 70c0 9bbe
00000160: 8dc1 bcbe 4c47 c5be 4254 f4bd 36ae f1be
00000170: 1ba5 02bf 5fa2 79be 520a c7be 8a48 a2be
00000180: fa3d bcbe 52b8 bebe 85b1 8bbe 4390 debe
00000190: 41ca 11be e7b8 ecbe d7b8 e1be cd1f bfbe
000001a0: cc21 21bf 9349 90be c230 aebe c309 7ebe
000001b0: 4140 8dbe 819d 9ebe 19fd 2dbe 069b b7be
000001c0: c04e a5be 1143 56be 3fdc f8bd b43f 17bf
000001d0: 52b1 89be da88 8ebe e25b 8bbe 642a bfbe
000001e0: f242 7bbe 114d 80be 9631 6dbe b245 b3be
000001f0: 0eff adbe 4995 81be f2bd 74be 7e4e 99bd
-0.17570616 -0.17110167 -0.273253 -0.29658964 -0.39820263 -0.45825925 0.41891885 -0.26371518
-0.37344187 -0.17352337 -0.2685821 -0.1879137 -0.37861943 -0.22822322 -0.55131185 0.20192325
-0.45064852 -0.23976927 -0.47674796 -0.36263013 -0.3045569 -0.16370553 -0.2135819 -0.21693118
-0.23763631 -0.25964773 -0.2682842 -0.28179485 -0.22270343 -0.47054335 -0.3842411 -0.26255837
-0.40156576 -0.3330085 -0.44923297 -0.26908293 -0.14929986 -0.3692538 -0.15673544 -0.50756437
0.088475786 -0.14114751 -0.47626844 -0.2032544 -0.17512868 -0.4174971 -0.39528897 -0.39940068
-0.04942184 -0.33371603 -0.27067474 -0.3578847 -0.2480838 -0.3602734 -0.34094137 -0.46310076
-0.5166889 -0.13186516 -0.40896836 -0.28423104 -0.33799586 -0.10217316 -0.33366048 -0.23233327
-0.031101204 -0.42923284 -0.16136773 -0.32746452 -0.36322114 -0.287273 -0.40733466 -0.34557372
-0.07648913 -0.3641004 -0.29067415 -0.12781295 -0.31498066 -0.36193022 -0.24680933 -0.07939625
-0.24437138 -0.34427503 -0.30250975 -0.32756898 -0.424699 -0.35707444 -0.19098239 -0.30420256
-0.36866418 -0.38530958 -0.119301334 -0.47203225 -0.5103318 -0.24378346 -0.3887506 -0.31695968
-0.36766034 -0.3725 -0.27283874 -0.43469438 -0.1423731 -0.4623482 -0.44086334 -0.3732895
-0.62942195 -0.28181133 -0.34021574 -0.24808411 -0.27588084 -0.3097954 -0.1699108 -0.3586046
-0.32286644 -0.20924021 -0.121513836 -0.5908158 -0.26893097 -0.27838784 -0.2721854 -0.3733703
-0.24537256 -0.25058797 -0.23163447 -0.3501411 -0.33983654 -0.25309208 -0.23900583 -0.07485674

net.network.2.weight_0 f4 [64, 128]
00000000: 96b2 333e baae 62be 55c0 b0bd 837f 42bd
00000010: d5a5 ce3d 0239 f7bd d6f9 81be 6e8d 163e
00000020: ae96 233e 6b59 32be 5333 45be 23cd 58bd
00000030: 5b6a ff3a ba1f 33be 5c60 343e 1457 23be
00000040: 3659 c3bc 474e 31bd 6643 42bd f7d7 b3bd
00000050: 9244 4cbd 4586 a6bd f6a6 973c ad0b 933d
00000060: 3c92 2dbd 7665 953c 3af1 a03c 8e31 b43d
00000070: 2e38 42bd b763 9ebd 5215 d13d 148e 5d3e
00000080: ba65 3cbd 87eb bdbd 5b81 0a3e f150 eebd
00000090: a9c8 c1bd 4233 553d 87d3 cb3c 9ecd a1bd
000000a0: 0b5b a0bd 2ae1 1abb 57ce 083c d4a3 163e
000000b0: 3c62 4a3e ccca 53be 49be 25be 58a2 e33d
000000c0: 2290 8fbe 89a4 4b3d 98e0 99bd 5ec5 11be
000000d0: 4fb3 21be 86c0 5e3d e483 ffbc f709 b43d
000000e0: e239 d43d 78dc 24be bcbc fbbd bb9d 01bd
000000f0: 4da3 943e 98a6 9d3d c470 88bd 3a1f 473d
00000100: cb63 e53c fd95 3dbb 656d 10bc 2d73 873d
00000110: 0f51 81bd 805a 33be 5d93 053e de8f 5b3d
00000120: 1aa4 bcbd c864 cbbd 54dc 803d 7529 7d3d
00000130: 8e6c 19bd bd8f a4bd cc2d ad3c ea1b cb3d
00000140: 0eee 193d 9916 9fbd 4a55 73bd d478 b6bd
00000150: a910 95bd 1d22 30be 9a49 c53d 671d 9a3d
00000160: 3259 643c abc4 87be bb62 80bd ea2d 443c
00000170: 5838 663e 82b7 ac3d 30e1 163e 694b f23b
00000180: cb59 2e3d 43f7 e5bc af1a 89bd 5cfc a9bd
00000190: 359d 7dbe 35ec 153e 54c6 14bd e8df 2e3e
000001a0: 0ba5 24bd c37f 41bd a6be 86bd cef0 283d
000001b0: d5f3 38bd 9537 293e 7a80 873d 115c 0a3e
000001c0: 1132 513c a242 cebd 5848 60be 8556 f63c
000001d0: f573 203e 6d52 d5bc 3dfa a23d c4c1 69be
000001e0: 5658 9abd 222e 803d 0892 f0bd 29b0 413e
000001f0: a40c 43be bfdf 8b3e ba6c 6d3e 154b 233e
00000200: 4678 283e 14a0 9d3d 9b84 883d 0952 e43d
00000210: 0f2d ffbc 2d06 883c a7af 72be e8e5 d33c
00000220: 1dff 4a3c 5e4d b0be 720c 333e bcd5 1bbe
00000230: 5a04 9a3e 137c 073e 29c5 a83c 7d91 37be
00000240: f052 31bd 7be1 24be ff00 0abe bebe 073e
00000250: c267 b03e 076f ac3e bacd 433e e6c4 e53d
00000260: 4474 423e 40ec 57bd 0263 7c3e 31a8 b43d
00000270: d12b ecbe ba3a e93d c8fb de3d 2cc6 ee3d
00000280: 7c00 423e dfa9 cc3e 1cfb ccbc 35b1 483e
00000290: 8503 053d 56c0 813d 1d29 a83e 151f a43e
000002a0: 5a20 8abe 705b 123e 19ad 0bbd dc02 b03e
000002b0: ae57 823e 6156 563e 2134 1f3d d684 083e
000002c0: 506a 27be 2650 f33d d866 96be c2c8 bb3e
000002d0: 193e 313e f234 d43e 8e90 7a3e c7ea f93d
000002e0: bdca e33c 840a 323e 2150 a63e 4eb0 d53d
000002f0: adbe 343e c746 733d 5c02 4d3e 26bd 0ebe
00000300: 3ad7 523e 7a42 31be 7829 b23e 816a be3b
00000310: bbdf 0e3e 91af 833d 23f1 593e f1d3 bd3d
00000320: 1077 b93d 293c 4e3c d1a6 013e 9372 503e
00000330: eeda 9bbe ad06 543b e296 c73d 8cc6 c03b
00000340: a6a0 a63e 1d91 193e fbeb 3b3e c65a 843e
00000350: 0d73 0b3d a347 ce3d 5bca 623e 5752 413e
00000360: 7feb b33d 687d 5f3e ab4f afbe ceb7 613e
00000370: 9655 0ebc 0bf0 213e 2a62 be3e 341e 4e3e
00000380: f5fd 013e baf6 db3d 541e 583c c4ef 0f3e
00000390: 2021 453e 09d5 21be 892e 863e 73c7 a23d
000003a0: 0038 59bd 38d2 9f3d b3ce c93e 552f b8be
000003b0: e34e 923d 2b06 c23d 8abd 793e b171 2a3e
000003c0: d3a6 5e3e 8496 e23d 5b48 5ebe cbd2 443e
000003d0: a3e9 7a3e 5d64 f1bc 7549 dfbc f38a 373e
000003e0: 0cc4 d53e 4ece d83d e51e f13c fb58 953d
000003f0: f972 203e 47b2 213f 13a1 973e b422 3dbe
0.17548594 -0.22136965 -0.086304344 -0.047484886 0.10090224 -0.1207142 -0.25385922 0.14702389
0.15975448 -0.17416923 -0.1925786 -0.05293001 0.0019486652 -0.17492571 0.17614883 -0.15951186
-0.02384625 -0.04328754 -0.047427557 -0.087814264 -0.04987008 -0.08131079 0.01851223 0.07179961
-0.042375788 0.018236857 0.019646276 0.08798514 -0.04741686 -0.07733863 0.10209145 0.2163623
-0.04599545 -0.09273439 0.13525908 -0.11636532 -0.09462101 0.052050836 0.024881138 -0.079005465
-0.07829865 -0.0023632743 0.0083499765 0.14710933 0.19764036 -0.2068283 -0.1618587 0.11114949
-0.28039652 0.04971746 -0.07513541 -0.14235446 -0.15791057 0.054382823 -0.03119082 0.08790963
0.10362603 -0.16099727 -0.122918576 -0.031644564 0.2903084 0.07697791 -0.06662133 0.048613764
0.028001687 -0.0028928511 -0.008815144 0.06613765 -0.06314289 -0.17514992 0.13044496 0.053604
-0.092109874 -0.09931332 0.06292024 0.061807115 -0.03745704 -0.080352284 0.021140002 0.099174336
0.037580542 -0.07767982 -0.05940751 -0.08909765 -0.07278568 -0.17200513 0.09633179 0.07525139
0.013937281 -0.26517233 -0.06268831 0.011973837 0.22482431 0.08433439 0.1473434 0.0073942435
0.042566102 -0.028072005 -0.066945426 -0.08300087 -0.24767001 0.14640887 -0.036321953 0.17077601
-0.04019646 -0.047240984 -0.06579332 0.041245274 -0.04515441 0.16525109 0.06616302 0.13511683
0.012768284 -0.10071303 -0.21902597 0.030070553 0.15669234 -0.02604028 0.079578854 -0.22827822
-0.0753638 0.06258799 -0.11746603 0.18914856 -0.19047791 0.27319142 0.23186007 0.1594661
0.1645213 0.07696548 0.066659175 0.111484595 -0.031149415 0.016604507 -0.23699819 0.025866464
0.012389925 -0.34434026 0.17485216 -0.15218252 0.30081445 0.13230924 0.020601826 -0.17926593
-0.043291986 -0.16101639 -0.13476942 0.13256356 0.3445416 0.33678457 0.19121447 0.11219196
0.18989664 -0.05271554 0.24647143 0.088211425 -0.4612718 0.11388154 0.10887867 0.11658892
0.18945497 0.3997335 -0.025022082 0.19598849 0.03247406 0.06335513 0.32843867 0.32054964
-0.26977807 0.14292693 -0.034100626 0.34377182 0.2545752 0.20931388 0.038868073 0.13331923
-0.16349149 0.118805215 -0.2937534 0.36676604 0.17308845 0.41446644 0.24469206 0.12202983
0.027806634 0.17386824 0.32483009 0.10434018 0.17650862 0.05939367 0.20020431 -0.13939342
0.20589915 -0.17310515 0.34797263 0.005811036 0.13952534 0.06429971 0.21283393 0.0926894
0.090559125 0.0125875855 0.12661292 0.20356207 -0.30440468 0.0032352612 0.097455755 0.0058830436
0.3254444 0.14996763 0.18351738 0.25850505 0.034045268 0.10072257 0.22147505 0.18879066
0.08785152 0.21825182 -0.3424047 0.22042772 -0.008687397 0.15814225 0.37184268 0.20128709
0.12694533 0.10740419 0.013190825 0.14056307 0.19250917 -0.15803923 0.26207379 0.07948198
-0.05303192 0.07803768 0.3941551 -0.3597361 0.07143953 0.09473833 0.2438871 0.16644932
0.21743326 0.11063865 -0.21707289 0.19221036 0.24503188 -0.029466802 -0.027256707 0.17924099
0.41751134 0.105862245 0.029433677 0.07292362 0.15668859 0.63162655 0.29615077 -0.1847027

net.network.2.weight_1 f4 [64, 128]
00000000: 2b58 47bd e806 8dbe c6ed b7bd db9c 51be
00000010: e216 dbbd 7bcd 4cbd 1ca0 aabe 5cce bcbc
00000020: b5b7 f83c 5253 75be 434d aebe d54b 58be
00000030: 6c71 3ebe ee7d 60be 498c 4a3d dbcd fbbd
00000040: f44f 1fbe fe99 243d 1fee 21be 3e1f 14be
00000050: f2a8 d7bd 0d8f 58be e01e 25bd 514c 6c3d
00000060: 0943 dabc bdeb 0ebd 450d 32be c373 c1bd
00000070: 2656 95bb a655 37bd 82c6 8dbc 19bf 0a3e
00000080: 2110 07be 905f c4bd a872 863c b89d 1dbe
00000090: 8a9d 7cbe 5312 c6bd 0353 03be fe5d 1cbd
000000a0: 45d0 42be 44b0 ddbd 8b7f f53c 7f80 75be
000000b0: 6290 9bbd 5bfc 7ebe b4b1 17bd c73e 263d
000000c0: 5608 18be e898 23be 213d 1fbe 3e93 b6bd
000000d0: f0d2 0abe 4c97 f2bd edff 193d ba65 5a3d
000000e0: 5443 4b3c 6601 48be 2d65 0abe 8310 4abc
000000f0: 663d ab3d acfb feba 098c 91bd f2c0 d3be
00000100: c3af 20be 0587 92bd 6b10 3dbe 4799 30bd
00000110: f3a8 14be 6440 fabd c39f 17be 832d afbd
00000120: fe6f 82be 04f0 11be dd23 6dbd f0a3 02be
00000130: 0537 82be ee46 1a3d ab9f 0dbe 3fdf 1abe
00000140: fc62 8dbd 3c15 9ebe 73d6 1abe f69f bdbd
00000150: 9a8c 10be 508a 54be 3b90 5abe ac78 b2bd
00000160: ce32 bebd 65e9 d3be 7084 d2be 6697 903a
00000170: 3f40 b43c caab 7abd f4d2 d0bc 45b4 4abe
00000180: 113c 74bc 4e7c e1bd dba0 c6be 27b9 bcbd
00000190: c1c9 20be 5cb9 94bd c85b 52be 94ad 6ebc
000001a0: 0cf6 e3bc b3ad 8fbe 0a1a 95bd 9769 09bd
000001b0: b214 b0be 86f3 3d3d fe9c 0dbe fc05 9abc
000001c0: 6210 08be 1f38 72bd 3753 92be a57f 88bb
000001d0: 7240 52be 4a5e 6d3c a28a 093d 43fc a0bd
000001e0: 53b5 44be f7df 19be 4d0b 8cbe 2604 073d
000001f0: 6848 1bbe 0e17 a53d be76 afbd a142 32be
00000200: fdea 073e 01e4 eb3d e93e 963e 4ae8 083c
00000210: 6fe1 33be 6465 3a3d e3bf 3abe 60f5 8abd
00000220: eb6a 183e d044 22be 833e 0d3e 0726 42bd
00000230: ab2f 643e c5a4 563e 4c82 b1bd 442b 92be
00000240: 3f78 6ebd 5050 58be 1e4b d73d 9d44 7a3e
00000250: c26e dc3e 958f 223e 8807 1c3e dd8e 223e
00000260: dfc6 fc3d 3d5c 143e 278d 5d3e b592 613e
00000270: c67c b5be 427c b63c 239f 223e 58c6 853d
00000280: 6eb6 843e a988 a03e 2b1f e03d dae7 2e3e
00000290: 4769 4c3e 5270 133d 842a 3c3e c19e 103e
000002a0: 9a42 9ebe eb0d cc3d 417c ff3b 7dc4 383e
000002b0: 73c6 8e3e 62ac abbd 7a65 863c 2c36 5c3e
000002c0: aaa8 3ebe 69db 1e3e fdae b4be dc69 b13e
000002d0: f8e0 0b3e 3bc1 543e 37b5 a23d fbaf 0dbd
000002e0: b117 8c3e b57d 5d3e 5e4b ed3d 9221 933d
000002f0: 2f5b 053e bd42 2e3e 0f62 893e a895 ecbd
00000300: 4e1b 5b3e 6537 973d f851 723e 88e0 123c
00000310: 8527 633e 7acf 6c3c 4c71 1b3e bdd2 eb3d
00000320: 14a2 0b3e 2262 07be 3100 1e3e e27c bd3e
00000330: 216c 41be b6c2 143e c9ec a83d 1287 ff3d
00000340: 82cf c33e e860 953e 9e23 743e f344 883d
00000350: 3608 76bd bba9 343e acfd 203e 2d4c 91bd
00000360: 1e78 3d3e f8f9 683e cb21 6cbe 7db5 523e
00000370: bd34 f93d 2d52 063e 280f 7b3d bf32 913e
00000380: b0ac 2e3c 5062 273e 3933 423e 800f 473e
00000390: ffb4 343e 3717 53bd d95a 1a3d 41d7 103e
000003a0: f5a8 efbd 147b 743e 9c61 853e e584 8dbe
000003b0: adb8 7e3e 29e2 a93d 6c0b 663e 715f 4a3e
000003c0: b9ad df3d 5f97 ee3c 2d06 393d 6f09 2e3e
000003d0: 3fc3 5abc 7d6e c33d c573 d33d 5abc ff3d
000003e0: 36f3 653e d6ff d43d ad4a 0a3d 27a0 6abd
000003f0: d345 1e3e 7e2e 133f fd56 203e c94e 47be
-0.048668068 -0.27544332 -0.089808986 -0.20469992 -0.10697724 -0.05000065 -0.3332528 -0.023047619
0.030361036 -0.23957565 -0.3404332 -0.21122678 -0.18597955 -0.21923038 0.049450193 -0.12295123
-0.15557843 0.04018592 -0.15813492 -0.14465043 -0.10530271 -0.2114832 -0.040312648 0.05768997
-0.026643293 -0.034892786 -0.17387874 -0.09445908 -0.004557389 -0.044759415 -0.01730657 0.1354946
-0.13189746 -0.095885396 0.016412094 -0.15392196 -0.24669471 -0.09671464 -0.12824635 -0.038175575
-0.19024761 -0.108246356 0.029968044 -0.23974799 -0.07595898 -0.24900953 -0.037034705 0.040587213
-0.1484693 -0.15976298 -0.15550663 -0.08914803 -0.13557029 -0.11845264 0.037597585 0.05331967
0.012406189 -0.19531783 -0.13515158 -0.012333038 0.0836132 -0.0019453666 -0.07106788 -0.41358143
-0.15692048 -0.07154659 -0.18463294 -0.043114927 -0.14517574 -0.12219313 -0.14807038 -0.085536025
-0.25476068 -0.14251715 -0.05789553 -0.1275785 -0.25432602 0.0376653 -0.1383044 -0.15124224
-0.069036454 -0.30875576 -0.15120868 -0.09259026 -0.14116135 -0.20755887 -0.21344082 -0.087144226
-0.09287034 -0.41389003 -0.41116667 0.0011031448 0.022003291 -0.061198987 -0.025491215 -0.1979533
-0.014906899 -0.11010037 -0.38794598 -0.092150025 -0.15701963 -0.07261917 -0.20542824 -0.014567751
-0.027827285 -0.2806221 -0.07280357 -0.033547964 -0.3439079 0.04637482 -0.13829419 -0.018801682
-0.132875 -0.059135552 -0.28579113 -0.004165607 -0.20532396 0.014487812 0.033579476 -0.07860615
-0.19209795 -0.15026842 -0.27352372 0.03296294 -0.1516434 0.08061038 -0.0856757 -0.1740823
0.13273235 0.11518098 0.29344872 0.008356163 -0.17566465 0.04550685 -0.18237261 -0.06785083
0.14884536 -0.15846562 0.13793378 -0.047399547 0.22283809 0.20961292 -0.0866743 -0.28548634
-0.058220144 -0.21124387 0.10512374 0.24440236 0.43053252 0.15875085 0.15237248 0.1587481
0.12342619 0.14488311 0.21635877 0.2202862 -0.35446757 0.022276048 0.15881018 0.06531972
0.25920433 0.31354263 0.10943445 0.17080632 0.19962035 0.03599579 0.18375593 0.1412306
-0.30910188 0.09963592 0.0077967946 0.18043704 0.2788578 -0.08382489 0.01640581 0.2150504
-0.18619028 0.15513386 -0.35289755 0.34651077 0.13660038 0.20776837 0.0794472 -0.034591656
0.27361825 0.21629985 0.11586641 0.071841374 0.13023065 0.17017646 0.26832625 -0.11551982
0.21397135 0.073836125 0.23664081 0.008964665 0.22183044 0.014453763 0.15179938 0.115148045
0.13636047 -0.13221028 0.1542976 0.3700934 -0.18888904 0.14527401 0.08248288 0.124769345
0.38244253 0.29175496 0.23841712 0.06653776 -0.060066424 0.17642872 0.15721768 -0.070946075
0.18502852 0.22751606 -0.23059766 0.20577045 0.12168262 0.13117285 0.06129375 0.2835903
0.010661289 0.16346097 0.18964852 0.19439507 0.1764717 -0.05153581 0.037684295 0.14144613
-0.11702148 0.23875076 0.26051033 -0.27640453 0.24875136 0.0829509 0.22465295 0.1976297
0.10921807 0.029124914 0.045171905 0.16995786 -0.013352214 0.09542558 0.10324816 0.12487097
0.22456059 0.10400359 0.033762623 -0.05728164 0.15456323 0.57492816 0.15658183 -0.19463648

net.network.2.bias_0 f4 [64]
00000000: 4a6d 12be 7e17 c1be 2577 debe a54f b9be
00000010: 469d e0bc 8695 023f 5fca fbbd d4f9 cfbe
00000020: 983b 023d 7e25 66be d0fe 3fbe 641e 8bbd
00000030: 0ec1 b63e 7cd5 9ebe 58c8 b1be 8108 78be
00000040: b614 f43e 8785 023f dc63 0e3e 42e7 aabe
00000050: d8a9 a7be 4082 d0be 163d 0c3f de5a 2d3e
00000060: 8502 9cbe 76c9 8dbe 5b44 aabe d8c0 b13e
00000070: 5a89 123f 8d40 acbe 3664 a0be 8844 b3be
00000080: f4df c2be 5eb9 a4be 9c1c 73bb 1af6 97be
00000090: 92cc 973e 934d 8ebe 9255 9ebe fe68 bfbe
000000a0: 24ec ddbe 3d62 67be dc85 b6bc 4ac8 883d
000000b0: b065 bbbe c6bb f0be a5d1 a5be b0b2 b2be
000000c0: 77bc eebe 28a9 163f 9a46 edbd 65dc 8cbd
000000d0: 6790 c9be 2441 95be 8833 abbe bd80 0b3f
000000e0: 8b87 f2bd 5c2c a4bd ee00 d9be da94 5fbe
000000f0: 39a9 26bd f9a3 95be 3517 7fbc cd1b 1d3f
-0.14299503 -0.37713236 -0.43450275 -0.36193576 -0.027418744 0.51009405 -0.122944586 -0.4062029
0.031795114 -0.2247524 -0.18749547 -0.06792906 0.35694164 -0.3102225 -0.34723163 -0.24221994
0.4767205 0.50984997 0.13905281 -0.3337956 -0.32746768 -0.40724373 0.5478071 0.16929194
-0.30470672 -0.27692765 -0.33255276 0.3471744 0.5724083 -0.33642998 -0.31326455 -0.35013223
-0.38061488 -0.32172674 -0.003709591 -0.29679948 0.29648262 -0.2779356 -0.3092466 -0.3738479
-0.43344223 -0.22596069 -0.022280626 0.06678827 -0.3660102 -0.4701826 -0.3238651 -0.34901953
-0.46628162 0.5885186 -0.11585732 -0.068779744 -0.39367983 -0.2915126 -0.33437753 0.54493314
-0.11842259 -0.080162734 -0.42383522 -0.21834126 -0.040688727 -0.29226664 -0.015569498 0.61370546

net.network.2.bias_1 f4 [64]
00000000: 18cb 5ebe 1da1 a8be a542 dcbe e8d1 bcbe
00000010: c011 40be d7b8 023f 1fa2 15bd 73c0 bfbe
00000020: c242 153e b3b0 20be 010f fabd c742 98bd
00000030: eae5 df3e cd18 88be 0e60 cebe 6d1b a2be
00000040: 4274 103f d929 ba3e b61e b3b9 c31d dfbe
00000050: 7a60 63be 2ace c1be 53e9 fa3e 5b23 b43d
00000060: bbf8 c1be 0c93 b8be 7fbb b2be 0bdf 0b3f
00000070: 3d7b ff3e 35cf 3ebe 747a 62be b8c0 b5be
00000080: f3a8 8ebe 3fd2 b2be 3f24 dfbd 60c8 7bbe
00000090: df78 42be 0202 c7be 886d 9abe a1a5 c6be
000000a0: aeb5 b5be efb4 f4bc 9a85 aabd 41dd bfbe
000000b0: 7b9d a3be de00 cabe 8f5a cbbe 10c2 b3be
000000c0: e84f c3be 6610 d03e 1314 efbd bc92 16be
000000d0: c78e b4be f295 ddbe 73c2 9ebe 6664 1d3f
000000e0: 4186 933e 2953 f9bd 41f3 c0be 1937 80be
000000f0: 3130 04be 0d41 86be 9229 f7bd e0d8 d63e
-0.21757162 -0.3293542 -0.43019596 -0.36878896 -0.18756771 0.51063293 -0.036531564 -0.37451515
0.14576247 -0.15692405 -0.12209893 -0.07434612 0.43730098 -0.26581421 -0.4030766 -0.3166155
0.56427395 0.36360052 -0.00034164422 -0.43577394 -0.22204772 -0.37852603 0.49006137 0.08795806
-0.3788508 -0.36049688 -0.34908673 0.5463721 0.4989871 -0.1863373 -0.22117025 -0.35498595
-0.27863273 -0.3492603 -0.10895585 -0.24588156 -0.18991421 -0.3886872 -0.3016169 -0.3879824
-0.35490173 -0.029871432 -0.08326264 -0.3747349 -0.31956086 -0.39453787 -0.39717528 -0.35108995
-0.381469 0.4063751 -0.11673751 -0.14704412 -0.3526518 -0.43278462 -0.31007728 0.6148132
0.28813365 -0.12174065 -0.37685588 -0.25042036 -0.12909009 -0.26221505 -0.12068476 0.41962337

net.network.4.weight_0 f4 [16, 64]
00000000: e6e2 a1bd 52b9 00bf 1a59 2fbe aac8 38be
00000010: b695 3b3e 2a3c 1f3e 06f6 10bd 14b0 ccbd
00000020: 7edb 0abd c3cd 03be 9047 ed3e 05f1 ca3d
00000030: 4ad6 893e 6197 39bd ed9a 73bd 2575 8bbe
00000040: 61e5 683e 059b c73d 103d 113d 9a9f 65be
00000050: 7f32 34bd d42e 06bf 322d 703d ed70 0a3e
00000060: 1961 53be ede0 99be 4293 8e3c 68be 023e
00000070: 9cb6 863a d4ae 903e 4315 9ebe 6125 02be
00000080: 858c 13be 944e d73d 81db e1bc 63f1 653e
00000090: bd6d 5dbc 4b06 183d d013 6cbd aeba bebe
000000a0: 823a 08be 36c0 913c 8aaf 06be 11cd e73e
000000b0: 3a1a ebbc 4f6b a7bd 7f7a 993b 8ba9 87be
000000c0: 9409 64be 4bdd 6e3d 0fdd d8bd d177 31bd
000000d0: bf50 b63d 07a5 35bd 1e05 a5be 9f8d 1f3e
000000e0: c677 7abe fa76 97bd 27da be3e 9f23 863e
000000f0: 6032 29bc dedc d5bd 95ff f2bd 5b9b 703e
00000100: 8daa c43d 6818 ab3e 348b 163e eae1 953e
00000110: 7198 d1bd f800 85be 34c6 46bc 8ad3 883e
00000120: f325 22bd 087e 833e 560f 74bd 20dc 283c
00000130: 73ce b5bd b3a2 843e 2db3 803e 730e 443e
00000140: 5cbd 58be ebcf f7bd b234 87bd 3bbf a33e
00000150: 51c4 463e 10b3 9f3e c72a 8ebe 2645 ccbe
00000160: adc7 7f3e f832 4f3e 5882 7f3e 1886 57bd
00000170: a527 e8bd f97e 1a3e 0f28 eb3d d29a 853e
00000180: 9439 4d3e a649 bb3d 0cbe 8ebd 0ca7 3c3e
00000190: 5e5a 513d 3669 553e 9dcb f03d 9b11 a43e
000001a0: 582f aa3e eb0c 063e b5ee 49bd d1d7 183e
000001b0: 53f9 5e3e 3728 183e 18dd 203e 37ba aa3e
000001c0: 67ea 8f3e 0c7b 8dbe 5083 1abd f7ee f93c
000001d0: dcc7 0c3e b5cf aa3e eda5 013e 13ff 90be
000001e0: 0b75 ad3e 950e 79bd 3bfe 893e 0bdb 203d
000001f0: b658 fb3c b4ad 5d3e af0a 8d3d 605b 3ebe
00000200: 729e 58be c7b6 39be 5535 a1bc 7878 dd3b
00000210: 45b5 a43d 83e3 693e 9cbe 2f3d 8330 80be
00000220: 23af 843e 375f 0ebe 5f59 9a3e b86e 05bd
00000230: d3f9 9f3e a125 9fbb c9dd afbc c7e2 9f3d
00000240: fdc9 aa3e ef62 bc3d c14a 1c3e f3fe 9fbd
00000250: 0956 5cbe 98c6 74be 9301 5d3e 26c0 073f
00000260: 8bbd 7cbd 6531 66bd ea93 dbbd b517 ff3d
00000270: 7e94 683e 7da6 193d 8167 71be bcde e0bd
00000280: 21ea 4e3d 7b4d a63b f127 473d dd33 cfbd
00000290: 9b4a 3bbd be84 8a3d cb08 a8bd 7a09 5abb
000002a0: d3ee 1bbe 3c00 c2bd d9b4 143d 41fb ca3d
000002b0: f6db 2cbe 7c47 1cbe bd27 a5bc a925 70be
000002c0: 5786 f5b9 bd9a cf3e 4e22 34bd 67f5 663b
000002d0: afd1 8b3d a316 81be 132f 64be 3d59 a93e
000002e0: 22f2 f23d d36a 86bd 78e3 14be 39d7 fa3c
000002f0: 6ab9 a03d 3b01 a43d 9b4c b63d 4a1e 2a3e
00000300: a91f 7ebd ae54 983e 423b 1e3e ade6 2c3e
00000310: 1b5c 22be 452c f1bd da72 003e 87fb 893e
00000320: 6992 983d e412 8b3e a8e3 1bbe 2f62 fb3c
00000330: 6540 183d 648a b83d ce92 ab3e 872a 0d3e
00000340: 4d76 f7bd 563f 633b b5dd 73bd 6d0e 8e3e
00000350: 98c1 9c3e 0da7 173e b86b 8bbe b4db b3be
00000360: 1bb1 2e3e fd0c 863d 65b8 903a c0af 46be
00000370: b460 67bc 110f f63d 9469 e83d e1f7 613e
00000380: 414b 4a3e 9eb8 013e bbdf 3bbd 4c2f 8bbc
00000390: ca87 203e a8ec 103e 6bdd 583c 2929 533e
000003a0: 5003 503e b62e 483e 5b97 d73d de0b aa3e
000003b0: 794c 8e3e 0776 6e3e 5b30 0e3e 7dc9 b43e
000003c0: 00a3 243e a330 b6be 58a4 a1bd effd 8b3d
000003d0: 931e bd3d f3ae 6b3e 36d8 743e 9b6d 32be
000003e0: ed17 373e 6bab 6d3d d1ae 783e df05 edbb
000003f0: ff31 233d d275 4d3e 3c32 07ba 271d 8dbe
-0.079046056 -0.50282776 -0.17123833 -0.18045297 0.18318829 0.15550295 -0.035390876 -0.09994522
-0.03390073 -0.1287146 0.4634366 0.09909252 0.26921302 -0.04531038 -0.05947392 -0.27237812
0.22743751 0.097463645 0.035458624 -0.22424164 -0.04399347 -0.52415204 0.05863685 0.1351964
-0.20642509 -0.30054417 0.017404202 0.12767947 0.001027781 0.28258383 -0.30875596 -0.12709571
-0.14409073 0.105130345 -0.027570488 0.22455363 -0.013514933 0.037115376 -0.057636082 -0.372518
-0.13303569 0.017791849 -0.131529 0.4527364 -0.02869903 -0.08174764 0.004683792 -0.2649654
-0.22269279 0.05831651 -0.105890386 -0.043327156 0.0890212 -0.044346835 -0.32230467 0.15581368
-0.24459752 -0.0739574 0.37275812 0.26199052 -0.010326952 -0.10442518 -0.11865155 0.23496763
0.096028425 0.33417058 0.1470154 0.2927392 -0.10234154 -0.25977302 -0.012132216 0.26723891
-0.039586972 0.25682092 -0.059584938 0.010306388 -0.08877268 0.2590538 0.251367 0.19146137
-0.21165985 -0.12100204 -0.06601848 0.31981835 0.19410826 0.311913 -0.27767012 -0.39896506
0.24978514 0.20234287 0.24952066 -0.052618116 -0.113356866 0.15087499 0.1148225 0.2609468
0.20041496 0.09144907 -0.06969842 0.18423098 0.05111157 0.20840916 0.11757586 0.32044682
0.33239245 0.13090865 -0.049299914 0.14926077 0.21774797 0.14859091 0.1570934 0.33345196
0.28108522 -0.2763294 -0.037722886 0.030509455 0.13748115 0.33361593 0.12660952 -0.28319606
0.3387836 -0.060804922 0.26951775 0.039271396 0.03068195 0.21648294 0.06886803 -0.18589544
-0.21154192 -0.1813613 -0.019678751 0.0067587458 0.08042387 0.22840695 0.04290639 -0.25037012
0.2591487 -0.13903509 0.3014631 -0.032576293 0.31245288 -0.0048567806 -0.02146806 0.07806926
0.3335723 0.091985576 0.15262891 -0.078122996 -0.21517195 -0.23903883 0.21582632 0.5302757
-0.0617042 -0.05619945 -0.10721572 0.12455694 0.22712895 0.03751229 -0.2357464 -0.10979983
0.05051625 0.0050751544 0.048622075 -0.10117314 -0.045725446 0.067636 -0.08204802 -0.0033269809
-0.15227823 -0.09472701 0.036305282 0.09911204 -0.16880783 -0.15261644 -0.02016055 -0.23451866
-0.00046830132 0.40547743 -0.043978028 0.0035241486 0.06827103 -0.25212583 -0.22283582 0.33075896
0.118625894 -0.06563344 -0.14539897 0.030620204 0.07847865 0.08008047 0.0890133 0.16613117
-0.062041912 0.29752105 0.15452293 0.16884871 -0.15855448 -0.11776022 0.12543812 0.26949713
0.074498005 0.2716285 -0.15223563 0.030686466 0.037170786 0.09010771 0.3351044 0.13785754
-0.12083111 0.0034675202 -0.05953761 0.2774538 0.3061645 0.14809819 -0.2723062 -0.35128558
0.17059748 0.06545446 0.0011041282 -0.19402981 -0.014122177 0.120145924 0.113482624 0.22067215
0.1975527 0.12668082 -0.045867663 -0.016990326 0.156768 0.14152777 0.013236384 0.2062117
0.20313764 0.19549069 0.10526916 0.3321218 0.2779272 0.23287211 0.13885634 0.35309973
0.16077805 -0.35583982 -0.07892674 0.06835543 0.09234347 0.23015957 0.23910603 -0.17424624
0.1788022 0.058024805 0.24285437 -0.007233366 0.039842602 0.20064476 -0.0005157327 -0.27561304

net.network.4.weight_1 f4 [16, 64]
00000000: b784 acbc 9136 e7be c933 26be 2b65 ebbd
00000010: 332e 933d 175f 983c d4f3 82bd 026b d5bd
00000020: 9ae5 87be 5a14 8dbe 45ef c93e 6387 dbbd
00000030: 3846 023e 75cd 1dbe 7359 41be 899d 86be
00000040: de4c 90bd e47f f1bc 0a6b 733d adc6 96be
00000050: a718 fbbd 2a27 e8be 38b7 503d 367f f63d
00000060: 91ef 21bd e3af d0be 4b8e 32be 55f1 84bd
00000070: c0aa d8bd 8d4a 493e 3e3a 9abe 29b0 a5be
00000080: 038e 99bd 3bca 2abd ff0f e4bd 2488 173e
00000090: e7e4 0a3e 857e 68be 0269 6bbe e3dc 73be
000000a0: d310 a6be 8e29 d7bd d7cf d03c 1e6e 753e
000000b0: 0200 d3ba 6c13 08be 6b50 30be db99 c5be
000000c0: 4b45 b3be 72df 913b 5310 55bc 768b c4bc
000000d0: 48cb ac3c f299 063c 3353 bebe 0fa8 98bd
000000e0: 9bc3 75be 4e68 b3bd 4557 043d 470a 15bd
000000f0: 68a6 8cbd ead3 6b3b 8aac 923d 4077 01bd
00000100: fac8 e03c 23a3 3d3e fae7 a03e 1a50 533e
00000110: 4bdd c8bd 4a36 b8bd bb8e 91bd 6ce8 bc3e
00000120: d246 81be 7aad ab3d 2a69 acbc 65d2 09bd
00000130: 2269 43bc f6bc e43d f0f8 b83e 6cb3 2c3e
00000140: 2ea5 b3bd 48c5 303d 34d3 443e 8327 7c3e
00000150: 6275 923e 2f95 8e3e e56f 95be 922e bb3d
00000160: d3d9 563e 2d27 2d3e ad7c 033e bf44 e4bd
00000170: 2409 05be 347b 693e 0549 a93e 2075 273e
00000180: 4240 5b3e 0e16 343e 090a 033e a88e a73d
00000190: 58d9 7b3e df95 a33e b705 af3e 94dd 493e
000001a0: b414 7f3e 9c31 2d3d 6012 80bd 87bb ab3e
000001b0: 9790 a73e 3c1b a53e dea7 c33d 57e8 393e
000001c0: 4d62 ea3d d46b 48be 8699 6c3d 37cc cd3c
000001d0: ef87 113e c289 7d3e b59b 613e aad4 f0bd
000001e0: 8fe8 7fbd 0248 9ebc e786 613e f3bb 4c3e
000001f0: 1650 6d3d 0495 313e 3e63 4a3c d802 7dbd
00000200: b201 c4be ed47 8ebe e1a3 36be a3a5 cbbd
00000210: dfe7 9fbd ac96 693e 52e2 5e3c cfdb d5bd
00000220: dfb8 d33e 9f26 efbd 6074 0c3f 7623 b23d
00000230: ce7f 7a3d 79c6 81be 71cb 5bbe 1fb2 23be
00000240: 98e0 263e 9843 393d f98a 573d dd26 babe
00000250: a6b3 aebe b8e5 e5bd bdc3 ad3d 7c88 483e
00000260: 9c1d 65be 1d4e 96bd f242 72bd 77c6 103e
00000270: a296 953d 74b6 9dbd 8829 3abe d08d 1dbe
00000280: b454 953d a5d2 a7be 2462 f9bc 618e 8abe
00000290: ad81 51be a88e c63c 54dc 36be 3266 a3be
000002a0: 61c9 1cbe faa8 90bc a074 ae39 698b 483d
000002b0: e8ab 68be ce0f 16be 1122 6dbe 070a 82be
000002c0: 50aa 4cbe bfa7 403d 8676 dfbd 8236 97bd
000002d0: 5419 b0bd 959d 94bd 28c2 253a cce7 293e
000002e0: cdce fc3e d41c 963d 7fba 9bbe 8c80 d7bd
000002f0: 5819 b4bd 5506 0bbd ecb2 d5bd 8360 c43d
00000300: b790 a4bc dbdd c83c ebb1 893e 1419 a13d
00000310: b18a 9a3d 398b 99bc bf72 62bd 28b7 f33d
00000320: 83e0 90be bae1 883d f1cd a2bd e516 a53b
00000330: 7f39 01be 3ed4 733e 1203 b43e b782 973e
00000340: 22dd 27be 1f4b ef3d d6d6 723e e85e d43d
00000350: 0693 aa3d 072b 303e 6f82 d0bd 798a 8e3d
00000360: b5a8 c23d 8972 ca3d 5d1b 0fbd 418c 3cbe
00000370: 7c93 d63a 5b0f 383e 0854 8a3e 33ec 8e3e
00000380: ca6e 4a3e d945 2e3e 0c2c ef3d fe45 6d3d
00000390: 5c26 a53e 81db 1b3d 531e 403e 60cf 543e
000003a0: 1950 683e 3500 b3bc e76b 933d 3ac9 c83e
000003b0: 2d68 673e 305b c13d 72f6 293e 8872 653e
000003c0: 75e8 943e 4f84 47be 49d1 663d 52df 3c3e
000003d0: c6e1 693d 3208 263e 9869 9b3d 692a 9fbe
000003e0: 6f77 d6bd 0c94 933d 7ef4 bd3d c953 513e
000003f0: 57e4 013e fa5f 633e 27d4 ce3d 32c9 43be
-0.021059377 -0.45158818 -0.16230692 -0.11493906 0.07186546 0.01860003 -0.06394163 -0.10420801
-0.2654236 -0.2755459 0.3944036 -0.10719182 0.12722099 -0.15410407 -0.18881778 -0.26292065
-0.07045911 -0.029479928 0.059428252 -0.29448453 -0.122605614 -0.4534238 0.05095598 0.12035982
-0.03953511 -0.4075919 -0.17437093 -0.06491343 -0.10579443 0.19657345 -0.3012256 -0.32360962
-0.0749779 -0.04169677 -0.111358635 0.14798027 0.13563882 -0.22704513 -0.22989276 -0.2381473
-0.3243471 -0.10505973 0.02548973 0.23967788 -0.0016098025 -0.13288659 -0.17218177 -0.38593945
-0.35013804 0.0044516856 -0.01300438 -0.023992281 0.021093026 0.008215414 -0.3717285 -0.0745393
-0.24000399 -0.08760129 0.03230979 -0.036386754 -0.06867677 0.0035984465 0.071618155 -0.031607866
0.027439583 0.18519263 0.31426984 0.20636025 -0.09807833 -0.0899473 -0.07107302 0.36896074
-0.25249344 0.083826974 -0.02104624 -0.033647913 -0.011926921 0.11168854 0.36127424 0.16865319
-0.0877174 0.043156892 0.19221193 0.24624448 0.2860518 0.27848193 -0.2918693 0.09139742
0.20981531 0.16909476 0.12840529 -0.11145925 -0.12991768 0.22800905 0.33063522 0.16353273
0.21411231 0.17586538 0.12796797 0.081815064 0.24594629 0.3195028 0.34184048 0.19713432
0.24910241 0.04228364 -0.06253505 0.3354151 0.327275 0.3224734 0.095535025 0.18155037
0.11444531 -0.19572383 0.0577636 0.025121791 0.14212011 0.24759582 0.22032054 -0.117593125
-0.062477645 -0.019321445 0.22024117 0.19993572 0.057937704 0.17342001 0.012352763 -0.06177029
-0.38282543 -0.2778925 -0.17835952 -0.09943702 -0.07807898 0.22811383 0.013603764 -0.10442316
0.41351983 -0.11677288 0.54865074 0.0869817 0.06115704 -0.25346735 -0.21464325 -0.15985917
0.16296613 0.045230478 0.05262277 -0.36357775 -0.34121436 -0.11225456 0.084846 0.19583315
-0.22374576 -0.07339118 -0.059145875 0.14138208 0.073041216 -0.07700816 -0.18179905 -0.15386128
0.072915465 -0.32777897 -0.030442305 -0.2706175 -0.20459624 0.024237946 -0.17857486 -0.31913906
-0.15311195 -0.0176587 0.0003327476 0.048961077 -0.22721827 -0.14654467 -0.23157527 -0.25398275
-0.19986844 0.047034975 -0.109112784 -0.073834434 -0.08598581 -0.07256619 0.0006323182 0.1659233
0.49376526 0.07329717 -0.30415723 -0.10522565 -0.087938964 -0.033941586 -0.10434517 0.09588721
-0.020088537 0.024519851 0.26893553 0.078661114 0.075459845 -0.018743144 -0.05528521 0.11900169
-0.2829629 0.06683679 -0.079494365 0.0050381296 -0.1261959 0.23811433 0.35158592 0.29591915
-0.16392949 0.1168425 0.23714766 0.103696644 0.08328824 0.17203914 -0.10181128 0.06960005
0.095048346 0.09885127 -0.034938205 -0.18412878 0.0016370858 0.17974608 0.27017236 0.2791458
0.19768825 0.17018832 0.11678323 0.057928078 0.32255828 0.038051132 0.18761568 0.20782232
0.22686805 -0.021850685 0.07198315 0.39216024 0.22598334 0.09441221 0.16597918 0.22406971
0.290836 -0.19484065 0.056351934 0.18444565 0.05710008 0.16214064 0.075885 -0.31087044
-0.10471999 0.07205972 0.09275149 0.20442118 0.12684761 0.22204581 0.100990586 -0.19119719

net.network.4.bias_0 f4 [16]
00000000: 5f11 c0bd aaff 09be d67b 0d3e fabf 97be
00000010: c25e 5d3d 58bc 68bd 4313 0b3e ce19 fd3e
00000020: 0621 05be 45c5 07bd 31ec 8cbe 9c50 1abd
00000030: dfba ff3e 5192 aa3c 9cfb a93c d9e9 94be
-0.09378313 -0.13476434 0.13816771 -0.29638654 0.054045446 -0.056820244 0.13581567 0.4943375
-0.13000879 -0.033147115 -0.2752395 -0.03767453 0.4994726 0.020821722 0.02074986 -0.29084662

net.network.4.bias_1 f4 [16]
00000000: 38e2 64be 35f6 01be bd2a 003e 8069 20be
00000010: 1351 593e d681 a33c 5e4a 8a3e 39ae 173f
00000020: f1c3 90bd 145a 9fbd 62a5 99be cf20 96be
00000030: f136 193f 3c28 8dbe b8cc 1a3e 9625 0ebe
-0.2235192 -0.12691577 0.12516303 -0.15665245 0.21222334 0.019959372 0.27009863 0.5925022
-0.07068623 -0.07780853 -0.3000899 -0.29321906 0.5984946 -0.2756976 0.15117157 -0.13881525

net.network.6.weight_0 f4 [2, 16]
00000000: 850d a23e 7b07 d2be 221e 293e e03e 54be
00000010: c526 053d 3f7e 3c3e 185d 063f d4b8 d03e
00000020: dcf3 543d 41c7 b3bc 583e 6abe 08d9 073e
00000030: 8872 0a3f e8bd 4fbc 200b f43d d868 823d
00000040: 8a94 0cbe d5f4 d43d d52c 01be f3c4 ef3d
00000050: e80d dcbe 7e7f 0d3d 1e31 e4be dd32 93be
00000060: 5f96 fe3c 06d1 f8bd 575e 653e b599 2c3e
00000070: 8e59 afbe d074 4fbe aa0c 6bbe bfa7 d63d
0.3165094 -0.41021332 0.16515401 -0.2072711 0.032507677 0.18407534 0.524858 0.40766013
0.051990375 -0.021945598 -0.22875345 0.13266385 0.5408101 -0.0126795545 0.119161844 0.063676536
-0.13728538 0.103982605 -0.12614758 0.11707487 -0.4297936 0.034545414 -0.44568723 -0.28749743
0.031077562 -0.12149243 0.22399269 0.1685551 -0.34248012 -0.20259404 -0.2295405 0.10481214

net.network.6.weight_1 f4 [2, 16]
00000000: 7138 8e3e b65c a9be 19d9 96bd f83a 07be
00000010: 175d b13e 5030 d5bd e6f2 813e 7321 553e
00000020: 33af 273e 5c20 babd cbc5 03be 0c77 95be
00000030: b294 e53e 8e16 be3d 282f 713d ff11 7dbe
00000040: 7f96 9ebe f5dc a63d 8606 4fbe b085 543e
00000050: 4daa edbe a928 993d 87ef 62be 5f6a 0fbf
00000060: a2ec c93d 4abc 4f3d eeea 853e 8a82 7f3e
00000070: 8c04 fdbe 0088 15bd 4c44 3dbd 86c9 b0bd
0.27777436 -0.33078545 -0.07365627 -0.13206089 0.34641334 -0.104096055 0.2538063 0.20813541
0.16375427 -0.09088203 -0.12868421 -0.29192388 0.44840008 0.09281646 0.058882862 -0.24713896
-0.30974194 0.08147613 -0.20217332 0.20754123 -0.46418992 0.074784584 -0.22161685 -0.56021684
0.09859587 0.050716676 0.261558 0.2495214 -0.49417531 -0.036506653 -0.04620771 -0.086321875

net.network.6.bias_0 f4 [2]
00000000: 5556 cfbb 6a9a f0bc
-0.0063274303 -0.029370505

net.network.6.bias_1 f4 [2]
00000000: 61ae 8a3e 855b 7ebe
0.27086166 -0.248396
