models/german/rs/adam_epochs100_lr0.004_batch32_dropout0/model_659.pth (torch, 76579 bytes, 8 tensors)

network.0.weight f4 [128, 70]
00000000: 62ca 1d3e 0e57 fa3d 2624 ae3d 28bb 46be
00000010: 824e ec3e d9f9 1e3e 9d7d 2abd 62e2 41be
00000020: 4fc9 6ebd d73a 36be 87bd ce3e ca05 85be
00000030: f927 ad3d 2d90 26bd b8bd 0c3b 314c d63e
00000040: a06c 133e 9f3d 20be d246 abbc 7514 a23e
00000050: 4fc1 0d3e d8ac a0be a734 353d f69e cf3e
00000060: 6314 8f3e 7f78 583e 4207 4f3e ba95 41bd
00000070: 020c 50be 63d5 a43e 2e20 2dbe 8c0a b03e
00000080: 8f2b 643d 263f 01be 5e37 b6bd a1fb 573e
00000090: e005 973d 7639 78be 18b1 363e 1078 0ebe
000000a0: 0484 5d3e 7624 523e 847d af3e aacb 38be
000000b0: 48e3 e83e 9335 85be 79f2 523d b3f7 c23e
000000c0: 54ec 25be d487 60be 0f25 bd3d 3aac 6bbe
000000d0: 5b31 923e 0b88 d7bc b282 fd3d 10f7 753d
000000e0: 005f 68be 9a92 c93c 5333 b53e 8b14 b03e
000000f0: 0fd2 afbc a45a 383e be78 22be a42c 383e
00000100: 61f6 adbe c93b c93e 2ad6 0e3e 5385 9bbd
00000110: 2a2e 6bbe a451 ae3e 3fda f3bc 6f29 8dbe
00000120: bd4c 42bd 972b c73d 8e6d 5f3e 14c5 e83d
00000130: 7953 cd3c fbba 34be ca3c 1c3e 5a33 5fbd
00000140: f7cf 5d3c 3302 e8bd a884 dcbc 440f f3bd
00000150: ccfe e73c d09d 573e b3da 6b3c 8f27 85bd
00000160: 5265 673e fab7 993e da80 91bd 4a0e 8dbe
00000170: 16bd 163e a034 583e ef1d 9c3e 5add da3d
00000180: 8e5d 0d3e 0c8f 583e baa8 a6bc 2627 01be
00000190: 43f7 ce3d b944 6b3e 6b72 193c 663a bcbd
000001a0: 25d9 44bd fbaf 7cbc 636b 54bc ad7b 8c3d
000001b0: 0935 3e3e 5432 e23d c0cf 0dbe d5a2 7b3e
000001c0: 6cfd d9bd edfb d1bd c216 733c a904 0c3e
000001d0: afa9 643d e6fc 853d 66ca 98be f566 243e
000001e0: 85bd 13be d387 06bd dcda ff3c 1a5e ad3d
000001f0: c634 98bd 9c70 37bd c30a 363d d0eb 323e
00000200: cb60 043e 16d6 c43e 6ea5 053c e552 c63c
00000210: b39b b93c 5bc8 123e dfa9 a9bd b3c6 6f3d
00000220: 2cc2 a7bb bc97 97bd 5a63 a8be cd23 c33e
00000230: 94a0 ddbe 50d6 84bd d248 2cbe 0626 8bbe
00000240: a088 dc3d f1f9 e03e ca31 4f3e 48ff 47be
00000250: 9ed5 e4bd 25cb fcbe c62c 523e bbaa 363d
00000260: b865 41be b8a7 bb3c 9eea e33d 917b 4bbe
00000270: 1e70 e6bd 062d b83d 7f49 173e bb56 a93e
00000280: 4c30 cc3d e32f 0bbe a8e4 933d 8e5b 73bc
00000290: 8a82 f43e c3d6 ff3d 4495 29bd 0da6 483e
000002a0: 8944 5c3e ae32 9bbe 0b10 b8bd a1da 95be
000002b0: 0853 883e 572e dd3d 0df4 11be 62f2 d33c
000002c0: 65d5 21be 83b3 19bc fb2b 413e b6bf 8a3c
000002d0: c4b1 85bd 0770 653e 1c6c 953d af34 dc3a
000002e0: f635 a63c 0e3f 39be 2e9b f2bc a607 d23d
000002f0: c22c 8abe c169 ef3d f3a0 9ebe 28b1 0abe
00000300: 4e72 ac3e 950d b2be 015e f93c 7354 e53d
00000310: bbc1 67be cc55 533e 17de 7b3e 13aa 693e
00000320: 2d82 00be bab4 423d ab7c 7d3e afb6 67be
00000330: fbc1 a13c 5a13 17bb 391d a7bd 8c3b 323d
00000340: 09c1 43be 5f9d c43e c308 b43e 95f1 c7be
00000350: 4e42 00be 1123 a4be edc0 3cbe 179b fbbd
00000360: 2d4d a9be 4c4c 093e bc79 6abe e89a 8b3e
00000370: bcc7 853d 106b 2abb 6941 2cbe 8c54 98bd
00000380: af6d 8bbe 5088 56be 830d 3abe f508 c13c
00000390: b45f fb3d bced 103d 4c1a 6a3e c0ab 003e
000003a0: 3566 c9bd 052b bc3c 583f 84bd 1505 acbc
000003b0: 1556 043e 1b63 da3e 84df 26bf 8381 193e
000003c0: 6101 473e 5c9c 18be 1fb4 78bc ab35 f93b
000003d0: d6e3 273e f36e e03e 4ed1 ccbd 5bf5 0bbe
000003e0: b727 28be 71a7 bcbd ebfb 36be 64e6 123e
000003f0: 7161 9cbd 8524 abbd adac 70bd 3c99 f9bc
0.15409234 0.122236356 0.085029885 -0.19407332 0.46153647 0.15524997 -0.0416237 -0.18934014
-0.05829745 -0.17795883 0.40378973 -0.2598098 0.0845489 -0.04066484 0.0021475386 0.41855004
0.14396906 -0.15648507 -0.020907793 0.31656232 0.13843273 -0.3138187 0.044239666 0.40550965
0.2794524 0.21139716 0.20217612 -0.04726193 -0.2031708 0.3219405 -0.16906807 0.34383047
0.055705603 -0.12621745 -0.08897279 0.21092083 0.073741674 -0.2424067 0.17840993 -0.13912988
0.21632391 0.20521721 0.34275448 -0.18046442 0.45485902 -0.26017436 0.05150077 0.38079605
-0.16203433 -0.21926814 0.09235584 -0.23014918 0.2855328 -0.026309988 0.12378444 0.06005007
-0.2269249 0.024606038 0.3539072 0.34390673 -0.021462468 0.18003327 -0.15866372 0.17985779
-0.33977035 0.39303425 0.13948885 -0.07593789 -0.22966829 0.34046662 -0.029767154 -0.27570674
-0.047436465 0.09725111 0.21819136 0.11365715 0.025064217 -0.17649452 0.15257564 -0.054492332
0.013538352 -0.113285445 -0.026918724 -0.11868146 0.028319739 0.21056294 0.014395404 -0.06501686
0.22597244 0.30023175 -0.071046546 -0.27549964 0.14720568 0.21113825 0.30491588 0.10686751
0.1380522 0.21148318 -0.020344127 -0.1261259 0.10105755 0.22975434 0.009365658 -0.09190826
-0.048058648 -0.015422816 -0.012965056 0.06859527 0.18574919 0.110447556 -0.13848782 0.24573834
-0.106440395 -0.10253129 0.014836969 0.13673653 0.055825885 0.06542377 -0.29841918 0.160549
-0.14427765 -0.032844376 0.03123229 0.08465214 -0.07431941 -0.044785127 0.044443857 0.17472768
0.12927549 0.38444585 0.008157117 0.024209449 0.022657251 0.14334242 -0.082843535 0.058539104
-0.0051195826 -0.07401988 -0.328883 0.3811325 -0.43286574 -0.06486189 -0.16824654 -0.27177447
0.10768247 0.4394069 0.20233837 -0.19530976 -0.11173557 -0.49373737 0.20524892 0.044596415
-0.18886459 0.022907123 0.11128734 -0.19871356 -0.112518534 0.089929625 0.1477413 0.33073983
0.099701494 -0.13592486 0.07221347 -0.014853371 0.47755843 0.124921344 -0.041402116 0.19594593
0.21510519 -0.30312103 -0.08987435 -0.29268363 0.26625848 0.10799854 -0.14253254 0.025872413
-0.1580406 -0.009381178 0.18864433 0.016937118 -0.06528047 0.22406016 0.07296011 0.0016800369
0.020289402 -0.1809046 -0.029615011 0.10255365 -0.26987273 0.11690093 -0.3098217 -0.13544142
0.33680958 -0.34775987 0.030440332 0.11197748 -0.22632496 0.20638198 0.2459644 0.22818784
-0.12549658 0.047535636 0.24754588 -0.22628282 0.019745817 -0.0023052306 -0.08159871 0.04351382
-0.19116606 0.38401315 0.35162935 -0.390515 -0.12525293 -0.32058004 -0.1843297 -0.122854404
-0.33066693 0.13408011 -0.22898 0.27266622 0.06532237 -0.0026003756 -0.16821827 -0.07438001
-0.2723212 -0.20950437 -0.18169217 0.023563841 0.12274113 0.03538297 0.22861594 0.12565517
-0.098339476 0.022969732 -0.06457394 -0.020998517 0.12923463 0.42653736 -0.6518481 0.14990811
0.1943412 -0.14903396 -0.015179663 0.0076052747 0.16395506 0.43834648 -0.10000859 -0.13667814
-0.164214 -0.092116244 -0.17869537 0.143457 -0.07635773 -0.08356575 -0.058758426 -0.030468576

network.0.bias f4 [128]
00000000: 2576 cfbe 604c acbe 5b87 97be d6d7 c3bd
00000010: 2c7a 50be 1103 a4be 58b0 a6bd 5d62 9fbe
00000020: 0fce dabe 3ab1 46be d59a a53c fc10 bbbe
00000030: 1733 8bbe 671f 29bf 5e74 b3be ae1f 5ebe
00000040: 56f2 c3be 9dac 5bbe 3ba6 cfbe ba29 bebe
00000050: 67a7 59be 3b45 9fbe 8c8b 18be b209 d6be
00000060: 27f8 32be 4005 79be d62b bd3d a054 e1be
00000070: 58c6 91be 4172 1abf b733 39be 4df1 a2be
00000080: 4d00 c7be 6690 b6be e081 b1be 51b9 43be
00000090: 73a0 9dbd 88af ebbd 46a0 b3be b509 c7bd
000000a0: 337e ecbe a9f1 bcbd 431e 78be 425c c5be
000000b0: 7784 7a3d e218 c7be 55f4 dabe 5fd9 cdbd
000000c0: 3a8c b0be f3ae 22be 433c 12bf e44f 64be
000000d0: c52c c8be 1010 7ebe c47a 92be c16d dabe
000000e0: 0bcd 41be 8431 ffbe 5091 02be ec9b 21be
000000f0: 8e0f b73c 7b77 4ebe f366 4ebe ebbe 68be
00000100: 1d59 73be dafd 80be ce10 5abe f31e 25be
00000110: 3baa 9ebe 1726 2cbe 4b28 c4be ab98 98be
00000120: 9c42 edbe 0dea bbbe aa01 a0be 9201 3cbe
00000130: f7ec b2be c2d3 8cbd 806c 97be e5fa f6be
00000140: d77a 7fbe 4b92 bdbe 86e6 84be 1767 0fbe
00000150: 064f cdbe a66c f4be d617 7bbe b10e 8bbe
00000160: 82ed d3be ccdf bcbe 3719 4bbe 07e1 cabe
00000170: f14c 0dbf f126 d3be 9acd 0ebe 4d6e ffbe
00000180: 0d50 99be 3be3 90be 0974 06bf cfba 39be
00000190: f918 43be 880f 5fbe 4005 9dbe 3d9e 76be
000001a0: c850 a8be 0d4c c6be 237e abbe a204 43be
000001b0: f5c4 113d d47c f7be cc17 59be 60ae c2be
000001c0: 3078 47be 85c4 8cbe 833b f1be 9f26 3c3d
000001d0: a464 14be c87e 11be 3404 babe d60b 12bf
000001e0: 7bbe 86be f92a 8cbe c986 b3be 6977 93be
000001f0: 71b7 0bbf de1f 0ebe 1012 87be a2fa a8be
-0.40519825 -0.3365202 -0.29595456 -0.09562652 -0.20359105 -0.3203359 -0.08139104 -0.31129733
-0.42735335 -0.19403544 0.020215431 -0.36536396 -0.27187416 -0.6606354 -0.3504972 -0.21691772
-0.38270825 -0.21452565 -0.4055651 -0.3714121 -0.21255265 -0.31107506 -0.14896983 -0.41804272
-0.17477475 -0.24318409 0.09236877 -0.44009876 -0.28471637 -0.6033059 -0.18086134 -0.31824723
-0.38867417 -0.35657042 -0.346694 -0.19113661 -0.07696619 -0.11508089 -0.35083216 -0.09718648
-0.46190032 -0.092257805 -0.24230294 -0.3854695 0.061161485 -0.38886172 -0.42764536 -0.10051226
-0.34481984 -0.1588705 -0.571232 -0.22296101 -0.39096656 -0.24810815 -0.28609288 -0.4266186
-0.18925874 -0.49842465 -0.12750745 -0.15782136 0.022346284 -0.20162766 -0.2015646 -0.2272908
-0.23764463 -0.25193673 -0.21295473 -0.16125087 -0.3098925 -0.16811405 -0.3831199 -0.29803976
-0.4633988 -0.36702004 -0.3125127 -0.18359974 -0.34946415 -0.06876327 -0.29574966 -0.48238292
-0.24949203 -0.37025675 -0.25957125 -0.1400417 -0.40099353 -0.47739142 -0.24520811 -0.27159646
-0.41392142 -0.36889493 -0.19833837 -0.39624807 -0.5519553 -0.41240647 -0.13945618 -0.4988884
-0.29943886 -0.28298363 -0.52520806 -0.18137668 -0.19052495 -0.21783268 -0.30668068 -0.240838
-0.3287413 -0.38729897 -0.33494672 -0.19044736 0.035588223 -0.48337424 -0.21200484 -0.38023663
-0.19479442 -0.27493683 -0.47115716 0.04593527 -0.14491516 -0.1420852 -0.36331332 -0.5704931
-0.263172 -0.27376536 -0.3506377 -0.2880204 -0.54576784 -0.13879344 -0.26380968 -0.33003718

network.2.weight f4 [64, 128]
00000000: ae7a fdbb d29c 933d 7b27 563c 4145 0cbe
00000010: 47a0 dc3d 3dcb 94bd 857c 9ebe d3c3 c23d
00000020: 9b23 4f3c 07d3 8abc 2959 35be b0a2 2cb9
00000030: c6da 363d 0da7 5c3d cf23 c63d d5db bfbc
00000040: d6e7 9b3e 4fa7 9c3c b847 f43c e227 d43d
00000050: cc50 8cbe 9063 c23d 5a13 193e 20b7 e53d
00000060: ee28 54bd cbf7 0a3e d6b2 95be e62e b9bd
00000070: e128 e6bd a35d a2bd 15d9 a63c b827 603e
00000080: 579e e03d 8ac4 22be a433 a53e 1d33 843d
00000090: e1bc 95bc 9eac 913d 26c4 47bb 7025 16be
000000a0: 1d40 6f3d 0fcb a53e b2f5 823d 83b1 ae3e
000000b0: 5808 1bbd d488 9c3d 473e 903d 3da4 f4bd
000000c0: 46db 11be 0572 8ebe 0eb1 d0bc ed26 2dbd
000000d0: 83ed ccbb dcbf 88bd 7c0f 8e3e 2e06 07be
000000e0: 0c12 aa3e 1e24 b73a 2c3c 403e 9dd1 af3d
000000f0: 0692 4cbe 06c8 6a3e 0b0a fc3c 277d 863e
00000100: 2828 153d b287 c1bc 4d3f f2be 57b3 cabe
00000110: f0ce 263c d523 dbbd 99bb 4e3e d503 a83d
00000120: 7c1a 12be df97 36bd c00d 643e 2254 f93c
00000130: 675f 243e e93a 273e 0bcf 663e 4f9b 743a
00000140: 901d 2c3d faba a1bd 82fa 4d3e 7f83 cf3e
00000150: 73aa 57be cc51 cebe 0a3d c7bd ff7d 4fbe
00000160: 8ebf 4d3d b68a 33bd 52eb f1bd d0c8 e139
00000170: 2659 d53d 1349 903b caaf e1be d611 19bd
00000180: 0c0b 5f3d 058a a53d 94e8 b43d fecd 19be
00000190: 7436 8e3e 22a0 373e a4a8 a23e 7b90 943d
000001a0: d17f 32be fd7d 88bc 76ca cc3b 7c1c 793d
000001b0: 64a0 8abe 883f 5d3e 6230 6e3c f612 60bd
000001c0: fdfe 343e 67fa c73d 9515 293e 17d1 a8bd
000001d0: 0071 9f3d fa5d 263e 5c0e cdbd a29e de3d
000001e0: d25f 2e3e 09d1 17be 42cc 3b3e 9c9b 4b3e
000001f0: 8985 d73d 29f1 353e 990c 3d3e 7a74 eebd
00000200: bbb3 a5bd b4a4 14bd a5ec 13bd e4fd 633d
00000210: cddf f1bd 9e85 28bd 4071 2cbe 0da2 9cbd
00000220: e5f4 a83c b5a4 23bd 54ec 65bd 809a a3bd
00000230: dc51 993c 6b62 2fbd 2f2f c13d 3af0 8bbd
00000240: 5cfa 4abe f39b 38bd f39d a9bb 7e4c b0bd
00000250: 98f3 77be 8e95 ff3c 1cbd a8bd 65cc 88bd
00000260: 8529 94bd 33df 0cbd 0d42 9abd aa91 f23c
00000270: f441 38be 2d76 efbd 4a44 8bbd 10a1 31be
00000280: 3272 ff3c 2501 f9bc 2fae e8bd edd6 b13c
00000290: 27f9 2dbe ed17 b4bc 8423 3a3e c95d 58bd
000002a0: 23df 903d 381e b13d a860 2d3d 3a92 c3bd
000002b0: adc5 ba3a bcf5 54be c598 b6bd daf0 49bd
000002c0: 5c7e 58bd 6555 56be 50ff a3bc ddd0 bcbd
000002d0: fac4 2cbe 9612 163d 7c0f 63bd 8751 893d
000002e0: ffc0 8cbd 12d9 dcbd c053 303e c5cc 89bd
000002f0: 63a5 f6bd 7a7d ddbd 55b7 cebb bac3 b83c
00000300: fc5b 06be 43bc bfbd 8f79 19be dfeb d4bd
00000310: da72 a13c 327f 59bd 40a8 35ba 216c b5bd
00000320: e798 c93c d15d bf3d 8b4d f1bd f461 4d3e
00000330: 269d ccbd 827d 91bd 519d d33c 5269 09be
00000340: 6931 24bd 4dda febd 588c 853d 089a 593d
00000350: a950 b0bd 3a76 74bc 70d4 c0bd 317f 4b3d
00000360: 5cdb 84bc 13de afbd e70a c9bd de55 8dbc
00000370: fdb8 a2bd 706c 99bd 58ff 1bbd 2c99 bbbd
00000380: 65ab bfbb 9e76 f8bc d7b2 6d3c 37f5 0abe
00000390: 1b74 253d c86d aabb 892d 1fbd a79e 8abd
000003a0: 442d 903c e75b b4bd 7c60 ab3c d4dd 6bbd
000003b0: a108 97bd 3f69 06bd 9a8e 18be a8c5 1abe
000003c0: e50d e63b 6e3a c0bd db44 1ebc e799 59be
000003d0: 5694 86bc eb33 65bd 0a97 80bd ff97 dabd
000003e0: 2b1a 373d a28d dc3d 397f 7fbc 8aeb cabd
000003f0: 8664 4c3d ebaf b3bc 7e70 44bc 1c3d d83a
-0.007735572 0.072076455 0.013070936 -0.13698293 0.10772758 -0.07265327 -0.30954376 0.09510007
0.012642766 -0.016946329 -0.17709793 -0.00016463804 0.044642232 0.05387025 0.09674799 -0.023420254
0.30450314 0.019122748 0.029819354 0.103591695 -0.27405393 0.09491646 0.14948788 0.11216569
-0.051796846 0.13571088 -0.29238003 -0.09042148 -0.11238266 -0.07928016 0.020367185 0.21890152
0.10967701 -0.15895286 0.3226596 0.064550616 -0.018278541 0.07113002 -0.0030481904 -0.14662719
0.058410753 0.32381484 0.06394519 0.34119806 -0.037849754 0.076432854 0.070431285 -0.119453885
-0.14243802 -0.27821365 -0.025475051 -0.04227345 -0.0062538995 -0.06677219 0.2774619 -0.13185951
0.33216894 0.0013972556 0.18772954 0.085849024 -0.19977579 0.22927865 0.030766508 0.2626736
0.03641525 -0.023624275 -0.4731392 -0.3958995 0.010181174 -0.10700194 0.2018875 0.08203856
-0.14267915 -0.04457843 0.2227087 0.030435625 0.16052018 0.16331066 0.22539918 0.0009331004
0.04202038 -0.07896991 0.20115092 0.4053001 -0.21061115 -0.4029678 -0.09728439 -0.20262907
0.05023151 -0.043833457 -0.11812462 0.0004306496 0.10417394 0.0044032424 -0.4407943 -0.037370525
0.054453894 0.08082966 0.08833423 -0.15019986 0.2777592 0.1793218 0.31769288 0.0725412
-0.1743157 -0.016661638 0.006249721 0.06081818 -0.27075493 0.21606266 0.014537903 -0.054705583
0.17675395 0.09764557 0.16512139 -0.08243006 0.07785225 0.16246787 -0.100125045 0.108701006
0.1702874 -0.14825834 0.18339637 0.19883579 0.10523517 0.17767777 0.18461837 -0.1164331
-0.080909215 -0.036289886 -0.036114354 0.05566205 -0.11810265 -0.041143052 -0.16840076 -0.07648096
0.020624587 -0.039952 -0.056133583 -0.07988453 0.018715791 -0.042818468 0.09432828 -0.06832929
-0.19822067 -0.0450706 -0.0051762997 -0.0860834 -0.24214017 0.031199243 -0.08239195 -0.0667961
-0.07234482 -0.034392547 -0.075321294 0.029610474 -0.17993909 -0.11692462 -0.068001345 -0.17346597
0.031182382 -0.030396054 -0.11361348 0.02170893 -0.16989575 -0.021984065 0.1817761 -0.052823815
0.0707381 0.08648342 0.042328507 -0.09549375 0.0014249586 -0.20796865 -0.08915857 -0.04930196
-0.05285488 -0.20931013 -0.020019203 -0.09219525 -0.16872016 0.03663882 -0.05543469 0.06705003
-0.068727486 -0.107835904 0.17219448 -0.0672851 -0.12043264 -0.108149484 -0.006308476 0.022554267
-0.13121027 -0.0936208 -0.14987777 -0.10396551 0.019708086 -0.05309982 -0.0006929673 -0.088585146
0.024609042 0.09344066 -0.11782368 0.20056897 -0.09990911 -0.07104017 0.02583185 -0.13419083
-0.040086184 -0.12443981 0.06520909 0.05312541 -0.08609135 -0.0149207655 -0.09415519 0.049681846
-0.01621788 -0.08587279 -0.098165326 -0.017252859 -0.0794544 -0.07491386 -0.03808531 -0.091600746
-0.0058492892 -0.030329999 0.014507971 -0.13570105 0.04039393 -0.005201075 -0.038861785 -0.06768542
0.01759971 -0.088065915 0.02092003 -0.0575846 -0.07374693 -0.032815214 -0.14898148 -0.15114462
0.0070206993 -0.093861446 -0.009659971 -0.21250115 -0.016428154 -0.055957716 -0.062788084 -0.10673522
0.04470269 0.10769202 -0.015594297 -0.09908207 0.049900554 -0.02193447 -0.011989711 0.0016497704

network.2.bias f4 [64]
00000000: bc82 96bd f46a a73c 56f6 bfbd 6504 fcbd
00000010: 4029 e4bc e085 0abe 8a10 083e 485a cd3e
00000020: 6fcd 02be a98a da3e fc7e b9bd 39c3 873e
00000030: d4b4 93be 15e2 08be 9255 94be 3925 d6bd
00000040: f755 0cbe b315 23be 74cb 42be 27e9 14be
00000050: 3e37 67be b933 1ebe 8c52 1bbe 5386 4fbd
00000060: 8e05 17be eed6 1dbe 2afe 08be 965b 69bd
00000070: 3c13 ebbc 44df b9bd 9442 2bbe f4fb 29bd
00000080: e99a 0ebe 8761 28be 28aa 64be 6e6f d7bc
00000090: 58cb 98bd c100 6fbe a9e5 03be f778 2abe
000000a0: 1fef e5bd a343 4abd 222a 0dbe b834 6cbe
000000b0: 2620 1fbe fb41 0dbe 8cfd 77bd a003 5ebe
000000c0: 594f dfbd e655 e2bd ffa4 cfbd 3053 92be
000000d0: 73db 9cbd c145 b2ba a8ea 0dbe 8bb2 db3c
000000e0: cee0 44be 135a 07be c3a8 7bbd a8cd d3bd
000000f0: 5563 8cbe 1566 fdbd e85d 133d 5e72 343e
-0.07349154 0.020436741 -0.09373157 -0.12305526 -0.0278517 -0.13527632 0.13287559 0.40107942
-0.12773679 0.42683914 -0.090574235 0.2651613 -0.28848898 -0.13367493 -0.28971535 -0.104563184
-0.13704668 -0.15926246 -0.19022924 -0.14542066 -0.22579667 -0.15449418 -0.15168208 -0.05066521
-0.14748213 -0.1541402 -0.13378206 -0.05697211 -0.028695695 -0.09075788 -0.16724616 -0.041500047
-0.13926281 -0.16443454 -0.22330534 -0.026298251 -0.0746066 -0.23340131 -0.12880577 -0.16647707
-0.11227249 -0.04938091 -0.13785604 -0.23066986 -0.15539607 -0.13794701 -0.060544536 -0.2168107
-0.10903806 -0.1105154 -0.101388924 -0.28579092 -0.07659044 -0.001360111 -0.13859046 0.026818534
-0.19226381 -0.13217954 -0.06144024 -0.1034196 -0.27419534 -0.12372986 0.035978228 0.17621753

network.4.weight f4 [16, 64]
00000000: 1376 373e 8ef9 ed3d 0315 883c e0e9 9b3e
00000010: a6a9 8cbd 8c9b 15be 62a6 21be 482d a1be
00000020: d492 a73e a1bf 283c 607b c53d 82c8 bdbe
00000030: 817c 153e e0dc 193e c21a b53c 51b5 653e
00000040: f5b8 853e 91fd d73d db88 2a3e ecf9 833e
00000050: 6ef2 b43e b089 64bc 2196 1ebe 1d7f 8b3e
00000060: 26a7 9b3e 6b94 423e 8263 05bd c8e8 c33d
00000070: 96ec a8bd edcf 723e 1f90 4b3e be38 89bd
00000080: acdd d73e cdc2 8c3e 8f6d ef3d 1bf0 e2bb
00000090: 68f3 853e 5a4b ffba 3e34 083d 0e0d 3b3e
000000a0: 9d00 123e 0484 983d 70cf f03b 7d32 8d3d
000000b0: 2e44 483c c218 023e b743 90bc e2ee 643e
000000c0: 9336 a5bd 3d97 8f3e db1e 483e 93eb ce3e
000000d0: 468a 7dbc eb39 533e e6a8 aa3e 43e5 57bd
000000e0: 51fc 703e d1dc 76bd 3d77 9e3b 1baa b93d
000000f0: 0579 303e 7826 9d3e e215 013d 82b7 d5bd
00000100: 3f37 183e d0b7 fb3d 4c12 243d 8619 1d3e
00000110: 39fb 59bd 8235 debd afd0 0dbd 4a0f 96be
00000120: ed9e 923d 171b 98be f0d9 d23d 6257 95be
00000130: b4b7 7abc 5588 7b3e 0097 163e 1df2 3e3e
00000140: 691b 3f3e 1014 e23d 30ab 723e dd8a 353e
00000150: fd77 813e 5e2f 94bd 1a1c 583d a9d9 4b3e
00000160: 1e46 7f3e b8c6 443d fb71 a93c 6413 bfbd
00000170: 5ffe 293d 1c6d 9cbc da23 293e 0905 a5bd
00000180: 3ea0 063f d628 833e 1ef4 833c a501 83bd
00000190: ee6c 6d3e d24e 90bb cae9 69bc 6d4f 943e
000001a0: 984a 1c3e 2eca 0e3d 9245 1e3e 8bb8 793d
000001b0: 63c3 d53d 2ddf da3d 76a3 6a3d a309 8d3e
000001c0: 678f fa3c 114b 863e 0b60 db3d 8c0e f63e
000001d0: f688 d83d 58cc c03d 2912 843e ad7b a03d
000001e0: 1d82 8e3e abc5 bd3d efb3 c53d 97a4 2b3c
000001f0: 6ee4 243e b720 883e 9099 0f3e 126b 293d
00000200: efb1 8e3d 0358 ce3d f7c7 cfbc 00ed da3d
00000210: 9567 59bd 587e 6ebd 4b84 04be 8636 21be
00000220: 156c 22bc e908 10be 6a49 3fbc 0f9b 47be
00000230: 754e 543d a573 9a3c f57f 4f3d 2075 fc3d
00000240: 5784 083e c5f0 0bbd 6133 dd3c a7b5 4f3c
00000250: 33a4 463e e742 e13d 0228 27be 3fa4 953d
00000260: d34b c73d 8e14 3dbe 063f 93bd 5986 0abd
00000270: 392e 97bd db07 dc3d 3b2d adbd 98d5 263e
00000280: b809 7a3e 4891 fc3c 9237 f83c 46a7 12be
00000290: 9450 a03b 51c8 3c3a bc0c 9fbd 0b39 9a3e
000002a0: ffdb 19be fa3a 8abd ab30 1abe 6b0b 0f3e
000002b0: 58df 97bd 7518 f9bd 89a0 193d 615d 263a
000002c0: b26b a6bc 621a 1f3e 1721 553d 8d8a 4d3e
000002d0: ecc6 013d 4d3f 82bd 7dc7 7a3e 64f6 d3bc
000002e0: 0961 7d3e 58f7 0ebe 083c 7dbd 1a14 13be
000002f0: 7b1b 373c 68f5 143d c9eb fabd 43b6 09bf
00000300: 33b0 263e 88ef cd3c 03b7 353d bf77 0d3e
00000310: 93a7 8e3b 65c4 a5bd ae2b 62bd 484d b4be
00000320: 635d a23e 1108 14be b96a 023e b3f1 84be
00000330: ee67 103e f8bb 383d 2fe0 c93c f37e 153e
00000340: 91d5 9a3e 1ebf e3bc f6e3 9b3e 5a6f 413e
00000350: a396 883e 06dd 0a3e 2942 4ebe 8f39 623e
00000360: d617 473e e1d2 023e 9949 58bc 8ab4 873d
00000370: 1116 c03d 4287 b23d 2fb0 443e 2992 da3d
00000380: ff52 d53e 9da0 513e 7e93 dc3d 1cce 26bd
00000390: 5848 963d 2459 2b3e 8241 91bd a39a 8f3e
000003a0: 8d7b 90bd a758 ffbc 7595 57bd 95ab 5e3d
000003b0: 7025 573e 7193 0a3d e95a e73b 4c1c 533e
000003c0: 5f4a a9bc 45bc bd3e 9c23 693e 86a1 f13e
000003d0: 61f2 9ebd 9c85 bb3d 1850 003e 16b3 133d
000003e0: 5f15 973e 7432 503d d618 97bd 1ce8 9f3d
000003f0: f116 5f3e f6b9 193e 6be6 67bd aa1f 4c3c
0.17916135 0.116198644 0.016611582 0.3045187 -0.06868295 -0.14610118 -0.15786126 -0.3147986
0.32729208 0.010299594 0.096426725 -0.37067038 0.14598276 0.15025663 0.022107486 0.22432448
0.26117674 0.10546411 0.16653769 0.25776613 0.3534121 -0.013948843 -0.15486957 0.27245417
0.30400962 0.1900193 -0.0325656 0.09565884 -0.0824825 0.2371213 0.19879197 -0.06700276
0.4216131 0.2749237 0.116908185 -0.0069255955 0.26162267 -0.0019477413 0.033252947 0.18266699
0.14258046 0.07447055 0.007348947 0.068943955 0.012223287 0.12704757 -0.017610414 0.22356752
-0.0806705 0.28045073 0.1954302 0.40414104 -0.0154748615 0.20627563 0.33331984 -0.052708875
0.23533751 -0.06026918 0.0048359917 0.09065648 0.17233665 0.30693412 0.03151501 -0.10435392
0.14864825 0.12290919 0.04005651 0.15341768 -0.0532181 -0.108500496 -0.034622844 -0.2930854
0.07159219 -0.29708168 0.102954745 -0.2916823 -0.015302587 0.24563725 0.1470604 0.18647046
0.186628 0.11038983 0.23698115 0.17728753 0.25286856 -0.07235597 0.052761175 0.1990725
0.24929091 0.048041075 0.020684233 -0.0932987 0.041502353 -0.019094996 0.16517583 -0.08057601
0.5258826 0.25617093 0.016107615 -0.06396798 0.23186085 -0.0044039274 -0.014276931 0.28966847
0.1526283 0.034860782 0.15456226 0.06096701 0.10437658 0.10687099 0.057284795 0.27546415
0.030585958 0.26229146 0.10711678 0.48057973 0.10572998 0.094139755 0.25795105 0.07836089
0.27833644 0.09266218 0.0965346 0.010476253 0.16102764 0.2658746 0.14023423 0.041361876
0.06967532 0.10075381 -0.025363905 0.106897354 -0.0530773 -0.05822596 -0.12941091 -0.15743455
-0.009913464 -0.14065899 -0.011675218 -0.19492744 0.051832635 0.018853972 0.05065914 0.12327027
0.13331734 -0.034165163 0.027002038 0.012677587 0.19398575 0.10999089 -0.16323856 0.07306718
0.09731259 -0.18464872 -0.07189755 -0.03381953 -0.07381863 0.10743686 -0.08455893 0.16292417
0.2441777 0.030830994 0.030299935 -0.14321622 0.004892418 0.00072014803 -0.07766101 0.30121645
-0.15025328 -0.0674953 -0.15057628 0.139692 -0.07415646 -0.12162868 0.037506614 0.0006346312
-0.020315025 0.15537408 0.05203351 0.20072384 0.031683847 -0.0635973 0.24490161 -0.025874324
0.24744047 -0.13961542 -0.06182483 -0.14363137 0.011175985 0.03636685 -0.12252004 -0.53793734
0.16278152 0.025138631 0.044363987 0.13815211 0.0043534725 -0.080941 -0.055217437 -0.3521521
0.31711873 -0.14456202 0.12736024 -0.25965652 0.14102146 0.045101136 0.024643032 0.14599209
0.30241063 -0.027801093 0.30447358 0.18890134 0.26677427 0.13560876 -0.20142426 0.2209227
0.19442686 0.12775756 -0.013201141 0.06626232 0.09379209 0.08717205 0.19207834 0.10672409
0.41664883 0.20471425 0.107703194 -0.040723905 0.07338017 0.16733223 -0.07092573 0.28047666
-0.070548154 -0.031170202 -0.052632768 0.054362852 0.21010375 0.033832017 0.007060398 0.20616263
-0.020665346 0.370577 0.2276749 0.47193545 -0.07761074 0.09156343 0.12530553 0.03605946
0.29508492 0.050829366 -0.07377784 0.07807943 0.21786095 0.15012345 -0.056616228 0.012458721

network.4.bias f4 [16]
00000000: 8eda 97be efa7 7bbe c3d2 9fbe 1f1f 54bd
00000010: bc51 e33e 97c6 22be f592 7fbe 741f a4be
00000020: dc74 d23e 7c96 db3c d648 0b3f 5d2a dbbd
00000030: 98ee 50be 0da8 19be 563f f33e e882 f23e
-0.29658931 -0.2457578 -0.31215486 -0.051787492 0.44398296 -0.15896069 -0.24958403 -0.32055247
0.41104782 0.026805155 0.54408014 -0.107014395 -0.20403516 -0.15005513 0.4750926 0.473655

network.6.weight f4 [2, 16]
00000000: 8ac1 9abe 48c0 83be a890 ddbd 7cbf a3be
00000010: 4d05 6c3e 5206 e3bc 4e32 b33c 4c67 aabe
00000020: f46e 993e 1677 febc 5241 d43e 2fbb e2bb
00000030: f00c a5bd 6633 89be 242b f73e 65f0 0e3f
00000040: 3054 683e a8a9 23be 8fcb d63c 4fd5 273e
00000050: 5e20 f6be 4672 ecbc c9f5 673e 19bc 8abd
00000060: 08c5 06bf 7c34 7dbd 5cba 09bf 28a5 a33c
00000070: 4eca 3b3d 10d2 393e 39ce b3be 1e27 cabe
-0.30225784 -0.25732636 -0.108186066 -0.31982028 0.23048897 -0.027712975 0.021874573 -0.33281934
0.29967463 -0.031062644 0.41456085 -0.0069192867 -0.08059108 -0.26797026 0.482751 0.5583556
0.22688365 -0.15982687 0.026220111 0.16389965 -0.4807157 -0.028863084 0.22652353 -0.06774158
-0.52644396 -0.06181763 -0.53799987 0.019976214 0.04584723 0.18146539 -0.35118273 -0.3948297

network.6.bias f4 [2]
00000000: f001 943e 8606 5cbe
0.28907728 -0.21486863
