models/german/rs/adam_epochs100_lr0.004_batch32_dropout0/model_49.pth (torch, 76569 bytes, 8 tensors)

network.0.weight f4 [128, 70]
00000000: d2fb 5abe cf03 d8bc ebd7 4b3d 229d c73b
00000010: 6e5f 243e ef12 183e 27fa d4bd 7bed 25bd
00000020: cb54 a73d bec1 04bd 58d7 b03c 5e67 96bd
00000030: 357b 173b b9c8 983d 4961 3e3d 82a1 e63d
00000040: 2827 04be dac4 9c3d b304 45be 337b 0e3e
00000050: eeca eb3d 7618 02be 2d23 aa3d 5db0 943e
00000060: 2135 c53c a28d 0a3e a2c1 f7bc 351c 0abe
00000070: 4b36 8bbd 8306 2c3e 8219 113e 14f1 853d
00000080: 4b89 8a3c 8b76 0ebc 9c2a 94bd 6728 4ebd
00000090: 9200 c9bd 7ac0 813d 512b 5c3d 7abc d93d
000000a0: 74ff b83c c3d4 893d c9b9 bfbd 1ada 1dbe
000000b0: 1f3a 823d 1353 0a3d 50e8 c23d 6739 fabb
000000c0: 0702 643c 9a28 41bc 42c5 2d3d 7a21 25bd
000000d0: 01c9 a5bd 61dc efbd 2e7b eabc b94a 123c
000000e0: a602 6d3c a15c 493d 2f19 193e 854f 9d3d
000000f0: c0fd 443b db70 b63d 6554 0bbe a306 2fbe
00000100: 21e2 523e 0f5d 82bc bcf5 0dbb bd8f 97bb
00000110: 9c61 1fbe 12c0 763e 70d5 783d 52b3 b4bc
00000120: a1dc 133a 7d93 1f3d fed6 1b3e 6632 ee3e
00000130: 0e21 5fbe 14ba 53be ad08 9bbd 8b8e 683e
00000140: 8750 6b3d 8d78 1e3e ce73 01be 6941 b7bc
00000150: 95e1 ba3d d0d9 053e 63eb 853d 4422 2bbd
00000160: 9c46 113d 6f8b 4f3e 5c3f 91be 6bf2 34be
00000170: f64c c23d 83e9 a0bd 6fb7 6e3e 534a 08be
00000180: bc7a 14be 7763 33bd eede f7bb aca2 213c
00000190: b651 563e c681 903e bbb6 563e eb37 5cbe
000001a0: 885e 063c a848 22be efec c43d 913b eebd
000001b0: 3252 8b3a 2ee5 f83d ec52 16bc 9632 2abe
000001c0: acd1 4ebd 551e 023a 644a 1ebb d43f 523e
000001d0: 0c19 a9bd 0cd1 c5bd 1fa5 803d e549 6f3d
000001e0: 6a06 6abe 5f95 82bd bf9f 8e3e ad39 7e3d
000001f0: 26e5 a7bd 591b 273e 451c 053d 012a 033d
00000200: 9f42 973d 3aac 333e 98ec c4bd 8653 293d
00000210: cfeb 313e f625 2abe 10ec 803d 1c26 883c
00000220: 7180 61bc ae05 043d 0464 a03c 0d60 703d
00000230: 68d9 45be 7d93 33bd 5699 483d 8e46 8abd
00000240: e395 663e a2bf ac3c 5b35 02be 0cc8 c93c
00000250: 8453 263e d68d 953d 3a76 1ebd 4e41 bfbb
00000260: 0a0c d83c d6ad a9bd edec 4bbd ef15 553e
00000270: 6b00 a33c 0f81 d63d 486e 91bd c1c0 c03d
00000280: fa84 0bbd 4d9e afbe aecf 863e caf4 8a3e
00000290: 489e 9e3e b6e8 a4bb 1a47 22bd 5085 8abe
000002a0: b47e eb3c bff7 953d c89e 353e 9038 a5bb
000002b0: 61e3 8d3d 04e4 333c de7b 413d 5afc 61b8
000002c0: b05a 80bd 7678 223e cf7e 0abe debf f83d
000002d0: 6fa4 1abe 08fe 5bbe 71bf fdbc 7bcd 8cbe
000002e0: 265f c2bd ba6b 8b3e 7360 443c 95da 603e
000002f0: 4b16 0dbd ffbf bdbd ef8a 033d 3d53 a43d
00000300: 191c fdbd b786 b73b 2f9f 083e 4ec8 86bd
00000310: 6e76 3d3d 0859 d8bd c2c1 a83c 60c7 5c3e
00000320: 0ca4 76bc 374f 623d 0d01 213d 5078 cbbc
00000330: 9330 1d3d bca8 69be 159c d9bd f21b 013e
00000340: 76b7 85be 4069 833d c9cc f639 c345 6f3d
00000350: b9e0 5d3c 852c d8bd 3ff8 47ba c519 8c3e
00000360: c157 a1ba a11d dcbc 36d9 3fbd 3522 8e3d
00000370: 3e5a 8a3d 453f 35b9 6098 d83d a75b e53d
00000380: a2f1 a2bc 2338 713d 7acc 463d 1a25 293d
00000390: 85f3 3abd 9b6f 993e 870e 62bd 593e c1bd
000003a0: 8b7d cbbc 130b 033d ecc9 8f3e 148c 40bc
000003b0: 38c9 a0bd 9d68 89bb 8bf7 04be 0689 443e
000003c0: 7c66 163d 13c0 7abb 7173 c93c 2ec8 39bb
000003d0: ec03 f3bd 42c9 1cbe 8496 0bbe cfda 323e
000003e0: 36ca f8bc 9b14 d73a 1fe9 de3c b1ab f43d
000003f0: f789 c03b 845b c6bc ee52 adbd 4b2b c7bb
-0.21385124 -0.026369004 0.049766462 0.0060917297 0.16052029 0.14850973 -0.10399275 -0.040509682
0.0817047 -0.03241133 0.021587059 -0.073439345 0.0023114209 0.0746016 0.046479497 0.11261274
-0.12905562 0.07654734 -0.19240074 0.13914184 0.11513315 -0.12704644 0.083074905 0.29040805
0.024073185 0.13530591 -0.030243699 -0.13487323 -0.06797465 0.16799359 0.14169887 0.06540123
0.01691117 -0.008695255 -0.072346896 -0.0503315 -0.09814562 0.0633554 0.053752247 0.10631652
0.022582747 0.06730034 -0.093616076 -0.1541523 0.06358742 0.033770632 0.09516966 -0.0076362374
0.013916499 -0.011789465 0.042424448 -0.04031513 -0.08094979 -0.11711956 -0.02862319 0.008928948
0.0144659635 0.049160603 0.14951013 0.07681183 0.0030058473 0.08908244 -0.13606413 -0.17092375
0.20594074 -0.015913514 -0.0021661362 -0.0046252892 -0.15564579 0.24096707 0.060750425 -0.022058163
0.0005640481 0.038959015 0.15218732 0.46522826 -0.21789953 -0.20676452 -0.07570014 0.22710626
0.057449844 0.15475674 -0.12641832 -0.022370057 0.091250576 0.1307137 0.06539037 -0.041780725
0.03546773 0.20268033 -0.28368652 -0.176706 0.094873354 -0.07857039 0.23312162 -0.13309602
-0.14499944 -0.04379603 -0.007564417 0.009865444 0.20929608 0.2822401 0.20968144 -0.21505706
0.008201249 -0.15848029 0.09615504 -0.11632455 0.0010629355 0.121530876 -0.009175044 -0.1662086
-0.050492927 0.0004963626 -0.0024153227 0.20532161 -0.082567304 -0.09659013 0.06281494 0.05842008
-0.2285401 -0.063761465 0.27856252 0.062066723 -0.081980035 0.16319026 0.032497663 0.03202248
0.07385754 0.17546168 -0.09615439 0.04133942 0.1737511 -0.16616043 0.06295025 0.016619734
-0.013763533 0.03223198 0.019578941 0.05868535 -0.19321215 -0.043841828 0.048974358 -0.067517385
0.22518115 0.021087471 -0.12715666 0.024631523 0.16242796 0.07302444 -0.03868697 -0.0058366423
0.026372928 -0.0828511 -0.049786497 0.20809148 0.01989766 0.10473835 -0.071011126 0.09411765
-0.034062363 -0.3430046 0.26330322 0.27139884 0.30980134 -0.005032624 -0.03961859 -0.27054834
0.02874694 0.073226444 0.17736351 -0.005042143 0.06928135 0.010979656 0.04723727 -5.38792e-05
-0.06267297 0.15866265 -0.13524936 0.12145971 -0.15101789 -0.21483624 -0.030975075 -0.2750052
-0.094908044 0.27230626 0.011985886 0.21958382 -0.03444509 -0.09265136 0.03211492 0.08023689
-0.12358875 0.005600776 0.13341974 -0.06581174 0.04625552 -0.10563856 0.020600203 0.2156043
-0.01505376 0.055251326 0.039307643 -0.024837643 0.038376402 -0.22818273 -0.106254734 0.12608317
-0.26116532 0.06416559 0.00047073353 0.05841614 0.013542348 -0.105553664 -0.0007628239 0.2736341
-0.0012309478 -0.026869597 -0.046838008 0.06940118 0.067554936 -0.00017285075 0.10575938 0.11199122
-0.01989061 0.058891427 0.048534848 0.04129515 -0.045642395 0.2996796 -0.055189636 -0.0943572
-0.024840137 0.031992983 0.28083742 -0.011752147 -0.078508794 -0.004193379 -0.12985055 0.19192895
0.03671883 -0.0038261458 0.02459118 -0.0028348076 -0.118659824 -0.15311149 -0.13631636 0.17466281
-0.03036986 0.0016409339 0.02721077 0.1194681 0.0058758217 -0.02421356 -0.08463083 -0.006078159

network.0.bias f4 [128]
00000000: 1fcb 61bd 0b67 973d 34bb a0bd 1db1 39be
00000010: c9f9 06be ebcd 2bbe 160e e6bd 7ddb f9bd
00000020: 16b0 a7be 62df 7ebe dfd0 80be 1161 60bd
00000030: d95b c6bd a763 f2bd a545 33bd cb4d 96be
00000040: ce94 95bd 6788 b5bd e881 0abd ffd4 44bd
00000050: 780f 30be 2e37 243d 16e9 b5bd 7863 af3d
00000060: 0ffa 7abe c6fe 22be 2550 7cbe 787d 98be
00000070: 2edc 71be 3f32 69be 5c13 7ebd 0d70 56be
00000080: 1a01 0f3d fa54 4cbe acf5 9ebd 65a0 64be
00000090: bc7e d33b 2c8c 7bbe 82eb 90be 34f3 92bd
000000a0: 8d2e 69be 27f0 a6be 891b 6cbe 0f74 20be
000000b0: 2178 2cbe 66a2 47be 780f 7ebd 4d49 1cbe
000000c0: 9167 b6bd 079c bebd c899 68be cdcb 35be
000000d0: 5078 88be a7a3 4bbe bfdb 29be 4380 8cbe
000000e0: d1dc 55bd b182 4dbe 8d3d 7fbe 64b0 a53d
000000f0: cc71 6dbd c762 053e 4972 b5be bde7 3dbe
00000100: 8f0d 9dbe 95a9 f8ba 7641 3fbd 4de0 2a3d
00000110: 5139 ab3d b849 0ebe 0dc2 34be 358e 13be
00000120: 3557 bfbc 398b 4cbe 61b7 eabd 3bf9 08be
00000130: afe2 00be 8545 1a3e 01ca 66be c0d5 a2bd
00000140: 7687 09be 47fe 37be 6851 91bb 3966 5dbe
00000150: 579b b7bc 6e9b 07be 4328 13be 19f5 26be
00000160: 410e 48be 1784 47be 754c 67be 8739 91be
00000170: cc0f 7dbd 5a81 9dbd 1e72 a5be 1883 4fbe
00000180: 11f2 58be ab9f 67bd e952 57be 9826 bebe
00000190: ff1e 87be 18d9 2bbe 1693 73be 0df3 893d
000001a0: a4ba 87be 0a4c 0a3d a971 eabc 849c 74be
000001b0: 66ba 3dbe 8c4c bebd a25f 90be 9a25 74be
000001c0: 7e18 90bc ee5f bcbe 7b19 f9bd 21ec d63b
000001d0: 2d9e f6bb f007 32be 3365 68be 98d5 a3bd
000001e0: 068e 35be fb8e 99bd 81dc 89bc 3ae1 21be
000001f0: b6e9 eebd 476a 163d 68ce 313e fb2a 5bbe
-0.055125352 0.07392701 -0.07848206 -0.1813397 -0.13181223 -0.1677777 -0.112331554 -0.12200067
-0.3275153 -0.24889901 -0.25159356 -0.05478007 -0.09685487 -0.118354134 -0.04376759 -0.29356226
-0.07303773 -0.08863907 -0.033815295 -0.04805469 -0.17193401 0.040091686 -0.08882348 0.08563894
-0.24509452 -0.15917501 -0.24639948 -0.29783225 -0.23619148 -0.22773074 -0.06203018 -0.20941181
0.03491316 -0.19954291 -0.07761702 -0.2232681 0.006454317 -0.2456519 -0.28304678 -0.071752936
-0.22771664 -0.32605097 -0.23057379 -0.15669273 -0.168427 -0.19495544 -0.06202647 -0.15262337
-0.089064725 -0.093071036 -0.22714913 -0.17753525 -0.2665429 -0.19886647 -0.16587733 -0.27441606
-0.05221254 -0.20069386 -0.24925824 0.080902845 -0.057969853 0.13025962 -0.35438755 -0.18545432
-0.30674407 -0.0018971438 -0.046693288 0.041717816 0.083605416 -0.13895309 -0.1765215 -0.14409716
-0.023357013 -0.19974984 -0.11460758 -0.13376324 -0.12586473 0.15065582 -0.22537996 -0.07950926
-0.1343058 -0.17968093 -0.004434753 -0.21621026 -0.022412939 -0.13242885 -0.14370827 -0.16304435
-0.19536687 -0.19483982 -0.2258776 -0.28364202 -0.061782643 -0.076906875 -0.32313627 -0.20264852
-0.21186091 -0.056548756 -0.21027721 -0.3713882 -0.26390836 -0.16782033 -0.23786578 0.067358114
-0.26509583 0.033763923 -0.02861865 -0.23887831 -0.18528137 -0.09291944 -0.28197962 -0.23842469
-0.017589804 -0.3679194 -0.12163063 0.0065589105 -0.0075261802 -0.1738584 -0.22694854 -0.07999724
-0.17729959 -0.074979745 -0.016828777 -0.15808573 -0.116656706 0.036722448 0.17363894 -0.21403114

network.2.weight f4 [64, 128]
00000000: 97f0 1abd 1973 c13d 0f3d e03c a53a 7a3c
00000010: 676b 573d af83 86bd 6b6c 853d d1da 2f3d
00000020: ff90 e63d a876 c43d 15b4 bfbd 0c59 f93d
00000030: 42cb dabd cafb 483d c02a a53d 2164 41bd
00000040: 87d5 6b3d b9f4 993e 9c45 0c3e 5311 1e3e
00000050: 3f60 843e 3186 463d 72e4 153e d33a dabd
00000060: a628 d23d b2c5 a0bd 71bb c63d 73e6 163e
00000070: a41b 743e a477 583e 79cd 543d 1734 0d3e
00000080: 4c6f 63bd 938f 1f3e 5486 da3d 965e 603e
00000090: 227d b9bc 2111 e93d 8f38 0dbd ba61 a03c
000000a0: 8d1e 803d 6292 343e bed4 4dbe d1be 9abd
000000b0: ecdb 793e b9f3 f6bd 7acf 7fbc d8d5 493e
000000c0: b7eb 753d 781d f73d dacf 573e 674d 613d
000000d0: ee42 be3d fee1 1e3e 568b c53d 9172 2d3e
000000e0: 716d 24bd ee5d 343d 78b2 323e 3459 a1bd
000000f0: 6a9f 76be b33b 3abe 2a64 463e feb3 863d
00000100: c769 603d 2d1f 1cbe 77c8 19be c3b7 463e
00000110: 9086 2ebc 2a48 153e 206a 0cbd eae7 153d
00000120: 1f20 18bd 6842 033e c7fc ab3d c0d5 9fbc
00000130: d9ae 093e e046 f6bd bdc0 b33d 8126 113e
00000140: 8e56 3e3e 3de7 49bb 5a8e 1a3e ceb8 173e
00000150: 4bae 32bd 769c 5e3e 01a2 9c3c 2b0e a6bd
00000160: 9dff 74bd 55d3 a03e 2a28 f8bc 7527 083e
00000170: eb41 54bd 290c 0f3e bc7c 4d3e 8395 263e
00000180: f0d9 9c3d 068a b63d f5f3 c9bc 5b43 e3bd
00000190: cd4d 563e 9d0d a6bd 5c93 5b3e 9b27 dd3d
000001a0: 04df 623e f3be 8bbd 866a c23d f3de 4c3e
000001b0: adda 233e 5654 043e 7b55 983c 9002 5f3c
000001c0: 8a87 ef3d 5b3f ff3d 68d4 f93c f287 02bb
000001d0: e3ae e43d 84fe ae3b 66ed c83c 3359 84bd
000001e0: 8222 2c3e 44fe 7bbd 6e32 a43d 7951 d13c
000001f0: 5974 cd3d 5691 d33d 98c8 e4bd 42d8 b23d
00000200: 6f1c a4bb 97e0 443d 0d92 febc e0f9 cf3c
00000210: d655 e4ba 64d4 793c e4e3 5a3d fc65 503c
00000220: 7f8b 02bd 0007 053d e226 d6bc 83e1 1f3e
00000230: 892f bebc 6016 9e3c edd0 a33d e2f9 4cbd
00000240: 0621 383d a8e1 9f3d 60e9 5f3d af82 6f3d
00000250: 19b5 003e 9ba2 c43d 627e ae3d 698b 3cbe
00000260: e2d0 e73c 05bc 543d 52d9 4f3b 0acc 8f3d
00000270: c253 1f3d de1e c53d dc20 323d c7e7 dbba
00000280: 11a6 373d b8e0 1e3e 38a4 323d a28c 173e
00000290: a91c fdbd 1571 183e 5afb 77bd 3db7 b13d
000002a0: 2a77 cc3d e981 1e3e db05 aebd 3595 2fbe
000002b0: bee4 f83d d10d f6bd 510f ac3d 15b9 453d
000002c0: 9299 eb3d 2ac6 233d 663a e63c b434 c13d
000002d0: e410 c13d ad8b 673d 4c92 f43c 8bc7 d83d
000002e0: a429 d9bd f9de 103d 056e 123e 75fc cfbc
000002f0: a667 ccbd b1c1 e1bd eed8 4d3c 78a4 babb
00000300: 1647 1cbd d6b3 c6bd 68f3 2abe 38e7 173d
00000310: 73c8 a03c 9443 823d 190d f63d 5fa0 d33d
00000320: 6c6a b93d 9990 eb3d 5bc1 a43c da8b de3b
00000330: 2fcc fc3d 443f b7bd 229a e53c 8767 51bc
00000340: 2573 2c3e 0289 6cbd f369 c43c 1940 143e
00000350: 7388 de3c 695d d83d 2a12 193d 3820 efbd
00000360: 6db3 69bd 9cb1 2f3e e772 cbbd 91c5 d0bc
00000370: aff4 77bc e087 94bc a346 493d 9099 233e
00000380: fef0 323d 864a 0e3d 1bfa 603d 7da0 4fbd
00000390: bceb 173e 9738 973d c88b 513d 3e65 4c3e
000003a0: 2a89 5cbc 7fd2 2bbe dced 39bd 6605 9d3d
000003b0: 95ba d43d 3d80 b43d fe58 343d fcf0 133d
000003c0: 41ed a8bc 95a6 8c3d fb1c 2f3e 1675 d93c
000003d0: 871c 203e ede0 b93c d3d8 7c3d 74b8 863c
000003e0: 0dda 933d 4368 cc3d 75c5 113e e8e9 ad3c
000003f0: 271c b03d f0cb 3f3e 64a4 20be 892d d63d
-0.0378271 0.09445781 0.027372865 0.015272771 0.05259266 -0.065680854 0.0651482 0.04293329
0.112581246 0.095929444 -0.0936052 0.121751875 -0.106832996 0.04906825 0.080647945 -0.04721463
0.057576682 0.3006952 0.13698429 0.15436296 0.2585468 0.04846782 0.14637926 -0.10655751
0.10261659 -0.078502074 0.0970372 0.14736347 0.23838669 0.2113939 0.051953766 0.13789402
-0.055526063 0.15582113 0.10670152 0.21911082 -0.022642676 0.1138022 -0.034477767 0.01957785
0.06255827 0.17633966 -0.20100686 -0.075559266 0.244003 -0.12058205 -0.015613431 0.19710481
0.06003925 0.120661676 0.21075383 0.055005457 0.092901096 0.15515897 0.09645717 0.16938235
-0.040143434 0.04403489 0.17450893 -0.07878342 -0.24084249 -0.18186836 0.19374147 0.065772995
0.054788377 -0.15246268 -0.15017878 0.19406037 -0.010652199 0.1457831 -0.034280896 0.036598124
-0.037140008 0.128183 0.08397823 -0.019511104 0.13445605 -0.12025237 0.08776996 0.14174844
0.18587705 -0.0030807995 0.15093365 0.14816591 -0.04362325 0.21739373 0.019120218 -0.08108171
-0.059814084 0.31411234 -0.03029259 0.13296302 -0.051820677 0.13969482 0.20067114 0.16267972
0.07658756 0.08913045 -0.02465246 -0.110968314 0.20928116 -0.08108065 0.21442932 0.1079857
0.22155386 -0.0682353 0.09492974 0.20006923 0.16001387 0.12922797 0.018595448 0.013611451
0.11695774 0.12463256 0.030496791 -0.0019917456 0.111661695 0.005340399 0.024527263 -0.06462326
0.16810039 -0.061521783 0.08017431 0.025551545 0.10031957 0.10330455 -0.11171073 0.08732654
-0.0050082724 0.048065748 -0.031075502 0.025387704 -0.0017420601 0.015248392 0.05343999 0.0127196275
-0.031871315 0.03247738 -0.026141588 0.1561337 -0.023216026 0.019297779 0.07998834 -0.050042994
0.04495337 0.078067124 0.054665923 0.05847424 0.12569083 0.09601327 0.08520199 -0.18412556
0.028297845 0.051937122 0.0031715226 0.07021339 0.038898237 0.09625028 0.04348837 -0.0016777449
0.044836108 0.15515411 0.043613642 0.14799741 -0.12358982 0.14886887 -0.060542442 0.08677528
0.09983666 0.15479244 -0.084972106 -0.17146762 0.12153004 -0.12014354 0.08401359 0.04827221
0.115039006 0.039983906 0.028104018 0.094338804 0.0942705 0.05652969 0.029854916 0.10584935
-0.106036454 0.035368893 0.14299782 -0.025388936 -0.09980707 -0.11023272 0.012563927 -0.0056958757
-0.03815373 -0.0970227 -0.16694415 0.03708574 0.019626832 0.06360546 0.12014217 0.10333323
0.090535015 0.11502189 0.02011173 0.006791574 0.123436324 -0.08947614 0.028027598 -0.0127810305
0.16840799 -0.05774785 0.023976302 0.14477576 0.027164673 0.105646916 0.03737084 -0.11676067
-0.05705588 0.17157596 -0.09934025 -0.025484832 -0.015134021 -0.018131196 0.04913963 0.15976548
0.04368686 0.03473904 0.05492602 -0.050690163 0.1483602 0.073838405 0.051158696 0.19960496
-0.013460437 -0.16779517 -0.045392856 0.07667045 0.1038715 0.08813522 0.044030182 0.036118492
-0.020620944 0.068677105 0.17100899 0.026545089 0.15635882 0.02269026 0.061730217 0.016445376
0.07219324 0.09980824 0.1423548 0.0212297 0.0859912 0.1873014 -0.1568771 0.10457904

network.2.bias f4 [64]
00000000: dfdc 01be 6701 d33c 44fc c3bd 979d 4bbd
00000010: 1a3c 17be e82f d3bd 6aa1 02be 8726 f4bd
00000020: a675 e3bd 268f d5bd 6139 e1bd b111 adbd
00000030: ab0f 8c3a 0e8c bdbd 8532 c5bc b938 23be
00000040: df84 1abe c50a f93b d272 1cbe 5efc 60bd
00000050: 145f 50bc cba1 01bd 015e 2cbe 2dc3 9f3e
00000060: 631d 6cbd 7e1f c4bd 0bdc 0ebe 9624 6f3a
00000070: 3fbf ecbd f02b d8bc d23b 593e 878e 223e
00000080: 3702 3c3d da22 0bbe 71ae 05bd 0b42 0c3d
00000090: c0c6 01be 8b0b ddbd 26e0 0abe 513d c43d
000000a0: 6eef 81bd 5cae 24bd 1fda 22be dbdb 3fbe
000000b0: 122c e4bd f49e 4c3e 2237 bfba c494 f3bc
000000c0: 3106 b33e e205 d5bd 72bd 44be 71c1 08be
000000d0: bef1 7cbd 2448 73bd 7c71 0ebd f401 b13e
000000e0: 158c 723e 6fe7 f43d 0d1c 47bd 54f1 a4bd
000000f0: 085e d9bc fc3d f4bd 0a53 48be d6d3 00bd
-0.12681912 0.025757505 -0.095696 -0.049710836 -0.1476902 -0.10311872 -0.12756887 -0.11921411
-0.11106424 -0.10427694 -0.10997272 -0.0845064 0.0010685822 -0.09255229 -0.024071941 -0.15939607
-0.15089749 0.007600161 -0.15278175 -0.054928176 -0.012717981 -0.03164844 -0.16832735 0.31203595
-0.057645213 -0.09576319 -0.13951127 0.0009122578 -0.11559915 -0.026388139 0.21214226 0.15874682
0.04590055 -0.13587514 -0.032637063 0.03424267 -0.12673473 -0.10793217 -0.13562068 0.09582008
-0.06344496 -0.040205345 -0.15903519 -0.18736212 -0.11141218 0.19982511 -0.0014588574 -0.029734023
0.3496566 -0.10401513 -0.19212893 -0.13355042 -0.06175398 -0.05939497 -0.034776196 0.34571803
0.2368625 0.11958205 -0.048610736 -0.08053842 -0.026534095 -0.11925885 -0.19562927 -0.031452022

network.4.weight f4 [16, 64]
00000000: 423f 613e 6a6a 293e 9791 8ebd 4fd9 5dbd
00000010: 3afd 7d3e 54fb 4c3e 4643 acbc 09d0 1d3e
00000020: 6b78 9cbd a634 373e 4cd8 5dbb bdd3 9a3d
00000030: 1db7 89bd aae4 bd3d 6a11 3fbd 0c00 dd3d
00000040: c654 613e 2577 dbba 1f8a 863d d59f d83d
00000050: fde6 193d fed8 5b3d 25ce 3a3e 5482 d8bd
00000060: 560c 4c3e f887 393d 70fc f53d 4023 c4bb
00000070: 7b71 093e 57bb 753e dd9e b73d 7520 883d
00000080: 7925 e0bc 3437 9f3d c553 3c3e 0f58 073e
00000090: d378 3a3e 52e5 953e b165 0abc d929 693d
000000a0: 0b82 0b3d 24bb 373e 978a d13d 2fa3 a43d
000000b0: c483 853e 3885 7a3d 9cee 2b3e a166 673e
000000c0: 85a7 54be 3b4f 5d3e 2b53 6a3e 6bdf ca3d
000000d0: f2d3 93bd 85e4 03bd 9130 353e d180 73be
000000e0: 2fd7 253d c596 363d 6712 463e 98d0 83bd
000000f0: 337d 5b3e 4732 fcbc b99d 6a3e 0948 da3d
00000100: dc3b f2bc 2935 c438 b4e9 e13d 3b01 83bd
00000110: d04e 903d 09ca 27be 308a e93b ede7 02be
00000120: 2276 453c 96a7 3a3d de33 18bd 11e2 23bd
00000130: 45f1 86bd dd3b 8abd faf4 f7bd 240d 25be
00000140: 11cb 6f3c 030c 753d 848b 5abd 4098 763b
00000150: a622 b2bd 7e18 f9bd f761 a13d 905f f5bd
00000160: 0d5a 84bc c631 8b3d 1e67 47be e061 a93d
00000170: 51e6 eebd cb26 64bc 2d43 833d 3273 fbbd
00000180: a638 c3bd 8f27 2e3d 5344 c8bd e8b9 08bd
00000190: d2c0 acbc cafb 05be 4129 c53d 7a0d 85bd
000001a0: ee58 183c 3dbb 3abd 2a9e 03be 97f3 033d
000001b0: d282 2e3d 5256 0b3d 14d8 41bd a73a 22bd
000001c0: 26b4 97bd 2e5d 80bd 574c bebd 5b84 433d
000001d0: e74a b1bd 337f 94bd 6dd9 37be efb3 a6bd
000001e0: 701c 2abe 0dcd 9039 c682 7ebd fcdf a33c
000001f0: 76ad 86bc 1dff a53d 6e5d d3bc d753 f6bd
00000200: 109c 53bc cb03 95bd bc1e 5dbd 9a54 b1bd
00000210: f656 b43d 5cdd 0cbe 228a 99bd ae11 27bd
00000220: 8a7c 483d 5cbf f7bd e89f fdbd b5d4 abbd
00000230: 98ac 9abc 35c2 d5bd f2e6 14bd 195f bcbd
00000240: 1123 fb3c 8a24 0abe b2b2 843d 9e5a b7bc
00000250: ac9c 40bd 4706 953d 135f 05bd 905a b6bd
00000260: 8383 473d 5cb5 a53d 884c 95bd a0e5 ddbb
00000270: cee4 713d 8c0d a9bd 188b ddbd 73d5 12be
00000280: 9c3f 7bbd 80e9 1cbd c447 573d b5ea 183c
00000290: 6636 883c 0341 e6bd 5464 833d fa62 433b
000002a0: dbc6 f03c 9fa3 29bd 5f18 f5bd 109c a13d
000002b0: 9c09 afbd 8430 40bd fdea 0abe 7a73 b13d
000002c0: 85bd d3bd a026 90bd 6084 b53c cbde c53b
000002d0: a374 b73d 3061 18be 99b7 91bd 98c1 9dbd
000002e0: 527d 9fbd 333e e1bd 7376 a4bd 69b3 b8bc
000002f0: 76b2 c43d c047 ffbd 9f97 75bc 79b2 e0bc
00000300: d3c1 0b3d d8f8 fe3d 700c 06bd 5732 e6bd
00000310: 38cd a23e 83ca 163e 004c 143e 3f5e 343c
00000320: 1607 9fbd 1d6f 843e 9bc9 a83d b302 883e
00000330: fd6d 563d 8d40 993d 9812 963c f1b0 8f3e
00000340: 6b86 5d3e 2308 09be f1ff 263d e41b 583e
00000350: 5c06 8a3e edff 173d cef9 123e 7a88 0b3d
00000360: 2411 183e 08f6 4c3d a9ea de3d 0b53 ac3d
00000370: 92c3 123e 8b00 883e 2318 b9bd e0dd 363e
00000380: 14ac c93c e65b 853e 0544 dc3d 5114 863d
00000390: 7586 673e 0b76 cf3d 2d60 33bd e7c4 6f3e
000003a0: dcb7 943d d338 a53c 8835 8f3e de03 493e
000003b0: d64f 7d3e 2809 0c3e 7734 0a3b ea08 713d
000003c0: eb77 f5bd e3eb dd3d f942 2a3e 971f cf3d
000003d0: 17f6 173e 869b 06bc 802b c33d 8436 7bbe
000003e0: 734c c83c c2ae 5abd ca87 01bd 1d76 e3bd
000003f0: 4e7d 643c e41f 683d 9d2a ff3b 977f 4a3d
0.21996787 0.165445 -0.06961363 -0.05416232 0.2480363 0.20017749 -0.021028172 0.1541139
-0.076401554 0.17891178 -0.0033850847 0.07559917 -0.06724379 0.0927213 -0.046647467 0.107910246
0.22004995 -0.0016743882 0.06569313 0.105773605 0.037573803 0.053673737 0.182427 -0.10571733
0.19926581 0.045295686 0.12011039 -0.0059856474 0.13422196 0.23997246 0.08965848 0.06646816
-0.027361618 0.07774201 0.1839133 0.13217185 0.18210153 0.2927652 -0.008447097 0.056924675
0.034059566 0.17942482 0.10231512 0.08038937 0.26077092 0.061162204 0.16790241 0.22597744
-0.20767029 0.21612255 0.22883289 0.09905895 -0.0721816 -0.032200355 0.17694308 -0.23779608
0.04048842 0.04457738 0.19342957 -0.064362705 0.21434478 -0.030785693 0.22911729 0.10658271
-0.029569559 9.35591e-05 0.110309035 -0.06396719 0.07046282 -0.16385664 0.007127069 -0.12783785
0.012052091 0.04556998 -0.03715884 -0.040010516 -0.06588987 -0.06749699 -0.121072724 -0.16118294
0.014635817 0.05982591 -0.05335571 0.003762737 -0.08698015 -0.12162875 0.078800134 -0.11981118
-0.01615622 0.06796603 -0.1947293 0.08270621 -0.11665023 -0.013925265 0.06409297 -0.12277831
-0.09532289 0.042518195 -0.09778657 -0.03338042 -0.021088038 -0.13084331 0.09627009 -0.06496711
0.009298546 -0.04558872 -0.12853304 0.032214727 0.04260523 0.03401787 -0.04732521 -0.039606716
-0.074074075 -0.062677726 -0.092919044 0.047733646 -0.086568646 -0.07250824 -0.17954035 -0.08139788
-0.1661241 0.00027618595 -0.062136434 0.020004265 -0.016440134 0.081052996 -0.025801387 -0.1202771
-0.012915626 -0.07276114 -0.05398439 -0.086587146 0.08805649 -0.13756317 -0.0749705 -0.040788345
0.048946895 -0.12097046 -0.12384015 -0.0839018 -0.018881127 -0.10437433 -0.03635306 -0.09197826
0.03065637 -0.13490501 0.06479396 -0.022382077 -0.047024414 0.07276588 -0.032561373 -0.08903992
0.048709404 0.08091232 -0.07289988 -0.006771758 0.059056096 -0.08254537 -0.10817546 -0.14339237
-0.06133996 -0.03830862 0.052558675 0.009333302 0.016627502 -0.11242869 0.064156204 0.0029813633
0.029391697 -0.041415807 -0.11967539 0.07891095 -0.08546755 -0.046921268 -0.13566203 0.086646035
-0.10338882 -0.07038617 0.022157848 0.006038522 0.089577936 -0.14880824 -0.071150966 -0.07702941
-0.07787575 -0.10998192 -0.08030405 -0.022546487 0.09604351 -0.12464857 -0.014989763 -0.027428852
0.034120392 0.12449807 -0.032726705 -0.1124007 0.31797194 0.1472569 0.14482117 0.011008798
-0.077650234 0.25866023 0.08241578 0.2656456 0.052350987 0.07483015 0.018319413 0.28064683
0.21633308 -0.1338201 0.04077143 0.2110439 0.26957977 0.037109304 0.14353105 0.0340657
0.14850289 0.05003932 0.108846016 0.08414277 0.14332417 0.26562914 -0.09037807 0.17858076
0.024618186 0.26046675 0.10755161 0.06546844 0.22609885 0.10129937 -0.043792892 0.23414956
0.07261631 0.020168697 0.2797053 0.19630381 0.24737486 0.13675368 0.00210884 0.05884639
-0.11985763 0.108360074 0.1662711 0.10113447 0.1483997 -0.008215791 0.09529781 -0.24532515
0.024450516 -0.05338932 -0.03162364 -0.11106513 0.013945891 0.05667104 0.0077870623 0.049438085

network.4.bias f4 [16]
00000000: ba91 4f3d 20fe f4bd fb1b 65bd e1e6 95bd
00000010: 9b48 65bd 9ebc 963c 5fa5 b43e ea19 90bd
00000020: c943 2ebd d1da 53bd 50d6 acbd 30ad cc3d
00000030: 6346 4e3d fdd9 a53e 9394 eb3b ee47 a8bd
0.050676085 -0.11962533 -0.055934887 -0.07319427 -0.055977445 0.018400487 0.35282418 -0.07036193
-0.042545114 -0.05172235 -0.08439314 0.099939704 0.050360095 0.32392874 0.0071893423 -0.082168445

network.6.weight f4 [2, 16]
00000000: 3052 bcbe 7c33 8c3c 9d10 033e 9ce0 05be
00000010: e3e0 303e 6176 013d 39f8 c33e b141 c23c
00000020: 8d09 4a3e b9f9 8cbe fec1 c5be 39e2 b13e
00000030: 5636 023d 9949 8c3e a223 85be d663 953d
00000040: 96c3 a23d 6001 abbd 4f5d 3f3e e8d0 7b3e
00000050: dfac 3f3e c230 143d 79ba 10bf 50ee b03e
00000060: c84c 1ebe 9d9e 5cbd bda4 8b3e 299a 8bbe
00000070: 08d2 633c a46c 28bf 5084 593e 1b63 3f3e
-0.36781454 0.017114393 0.12799306 -0.13073963 0.17273287 0.031607036 0.38275316 0.023712965
0.19730206 -0.27534273 -0.38624567 0.34742907 0.0317901 0.273999 -0.26003748 0.07294433
0.07947461 -0.08349872 0.18687938 0.2459141 0.18718289 0.03617931 -0.56534535 0.34556818
-0.15458977 -0.053862203 0.27274123 -0.27266052 0.013905056 -0.6579077 0.2124188 0.1869015

network.6.bias f4 [2]
00000000: c42d 053e 6d1c 45be
0.1300574 -0.19249125
