models/gmsc/rs/adam_epochs20_lr0.0004_batch32_dropout0/model_238.pth (torch, 45859 bytes, 8 tensors)

network.0.weight f4 [128, 10]
00000000: e76c 4c3e 56ae 1b3e 2340 f63e 5238 ccbe
00000010: 092e 96be 6992 abbd c04c 123e 4c13 233e
00000020: 5ad8 bfbd 50ef 69be 0a26 003f fa1d 0fbb
00000030: 6070 dfbd 0276 903e 98e4 2a3d b971 b3be
00000040: 2256 0c3e a64e 13bd 6a95 da3e a00e 173d
00000050: eb77 e13c fc7e 8b3e 5edd 50be a7d4 cabd
00000060: 7f8e 913e 18c1 403e 201e a4bb 3ab8 f83b
00000070: f134 cbbe 3759 463e b146 143e fae1 8dbe
00000080: 8583 db3e d381 e23b af46 923e 9c18 303e
00000090: 1baf e33e 668f 5b3e 4e34 173e 891b 01be
000000a0: edb5 523d 877d adbd 1dc8 7f3e e11b 403e
000000b0: 03d4 87be 9298 19be 1ed8 a53e 8440 3abc
000000c0: 9175 4f3d a495 b1bd 1170 c33e 5c5e 93be
000000d0: b0fc 11be f20a d6bd 27d2 52bd ba1e 073e
000000e0: ffc8 853e bc8a 0e3e 2258 88bc 79a2 eabd
000000f0: 7eed 5a3d 0ddb d73d 4efc ac3e bfe8 a0be
00000100: a424 31be 5737 0b3d 99ba 0a3f 2f78 06be
00000110: 0236 bb3e 0828 40bd caac 6a3e 0d91 da3c
00000120: 2db3 babc 23d1 423e b47a 793e 651f 8fbe
00000130: 70ea 173f a4c2 a0be 9a6b b03e a745 01be
00000140: 57f8 a2be 4375 683e 3259 db3d 0163 1f3e
00000150: 4618 103d fe2e c53d e8a1 d03e 6620 94be
00000160: 3fc2 193e 1fe3 2cbe 9c94 a13e d230 4b3d
00000170: ebad 453e 7cf7 92bc d5b6 94be 5373 253e
00000180: 3f04 bf3e ffa9 6cbd 499d 423e 415b 22bc
00000190: 11fc e0be 0d79 873e a1b8 03bf d16a 0a3e
000001a0: bdd7 9c3e f360 19be 47c7 f1be 6ee6 68be
000001b0: b751 16be d31d 1fbe 2748 c33e d4ca c43d
000001c0: a720 cf3d 82a0 30be f667 1bbe 49f6 4e3d
000001d0: 799a 993e dd89 a33e a748 f33e 6bda 433e
000001e0: 86f1 ce3e 8a38 a53e 6418 a1bd 591a 853e
000001f0: 8c01 9a3e 0844 53bb d486 aa3e 30a0 25be
00000200: 7e09 033f 272f c4bd 8d86 12bd 8099 88be
00000210: a519 adbd 4184 e2bc e7bc c7be 9dfa d73d
00000220: 2fdb fc3e 8d97 f93d acda 783e a41c 093e
00000230: 5db7 ca3e 4ac4 503e 2c5e 063f ba4e 763e
00000240: a059 83be 562d d4be 8c32 033f e7d0 cb3c
00000250: 549b 0b3e 5b00 863e 5b8f d73e d571 ddbd
00000260: 436e 0b3f b5b1 d53d 3fd3 313e 1bdf 64be
00000270: 51a8 113d 65ed b0be 60ac a23d 2514 1d3e
00000280: cfa3 26bd f324 b03e 9dd4 233e 345b 463e
00000290: f1ab 463d a667 5f3d 4392 0c3f 0210 7dbe
000002a0: f325 de3e 3015 0abe 5784 cd3e b3eb 8c3e
000002b0: c2c4 473e 30e5 abbd 2628 8a3e d03e ab3d
000002c0: 0517 d53d 4136 043e 0a70 cc3e 71e6 91bc
000002d0: 2182 0e3d 20f4 14be cda6 c23e 4c70 1d3e
000002e0: 79ba f93c 9070 2abd 26c5 c43d f743 f6bd
000002f0: 23a7 bc3d a933 5e3c b4e7 c1be 1f52 4cbe
00000300: a8c0 88be fcbe 1ebe 996e 083e 9431 663e
00000310: 8834 44be 686b aabd 70f1 01bf 253a 0c3e
00000320: d218 803e 836f 113d 60cb c23d 89a0 823e
00000330: b98a eabb 889f 7cbe d637 3e3f 8391 55bd
00000340: 7c5f 3c3d 8569 063d e5c5 a63e 54ae c83c
00000350: a489 f23e df0a 323e 23fe f2bd 5c43 833e
00000360: 1473 ca3e ef9d 8bbd 685f 903d 6529 b23c
00000370: 53ce 813d 4dc3 38be 4614 d33d 9be6 9ebe
00000380: 5023 d4bc 3612 a63e fa34 913e ea9e 433d
00000390: f9bd 6a3e 8307 6fbd 9d87 693e bc48 8cbb
000003a0: bc6e 603e 30b6 98be cd65 ad3e 1877 81be
000003b0: 511e c53c d4a7 7f3e 7013 c73e 1540 1ebe
000003c0: 708b f03d cc3a 923e cb33 3cbe e31e 723e
000003d0: 48c4 dd3b 9aba 64bd 515e 0fbe 7956 58bd
000003e0: be7c 763d 89d7 f23d f113 963e fd91 233e
000003f0: e2c9 0d3f 6286 75be db25 2e3e 1fae 193d
0.19963418 0.15203223 0.48095807 -0.3988672 -0.29331997 -0.08377535 0.1428709 0.1592533
-0.09367438 -0.22845197 0.50058043 -0.0021837936 -0.10910106 0.28215033 0.04172191 -0.350477
0.13704732 -0.035963677 0.4269212 0.03687918 0.027523002 0.2724532 -0.20396945 -0.099038415
0.28429028 0.1882366 -0.005008474 0.007590321 -0.3968883 0.1936997 0.14480092 -0.2771147
0.4287378 0.006912449 0.28569552 0.17196888 0.44469532 0.21441421 0.14766046 -0.1260816
0.05144303 -0.08471208 0.24978681 0.18760635 -0.2652894 -0.14999607 0.32391447 -0.011367921
0.05064923 -0.0867112 0.38171437 -0.28782928 -0.14256549 -0.104513064 -0.05146995 0.13195315
0.2612991 0.1392011 -0.016643587 -0.114567704 0.053449146 0.105398275 0.33786243 -0.3142757
-0.17299134 0.033988323 0.54190975 -0.13131784 0.36564642 -0.046913177 0.22917476 0.026680494
-0.022790516 0.19025092 0.24363214 -0.2795364 0.593421 -0.313985 0.34457093 -0.12624227
-0.31830093 0.22700982 0.10710372 0.1556511 0.0351794 0.09628104 0.40748525 -0.28930968
0.15015505 -0.16883515 0.31558692 0.049607106 0.19304626 -0.017940275 -0.2904574 0.16157274
0.37307927 -0.05777931 0.19005312 -0.009909452 -0.4394231 0.26459542 -0.51453596 0.1351731
0.30633345 -0.1497839 -0.4722235 -0.22744152 -0.14679609 -0.15538721 0.38140985 0.09608999
0.1011365 -0.17248729 -0.15176377 0.050527845 0.30000666 0.3194112 0.47516367 0.19126289
0.40418643 0.32269698 -0.0786598 0.25996664 0.30079305 -0.0032236595 0.3330599 -0.16174388
0.5118636 -0.09579306 -0.03577285 -0.2667961 -0.08452157 -0.027650954 -0.3901131 0.105458476
0.49385974 0.12187109 0.24302167 0.13389832 0.3959302 0.20387378 0.52487445 0.2405347
-0.25654316 -0.4144084 0.51249003 0.024879886 0.13633472 0.26172146 0.4210156 -0.10812727
0.5446512 0.104342856 0.1736574 -0.22350733 0.03556091 -0.34556118 0.07943034 0.15339716
-0.040683564 0.3440319 0.15999074 0.19370729 0.04850382 0.054542206 0.5491068 -0.24713138
0.43388328 -0.13484645 0.4014003 0.27523574 0.19508651 -0.083933234 0.26983756 0.0836159
0.10404781 0.12911321 0.3992923 -0.017810078 0.03479207 -0.14546251 0.38017884 0.15374869
0.030484425 -0.041611254 0.096079156 -0.12024682 0.09211566 0.013562121 -0.37872088 -0.19953202
-0.26709485 -0.15502542 0.1332344 0.2247985 -0.19160664 -0.08321267 -0.5075903 0.13694055
0.25018936 0.035506736 0.09511447 0.25513104 -0.0071576503 -0.24670231 0.7430395 -0.052140724
0.0459895 0.032815475 0.32572857 0.024497189 0.47370636 0.1738696 -0.11864879 0.2563733
0.39540923 -0.06817233 0.07049447 0.021748254 0.06338181 -0.18043251 0.10306601 -0.31035313
-0.025895745 0.3243577 0.2836073 0.047758974 0.22924031 -0.058356773 0.22805639 -0.0042811316
0.21917242 -0.29826498 0.3386673 -0.25286174 0.024062308 0.24966365 0.38882017 -0.15454133
0.117453456 0.28560483 -0.18379132 0.23644595 0.0067677833 -0.05584202 -0.14000823 -0.05281684
0.060177557 0.11857516 0.2931209 0.15973659 0.55386174 -0.23977044 0.17006628 0.03751957

network.0.bias f4 [128]
00000000: 743b 63be 3eec 6abe d6b2 04be 241c 7dbe
00000010: 51de fb3d cfb4 183d 2149 723e dda0 9abe
00000020: 3aa3 69be 3d62 d43d 3bac 80be acb6 923e
00000030: 8123 5a3e 3b72 49be 6f0a d93c 8ee4 59be
00000040: 9faf 693e d35d 8b3d 893e 8b3e 59ec e73d
00000050: 31b8 aebd b8d3 ce3e 07ec 5c3e c3dc 763d
00000060: 34d2 ea3d ee81 2ebe 8359 35bd d663 89be
00000070: c3df 563e eaf8 60be 82f2 973b d38c 9bbd
00000080: fff0 bc3e 4dc8 823e cd1c 6ebe 32d2 aebe
00000090: cfc9 ba3e 6411 933e 9499 cc3b 10aa c83d
000000a0: 39cd 683e 7804 453e 74b9 433e a476 73bd
000000b0: d5f6 8cbd b9fb a73e b89e 4dbc b7a6 763e
000000c0: 9458 ed3d 89a9 883d 8b4e 4b3e 3fc3 3a3d
000000d0: 0ed6 f33c 929c 81be dfca a63d 78dd 853e
000000e0: c855 f33d d53e bb3e 4104 e03d 8762 d63d
000000f0: 289c 7ebe 419c b43d ad1c 86be 8285 5b3d
00000100: 839f aabe d391 e1bd 6924 68be 5d1a 893e
00000110: 9c5f 2f3e 58a0 d3bd 6eac 85be fd42 df3d
00000120: 2a8b a23e 7bf6 783e d1c5 ed3d 6158 7ebe
00000130: b74e 553e 4e7c 5e3e 709d b03e bb43 923e
00000140: df8e 553e e9d8 9a3e 6998 09be c85f 803e
00000150: 8114 863e 9272 27be 63fe 93be 5e1e 633a
00000160: 13fd a3be b599 87bd 92ab 3c3e 2a1f 183e
00000170: 96af 27be 8f49 11be 079f dd3c a34a 87bd
00000180: ba29 d0bd 7423 973d 50fb e4bd fe33 063e
00000190: 4e8c 073d 053d 133e 7817 0a3e 1e10 cf3e
000001a0: e91a 003e c044 74be 41a9 b63d fbba 1ebe
000001b0: cea4 163e 2003 afbe 0c24 9dbd b0f3 f1bc
000001c0: 9c05 9dbe a881 713d e1db 19bd d4be 143e
000001d0: 4692 d23d 3f4c 0f3e 65cb 85be d1cf 973e
000001e0: fdba b4be fcf3 febd 8942 80be 30c5 853e
000001f0: 2298 06bc 1156 96be 5da0 ca3e 2da4 0f3d
-0.22190648 -0.22941682 -0.12958845 -0.24717766 0.12298263 0.037281808 0.23660709 -0.30200854
-0.22816172 0.103703 -0.251314 0.28654993 0.21302606 -0.19672482 0.026494233 -0.21278593
0.228209 0.06805005 0.27196148 0.113243766 -0.085312255 0.40395904 0.21574412 0.06026913
0.11465874 -0.17041752 -0.04427482 -0.2683398 0.20983796 -0.21969953 0.0046370635 -0.075952195
0.36902615 0.25543442 -0.23253174 -0.3414474 0.36482093 0.28724205 0.006243894 0.09798062
0.22734536 0.19239986 0.19113714 -0.059439316 -0.06883017 0.32809237 -0.0125500485 0.24087034
0.115891606 0.06672961 0.1985418 0.045596357 0.029765155 -0.25314766 0.08144163 0.2614553
0.11881596 0.36571375 0.10938311 0.10468011 -0.24864256 0.088188656 -0.26193753 0.05359412
-0.33324823 -0.11014142 -0.2267014 0.26777926 0.17126316 -0.103333175 -0.26108116 0.10901449
0.317468 0.24312775 0.11609996 -0.24838401 0.20830809 0.21727106 0.34495115 0.285673
0.20855282 0.30243614 -0.13437046 0.25073075 0.26187518 -0.16352299 -0.2890502 0.0008663888
-0.32029018 -0.06621114 0.18424824 0.14855638 -0.16375574 -0.14188217 0.02705337 -0.06606033
-0.10164209 0.07379809 -0.111807466 0.13105771 0.03309279 0.14378746 0.13485515 0.40441984
0.12510265 -0.23854351 0.08919001 -0.15501015 0.14711305 -0.34182072 -0.07672891 -0.029535145
-0.30668342 0.05896154 -0.03756321 0.1452592 0.10281806 0.1399393 -0.2613174 0.2965074
-0.3529891 -0.1244888 -0.25050762 0.26127005 -0.008214982 -0.29362538 0.39575472 0.03506868

network.2.weight f4 [64, 128]
00000000: 0da4 8cbd 63a8 eebd 8c3c 613d ec76 11be
00000010: fe3e 09bd 2823 55bc a329 edbc 4221 dfbd
00000020: 8ab0 cbbb 1b3c 79bb cde0 d13c db7f e3bc
00000030: 2303 97bc 8a15 8cbc 19cd a73c 6e96 853d
00000040: 8eb5 dabd c8d4 d7bd 7543 8abd bcfc e13b
00000050: 3544 06be b485 dbbd a3d1 533d 53a0 24be
00000060: c310 3e3d 670e 16be c06f 9c3c 6e2d f63d
00000070: 707e 8fbc 392d 3b3e 7830 3a3d c23b e6bc
00000080: cdd1 e3bd d2ef 3d3b 74ee f4bd 9db9 09be
00000090: 1446 ecbd 80d1 c23d 745d 253e b353 e1bd
000000a0: 32a9 f1bd 2595 5cbd 067b d93d bc15 99bd
000000b0: add6 ad3c ab8e 5cbc fa54 303d 74f7 973d
000000c0: 1e20 d2bc d041 a03d 3e3d 1f3c 9a25 7c3c
000000d0: d952 e2bc 7791 e1bd b802 08bd 4b7c 523d
000000e0: f2e9 57bd 66d9 fb3c 4739 ba3d b5c7 aebc
000000f0: e614 9d3d 4735 d6bc a29f 8bbc 7533 e13d
00000100: c83b 4e3d 9439 c73b d107 243d df5a 083c
00000110: bc4e a4bc c994 e93c 523c 5abd f460 8e3c
00000120: 5396 ef3d 129d 9dbd 02f6 a5bd 0ff6 c1bb
00000130: b415 26be 95b7 eb3b fbbb 23bd 18c4 8b3d
00000140: 670b 463b b42b d6bc 192f 2e3e f8f4 6f3c
00000150: 55d6 593b 4f15 bf3b c7c7 f2bc f320 ea3c
00000160: 9f1f 8f3d c199 29be 37f2 47bd 3e4f 703d
00000170: e9a3 ca3d 4e3b 843d d3de f2bd e102 2f3d
00000180: 54af 773c 0d7d 9e3d 3935 f83d 83c6 d1bd
00000190: 0f43 953d a2ae fb3d 2a09 ddbb bad6 5abd
000001a0: 2234 813d 7b3f e9bc f109 a23d 27cc 82bd
000001b0: c22e d1bc 11ca 973d 8433 16bd 66ac 5cbd
000001c0: bd6d b0ba 126c 813d 1815 dbbd 6d61 b93d
000001d0: 8c39 58bd 91ab 37bc c696 a43d d87f 0c3e
000001e0: 1d58 52bd 8a8b a1bc 6be3 8f3d 87fa d53c
000001f0: 58c4 203e e933 d13d 0598 bdbd fdb4 3abc
00000200: cc7c bbbc 7c4c 80bd 6c55 903c 7e73 a7bd
00000210: bfc6 073c c32b 46bd 7090 af3d 9ee8 a8bd
00000220: e882 82bc 00dc 793a 2467 b8bc 20f7 823d
00000230: 2b7a 47bd 0eb2 1c3d 2fd5 89bd 9617 4dbc
00000240: 8de0 a3bd d92c 4a3d ff7c 89bc b87b 76bd
00000250: c161 82bd 8754 acbd 9874 41bc 539d 37bc
00000260: e5d4 f73c 029d 5fbd 77e3 0a3d 4fd2 02bc
00000270: dc12 80bd 2575 b2bd b6fd 84bd e73d 313d
00000280: 75dd 28bd 4b19 55bd 831d 20bd f7de 47bd
00000290: 252a 67bc 97e6 a43d b872 55bd e489 90ba
000002a0: acac 4ebd a401 413d 41f5 89bd ec85 9dbd
000002b0: 5ef9 043d 10d8 71bd 9d77 9fbd 9470 613d
000002c0: 8298 a4bd b4ce 053d a4dc b43c a577 50bd
000002d0: caad d1bc 48b3 d5bc 28b1 caba 5dc8 9bbd
000002e0: 524e e1bc 1016 b9bd e49f e3bb 6e77 42bc
000002f0: b0c2 e73c 4308 a0bd e6bd 783d 2025 6e3b
00000300: b223 53bd 0743 2abd f0cc 33bd 195f 44bd
00000310: 5bf8 583d c43e 09bd 2622 8f3b a828 db3c
00000320: a30f ac3d 9b5b 8abd 4975 963d 0ef6 213d
00000330: 96e1 303d 530d 12bc 9346 b1bd 6ed6 a3bd
00000340: 0c17 bebc f810 763c 7041 0a3d 7c01 68bd
00000350: 2a95 87bd 5c50 9f3d b5e8 913d 6b39 2bbd
00000360: 3810 0d3c 0e25 a0bd debc e6bc b7ad 7fbd
00000370: 7a64 113d 525c 233d 42ec 853d 9eae 8f3d
00000380: a00c 723b 23b9 60bd fe91 dbbc 671c 17bd
00000390: 77b1 b1bd 57e2 56bd c2b6 19bd 14eb d1bc
000003a0: 3374 8c3d ab7d 653d f89a 5cbc bee6 9abd
000003b0: 7fe4 b13d 7033 883c 8ba3 9439 233a 323d
000003c0: 0287 73bd e89f 8dbc 5806 de3c d0ea e7bc
000003d0: 4211 a13c 2d6f 0d3d 8bb5 8abd 467b b13d
000003e0: fe48 593d 6361 82bd 1794 943d 5aa4 b7bc
000003f0: 7518 b5bb d779 2bbd d12e a2bd ad6c 943c
-0.06867228 -0.11653211 0.054989383 -0.14205521 -0.03350734 -0.01300887 -0.028950518 -0.10895015
-0.0062161135 -0.003803021 0.025619889 -0.027770927 -0.018434113 -0.017100114 0.02048354 0.06522833
-0.1067916 -0.10538632 -0.06751148 0.0068965834 -0.13111956 -0.10718861 0.051713597 -0.16076784
0.046402704 -0.14653932 0.019096255 0.12020384 -0.017516345 0.1827897 0.04545638 -0.028104667
-0.11124001 0.0028982055 -0.11959544 -0.13449712 -0.11536804 0.09512615 0.16148931 -0.110022925
-0.117998496 -0.053853173 0.10619168 -0.07474849 0.02122053 -0.013461749 0.04304979 0.07420245
-0.02565008 0.07825053 0.009719191 0.015389824 -0.027627395 -0.11014073 -0.033205718 0.051388066
-0.052713342 0.030743312 0.09092956 -0.021335462 0.07670002 -0.026148451 -0.017043892 0.10996143
0.05034998 0.006079862 0.040046517 0.008322447 -0.020057075 0.02851333 -0.053280182 0.017380215
0.11698594 -0.076959744 -0.08103563 -0.005919225 -0.16219217 0.0071935155 -0.039974194 0.06824511
0.0030219199 -0.026143886 0.17010154 0.014645807 0.0033239324 0.0058313976 -0.029636277 0.028580165
0.06988453 -0.16562559 -0.04881498 0.05866932 0.09894545 0.06456624 -0.118589066 0.042727355
0.015117485 0.07738695 0.121195264 -0.10242941 0.07288181 0.12289168 -0.006745477 -0.053427435
0.06308772 -0.028472653 0.079120524 -0.06386595 -0.025534991 0.07411588 -0.036670223 -0.05387535
-0.0013460439 0.06319441 -0.10697383 0.090517856 -0.052789256 -0.011210338 0.0803657 0.13720644
-0.051353563 -0.019719858 0.070257984 0.026120437 0.15699899 0.10214979 -0.09257511 -0.01139569
-0.022886656 -0.06264588 0.017618857 -0.08176325 0.008287131 -0.04838158 0.08572471 -0.08247493
-0.015931562 0.0009531379 -0.022510119 0.063947916 -0.048700493 0.038255744 -0.06730115 -0.01251783
-0.08001814 0.049359176 -0.016783236 -0.06017658 -0.06366301 -0.0841456 -0.011807583 -0.011206943
0.030252883 -0.054593094 0.033908334 -0.007984712 -0.06253597 -0.0871375 -0.06493704 0.043271925
-0.041226823 -0.052026074 -0.039090645 -0.04879662 -0.014109169 0.08051794 -0.052111357 -0.0011027423
-0.05045764 0.047120705 -0.067362316 -0.07691559 0.032464378 -0.059043944 -0.07786486 0.055039003
-0.08036901 0.03266783 0.022077866 -0.050895352 -0.025595564 -0.026086465 -0.0015464174 -0.07606576
-0.027503166 -0.09037411 -0.0069465507 -0.011869295 0.028291076 -0.07814076 0.060727976 0.0036338046
-0.051547714 -0.04156783 -0.043896616 -0.047942255 0.052971225 -0.033507124 0.0043680845 0.026752785
0.0840142 -0.067557536 0.07346589 0.039541297 0.043183886 -0.00891431 -0.08656039 -0.079998836
-0.023204349 0.015018694 0.033753812 -0.05664204 -0.06620248 0.07778999 0.071244635 -0.041802805
0.008609824 -0.078195676 -0.02816623 -0.062421527 0.035496213 0.039882965 0.06539203 0.070157275
0.0036933795 -0.05486406 -0.026803013 -0.03689232 -0.08676427 -0.05246195 -0.037527807 -0.02562479
0.06858101 0.05602805 -0.013464682 -0.07563542 0.0868616 0.01662609 0.0002835061 0.043512475
-0.059454925 -0.017288163 0.027102634 -0.02831021 0.01966155 0.034529854 -0.06772908 0.08666091
0.053048126 -0.06366231 0.072548084 -0.022417236 -0.005526597 -0.041864242 -0.07919086 0.018118227

network.2.bias f4 [64]
00000000: b908 fabc 5228 afbc fea8 a63d d6bc c5bc
00000010: 059e a4bc 3bc1 27bd ee37 18bd 3a76 873d
00000020: 1e51 43bd 3268 973d 53b3 5bbd 7844 87bc
00000030: 4a27 1abc fc4e 95bc a7c4 f03b 3e79 c83d
00000040: 459e 6e3d de3c 023e 33db 903d 03d8 b83d
00000050: 3b82 5fbd e30a 403c 01a4 1cbc f5d2 a4bc
00000060: 3924 0c3d 37d5 8b3c 9818 013d bb7c 3c3d
00000070: 6401 4fbd aec6 263e bd37 483d ffa9 c8bd
00000080: 7a7f 353c 46ad 40bc 7134 043e cf70 643d
00000090: f2e9 063c 0607 57bd 08d2 c3ba e046 913c
000000a0: 4efb 5b3d 5df3 b73d 75df f1bc aed4 bd39
000000b0: 8620 c1bc d99a adbd 365c 8abd 49d7 88bd
000000c0: f1f5 aabd 9f8f 72bc 6b79 4f3d e702 0c3c
000000d0: a378 1b3d bb83 ad3d 430c 3e3d 4425 53bd
000000e0: 27e2 3abd fbba c73d 4097 67bb 2032 0e3e
000000f0: 5268 61bd 5eb8 0b3d a093 c5bd 1d75 96bd
-0.030521737 -0.02138153 0.081377015 -0.024137896 -0.02009488 -0.040955763 -0.037162714 0.06614347
-0.04768478 0.073929206 -0.053637814 -0.01651214 -0.009408781 -0.01822614 0.0073476615 0.0978875
0.058256406 0.12718531 0.07073059 0.09025576 -0.054567557 0.011721346 -0.009560586 -0.020120123
0.034214232 0.017069442 0.031517595 0.04601739 -0.050538436 0.16286728 0.04888128 -0.09798049
0.011077756 -0.011760062 0.1291063 0.055771645 0.008234488 -0.052496932 -0.0014939914 0.017733991
0.05370646 0.08981965 -0.029525498 0.00036207348 -0.023575079 -0.084768005 -0.06755869 -0.066816874
-0.08347691 -0.01480475 0.050652903 0.008545614 0.037956845 0.08472391 0.046398412 -0.05154921
-0.045625832 0.097524606 -0.0035337955 0.13886309 -0.05503113 0.034111373 -0.09647298 -0.07346556

network.4.weight f4 [16, 64]
00000000: d2ab 6e3e 04da 373d 59a6 6c3d 7e2d e2bc
00000010: 21b3 1abd 5021 cd3d ad48 303e 4bd3 0a3e
00000020: 13c9 913d 7afc bd3d efa4 4a3e 05c8 43be
00000030: 207b 7f3c 08a8 3d3e 5811 bfbc 1705 0a3e
00000040: 738b 06be 5fe2 673c 4ba8 32be b17c 2dbe
00000050: a86a 5b3e 814e 233e d818 66be 06e8 eebd
00000060: e870 46be 570d 6d3b 6f60 ca3d 58e1 01be
00000070: 6ce8 0ebc 4e84 44bd 0609 49be b619 f0bc
00000080: de52 88bc 63fd 8fbd 1780 eebd 4931 003e
00000090: e438 253e 8ed6 143e 9613 03be ae71 243e
000000a0: 0fc7 7e3d 1746 713b 8340 063e 3ed5 d5bd
000000b0: 1dda cabd 9d0d 403e 85cb e4bd fee9 f83d
000000c0: d399 d53d b093 043e 6d89 f1bd de30 383e
000000d0: 1b66 9bbd c56f 203e b218 04bd 1bf5 96be
000000e0: b63d 733e 742a 7cbe d9c4 0e3d 1880 25bd
000000f0: 7fd6 ab3d 72c6 353e 30e8 eb3d 6cc1 453d
00000100: 6554 bdbd e1aa f2bd 688e 073e 3b63 6dbd
00000110: bc96 bb3d b104 1bbe a840 09bd eaaa 39be
00000120: f4a4 e93d a79f 7a3d 4729 1abe 9d14 1c3e
00000130: eff6 43be 8aac aabd 6074 433e 2bd5 8e3c
00000140: 1211 b53d 4b65 323e d204 963e f7bd 153e
00000150: 6bde bdbc 75dc 13bd 47e3 2d3e 60b4 47bd
00000160: 3a8b 2c3e 8055 32bc f602 77bc 9410 a63c
00000170: cb7d 6fbd 385c 7d3e bc2e 953e 0332 a63d
00000180: 3c73 8b3e 1467 b1bd 9e5d 693e 49e1 aebd
00000190: 4298 16be 27c5 99bd cd06 aa3d 814f 3cbc
000001a0: 758f 16be 2a0c 1f3e d739 15be f825 8e3e
000001b0: bdf7 00bd 1971 2fbe 88a6 6cbc 1828 163d
000001c0: 570b e5bd 34ba 043e a22f 8c3e 0435 73bd
000001d0: 4d22 f53d 9f7e fc3d a465 0f3e 46b3 a03e
000001e0: 580b cbbd 36b7 a33e cae2 22be 959d 6e3e
000001f0: 6a76 aebd 7755 c3bd 2725 6fbe 2b3b 91bd
00000200: 27d6 08be cc9d c23d e1c4 7abd de60 00be
00000210: 1dea 8e3d 4a71 43be 61aa 80bd 92f0 2abe
00000220: 2312 bdbc e396 4c3e 1efd 32be 51b2 943e
00000230: 5268 8ebd cb56 54be a0d2 ab3d 6c19 4aba
00000240: 7b85 483e 0f76 2f3e b661 5a3e d054 1b3e
00000250: a1ea 32be d071 8ebc 76bd 363e 5dfe b9bc
00000260: 3d03 5f3e 4143 b5bd 88e9 2ebe c93d 323e
00000270: cc16 a63c 7197 643e 30d4 813e 692c 9ebd
00000280: 4aa0 863e 10d0 dc3d 0ecf 003e 8ae1 18be
00000290: 5860 24be 9214 1a3c 0cc7 073e a75e b9bd
000002a0: 3fa1 1fbd b473 463e 2b2b 17be 2add 313e
000002b0: afa9 41bd 28f9 0ebe fedf 98bd 3562 24be
000002c0: 4f58 d6bd 0d27 ac3d 2f99 093e ab59 5e3d
000002d0: b465 2c3e c18f ef3d 976a 993d c2f5 4f3e
000002e0: 2ace 9bbd 7907 9a3e 067b 17be c1b3 483e
000002f0: aeb8 babd ffb2 28bd ea3f 4cbe 3d98 4bbd
00000300: c4ad a53d 9cab 7dbd 06b2 77bd a478 c33d
00000310: fa38 cbbd 2064 4ebd a08f b9bd d370 b73d
00000320: 39f2 a33d 9f29 abbd aea5 c0bd 8d3c a7bc
00000330: a77b 9dbd 5c1f e53c 188b a8bc 59a5 9abd
00000340: a719 dfbd f9e0 8cbc c2bb b63d 72f0 ecbd
00000350: b731 7dbc ad61 54bd 6ce1 573c c2b8 0b3d
00000360: eaef a13d 91d9 de3d 40ce be3d 6e74 b5bd
00000370: f8c3 21bd 71e1 b4bd f81f dd3d 2bc1 1cbd
00000380: bd24 c33c 8f63 03be 28fe ac3d 4190 f03d
00000390: 8509 c43b 4a82 ec3d c6ab 3cbd f6e8 393d
000003a0: 0e7a 6fbd 770c 1cbd fd01 cbbc 85ce c2bc
000003b0: 1230 e13d 6f2d 853d a10a dfbd 62b3 54bd
000003c0: f5e2 20bd 7c0c be3d 5b32 903c 4520 b7bc
000003d0: aae6 d4bc 0fbe d0bc 3d2a c53d 703c 05bd
000003e0: 9992 1d3c b80d abbd 4ec1 e53d 99d3 bbbd
000003f0: f284 00be 7a8e df3d 5011 73bd 8b79 b63d
0.23307732 0.04488565 0.05777583 -0.027609583 -0.037768487 0.100161195 0.17215224 0.13557164
0.0711843 0.09276672 0.1978948 -0.1911927 0.01559332 0.1852113 -0.0233237 0.13478504
-0.13139133 0.014153092 -0.17447011 -0.16942097 0.21427405 0.15947916 -0.22470415 -0.11665349
-0.19379008 0.0036171281 0.098816745 -0.12683618 -0.008722406 -0.047977738 -0.19632348 -0.029309135
-0.016641077 -0.070307516 -0.11645525 0.12518801 0.16134983 0.14534971 -0.1280044 0.1605899
0.062201556 0.0036815458 0.13110547 -0.10441063 -0.09904883 0.18755193 -0.11171631 0.121540055
0.1042973 0.12946963 -0.1179379 0.17987391 -0.075878344 0.15667637 -0.032250114 -0.29483876
0.2375401 -0.2462557 0.034855697 -0.040405363 0.08390521 0.17751482 0.115188956 0.048280165
-0.092446126 -0.11848999 0.13237917 -0.05795596 0.0915961 -0.15138508 -0.033508927 -0.18131605
0.114084154 0.061187413 -0.15054809 0.15242238 -0.19137166 -0.083336905 0.19087362 0.01743563
0.088411465 0.17421453 0.29300553 0.14623247 -0.023177346 -0.036098916 0.1698123 -0.048756003
0.16849986 -0.010884643 -0.01507639 0.020271577 -0.058469575 0.2474221 0.29137218 0.08115008
0.27236354 -0.08662239 0.22789618 -0.085390635 -0.14706519 -0.07508307 0.083020784 -0.011493565
-0.14703162 0.15531984 -0.14572845 0.27763343 -0.03148626 -0.17132987 -0.014444001 0.03665933
-0.111838035 0.12961656 0.2738009 -0.05937673 0.11969433 0.123288386 0.14003617 0.31386775
-0.09914273 0.31975716 -0.15906826 0.233023 -0.085186794 -0.095377855 -0.23354016 -0.070913635
-0.13362943 0.095027536 -0.061222915 -0.12536952 0.06978247 -0.19086185 -0.06282497 -0.16693333
-0.023079937 0.19979434 -0.17479369 0.29042295 -0.06953491 -0.20736234 0.08389783 -0.00077094766
0.19582169 0.1713488 0.21326336 0.15169072 -0.17472316 -0.017388254 0.17845711 -0.022704298
0.21778579 -0.08850718 -0.17081273 0.17406382 0.020274542 0.22323395 0.253572 -0.07723314
0.26294166 0.10781872 0.12578985 -0.14929786 -0.16052377 0.009404318 0.13259524 -0.090512566
-0.038972136 0.19380075 -0.14762561 0.17369524 -0.047280964 -0.13962233 -0.07464598 -0.16053088
-0.10466062 0.08405886 0.13437341 0.054284733 0.16835672 0.11697341 0.074910335 0.20308593
-0.07607682 0.30083826 -0.14793023 0.1959982 -0.09117256 -0.04118633 -0.19946256 -0.049705733
0.08089784 -0.061931238 -0.06047251 0.09544495 -0.09922977 -0.050388455 -0.090605974 0.089570664
0.08005185 -0.08357548 -0.09406601 -0.020414615 -0.076896004 0.027969055 -0.020574138 -0.07551069
-0.10893565 -0.01719712 0.08922531 -0.11569299 -0.0154537475 -0.051850963 0.013176303 0.034111746
0.07907088 0.10881341 0.09316683 -0.08860098 -0.03949353 -0.08832062 0.10797113 -0.038270157
0.02382123 -0.12830947 0.08446914 0.11746264 0.00598258 0.11548288 -0.046062253 0.045388184
-0.05846601 -0.038097825 -0.024781222 -0.023780117 0.10995497 0.065028064 -0.10890699 -0.051928885
-0.039278943 0.09279725 0.017602136 -0.022354254 -0.025988895 -0.025481252 0.09627197 -0.03252834
0.009617471 -0.08352226 0.112185106 -0.091712184 -0.12550715 0.10915847 -0.059342682 0.08909901

network.4.bias f4 [16]
00000000: c46a c7bc aee9 b63d 8ae5 333e 8436 fbbd
00000010: d05b 063e eb0b 233d b3d9 4c3d 59ee 283d
00000020: 3c4a 87bc d04c 7fbd a292 5fbc d306 ba3d
00000030: 9798 833d ae66 7f3b 1c55 c4bb 5f13 b13b
-0.024342902 0.089312896 0.17568031 -0.122662574 0.13120961 0.039806288 0.0500123 0.04124293
-0.01651489 -0.062329113 -0.0136458 0.09083333 0.064255886 0.0038971114 -0.005991591 0.0054039205

network.6.weight f4 [2, 16]
00000000: afd1 cabe 6233 a83e 6671 d43e 95ae 75be
00000010: 8cf4 cb3e d122 7ebe 603f aabe cb8e 293e
00000020: 29fc cfbe 2028 14be 93d7 d9bd 47cf b5be
00000030: 21dc 403e 2d78 29be b8fb a5bd 9a7b e9bd
00000040: 6aa7 a23e d061 3cbe d847 9bbe 75b2 d2bd
00000050: 4142 ed3c 8950 cf3e 3546 bf3d 8365 a0be
00000060: b9a5 353e 90c4 4dbd a5dc c43e 1db7 e0bc
00000070: 3535 9abe b5dd a63e 392b fa3d 273e 2e3e
-0.396131 0.32851702 0.41492766 -0.23992379 0.39835012 -0.24817969 -0.33251476 0.16558377
-0.4062207 -0.14468431 -0.10636821 -0.35509703 0.18833973 -0.1654975 -0.08104652 -0.11400528
0.31768352 -0.18396688 -0.3032825 -0.10287944 0.028962256 0.4049113 0.09339563 -0.31327447
0.17739 -0.050236285 0.38449588 -0.027431065 -0.3011872 0.32591024 0.12215275 0.17015897

network.6.bias f4 [2]
00000000: 5542 233e 9ee2 803d
0.15943272 0.06293224
