models/heloc/rs/sgd_epochs30_lr0.1_batch64_dropout0/bezier_229.pth (torch, 105195 bytes, 19 tensors)

coeff_layer.binom f4 [2]
000000 00 00 80 3f 00 00 80 3f
       1.0 1.0

coeff_layer.range f4 [2]
000000 00 00 00 00 00 00 80 3f
       0.0 1.0

coeff_layer.rev_range f4 [2]
000000 00 00 80 3f 00 00 00 00
       1.0 0.0

net.network.0.weight_0 f4 [128, 23]
000000 ce 7e fb 3d 89 45 55 3e ea 75 2b be 4f 95 7f bd
       0.122800454 0.20827307 -0.167442 -0.06239825
000010 89 bc 94 3d 5d 50 98 3d 10 f0 a3 bd 4a f9 3d be
       0.07262523 0.07437203 -0.08004773 -0.18552127
000020 67 0f 3a bd bc 0f 20 bd ff 8c 94 bc e3 f8 27 3e
       -0.045424845 -0.039077505 -0.018133638 0.16403536
000030 63 c4 18 be 67 44 1e 3e 9c df 9e bd 3c da 4b 3e
       -0.14918666 0.15455781 -0.07757494 0.19907469
000040 6b e9 6d 3d cf 71 c6 bd 58 0a b3 bd 49 69 35 be
       0.058083933 -0.09689676 -0.08742207 -0.17715944
000050 07 09 37 bd 96 c6 c6 bd 66 41 cc bc 54 7a 2a bd
       -0.044686344 -0.09705846 -0.024933528 -0.041620567
000060 8a 61 2c bd 3b 88 03 3e b1 1b 80 3d 52 8b d0 3d
       -0.042085208 0.12844937 0.06255282 0.10182823
000070 7c 94 b9 bd b3 40 1b be 59 49 fb 3d f2 70 31 be
       -0.09061524 -0.151614 0.12269849 -0.17328241
000080 c5 10 38 be 72 79 35 be 0f cb 23 3b 36 71 bf 3d
       -0.17975147 -0.17722109 0.0024992859 0.09347765
000090 86 c0 3d 3d 59 8d 26 3d fa 72 82 bd c7 8d 9e bc
       0.046326183 0.040662143 -0.06369586 -0.019354714
0000a0 cb d1 78 3d 77 d0 de 3d 2c b0 8b 3d f4 06 0a be
       0.06074695 0.10879605 0.068207115 -0.13479215
0000b0 63 c3 0c 3e 0e e3 de bd f3 a7 69 3d 60 af 7b 3d
       0.13746409 -0.10883151 0.057044934 0.061446548
0000c0 5f 1a 0b be 2b 4a d1 bd 1c 9c 41 3d a6 52 50 be
       -0.13584279 -0.102192245 0.047268018 -0.20344028
0000d0 2c 19 25 3c 78 cc ae 3d c4 39 31 bd cb 47 91 bd
       0.010076802 0.08535093 -0.04326798 -0.070937715
0000e0 f0 49 15 bd fb 3b 77 3d 96 12 9a bc 7f cf 08 be
       -0.036447465 0.060359936 -0.01880769 -0.13360403
0000f0 e6 0e 30 3e e3 28 9c 3d e8 fb 18 3d f7 9e 11 be
       0.17193183 0.07624986 0.03734961 -0.14220797
000100 0a a3 61 3d f1 36 57 be d4 60 0a 3e 24 de db bd
       0.055087127 -0.21017052 0.135135 -0.10735729
000110 4b 34 ba bd b1 73 b9 3d 8e 38 4f bd d4 3b 01 3c
       -0.09092005 0.090552695 -0.050591044 0.007887799
000120 73 0e 2c 3d b8 76 43 be b5 0b 85 3d f1 fa 74 bd
       0.042005967 -0.19088256 0.064963736 -0.05980963
000130 75 96 2a be 83 ba 22 be a6 b6 19 be 99 b7 99 3b
       -0.16658957 -0.15891461 -0.15011081 0.004691076
000140 fa b5 d6 bd 2e cb 1a bd 88 0a b6 bd d5 a2 a4 3b
       -0.10483928 -0.037791423 -0.088887274 0.005024294
000150 0e 7d 9c 3c 38 6c 95 3a 95 bf 1d 3d ec e8 c1 bd
       0.0191026 0.001140005 0.038512785 -0.094682544
000160 73 09 0f 3e 17 ae 16 3e d7 89 43 3e 51 c0 ae bd
       0.13968448 0.14714848 0.1909555 -0.08532775
000170 b9 55 a8 bd ec 56 2f 3d 4f 1c 1b be 22 2b f9 bd
       -0.08219475 0.042807505 -0.15147518 -0.1216643
000180 b6 9d 9c 3d cf fd 4b 3e 19 ce 98 bd 34 3e 55 3e
       0.076472685 0.19921039 -0.07461185 0.2082451
000190 c8 4d 62 3d 8f 16 09 3e e1 25 78 3d 49 89 56 3d
       0.05524996 0.13387512 0.060583 0.05237702
0001a0 da 8e 31 be 96 36 b5 bc d3 cf ca 3d e8 87 93 3d
       -0.1733965 -0.022120755 0.099029206 0.072036564
0001b0 a9 73 35 be f3 a4 5c be 81 db 01 be fb 40 df bd
       -0.17719902 -0.21547298 -0.1268139 -0.10901066
0001c0 73 ce a3 bd c2 27 6e be ef 99 38 3d de 1c 45 be
       -0.079983614 -0.23257354 0.045068678 -0.19249293
0001d0 cf 93 3b 3e 85 fa 02 be 4b d2 ae bc 8f db 8b 3d
       0.18318103 -0.12790878 -0.02134051 0.06828987
0001e0 7f b0 14 3d c4 b2 f4 bd ba ff 4d be 28 18 b2 bd
       0.036301132 -0.11948159 -0.20117083 -0.08696014
0001f0 dd 4d ea 3c f2 b1 24 be b4 da 2d be 68 e5 fe 3d
       0.028601581 -0.16083506 -0.1697796 0.124460995
000200 96 47 04 3d 5b 5c 60 3e db c6 22 be 4a 88 b9 3d
       0.032294832 0.21910231 -0.1589617 0.09059198
000210 c8 a6 88 3d 95 dd ac bd d0 6f 50 bd be f2 a8 3c
       0.06672436 -0.08440701 -0.050887883 0.020623561
000220 b1 27 15 3e a9 48 66 3d a0 8e b4 3d 1e 10 29 3e
       0.14565922 0.056221638 0.08816266 0.16510054
000230 ff c3 09 3e 56 0d 1e 3e a5 6b a4 3d d0 5e 83 3d
       0.13453673 0.15434775 0.08028344 0.064145684
000240 61 ad 1d be 37 4a c6 bd 44 d1 58 3e 1e 77 db 3d
       -0.1539817 -0.09682124 0.21173579 0.10716079
000250 ed f0 27 3e bc bb 36 bc 75 81 71 3c e7 9e 5f 3c
       0.164005 -0.011153158 0.014740338 0.013648725
000260 11 6b 33 be 91 b0 b0 bd 1f e5 a5 bd 9d 51 75 bc
       -0.17521311 -0.08627427 -0.08100342 -0.014973071
000270 d6 5e 79 bd 69 fd 06 be 06 b5 29 3e 54 dc 2f 3e
       -0.06088146 -0.13182606 0.16572961 0.17173892
000280 d3 79 f0 bd 48 58 04 be f0 df 29 bd fd 91 42 3d
       -0.11741986 -0.12924302 -0.04147333 0.047502507
000290 e1 f2 82 bd 23 72 38 be eb 9d 99 bd a7 46 3b be
       -0.06393982 -0.1801229 -0.075008236 -0.1828867
0002a0 8d 78 a7 bc 7b b1 f2 3d 27 6c 3f 3d 85 51 2c be
       -0.020443225 0.11850258 0.046734 -0.16827972
0002b0 af 09 58 3e a5 68 08 be 86 3f fd bd 5d 0d 35 be
       0.21097444 -0.13321169 -0.12365632 -0.17680879
0002c0 d8 44 1c 3e 94 f2 3a 3d 6e b2 52 3c fe ed 90 bd
       0.15260637 0.045641497 0.012859924 -0.070766434
0002d0 fb d6 4e be 2d dc b9 bd 3f 22 31 3e 79 60 66 be
       -0.20199196 -0.09075198 0.1729822 -0.22497739
0002e0 96 5f ac 3c a6 cd 4e 3e 20 c3 82 bd 09 e9 1d 3e
       0.021041673 0.20195636 -0.063848734 0.15420927
0002f0 46 e9 3f 3e ed aa 1c 3e 39 68 5c bd 85 22 21 be
       0.1874133 0.15299578 -0.053810332 -0.15735824
000300 3b 33 3a be 3b bf 44 be 11 ae 15 be 6e 34 35 3e
       -0.18183605 -0.19213574 -0.14617182 0.17695782
000310 89 e6 13 3e 62 5d 20 3d f7 d4 50 3e 22 00 77 3c
       0.14443411 0.039151557 0.2039374 0.015075715
000320 da 2d e7 bd 2b 52 16 3e 11 65 d6 bd 91 e1 3c bd
       -0.11288042 0.14679782 -0.10468496 -0.046113554
000330 c4 f1 12 be 08 83 16 be f7 68 ee bd ed 43 21 3e
       -0.14350039 -0.14698422 -0.11641114 0.15748568
000340 b3 32 2a 3d e7 ac 29 3e b9 6c 14 3e 2d 5c 5f be
       0.041552257 0.16569863 0.144946 -0.21812506
000350 3a 01 ff 3d f7 b7 7e 3d ab a7 bd 3d b1 f3 a6 bd
       0.12451406 0.06218716 0.09260496 -0.08151949
000360 01 a4 a8 bd 6f 65 d0 3d 38 d8 5e be 7a 36 06 3e
       -0.08234406 0.10175597 -0.21762168 0.13106719
000370 77 81 b4 bc e9 da ce 3d 5e 57 11 be bc 8f b5 3d
       -0.02203439 0.101003475 -0.14193484 0.08865306
000380 e7 2a 8c 3d d6 88 18 3c da 32 51 3e 5f f9 b3 3d
       0.068441205 0.009309968 0.20429555 0.08787798
000390 2b b8 10 be f2 dd 6c 3d 95 8c 32 3e 5c 56 06 3e
       -0.14132755 0.05782885 0.1743644 0.13118881
0003a0 3b c0 e3 bd cd 42 49 bc 0e 72 ed 3c 58 b2 37 bd
       -0.111206494 -0.012283993 0.02898505 -0.044847816
0003b0 00 23 00 be c5 8d 3c 3c 92 15 49 bd ab 34 43 bb
       -0.12513351 0.01150841 -0.049092837 -0.0029786031
0003c0 87 c4 0b 3e 84 68 1c 3e 82 8b de 3c ef 8a f1 3c
       0.13649188 0.15274245 0.027166132 0.029485194
0003d0 2d f1 98 bd b5 27 7b 3d fb 74 2e 3e c0 72 58 be
       -0.07467876 0.061317164 0.17036812 -0.21137524
0003e0 cb 18 8a 3d 2c 7a bf 3d 35 00 74 3e 13 fb 9e 3d
       0.0674301 0.09349474 0.23828204 0.07762732
0003f0 fb 44 9e bd 43 27 8f bd 7c 4d 4d 3d 7f 28 92 3d
       -0.07728001 -0.069899105 0.050122723 0.0713663

net.network.0.weight_1 f4 [128, 23]
000000 20 52 23 3b 84 9a 2d bd 11 b5 10 be a2 a9 2b be
       0.0024920776 -0.042383686 -0.14131571 -0.16763929
000010 be 52 9f bd ab 83 9a bd f8 30 59 bd ba a2 cb bd
       -0.07779454 -0.07544645 -0.053025216 -0.09943147
000020 da fc be bd 1a db 84 bd b6 ca bf bc dd 9e c5 3c
       -0.09325571 -0.06487103 -0.02341209 0.024123603
000030 4a 60 e1 bd 80 e2 01 3d 92 de 23 bd 19 1d 36 3d
       -0.11004694 0.031710148 -0.04000718 0.044461343
000040 27 0b e4 3b a4 34 11 bc 95 ea 25 3d a1 07 53 bd
       0.0069593373 -0.008862648 0.040506918 -0.051520947
000050 54 3a cd bd 12 28 39 be cf f0 91 bd 9c d5 0c be
       -0.10020891 -0.18081692 -0.07126009 -0.1375336
000060 ef 57 02 3e 3a 2c ea 3d a0 29 8d 3d f8 ec 53 bd
       0.12728857 0.11434217 0.06892705 -0.051739663
000070 fc e7 33 be 82 10 19 3e 56 3c ed 3d db 93 fd 3c
       -0.17568964 0.14947703 0.11583774 0.030954292
000080 c2 08 43 be 41 a6 c3 bd 96 cd 43 3e 44 c9 46 be
       -0.1904631 -0.09553195 0.19121394 -0.19412714
000090 4b 9e 33 be 5f b1 19 3c 44 8a 1f be b9 a1 63 3d
       -0.17540853 0.0093806675 -0.15580088 0.055574153
0000a0 5f 8f 2f bd 79 67 ea 3d c3 20 c8 bd 93 fa a2 bd
       -0.04286134 0.11445517 -0.09771874 -0.079579495
0000b0 18 77 53 3e 26 bf a4 3d 32 ff e1 bd dd 56 b5 bc
       0.206509 0.08044271 -0.11035003 -0.022136146
0000c0 a5 2f 28 3e c0 63 f0 bc 21 09 5a bd fe 12 93 bd
       0.16424425 -0.02934444 -0.053231362 -0.07181357
0000d0 c6 2d c1 bd 13 18 72 3d ac 08 55 bd 9d 53 bf ba
       -0.09432559 0.05910499 -0.052010223 -0.0014597062
0000e0 0f fc 39 3e 4a 3a c1 3c 5e 6c 0a 3e 12 c5 8e bd
       0.18162559 0.023587365 0.13517901 -0.06971182
0000f0 10 ab 5e 3e 57 cb 9d 36 bc 1d a8 3d c9 b5 40 be
       0.21744943 4.7026365e-06 0.082087964 -0.18819346
000100 9c a5 de bd 25 f3 2e 3d 49 19 20 3b 46 ea 6e be
       -0.10871431 0.04271235 0.0024429134 -0.23331556
000110 78 fe 9f 3d 62 bb eb 3d 71 e0 38 3e 79 c3 72 bd
       0.07812208 0.1151035 0.18054368 -0.05926845
000120 b3 51 6f be a9 49 06 be 75 f1 5b 3d 39 10 4c 3e
       -0.2337101 -0.13114037 0.05369707 0.19928063
000130 b8 52 cd bd 55 9e 48 be 2f 64 21 3e 0b 46 f0 3d
       -0.10025543 -0.19591649 0.15760873 0.1173211
000140 6f 62 08 3e 61 97 21 be 3f 9d d7 bd 00 90 20 3e
       0.133188 -0.15780403 -0.10528039 0.15679932
000150 d6 a5 08 be 8f ff 39 bd ae 4a 3d bd 8c d5 f5 bd
       -0.13344511 -0.045409735 -0.0462138 -0.120036215
000160 e9 62 44 bd a4 39 f5 3d 4c 1b 6b bd 12 a7 57 3e
       -0.04794589 0.11973885 -0.05739908 0.21059826
000170 f1 5a 4b 3e 52 4d d6 bd 27 f8 f0 3d 8f 1c 24 3e
       0.1985891 -0.104639664 0.11766081 0.16026519
000180 b4 cd 41 3e dd 3b 27 be 24 d5 21 3e dc b1 29 3d
       0.18926126 -0.1633143 0.15803963 0.041429386
000190 c8 05 21 3d 8b e6 a3 bd 59 29 84 3d 7e 6c dc 3d
       0.039312154 -0.08002957 0.06453199 0.10762881
0001a0 35 cf 45 3e 91 4f 08 3e 8e 01 cf 3c f9 28 36 3e
       0.19317324 0.13311602 0.025269296 0.17789067
0001b0 18 ed 3a 3d b0 21 13 3e eb 33 50 be 5a 9d 1e be
       0.045636266 0.1436832 -0.20332305 -0.15489712
0001c0 ea b9 54 3c e0 e6 a1 bd 82 70 7e bd d6 a6 b7 bd
       0.0129837785 -0.07905364 -0.062119015 -0.08967368
0001d0 44 07 60 3e 7c 7a 5f bc 80 67 68 be 35 e7 4e be
       0.21877772 -0.013640042 -0.22695732 -0.20205386
0001e0 8c 3b 2b bd c6 64 1d bd 3f fb 0d 3e 16 c7 0f be
       -0.041804835 -0.038426183 0.13865374 -0.14040789
0001f0 e5 e3 07 3e 87 39 e7 bc 0d 32 45 be 96 0f 33 bd
       0.13270529 -0.028225673 -0.19257374 -0.043716036
000200 10 c0 b0 3d 18 2b d0 3c a5 a9 b7 bc ba d9 fe 3d
       0.08630383 0.025411174 -0.02241976 0.12443872
000210 5e b7 22 3d 04 8c 76 bd 47 ca 81 3d 6b bc 2d be
       0.039725654 -0.060192123 0.063374095 -0.16966407
000220 3c 63 1f 3d 06 9a 1e bb 0b 70 a9 3d 6c 28 44 3e
       0.038912997 -0.0024200692 0.082733236 0.19156045
000230 12 8d 06 3d 2d 9c b1 3c f9 c8 50 3e c8 af 53 3e
       0.03284938 0.021680916 0.20389165 0.20672524
000240 4d de 7b bd 97 41 03 be f2 4a 58 3e e7 18 bb 3d
       -0.0614913 -0.1281799 0.2112234 0.09135609
000250 84 ac bb 3c 80 b3 43 be ff 94 0d 3e cb 59 97 bb
       0.02290941 -0.19111443 0.13826369 -0.0046188585
000260 6c 8e 86 bd 42 df ea 3c fd 77 f4 3d 69 92 5c bc
       -0.065701336 0.02867091 0.119369484 -0.013462641
000270 10 34 33 be 09 9f 8b bc 5e fb 23 bd 05 6d 8d bc
       -0.17500329 -0.017043607 -0.040034644 -0.017263899
000280 b6 8a 55 be 29 92 5a be 21 66 d1 bd 12 5b 0c 3e
       -0.20853695 -0.21344818 -0.10224558 0.13706616
000290 c9 6d 0b be 86 1a 42 be b3 fe 09 be fb d6 26 3e
       -0.13616098 -0.1895543 -0.13476066 0.16292946
0002a0 16 55 9b 3c 5f f4 26 bb 47 39 23 3d cc 97 ec 3d
       0.01896147 -0.0025475246 0.039849546 0.115523905
0002b0 a7 40 1b be b9 54 15 be 63 8b 75 bd 0d 66 0b 3e
       -0.15161382 -0.145831 -0.059947383 0.13613148
0002c0 87 95 3f be e7 df 52 bd 90 c3 29 be d1 69 cc bd
       -0.18709384 -0.05148306 -0.16578507 -0.099811204
0002d0 2b f9 12 be e4 10 0d 3e b1 fc a7 3d be 43 23 3d
       -0.14352863 0.13775975 0.08202494 0.039859526
0002e0 1f 0c fe bc 33 ac 02 3e 79 6a 97 bd b1 2e 84 bd
       -0.03101164 0.12761001 -0.07393355 -0.06454218
0002f0 49 b4 d7 bd b8 da d0 3c 87 5a 93 3c f8 31 d2 3b
       -0.105324335 0.025494918 0.017987503 0.006414648
000300 53 1b ae bd 28 52 2b bd d6 2c 3c be d6 89 34 be
       -0.085013054 -0.041826397 -0.18376479 -0.17630705
000310 2d 57 7c bd c1 8e 06 bd 94 6d 48 3d 89 3c 14 be
       -0.061606575 -0.032850984 0.048932627 -0.14476217
000320 d4 69 c2 bd 4b bc 83 3d fa 8f 51 be 70 e3 7d 3c
       -0.09492841 0.064323984 -0.20465079 0.01549612
000330 89 1b 31 be 27 87 20 3e b4 c8 af bc be 02 f6 bc
       -0.1729566 0.15676557 -0.021458007 -0.030030604
000340 76 6c 34 3e 1a 30 67 3d 41 f4 b9 bd c8 c4 6e 3d
       0.176195 0.056442358 -0.09079791 0.058293134
000350 0b b5 33 bc ab e6 ab bb 9e 08 f6 3b 5f ba c9 bd
       -0.010968457 -0.0052460036 0.0075083515 -0.098500006
000360 ce 0e 03 be e3 66 18 be c4 c6 32 be cf fb af 3d
       -0.12798616 -0.14882998 -0.17458636 0.085929506
000370 38 7d 33 3e c4 b2 02 3d 7b 99 be bd a3 bd 28 be
       0.17528236 0.031908765 -0.09306618 -0.1647859
000380 32 9b 2d 3e d4 0e c3 bc d5 42 28 3e c6 41 94 3c
       0.16953734 -0.023810782 0.16431744 0.01809777
000390 09 04 2d be da 46 41 3e 75 63 99 3d 90 c7 2d be
       -0.1689607 0.18874684 0.07489673 -0.16970658
0003a0 65 b5 1d 3e 80 0e cb 3d d0 9c 4c 3e 58 c6 f7 3c
       0.15401228 0.09914875 0.19981694 0.030245945
0003b0 1a 35 ba bd 7b 08 b0 3d 96 10 1c be 07 3b 92 3d
       -0.090921596 0.085953675 -0.15240702 0.07140165
0003c0 da 5c 3d be 75 80 71 bc 95 d0 4c 3e a5 49 d2 3d
       -0.18492451 -0.014740099 0.20001443 0.10267953
0003d0 e3 91 1a be 7a 31 1e 3e 2d d3 e2 3d 62 c8 93 bc
       -0.15094714 0.15448561 0.11075435 -0.018039886
0003e0 b5 07 50 3e 33 76 0f 3e aa 99 03 bd 5b 15 6e 3c
       0.2031544 0.14009933 -0.032128967 0.014531459
0003f0 47 a4 de bd f4 27 43 bd ac cb 55 be 42 9d 0d be
       -0.10871177 -0.047645524 -0.20878476 -0.1382952

net.network.0.bias_0 f4 [128]
000000 5f f1 a4 bd 62 41 06 3c 6d 12 17 be a3 19 a4 bd
       -0.080538504 0.008194299 -0.14753123 -0.08012702
000010 ce 4b 85 bc 99 77 71 bd d8 87 4a 3d c3 68 89 3d
       -0.016271498 -0.058951948 0.049445957 0.06709435
000020 e3 80 cb 3a 7b 5a 50 be ba 84 44 3e e9 f8 55 3d
       0.0015526082 -0.20347016 0.19191256 0.052239332
000030 85 1c 9a bd a0 5b 6c 3d 4a d9 be 3d 35 a1 32 3d
       -0.07524971 0.057704568 0.09318788 0.04361077
000040 35 d3 4b be d4 44 ac bc c6 a0 e3 bd 19 20 d5 bd
       -0.19904788 -0.021028914 -0.111146495 -0.10406513
000050 39 4a 30 3d a4 90 56 3d bc b0 60 3e c3 44 f5 bd
       0.043039534 0.052384034 0.21942419 -0.11976006
000060 88 42 01 3d a4 ed d6 bc 8c d7 c7 bd a8 9d 34 be
       0.03155759 -0.026236363 -0.09757909 -0.17638266
000070 24 ea 90 3d da a8 52 3e 0d 2d 86 3d 26 fd e1 bc
       0.07075909 0.20572224 0.065515615 -0.02758653
000080 b0 73 00 be 0f 7f 3d 3e cd 23 03 be 50 4c f4 3d
       -0.12544131 0.185055 -0.12806626 0.11928618
000090 61 ad 20 be 53 1a 9d 3d 01 99 31 be fe 12 b8 bd
       -0.15691139 0.076710366 -0.17343523 -0.089879975
0000a0 4c 9e 85 3d ab bf 98 3d 86 4f af 3d 65 97 42 be
       0.06524333 0.07458433 0.0856009 -0.19003065
0000b0 e7 47 01 3e 54 0c 9e 3b 57 cf e4 bd 09 22 8c bd
       0.12625085 0.004823247 -0.111723594 -0.06842429
0000c0 94 67 ee 3d 5f cf dd bd 78 af dd bd e6 87 71 bd
       0.1164085 -0.108305685 -0.10824484 -0.058967493
0000d0 f4 a1 31 3e 03 4e 41 3e 93 8f 9a bd 62 bf 29 be
       0.17346936 0.18877415 -0.07546916 -0.16576913
0000e0 82 33 3b be 69 22 34 3d c1 5d 22 3e 12 b7 d3 bd
       -0.18281367 0.04397813 0.15856077 -0.10337652
0000f0 83 20 3d be 2f a3 47 3e 1b b6 ae bd 06 62 43 be
       -0.18469433 0.19495843 -0.085308276 -0.19080362
000100 23 bb 49 3e 9b d1 4c 3e 09 b5 57 3e fb 67 ea 3c
       0.19700293 0.20001833 0.21065153 0.028614035
000110 89 2a de bd d4 14 39 3e ac c3 81 bc 28 fc 0a be
       -0.10847957 0.18074352 -0.015840374 -0.13572752
000120 bb e6 1d bd 99 a9 32 3e d6 69 6a 3d 11 24 a4 bd
       -0.03855012 0.17447509 0.05722984 -0.080146916
000130 26 99 90 bd e4 de 37 be 16 ee 8d 3d e6 d5 a8 bc
       -0.07060461 -0.1795612 0.06930177 -0.020609807
000140 ac 73 81 bd bc 68 1d 3e bb 74 96 3c d1 e9 27 be
       -0.06320891 0.15371984 0.018366208 -0.16397788
000150 01 9a 24 bd ed 6f 01 3d 2f 62 ff bd 2c 01 8c bd
       -0.040185932 0.03160088 -0.12469899 -0.06836161
000160 3c 42 8c bd a5 67 5b bb 16 49 21 be e8 4d e5 bd
       -0.06848571 -0.0033478525 -0.15750536 -0.111965
000170 f7 fc 3c be f5 ed b0 3d 8e d0 83 3c f1 b9 a0 ba
       -0.18455873 0.08639137 0.016090658 -0.0012262446
000180 79 6e 02 bd 00 cc 9c bd f7 73 02 3c b6 ae a1 bd
       -0.031843636 -0.076560974 0.0079622185 -0.078946516
000190 32 87 61 3d 5c 29 c2 3c 84 99 05 be 10 9d d4 bc
       0.055060573 0.023701362 -0.13046843 -0.0259538
0001a0 a7 3d 85 bc 9d 8c 17 be a9 c2 2d be 6c 09 ed bd
       -0.01626475 -0.14799733 -0.16968788 -0.11574063
0001b0 91 e1 24 be 34 1b 35 bd fd 61 53 3e f1 2f 5b bd
       -0.16101672 -0.044215396 0.20642848 -0.053512517
0001c0 bf a2 ae bd 32 bb 4c bc b4 66 2f 3e 2e cb d7 bd
       -0.08527135 -0.012495803 0.17129022 -0.105368
0001d0 1a fa 21 be 59 1e 2d 3e 9b 82 37 be d4 6a 92 3d
       -0.15818062 0.16906108 -0.17920916 0.07149282
0001e0 3c e7 20 be 30 3d 15 be 3b c7 6f bd 26 8a ee 3d
       -0.15713209 -0.14574122 -0.05853961 0.116474435
0001f0 8d 8f d8 3d 3b 21 1f 3d 25 8a 46 3e 36 8e a2 bd
       0.10574255 0.03885005 0.19388635 -0.07937281

net.network.0.bias_1 f4 [128]
000000 b0 ce e4 bc aa d7 10 be 70 c7 d0 3d 81 b5 aa bd
       -0.027930588 -0.1414477 0.1019429 -0.083354004
000010 eb 62 3c 3e 53 80 f0 3c 2e cd 07 be ee 74 3c bd
       0.18397109 0.029358065 -0.13261864 -0.04600995
000020 e5 3a 50 bc 8f 85 e7 3d e5 a0 0c 3e 4b cb 49 3e
       -0.012709354 0.11304771 0.13733251 0.19706456
000030 0c 21 b4 bd f8 f2 bc bc 03 8b 4a 3e c5 9c 4d bc
       -0.08795366 -0.023065075 0.19779591 -0.012549584
000040 91 f8 0f 3e 2a 7f 42 3e ca 55 11 be 4b 7b c6 bc
       0.14059664 0.18993822 -0.14192882 -0.024228713
000050 32 c6 00 bd 23 7f 16 3e e1 6f 8e 3d bb 91 c5 bd
       -0.031439014 0.14696936 0.06954933 -0.096469365
000060 3d 91 e7 bd 27 71 18 bd f8 88 a7 3d 43 fa 87 3d
       -0.11306999 -0.037217285 0.081804216 0.066395305
000070 2a 3a f2 3d 2b b3 ab 3d bc 59 f8 bd 5d f1 fa 3c
       0.118275 0.08383783 -0.121264905 0.03063267
000080 17 6b 63 3d cf b3 02 3e c9 da d5 bd 7a 14 3b 3e
       0.05552205 0.12763904 -0.104421206 0.1826953
000090 c0 09 26 be 98 d3 34 be 59 1a 8f 3d 60 4a 62 3d
       -0.16214657 -0.17658842 0.06987447 0.05524671
0000a0 52 09 bc bd 62 15 be 3c 87 e3 a0 3c 55 a8 c4 bd
       -0.09181465 0.023203555 0.019639743 -0.09602419
0000b0 7a 5a b4 bc 41 88 b6 bd 96 16 f1 bd 44 ee 3e be
       -0.022015799 -0.08912707 -0.11771886 -0.18645579
0000c0 2e 0a 24 be 30 0a 42 3e 8f 60 2b be 61 96 bc 3d
       -0.16019508 0.18949199 -0.16736053 0.0920837
0000d0 b5 63 12 3e 9b a1 0d 3e ac 55 f4 bd 50 e6 14 3d
       0.14295848 0.13831179 -0.11930403 0.036352456
0000e0 a9 18 84 3d 3e ba d6 3d 36 f5 51 be 30 6a 1b be
       0.06450016 0.10484742 -0.20503697 -0.15177226
0000f0 dc fd 36 3d a4 5b 75 3e 13 ac 55 be 3b 2d 35 3e
       0.044675693 0.2396074 -0.20866422 0.17693035
000100 bd c2 bf bd 2e fb 1e 3d da 9c 1a 3e 6c 68 f8 bd
       -0.09363315 0.038813762 0.15098897 -0.12129292
000110 9f 0c f2 bd 66 e3 1e be c3 7d 12 be 8d 67 f0 bd
       -0.118188135 -0.15516433 -0.14305787 -0.11738501
000120 e5 eb 2e be 7d 64 ba 3d ce 45 6c 3c f7 85 32 3e
       -0.17082174 0.09101198 0.01442094 0.17433916
000130 fa cd 05 3e 38 1d 99 bd 88 1c 5e 3e db 03 49 3e
       0.13066855 -0.07476276 0.21690571 0.19630377
000140 01 4d e9 bd ef f2 30 3e 4f 5f 74 bd f3 a8 39 bb
       -0.113916405 0.17280172 -0.059661206 -0.0028329461
000150 3e 35 e7 bd 8e fd 2f 3e 6d 22 4f be 1e 14 d2 3c
       -0.11289452 0.17186567 -0.20227976 0.025644358
000160 28 2f f4 bb 0e 46 26 be 27 fd 79 3d b7 6f 57 be
       -0.0074519105 -0.16237661 0.06103244 -0.2103871
000170 ff 58 40 3e 0c 7f 8e bc 07 24 33 3e 1b 0f 52 be
       0.1878395 -0.017394565 0.17494212 -0.20513575
000180 29 77 f0 bc 3d 57 83 bd bc c8 14 3e 0d df 98 bd
       -0.029353695 -0.06413124 0.14529699 -0.074644186
000190 f6 68 4c 3d 98 63 cb 3c 32 1d 4c be c2 9c dc bb
       0.049904786 0.024827763 -0.19933012 -0.006732554
0001a0 89 77 28 3e 7d 69 c0 3d 70 d1 ee 3c 21 02 02 3e
       0.16451849 0.0939512 0.029152602 0.12696125
0001b0 53 e5 0e be a0 fd 47 be 9e 2e 57 3d c8 45 cc bd
       -0.13954668 -0.19530344 0.052534692 -0.09974247
0001c0 31 80 15 bb 82 7e 9d bd 85 ea cd 3d bf 86 a7 bd
       -0.0022812004 -0.07690145 0.10054497 -0.08179998
0001d0 75 d2 0c 3e 59 60 52 3c a5 0a 05 bd 8f 32 80 3d
       0.13752158 0.012840354 -0.032480855 0.06259643
0001e0 e1 c6 88 bd 82 56 a0 3c bb 06 0b bd e0 50 27 3e
       -0.06678558 0.0195725 -0.033941966 0.16339445
0001f0 4d c6 0f be d6 6c 82 3d 85 8d 4b 3e 85 6d c8 3a
       -0.1404049 0.06368415 0.19878204 0.0015291428

net.network.2.weight_0 f4 [64, 128]
000000 ca 88 86 bd 3d 5e 1d bd 6c f7 8e 3d 4b 26 b8 bd
       -0.06569059 -0.03841995 0.06980786 -0.08991679
000010 a3 42 9d 3d 9b b8 57 3a 7a f7 22 bb db 9a c0 bd
       0.076787256 0.00082291075 -0.0024866746 -0.09404536
000020 dd b0 7c 3d 68 3a 35 3d bd d6 76 3b f2 99 80 bd
       0.061692107 0.044245154 0.0037664615 -0.06279363
000030 7f bd b4 3c 47 3f a4 3d 80 39 ba 3d a3 ef 34 3d
       0.022063015 0.08019882 0.090929985 0.044173848
000040 c6 95 7a 3d d3 35 a3 bd e6 7a 01 bd 86 f6 82 3d
       0.06117799 -0.079692505 -0.031611346 0.06394677
000050 df 92 04 3d 8c 90 2b bd 62 6a c9 3d 28 f7 21 3d
       0.03236663 -0.041885898 0.09834744 0.039542347
000060 76 ff a0 3c 59 bb 8c bb 71 a0 b6 bc 83 9e 64 3d
       0.019653063 -0.0042947945 -0.022293301 0.05581523
000070 9a 17 8f 3d 73 5f 4e bd cc ab 45 bd c2 e2 91 3d
       0.069869235 -0.050383996 -0.04825954 0.07123329
000080 cf e7 b5 3d 44 c2 e1 bc 91 27 97 bd 5c 06 ae 3d
       0.088821046 -0.027558453 -0.073805936 0.08497307
000090 a9 6a e0 3c d4 f5 48 3d b0 56 2b bd 31 ad 26 bd
       0.02739461 0.049062565 -0.04183072 -0.040692512
0000a0 df 4e a5 bc ee d7 1e 3d 23 35 a1 3a c2 14 8d bc
       -0.02017921 0.038780145 0.0012299161 -0.017221812
0000b0 40 5e 52 3d 68 49 80 bd 06 5b 04 3d 81 09 1a bc
       0.051359415 -0.06264001 0.03231337 -0.00940168
0000c0 1a e3 9f bc 48 37 ae bc da 0c 00 bb 33 8f ae 3d
       -0.01951747 -0.021266595 -0.001953891 0.08523407
0000d0 0f 2c 21 bc 91 ba d6 3c 09 e8 a9 3d 81 d1 6e bc
       -0.009837165 0.026212009 0.0829621 -0.014576317
0000e0 44 21 82 3d 3f 0d 1b 3d c0 04 75 bd 32 0e ad b7
       0.06354001 0.03785443 -0.059818983 -2.0629817e-05
0000f0 d8 d4 89 bd cf 3c 5b bd 86 a4 a1 3d c6 37 a4 bd
       -0.0673005 -0.05352479 0.078927085 -0.080184504
000100 f2 95 ac bd 24 86 a7 bd 83 92 44 3c 33 e5 a2 bd
       -0.08427037 -0.08179882 0.011997822 -0.079538725
000110 5b 87 51 bc 8d 08 5b bc 71 82 71 3d 3c f7 a3 bd
       -0.012788619 -0.013368738 0.05896229 -0.080061406
000120 c2 c3 dc 3c a2 ee cd bb d0 41 23 bd ae f2 7b 3d
       0.026948813 -0.0062845508 -0.039857686 0.061510734
000130 ea 60 63 bc 51 6f 47 3d 6f 12 25 bd c1 c1 ea bc
       -0.013878087 0.048690144 -0.040300783 -0.028656842
000140 84 95 a6 bc ad 42 04 3d 41 1f 4d ba 8e 30 5e 3c
       -0.020334966 0.03229015 -0.00078247866 0.013561381
000150 ce 02 db bc d5 d9 66 bd f7 1e b6 3d 6c 82 06 3d
       -0.026734736 -0.056360085 0.08892625 0.032839224
000160 af 88 96 bd 82 54 96 3d 59 5c b0 3c 32 14 9b 3d
       -0.07350289 0.07340337 0.02152841 0.07572211
000170 0b e4 8c bd 07 24 72 3d c1 35 6d 3d e8 0a 94 bb
       -0.06879433 0.05911639 0.05791259 -0.0045179017
000180 42 0e a1 3d 9e b4 9d 3d 36 1c 93 bd 7f 25 11 3d
       0.078640476 0.077004656 -0.07183115 0.03543615
000190 3f d3 85 bd 71 b2 24 bb 9d df 71 3d b2 0d 93 3d
       -0.065344326 -0.0025130773 0.059051145 0.071803465
0001a0 63 3d a4 3d b9 b1 b1 3d 37 2b 8f bd 55 84 9a bc
       0.08019521 0.08676476 -0.069906645 -0.018861929
0001b0 6e e6 7f 3d 1b f1 f7 3c 4f 2f 34 bd 84 f8 3a 3d
       0.062475614 0.030266335 -0.04399043 0.04564716
0001c0 57 fe 4f 3b 7e 12 c4 ba 8c 5b 8d 3c 8d e0 d8 bc
       0.0031737292 -0.0014959124 0.017255567 -0.026474262
0001d0 cc d8 5f 3d 71 32 63 bd c1 a7 80 3c d0 48 c4 3d
       0.054650113 -0.055468027 0.015704991 0.095842004
0001e0 5e 2e 58 3d bc 2d 10 3d cb b1 a0 3d 21 38 cc 3d
       0.052778594 0.035199866 0.07846411 0.09971643
0001f0 38 ef 2d 3d d0 39 67 bd 1d f8 0e 3c b9 f9 8a bb
       0.042464465 -0.05645162 0.008726147 -0.004241195
000200 fc 20 83 3d 11 85 ba bb 2b b9 40 3d c6 54 a6 3d
       0.06402776 -0.0056921323 0.04705159 0.08121638
000210 13 41 80 3d 13 47 1f 3c ac 9d ea bc 3d 4b 90 3d
       0.06262412 0.009721535 -0.028639637 0.070456006
000220 28 fc 5d 3d 8b e2 9f bd 9e 3b ba bc 1f 3d 0d bc
       0.054195553 -0.078068815 -0.022733506 -0.008620529
000230 b6 17 ab 3c 7e 96 01 3d 91 88 83 3b 46 6e 46 bd
       0.02088533 0.03163766 0.0040140827 -0.04844501
000240 d7 b5 23 3c ae b8 2b bd c9 77 df bc 82 77 9a bd
       0.0099920845 -0.04192417 -0.027278798 -0.075423256
000250 ed 13 f2 bc eb 99 ef 3c 65 ec 82 3d 05 19 60 3d
       -0.029550517 0.029248198 0.06392745 0.05471136
000260 21 25 c9 bc b7 94 b9 3d a7 08 1d bd 17 16 bc 3c
       -0.024553837 0.09061568 -0.03833833 0.022959752
000270 85 85 be 3d 11 d8 a8 3d 13 b3 ac 3d 4d 81 7c bd
       0.093028106 0.082443364 0.08432593 -0.06164675
000280 5a 80 85 3d 7f 7f 8d 3d 3b e4 89 bd a2 11 7d 3d
       0.06518622 0.069090836 -0.06732985 0.061784394
000290 91 b0 02 3d 69 fa 1b 3d 84 10 20 b9 8e 89 c5 3c
       0.031906668 0.038080607 -0.00015264942 0.024113443
0002a0 d9 61 6c bd 36 5c c5 3d a9 85 3d bd 1d 9a a2 3d
       -0.057710502 0.096367285 -0.046270046 0.07939551
0002b0 3d 59 18 3d 8e 07 9c bd 6c 54 a4 3c 38 99 82 bd
       0.03719448 -0.076186284 0.020059787 -0.063768804
0002c0 13 86 a0 3d 39 40 af 3d 05 4e fb 3c 3c bf ff 3c
       0.07838073 0.085571714 0.030676851 0.031219117
0002d0 b8 07 ba 3c cc e3 5b 3d 42 03 65 3c 38 b9 a1 bd
       0.022708759 0.05368404 0.0139778275 -0.07896656
0002e0 8d 1e 98 bd de 5b 03 3d 26 18 c9 3c a4 66 a9 3d
       -0.07427702 0.032070033 0.024547648 0.0827153
0002f0 0f 36 7c 3d 7c 8d aa bd 20 ee dd bb 80 b2 69 bd
       0.06157499 -0.08327767 -0.0067727715 -0.057054996
000300 cd 42 3c bd 17 2a 56 3d 73 b9 36 3d 4c f8 87 3d
       -0.045962144 0.052286234 0.044610452 0.06639156
000310 26 eb 9f 3d e1 73 e0 3c 6b 55 b8 bd 6b 15 a4 3d
       0.07808523 0.027399005 -0.09000667 0.08011898
000320 8a 50 61 3c 0c 0f c0 b9 4d 0f 17 bd 9f fa 92 3d
       0.013752112 -0.00036632305 -0.036879826 0.071767084
000330 ba 6d a0 3d ca 96 52 bd bd 14 59 bd 5e 52 7a 3d
       0.07833429 -0.051413335 -0.052998293 0.061113708
000340 aa d5 2c bd 77 c4 64 bc bd 9d a6 3c c5 e1 40 3d
       -0.042195953 -0.0139628565 0.020338887 0.04709031
000350 43 8b 80 bd f8 98 6d 3c 31 b7 56 3d 7f 06 88 3d
       -0.06276562 0.014501803 0.0524208 0.06641864
000360 71 da 27 3d b0 86 0e 3d 55 c8 f7 bc 16 21 27 bc
       0.040979806 0.034796417 -0.030246893 -0.010200759
000370 85 a7 0b 3d c4 37 8b 3d 7a 01 a6 3d 4e 7a b3 3d
       0.034095306 0.06797746 0.081057504 0.08763562
000380 71 51 a0 3d 09 9e ea 3c 69 f3 67 bd 7e b3 1f 3b
       0.07828034 0.02863981 -0.05662862 0.002436846
000390 91 89 04 3d ce 20 3d bd 2e 98 ed 3c 64 f6 8a bd
       0.032357756 -0.046173863 0.029003229 -0.067852765
0003a0 49 65 0d 3d f4 63 96 bd d4 fd e9 bc 33 7f 06 bc
       0.03452042 -0.07343283 -0.028563417 -0.008209038
0003b0 63 f4 94 bd 10 8b 56 3d 4e b0 04 3c 52 69 75 bd
       -0.072731756 0.052378714 0.008098675 -0.059914894
0003c0 ea e2 97 3d a3 0e 08 3d 99 be 99 bc 4f 9a 8d bd
       0.07416327 0.033217084 -0.018767642 -0.06914198
0003d0 3a 79 1c bd 10 00 0a bd bb f1 2d bc e2 38 36 3b
       -0.03820155 -0.033691466 -0.010616715 0.00278049
0003e0 71 5e 60 3d fb 71 f6 bc 2d 62 ef bc b8 16 71 bd
       0.054777566 -0.030083647 -0.029221619 -0.058859557
0003f0 26 bc 4d 3b a0 a2 c0 bc 35 28 92 3d 51 c8 90 bd
       0.0031392663 -0.023515046 0.07136575 -0.07069457

net.network.2.weight_1 f4 [64, 128]
000000 83 8a a6 bd f6 2c 0e 3d 09 91 22 bd 19 db a5 3d
       -0.08131888 0.034710847 -0.039689098 0.0809843
000010 f9 03 c8 bc 1e bf 06 3d 40 6a a0 bd 19 3f 63 bb
       -0.024415957 0.032897107 -0.078327656 -0.003467506
000020 e3 75 85 bd c6 42 6d bd 21 a2 6f bd cd c3 7d bd
       -0.06516626 -0.05792501 -0.058504228 -0.06195431
000030 42 47 7f 3d 7d f2 89 3c 63 d3 a3 3d 6f 81 95 3d
       0.062323816 0.01683926 0.07999303 0.07300078
000040 a1 e4 73 3d 31 97 c1 3c 0a fa 8d bd ec 55 ae bd
       0.05954421 0.023631664 -0.06932457 -0.08512482
000050 99 0b 72 3d 67 2d 3d bb d0 04 88 bc ba cd 9b bd
       0.05909309 -0.0028866173 -0.016603857 -0.076075986
000060 2a 7e 06 bd f9 9f 97 3d 38 8b 6c bd c3 31 3d 3d
       -0.032835163 0.07403559 -0.057749957 0.046190035
000070 57 52 1a bd 7b c0 b0 bd 46 68 d0 3c 26 48 85 bd
       -0.03767618 -0.08630463 0.025440346 -0.06507902
000080 5e 36 2b 3d 7e ce 05 bc 08 4e 8d bd 9c 2f b7 bb
       0.041799895 -0.008166907 -0.06899649 -0.0055903923
000090 6d 2d 87 bd ef c3 90 3b 3a fb 99 bd 5c 8b fe 3b
       -0.06600461 0.0044178884 -0.07518621 0.007768078
0000a0 4e 52 5a bd 02 46 9e 3c 39 41 16 bd 47 82 d1 bc
       -0.053301148 0.019320492 -0.036683295 -0.025574816
0000b0 22 ef 9e 3c 78 2e 99 3d 62 9e f1 3c c0 85 4c bd
       0.019401137 0.07479566 0.029494468 -0.04993224
0000c0 32 96 66 bd 80 e9 5f 3b c0 d2 96 3d ae b6 a9 bd
       -0.05629558 0.0034166276 0.07364416 -0.082867965
0000d0 cf 4e 52 bd 59 bc dd bc f3 db a8 3d c5 d7 ec ba
       -0.05134469 -0.02706735 0.08245077 -0.0018069675
0000e0 db 1e bb 3b b4 46 91 bd 56 0b 5e 3d 9b 2e 6c bc
       0.0057104654 -0.07093564 0.05421003 -0.0144154085
0000f0 e4 64 0b 3d 19 6d f6 3b ff d4 4c 3d 30 ea 67 bd
       0.034031764 0.0075203297 0.050007816 -0.056619823
000100 0e 2d 63 3d 48 f6 07 bd 16 f6 f0 3c 90 79 a4 3c
       0.05546289 -0.033193856 0.029414218 0.020077497
000110 cc 85 a2 3d e4 9d 76 3d 05 36 89 3d 58 7d ab bb
       0.07935676 0.06020917 0.066997565 -0.005233448
000120 62 42 65 3d 3d 8e 4c bb 6e cf 4f bc f6 65 ee bc
       0.05597151 -0.003121271 -0.012683732 -0.029101353
000130 26 e5 af bd 6e 76 95 3d 0b 69 e5 bc 2e 9f ec bc
       -0.085886285 0.07297979 -0.02800419 -0.028884497
000140 07 ec b1 3d f8 77 d2 3c 76 ce 65 bd a9 7b 90 bd
       0.08687597 0.025691971 -0.0561051 -0.07054836
000150 5a bf 6e 3d c5 83 a1 3d 95 43 62 3c 9e 84 c6 3b
       0.058287956 0.07886461 0.013810058 0.0060582897
000160 25 34 9e 3b 19 7d 60 3d 11 35 7a bd 5c 8c 56 3d
       0.0048279935 0.054806802 -0.061085764 0.05237995
000170 a2 88 5f bd 31 61 3e 3c 57 04 39 3d 17 c0 95 bd
       -0.054573663 0.011619852 0.045170154 -0.07312029
000180 67 ed c2 bc 5a b5 a5 bd c0 c8 71 3d b3 5c 16 bd
       -0.023794843 -0.08091231 0.05902934 -0.0367095
000190 9a 9b a0 bd 68 45 a7 bd 2c 42 ad bd 53 96 2a bd
       -0.07842179 -0.08167535 -0.08459887 -0.041647267
0001a0 de 07 a5 3c db 0b ce bc 45 55 3f 3d fe 23 84 3d
       0.020145353 -0.025152138 0.04671218 0.064521775
0001b0 30 75 85 3a 18 55 04 bd 81 bd 91 bd 26 d4 8e bb
       0.0010182019 -0.032307714 -0.07116223 -0.004358786
0001c0 a9 80 fa 3a 8c 92 91 3d 32 4c 5b 3c 67 e5 ac bd
       0.001911183 0.0710803 0.013384866 -0.084421925
0001d0 87 e1 f8 bc a4 22 38 bd 7f e5 0c bd 13 b9 da 3c
       -0.030380977 -0.04495491 -0.034398552 0.026699578
0001e0 58 53 a1 bc fb 69 b4 3d 02 e7 68 3d c0 f0 8b 3d
       -0.019693062 0.08809277 0.05686093 0.06833029
0001f0 ea a7 65 bc f7 71 88 3d 21 07 16 bd 2a 7f 59 3d
       -0.014017085 0.06662362 -0.036627892 0.05309979
000200 c5 4f b5 3c 75 13 a1 bd 9b 28 9d bd 4c e6 8b 3d
       0.022132764 -0.07865039 -0.076737605 0.06831035
000210 61 95 ac bd 97 b3 77 3d 61 4a 94 bd 3f 68 46 bd
       -0.08426929 0.060474005 -0.07240749 -0.04843926
000220 1d fd 8e bd f6 05 88 3c e3 ce ae 3d da bf 16 3c
       -0.06981871 0.016604405 0.08535554 0.009201014
000230 57 07 21 3d 77 17 d4 bc 3c d6 b5 bc 82 eb a1 bd
       0.03931364 -0.025890095 -0.022196881 -0.07906248
000240 0a 17 44 bd 28 7b 9c 3a 64 5c 95 bc ef f7 59 3d
       -0.047873534 0.0011938559 -0.018232532 0.053214964
000250 67 c6 45 3d 37 47 31 bd 90 21 c3 bc cf 47 4f bc
       0.048284914 -0.043280806 -0.023819715 -0.012651398
000260 e8 19 96 bd f5 36 cb 3b de ea 9d 3d 9d 19 d9 3b
       -0.0732916 0.0062016197 0.07710813 0.006625368
000270 80 7f 30 3d 94 29 13 bd 28 54 fd 3b dc c6 3c bd
       0.043090343 -0.035928324 0.0077309795 -0.046088085
000280 ca 24 54 bd d2 54 b8 3d cf a1 48 bd db 66 27 3d
       -0.051792897 0.09000553 -0.048982438 0.040869575
000290 5c 66 48 bc 40 8d 94 bc 82 9a a5 3d ce 8f 12 bd
       -0.012231436 -0.01813376 0.08086111 -0.035781674
0002a0 27 12 42 3d 5a c6 6d 3d 27 5a 9a 3d bd a7 c4 bb
       0.047380593 0.05805049 0.075367264 -0.0060014413
0002b0 e6 7c b6 3c 3a 57 b5 3b 8f d5 6b bc de 12 b6 3c
       0.022276353 0.00553408 -0.014394178 0.022225793
0002c0 7a 46 e7 bb ba 7c 95 bd 30 93 9e bd 07 e1 5b 3d
       -0.007057962 -0.0729918 -0.077429175 0.0536814
0002d0 2b 47 33 3d ee d3 ec bc 3a 7d e1 bc bb 81 9d bd
       0.043769043 -0.02890965 -0.027525533 -0.0769076
0002e0 96 36 64 bd 08 71 6e 3d 3d 6c 61 3d b5 1b 02 bd
       -0.05571612 0.058213264 0.055034865 -0.031764705
0002f0 df f0 a7 3d 26 5d 9d 3d cf 06 76 bd 63 76 15 bd
       0.082002394 0.07683782 -0.060065087 -0.036489855
000300 ec f0 74 3a 54 90 bb 3d b7 07 9b 3c 44 9e 9c bd
       0.00093437615 0.09158388 0.018924577 -0.07647374
000310 70 92 3d 3d b6 1e b8 bc 48 19 01 bd ad dc 06 bd
       0.04628223 -0.022475582 -0.03151825 -0.032925297
000320 2e 65 a5 bd 9c 9f 13 bb 24 50 9e 3d ac 08 88 bd
       -0.08075939 -0.0022525555 0.07730129 -0.06642279
000330 63 4d db b9 65 bc ba 3d 43 69 9f 3d fd ac cc 3d
       -0.00041828593 0.09117965 0.07783749 0.099939324
000340 cc 9a 3f 3d 2a 35 09 3d 54 bd a2 bd d7 86 5f bd
       0.046778485 0.033497967 -0.07946268 -0.054571953
000350 59 7d 79 bd aa 29 b8 3d a7 6f d6 3c 23 0b ae 3d
       -0.060910556 0.08992322 0.026176287 0.08498218
000360 86 26 d3 3c 51 23 7f bd e6 71 76 3d 11 83 0d bd
       0.025775205 -0.06228954 0.060167216 -0.034548823
000370 d9 c9 31 3d 00 4c 9c 3d 12 60 db bc 98 50 d1 3d
       0.043405388 0.07631683 -0.026779208 0.1022045
000380 03 d4 81 3c 74 49 95 3c 59 c9 a9 bc c4 05 b4 bd
       0.015848165 0.018223502 -0.020725893 -0.08790162
000390 1a d5 b2 3d 51 1a a2 bd 2a 64 5b 3d e7 3b 1e bd
       0.08732052 -0.07915176 0.05356232 -0.038631346
0003a0 d2 08 65 bd 83 c5 01 3c 64 24 18 3b e5 dc 93 bc
       -0.055916615 0.007920626 0.002321505 -0.018049667
0003b0 89 71 e2 bc 72 59 a0 bb 15 3f 29 bc 56 ae 7e 3d
       -0.027642028 -0.004893475 -0.010329981 0.06217798
0003c0 cc 7e 80 3b 81 87 18 bd eb 51 a9 3a 0f 50 8d 3d
       0.0039213654 -0.0372386 0.001291809 0.069000356
0003d0 4f 2f b5 3d 3a dc f1 3c 4c 6f 7a bd af 5e 0a 3d
       0.08846914 0.029523958 -0.061141297 0.033781704
0003e0 5e 49 a6 bd dd 8d 09 bd bf 57 4e 3c 47 29 f5 bb
       -0.081194624 -0.033582557 0.0125941625 -0.0074817273
0003f0 07 3f 05 bd 31 87 e4 bc 0d c1 9f 3d 27 a4 67 bd
       -0.03253081 -0.027896496 0.078004934 -0.056553032

net.network.2.bias_0 f4 [64]
000000 18 37 82 bc 44 c3 98 3d 1a bb 6e 3d de 94 9f bd
       -0.015895411 0.07459119 0.058283903 -0.07792066
000010 64 fa 22 3e 32 52 b8 3b a4 59 fc bc 31 08 a5 3d
       0.15915829 0.005625033 -0.030804463 0.08058203
000020 02 2f fb 3d 35 c2 66 3d 32 07 18 3c e3 32 7e 3d
       0.122648254 0.056337554 0.009279059 0.062060248
000030 0e 78 ba 3d 1a b3 71 bc 6b c5 22 bd 8e 7d aa bd
       0.0910493 -0.014752174 -0.039739054 -0.08324729
000040 08 fb ce 3c 71 90 f0 3b c8 65 99 3d f9 5a 81 bc
       0.025266185 0.0073414375 0.07490116 -0.01579045
000050 bb e8 3f 3e 4f 33 d2 3c bc 94 2b 3e 76 19 8d bc
       0.18741123 0.025659231 0.16755956 -0.017224055
000060 29 88 34 bd 7e a7 d4 bb 13 9e 26 bd df 49 e4 3d
       -0.044075165 -0.006489693 -0.040678095 0.11146902
000070 d2 04 d3 3d 9e 60 11 3e bf 7e 69 3d fa a6 03 3e
       0.10303654 0.14197013 0.05700564 0.12856665
000080 7c 6d ef 3c e7 60 8c bd a2 54 85 3d 0c b2 6b bc
       0.02922701 -0.0685442 0.06510283 -0.014385711
000090 6a 63 63 3d 44 52 2f 3d f7 65 4e 3d ae e8 86 bd
       0.05551473 0.042803064 0.05039021 -0.06587349
0000a0 49 ea 4b 3d 1f d0 35 3e 38 b6 98 3b 79 e2 ae 3d
       0.04978398 0.17755173 0.004660394 0.0853929
0000b0 ae 4e a6 3b b1 b2 93 3d 54 ca be 3c 34 32 2c bb
       0.0050752973 0.07211817 0.023289837 -0.002627504
0000c0 00 06 6f 3d 63 17 35 bd 21 95 6d bd dc 46 ce 3c
       0.05835533 -0.044211756 -0.05800355 0.025180273
0000d0 a3 26 87 bd b9 48 87 bd 90 4c 47 bd 9c e0 12 bd
       -0.06599166 -0.066056676 -0.048657 -0.035858735
0000e0 4a d2 bd 3c af a2 a1 3d 9b aa a7 bb 2c 93 c0 3d
       0.023171563 0.078923576 -0.0051167733 0.09403071
0000f0 cb 31 ae 3a be 9b cf 3d e4 4d 44 3d c5 d0 2a bc
       0.0013289986 0.10137127 0.047925845 -0.010425751

net.network.2.bias_1 f4 [64]
000000 97 10 22 bd 9d ca ce 3d 5c 40 32 3c b0 ac 9b 3d
       -0.039566603 0.10097239 0.010879602 0.07601297
000010 4c e3 83 3d 0b 0e 93 3d 86 d0 66 bc 22 0c 4e 3d
       0.06439838 0.07180413 -0.014087802 0.05030454
000020 ea 1e 73 3d 46 26 a3 3c 91 d3 33 3d 7f a3 7a 3c
       0.059355654 0.019915711 0.043902937 0.01529777
000030 d9 01 c5 3d 5e e3 a9 3d 77 2f 6d bd 94 e4 33 bd
       0.09619493 0.0829532 -0.057906594 -0.04391916
000040 ad 88 aa 3b f1 a0 ce 3d b4 62 89 3d 34 b1 f1 bb
       0.0052042813 0.10089291 0.06708279 -0.0073758606
000050 84 c7 a7 3d a4 f3 13 3c 78 6a f5 3d f8 a5 4d 3d
       0.081923515 0.009030256 0.11983198 0.05020711
000060 f0 b8 a4 3b 46 00 1e bd 7b 69 83 bc 45 24 ce bb
       0.005026929 -0.03857448 -0.016041508 -0.0062909448
000070 15 c6 85 3c ca 17 22 3e c5 6e a6 bc 23 dc 64 3d
       0.016329804 0.15829387 -0.02031649 0.055874
000080 4d 65 51 bd 9f 08 96 bd e4 5a fd bc b9 10 49 39
       -0.051122 -0.07325863 -0.03092713 0.00019175083
000090 58 7c e1 bc 3b 9e 7a bd 7c 73 88 bd 60 46 50 bd
       -0.027525112 -0.061186057 -0.06662652 -0.050848365
0000a0 82 bd 63 3d 6d 1e 21 3e 5a 01 00 3e e3 ed 2b 3e
       0.05560065 0.15734263 0.12500516 0.16789965
0000b0 73 fb c2 3d 4b fb 23 bd 79 77 35 3d 03 b9 3a 3c
       0.095206164 -0.040034574 0.04430339 0.011396649
0000c0 10 09 3b 3d a3 0c 4b 3d c9 b9 ac bd 11 d1 db 3c
       0.04566294 0.0495726 -0.08433873 0.026833089
0000d0 da ca 87 3c cb ec 48 3d 92 2a 60 bd ac ef 05 3d
       0.01657622 0.04905395 -0.0547281 0.032699272
0000e0 fc 35 58 bd 18 69 d0 3c a8 ed c0 bc 27 72 b4 3d
       -0.05278586 0.025440738 -0.023550823 0.08810835
0000f0 a3 9a 70 3a 5c 9c e2 3d 17 f3 00 bd 56 3d 05 bc
       0.0009178316 0.110649794 -0.03148183 -0.008132299

net.network.4.weight_0 f4 [16, 64]
000000 b0 fb cb 3d c1 a5 5a 3b 7b ea 65 3d 01 96 43 bd
       0.09960115 0.0033362957 0.05613182 -0.047750477
000010 6b 09 e8 bd b5 ec f3 bc 83 ff c8 3d d4 c6 5a 3d
       -0.11329921 -0.029775957 0.0981436 0.053412274
000020 62 2d 7c bd 57 5d b6 bd 22 17 e1 3c 32 d6 82 3c
       -0.061566718 -0.08904522 0.02747685 0.015971277
000030 de 25 bf 3d f5 90 bb bd 76 cd 9f 3d d3 e2 bc 3d
       0.093333945 -0.09158508 0.078028604 0.09222951
000040 34 29 8b 3d 68 a6 32 3d 2b 11 8e bd a2 4f 0f bd
       0.06794968 0.04361573 -0.06936868 -0.034988053
000050 48 61 bb 3d 86 0e 10 bc 44 10 f2 3b 19 a1 0f 3b
       0.09149414 -0.008792525 0.007387193 0.002191609
000060 c7 84 f8 bd 7a a3 ce bd e5 21 ec bd 5a 9c 7b bd
       -0.121347 -0.100897744 -0.11529902 -0.061428405
000070 b5 47 eb 3d 60 45 59 bc 2d 9c b6 bd d6 e9 a5 3d
       0.114882864 -0.013261169 -0.08916507 0.08101241
000080 56 26 29 3d d5 d3 d4 bd 89 b8 a7 bd 9d 47 8e bd
       0.041296326 -0.10391966 -0.08189494 -0.06947253
000090 12 d9 e7 3c bf 51 12 3d 4b 90 4b 3d 05 9f 51 bd
       0.02830175 0.03572249 0.049698155 -0.051177043
0000a0 2c 3d 44 3b fc 99 9c bd ae 01 fc bb a7 f0 39 bd
       0.0029943688 -0.07646558 -0.00769063 -0.04539552
0000b0 de 1c ab bd f5 69 1b 3d e1 3a b1 3d b4 d1 22 3d
       -0.08355115 0.037942845 0.086538084 0.03975077
0000c0 50 2c 1a 3d 8a 9b 6d 3c 6a bf 0c 3d 58 7f 03 be
       0.037639916 0.014502415 0.034362234 -0.12841547
0000d0 1c af fd bd 55 9d 90 bd 40 0a c8 3c 71 ca 32 bd
       -0.12386915 -0.07061259 0.02441895 -0.043650094
0000e0 cd 06 6b 3c ad 01 9a 3d ff 39 ba bd 94 57 a4 bd
       0.014344883 0.07519851 -0.09093093 -0.08024517
0000f0 c4 30 b1 bd c0 49 8c bd 25 88 93 3d 1c 0f 9c 3d
       -0.086518794 -0.06850004 0.07203702 0.076200694
000100 4f bb 7f bd 1b 11 52 3e 4d e6 3a bc eb 4a c4 bd
       -0.06243449 0.20514338 -0.011407447 -0.09584602
000110 28 e4 74 3d 03 90 5c 3e 06 a9 2f 3d 41 d1 a1 bd
       0.0597879 0.21539311 0.042885803 -0.0790124
000120 5d 29 8a 3d 82 f4 08 ba b3 23 10 3e 2d d7 30 3e
       0.06746171 -0.0005224423 0.14076118 0.17269583
000130 97 08 cc bd 7b 77 c1 bd d3 2b ad bd 20 34 5d bc
       -0.09962576 -0.09446617 -0.084556244 -0.013501197
000140 38 33 f8 3d ad 8e 38 3e d4 d7 8a 3d c0 fd 39 3e
       0.12119144 0.18023176 0.06779447 0.18163204
000150 2d b9 8e bc 19 b3 d0 bd 38 04 c4 ba 0d b4 82 bd
       -0.017422283 -0.1019041 -0.001495487 -0.06381998
000160 85 ff 30 3e 3c a3 c6 ba 47 95 09 3e 6c 78 57 3e
       0.17284973 -0.0015154849 0.13435851 0.21042031
000170 4c 03 12 3c 4d f4 d5 3e 76 59 02 be 6f 2a 8c 3e
       0.008911919 0.4178795 -0.12729439 0.27376124
000180 d2 ae f2 3d e0 64 87 bd 35 31 37 3c 5d 94 98 bd
       0.118497506 -0.06611037 0.011181165 -0.07450173
000190 4c 83 ed bd f8 b3 66 3d 8b fd ea bc a1 26 fd bc
       -0.115973085 0.056323975 -0.028685352 -0.030902209
0001a0 ee 03 aa bd f3 f3 90 bd 78 7e ed 3d 05 34 35 be
       -0.08301531 -0.070777796 0.115963876 -0.17695625
0001b0 69 f6 1f 3e 23 a6 a4 bd 37 b3 ad bd 9f 38 0f 3e
       0.15621342 -0.080395006 -0.08481448 0.13986443
0001c0 c5 e9 01 be f5 87 b3 3d 0d 3f 86 3d 9c f9 3a 3e
       -0.12686832 0.08766166 0.06554995 0.18259281
0001d0 9c de d1 3d 9b d6 b7 bd ea cf 8b 3d 5c 08 ef bd
       0.102475375 -0.089764796 0.06826766 -0.11671516
0001e0 51 ad d2 3d e9 b4 fc 3d c6 89 41 bd 4a 53 fb 3d
       0.10286964 0.123391934 -0.04725053 0.122717455
0001f0 10 86 3f 3b 10 df e1 3d a6 81 17 3e 13 c6 95 bd
       0.0029224195 0.11028874 0.1479555 -0.0731317
000200 9e 18 84 bd 86 82 05 bd a7 14 d9 bd 1e e1 4f 3c
       -0.06450008 -0.03259518 -0.10599642 0.012687949
000210 e9 ea bd 3c 73 85 c0 bd b3 d6 da 3d 20 a9 87 3c
       0.023183303 -0.094004534 0.10685482 0.016560137
000220 c5 06 76 bd de cc ca 3d 68 0b ef bc 39 44 f5 bd
       -0.06006505 0.099023566 -0.029180244 -0.11975903
000230 bd fe 8b 3b ec 87 fd bc 65 0a 9f bd 53 38 0f bc
       0.0042723105 -0.030948602 -0.077656545 -0.008741456
000240 5b b7 e7 3c d5 16 23 bd fc fc f3 3d f7 d3 9f 3c
       0.028285673 -0.039816696 0.11913487 0.019510252
000250 de 4f c5 bd 70 5a 99 3c 20 12 58 bc 88 d6 cb bd
       -0.09634374 0.018719882 -0.013187915 -0.09953028
000260 32 99 cb bd 94 19 01 bb 74 56 20 3d e9 e1 c3 bd
       -0.09941329 -0.0019699084 0.039144948 -0.09564573
000270 ed 8b 41 bd 0b 52 b8 bd 96 39 66 bb db 40 bf bd
       -0.047252584 -0.090000235 -0.0035129539 -0.09338542
000280 4a 20 44 bd 82 c4 2d bc 36 92 f7 3d 9a c6 86 bd
       -0.047882356 -0.010605933 0.120884344 -0.06580849
000290 77 6d e8 bc 62 f7 b8 3d 76 8c 24 bd 37 7b 87 bd
       -0.02837251 0.090315595 -0.040173016 -0.06615298
0002a0 96 b9 c3 bd ea fb 8f 3c 4a e2 43 3d c7 41 ca bd
       -0.09556882 0.017576177 0.047823228 -0.09875827
0002b0 f1 e7 9b bc bc 82 f1 bd c1 91 e1 3d 5f 75 d7 3c
       -0.019031497 -0.11792514 0.110141285 0.026301084
0002c0 66 ef 80 3d 48 b4 cd ba 96 0c 5a bc 4b 70 ce 3d
       0.06295662 -0.0015693987 -0.013308665 0.10080012
0002d0 03 95 f7 bd 6d 42 bb bd 9e 70 c5 bc 1b 43 b0 bd
       -0.120889686 -0.09143529 -0.024101552 -0.08606549
0002e0 36 7c 4a bd eb 1b c4 bd 33 e6 b0 3d 5c 31 a0 bd
       -0.049434863 -0.095756374 0.08637657 -0.078219146
0002f0 fb d1 a5 bd c2 27 10 bd 47 3b 3c 3d 30 b4 eb bd
       -0.08096691 -0.035194166 0.04595497 -0.115089774
000300 04 f8 ca bd d5 58 73 bc 1e a1 ef bd e2 24 e5 3d
       -0.099105865 -0.014852722 -0.117006525 0.111886755
000310 33 36 e5 3d a7 ff b2 3d b6 38 6a 3d 92 71 a1 3d
       0.11191978 0.08740168 0.05718299 0.0788299
000320 aa c0 87 bd fe 8b e8 bd 6a 1f ae bc 6e 7f 35 3e
       -0.06628545 -0.113548264 -0.021255214 0.17724392
000330 4e 02 df 3c d7 c9 8a 3c d4 56 f2 3d 6c be 84 bd
       0.027222779 0.016941948 0.118329674 -0.064816326
000340 f3 09 79 bb 35 65 f4 3d 26 c7 33 3e 31 22 b1 bb
       -0.0038000315 0.11933366 0.17556438 -0.0054056873
000350 fb e4 ef bd 7d bb 04 be 7e bf 8a bd 92 23 86 3c
       -0.117135964 -0.12962146 -0.067748055 0.016374383
000360 14 34 4d 3d 54 e5 07 3d 6f 85 c8 bd e2 bf 81 bd
       0.050098494 0.03317769 -0.097910754 -0.06335427
000370 10 ab 61 3c 4e 3e 70 3e 20 96 bb bd d1 37 e2 bb
       0.013773695 0.23461267 -0.091594934 -0.0069036265
000380 38 0c 50 bd 78 44 57 bd e7 c7 f2 3c 96 98 e4 bc
       -0.050792903 -0.05255553 0.029636336 -0.02790479
000390 67 8a d5 bd e7 71 55 3c 70 60 48 3d ce 2e 51 3d
       -0.10426789 0.013027645 0.048920095 0.051070027
0003a0 43 1c d9 bd 3d 91 96 3d 05 d7 c4 bd 8f d8 d4 bc
       -0.106010936 0.07351921 -0.09611324 -0.02598217
0003b0 fb 00 2d 3e 27 5e d1 bd ee a2 b7 bd 29 83 8a bd
       0.16894905 -0.10223036 -0.08966623 -0.06763298
0003c0 0c 8f e7 bd fe e7 13 bd 67 ca 0a 3d eb b5 8b 3c
       -0.11306581 -0.036109917 0.033884432 0.017054519
0003d0 0e 39 35 bd fd 88 5d 3c fd d2 91 3c d6 f5 bb 3d
       -0.044243865 0.01352143 0.017800802 0.09177749
0003e0 94 e5 6b 3d c9 7f a8 3c ef eb 02 3e 74 dd 50 bc
       0.05759199 0.020568745 0.12785314 -0.012748111
0003f0 40 2f ee bd fe dc 94 3d 94 a8 bd bc 33 1b 9a 3d
       -0.11630106 0.072687134 -0.023151673 0.07524719
