models/heloc/rs/sgd_epochs30_lr0.1_batch64_dropout0/bezier_296.pth (torch, 105195 bytes, 19 tensors)

coeff_layer.binom f4 [2]
00000000: 0000 803f 0000 803f
1.0 1.0

coeff_layer.range f4 [2]
00000000: 0000 0000 0000 803f
0.0 1.0

coeff_layer.rev_range f4 [2]
00000000: 0000 803f 0000 0000
1.0 0.0

net.network.0.weight_0 f4 [128, 23]
00000000: f309 4d3e 40d0 5c3e 8074 edbd b134 0ebb
00000010: 4a5c bbbc 6bd4 033e 4179 ee3d ba7c 31be
00000020: 9859 0abe 301e 083e 1c61 d13d 726d 72bb
00000030: 473f 0fbc c7a3 ac3d cc79 da3a c652 e03d
00000040: 06cc 22bd 606e 363e e759 14be 7c3b 0fbe
00000050: e9fd 073d cc9d 31be 01a7 373e 4489 0dbe
00000060: 5122 16be 0452 51be 529a 55bd 03ce cbbc
00000070: edcf 82bd 4d3b b93d 17f3 613d 3521 343e
00000080: 65c8 143e 7b83 1bbc aecb 39be b908 683c
00000090: df10 f5bd d1b4 aabd f747 83bd f2c6 2abe
000000a0: 2bca 88bc f611 10bd 1ea6 c0bd a32a e6bc
000000b0: a8b3 80bd a6d6 543e 1e9c 963d ea7b e5bc
000000c0: 4523 1bbe 1b26 29be 678b 5b3e 58f3 49be
000000d0: 7e6e c2bd a4af 5e3e 856e 24be d427 21be
000000e0: 9d8c 46bc f4ab 28be 8902 61bd 7d4f 173a
000000f0: d355 4d3e ab92 e4bd 9900 c4bb d7da 533c
00000100: 195f 35be aa3f 05be 09d7 85bc 8e45 42be
00000110: 6cc9 413e 2f95 c0bc e50a 773d b210 38be
00000120: 9285 8d3d fe43 3e3e 53bc 5dbc ea45 963c
00000130: 558d 8dbd 6ddc 9b3c 8d3d 543c 9398 4cbc
00000140: 263b 21be f718 2cbd fe35 af3d 7b3d 14be
00000150: 0340 783c 9ede 3a3e ee43 5e3e 93ef 423e
00000160: 563c 913c 0080 b33c b299 edbd d65a c4bd
00000170: 9b36 c83c 22ad febd d37f 37be dd30 dfbd
00000180: 53d2 f53d 1b38 043d 7cd7 f1bc 3fe6 bb3d
00000190: 6af2 a83c 2347 43be 6bd8 39be ba26 f7bc
000001a0: b46b 0bbc a36c 003e 15ab f2bc f9db 293e
000001b0: 649c a8bc ca0b b4bd f2d0 b33d cd2a 5abd
000001c0: d7c0 093e c424 063e 3260 4dbd 613c 50be
000001d0: efb8 e33c ebe6 18be 7be6 7abe 09dc 903d
000001e0: 1592 b83d 43d8 05be ff93 2cbe 75fb 08be
000001f0: 3492 1c3e 48e1 b03d 09dd 26be 2fe9 413d
00000200: 3404 d53c 526d 31be 8ed9 29bd 527b 42be
00000210: c2b6 053e 69c1 1ebe 82d1 1b3e f49f 363c
00000220: 986a 4abe 62ca aebd 9747 27bd b1cd ec3d
00000230: 21df fc3d 1c34 353d 5efa 373e e6f0 ebbd
00000240: ad83 b53d b394 01be 4a16 55be ad72 153e
00000250: 1ec0 b43c b827 483d eb15 40be bfd0 37be
00000260: c806 213d 6b57 90bd d35d 19be 7a00 1a3c
00000270: 767b 18be a863 563d 9944 ffbd 6bd0 fdbd
00000280: 3b77 5e3e d9d0 4fbd 5606 45be 5cdf 4d3e
00000290: b97a 1dbe 5c1d 31be de01 703c a5d4 4dbe
000002a0: 34bc 473e d0e9 3ebd 8309 02be e909 3e3d
000002b0: 559d da3d 6282 85bc 13a5 1e3e 8180 253e
000002c0: 8061 5bbd 160d f83d 4cfb 61bd 8553 fcbd
000002d0: 5fd3 223e a9ce 4fbe 5bc5 063e 85db d23c
000002e0: 49e7 153e a77f f33d 0ada 3dbe 98fe 41bd
000002f0: ff97 8c3d 4f5f a03d 9cae 34be bc30 6b3d
00000300: 2a3a 2f3e 3858 28be 0487 083e c186 963d
00000310: e150 ec3d 6ddd 3ebe b99f 1c3e 8806 f73d
00000320: 002e dd3d 3aaa 633d f988 98bd 0996 23bd
00000330: e7fe 33bc 1d02 f0bd 97c3 583d 8f00 b83d
00000340: 1a09 433e eafa 383e c450 44be dc32 123e
00000350: 7e82 c63d b601 be3d 3897 933d 53a8 3a3e
00000360: fa08 4b3d 862c d73c af79 00bd 5aaa f43c
00000370: 9abd 1fbe 3e33 c13c 2558 e9bc 3331 223d
00000380: fffd 38be 2d08 413e a9e6 b73d af8e 03bd
00000390: ed4f 3dbe acba f3bd a3bb 36be bd1c 1cbd
000003a0: 1618 cf3c a5f4 e63d 3be3 4fbb 4e30 81bd
000003b0: 834f 1a3e ec76 20be e553 27be 11df f4bd
000003c0: f66f 30be 9b63 543e 9d59 e93d d7e6 abbd
000003d0: 29f4 2c3d 0514 103e 13fe 56be 4245 a1bd
000003e0: bb80 893d f0d9 31be 9329 083e 6b6d 0ebe
000003f0: 2d90 823d 3ac5 c9bc 3a5a 47be c29f b1bd
0.20023327 0.21563816 -0.11594486 -0.0021698887 -0.022871155 0.12874 0.11644221 -0.17332736
-0.1351074 0.13292766 0.102236 -0.0036991504 -0.008743114 0.084296755 0.0016668378 0.10953288
-0.039745353 0.17815542 -0.1448742 -0.13987535 0.033201132 -0.17345351 0.179348 -0.13821894
-0.14661528 -0.20441443 -0.052149124 -0.024878507 -0.06387315 0.09044514 0.05516347 0.17590792
0.1452957 -0.009491797 -0.18144104 0.014162236 -0.119661085 -0.08335269 -0.064102106 -0.16677454
-0.016697964 -0.03517338 -0.09406684 -0.028096503 -0.06284267 0.20785007 0.07353996 -0.028013188
-0.15150173 -0.16518442 0.21439897 -0.19721735 -0.09493731 0.21746689 -0.16057785 -0.1573785
-0.012118486 -0.16471845 -0.05493406 0.00057720375 0.2005227 -0.11160787 -0.0059815166 0.012930593
-0.17712058 -0.13012567 -0.016337888 -0.18971846 0.18924493 -0.023508636 0.060313124 -0.17975119
0.06910242 0.18580624 -0.0135336695 0.018343884 -0.069117226 0.019026006 0.012954128 -0.012487548
-0.1574522 -0.042015996 0.0855522 -0.14476578 0.01515198 0.18248984 0.217056 0.19036703
0.017728966 0.021911621 -0.11601581 -0.09587638 0.0244401 -0.12435366 -0.17919855 -0.10897992
0.12003007 0.03228007 -0.029521696 0.09174775 0.020623405 -0.19070105 -0.18148963 -0.030169833
-0.008509565 0.12541442 -0.029622594 0.16587819 -0.020582385 -0.08791311 0.087800875 -0.053263474
0.13452469 0.13099962 -0.050140567 -0.20335533 0.027798144 -0.14931838 -0.24501984 0.070732184
0.09012238 -0.13070779 -0.16853331 -0.13377173 0.15290147 0.08636719 -0.16295256 0.04734152
0.02600298 -0.17326859 -0.041467242 -0.18992355 0.13057998 -0.15503468 0.1521664 0.011146534
-0.19767225 -0.08534695 -0.040839758 0.1156267 0.12347246 0.04423915 0.17966601 -0.11520557
0.08863006 -0.1265438 -0.20809284 0.14594527 0.022064265 0.048866004 -0.18758361 -0.17950724
0.039313108 -0.07047924 -0.14977197 0.009399528 -0.14890847 0.052341133 -0.12464256 -0.12393268
0.2172517 -0.050736282 -0.19240698 0.20104736 -0.15378846 -0.17296356 0.014648883 -0.20100649
0.19505388 -0.0466097 -0.12698941 0.04639617 0.1067454 -0.016297523 0.15492658 0.16162302
-0.05355978 0.12111871 -0.055171296 -0.123206176 0.15900944 -0.20293678 0.13161223 0.02573944
0.1463901 0.11889582 -0.18540207 -0.04736194 0.068649285 0.07830679 -0.17644733 0.057419524
0.17112032 -0.16439903 0.13332754 0.07349921 0.11538864 -0.18639155 0.15295304 0.120617926
0.107997894 0.055582263 -0.074480005 -0.039938007 -0.010986066 -0.11719153 0.052920904 0.089844815
0.1904644 0.18064466 -0.19171435 0.14277214 0.09692858 0.0927767 0.07206577 0.18228273
0.049569108 0.026266348 -0.031366047 0.029866386 -0.15599671 0.023584004 -0.028484413 0.0395977
-0.18065642 0.18850775 0.08979542 -0.032118496 -0.1848752 -0.11900839 -0.17845015 -0.038113344
0.02528004 0.11277131 -0.0031721133 -0.063080415 0.15069394 -0.15670365 -0.16340597 -0.11956609
-0.1723021 0.20741121 0.113940455 -0.083936386 0.042225037 0.14070137 -0.20995359 -0.07874538
0.067140065 -0.17368293 0.1329711 -0.13908927 0.063751556 -0.024630178 -0.19468012 -0.086730495

net.network.0.weight_1 f4 [128, 23]
00000000: 9327 96bd a238 083e 78ab c43d 4faa 67bd
00000010: bd4f 163e 0285 d83c aa4a f9bc d800 183e
00000020: e05a 29be 81b3 bcbd 76e6 eabc e239 01bc
00000030: e888 b7bd 41a9 f1bc 2365 53be 71f8 f23d
00000040: 9ae5 fb3b d2b4 b7bd 727a 0abd df96 49be
00000050: 3b85 45be bde8 543e 749d 5a3e d07d 1fbe
00000060: 6644 92bd 3db5 3ebe 4bb4 363e 1cfb a23c
00000070: 6a54 3f3e 66e4 37be 2d58 eb3d 0d0e b4bd
00000080: c0f7 48be 2519 09be 0c4d 28bd 4ad8 cb3d
00000090: dfe4 033c becd 223e f931 223d 3146 01be
000000a0: ba41 253e c69e 83bd 26be 183d c073 843d
000000b0: 2e5e 023e a3a0 4f3e 6fee b9bd 90be b73c
000000c0: 1e90 e2bd 2beb 3cbe 90eb 5a3e d9b3 393d
000000d0: a2e2 e73d dcf1 683c 0c9c 17be 9163 683d
000000e0: b7bd 0a3e fb63 4f3e 6871 1cbe be5f 123e
000000f0: 1eaf 2bbc 7996 9b3d c227 3c3d c3e7 71bd
00000100: b65b 2ebe d4b8 363d f107 1abe ab0e 313e
00000110: 55cd 123d ef31 45be 26f7 5a3d 80cf 9d3b
00000120: 00b8 0ebe 6546 a2bd 1d2d 41be abfd 1bbe
00000130: 59e1 65be aaac 383e 5404 fa3d bb27 143e
00000140: 3601 cf3c 0fb3 1b3e ca4d 70bb f536 363e
00000150: 3d1d 93bb 8202 373e c50f f4bd dc0f f6bd
00000160: d0a3 06be 082e 3bbe e9bc 193e c4d0 88bd
00000170: dd4c 383e 432e 9a3d 2154 bebc ca34 0a3e
00000180: fe5b 42bd 97b9 0a3e c71f 333e cd5b 3e3e
00000190: 1184 33bd 9524 70be ae5b 0bbe 88af 98bd
000001a0: b946 37be 5473 093e 9457 c83d b418 08be
000001b0: c272 363e 255c 48be 7605 d6bd 5cb8 4a3e
000001c0: 2f4b 20be 78da 38be 7b60 d93d 24dc b83d
000001d0: 3b77 bbbd 32ea 91bc 0f5c 5dbe 8336 b2bd
000001e0: b9e8 f4bd 12ac 573d dcbf ab3d b829 c639
000001f0: 5c39 52bd 477b 2e3e 2902 d9bd 79ad babd
00000200: e430 723e 7e95 cabc 971b 263e 85cc 463d
00000210: 0a40 253d 5bfb 44be 33c3 3b3d fb09 f93d
00000220: 1136 b4bd 4a11 7e3d b6c8 923d 9894 14be
00000230: ade6 bb3c 6d56 ba3c 6ec3 203e 194b 50be
00000240: 44d3 b83d 51a9 8a3d 9e79 4e3e caa1 813d
00000250: cdfa d5bd cd3e 5dbe b630 5c3d 4255 20be
00000260: 3134 083c fd02 b53b c1a7 383e 11cf f83d
00000270: 5aef 1dbe 3c00 2f3e 043d 17be cc65 34be
00000280: 970f 533e 5ae1 fabd db2d 0fbd f747 8bbc
00000290: 0717 4d3e a034 833d 321d 833d 5a3b 27be
000002a0: 9ee2 febb bfd7 94bd e7e8 173e 9d23 d4bd
000002b0: 2c4a 19be b93c a33d cc2c a4bd 19eb b53d
000002c0: 87af fabc c656 8e3d 48d9 463e adf4 b33d
000002d0: b346 52be 9021 283e 3420 003c 4c77 cebb
000002e0: 8970 8a3d b542 94bd 7b78 c73c 55a6 9f3d
000002f0: c24f 0a3e d511 e73c ecaa 0f3e ee03 fbbd
00000300: 0630 963d 91af b23d 8126 94bd 4c30 2e3e
00000310: ba74 ff3d 9464 1abe 934e 4b3e b937 eb3d
00000320: 1259 2a3e f5cf 8ebd 707d 2d3e 37ad d73d
00000330: 5abc 453e 7f86 09be 0d44 1dbe 0070 52be
00000340: fb84 72bd 3f68 e9bd b558 3dbe 6f36 1cbd
00000350: d0f5 043e 2a90 56be c762 0dbe 195b 1dbe
00000360: 295d bcbc d381 173e 49e0 3b3e bc47 bb3d
00000370: 6e5d d33a 8079 853d 729e 35be 610f 313b
00000380: 7540 cfbb 5356 083c 0f1a a23c 8fec 4ebc
00000390: b45e c83d 85b9 2ebe 3c30 f2bd 5eec 7fbb
000003a0: 8e3d 1bbd 707e 47bd 5cef 353d 82a9 1cbc
000003b0: 29bb 32be 74c0 b6bd 5175 923c 90ed eabd
000003c0: 9adc a53c 985a 273e cda0 08bb dcbb 753d
000003d0: fafa 2dbe 588f 983d 44f7 df3b ecec 203c
000003e0: f591 9d3d 25c2 b03d b081 d9bd 29bd 4b3d
000003f0: 6acd 17be 41ba bf3d 2b9f 00be cf0d 85bc
-0.07331767 0.13302854 0.096030176 -0.056558903 0.14678855 0.02643061 -0.03043111 0.14844072
-0.16538572 -0.09213925 -0.028674345 -0.0078873355 -0.0896166 -0.029499652 -0.2064405 0.11863793
0.0076872827 -0.089700356 -0.03380818 -0.19686459 -0.19289105 0.20791908 0.21349126 -0.15575337
-0.07141952 -0.18623824 0.17842214 0.019895129 0.18684545 -0.17958221 0.114914276 -0.087917425
-0.19625759 -0.13388498 -0.041089103 0.09953363 0.008050173 0.15898797 0.03959844 -0.12624432
0.16138354 -0.06426768 0.037290715 0.0646739 0.12731239 0.20276122 -0.09078681 0.022429734
-0.110626444 -0.18449084 0.21378922 0.04533753 0.11322524 0.01421782 -0.14805621 0.05673558
0.13548933 0.20252983 -0.15277636 0.14294335 -0.010478763 0.0759706 0.045936354 -0.059058916
-0.17027172 0.04460986 -0.15042092 0.17290752 0.03584035 -0.1925733 0.053458355 0.0048159957
-0.13937378 -0.07923583 -0.18864866 -0.15233485 -0.22449245 0.18034616 0.12207857 0.14468281
0.025269132 0.15205024 -0.003666746 0.17794402 -0.0044895695 0.1787205 -0.1191707 -0.12014744
-0.13148427 -0.18279278 0.1501347 -0.06680444 0.17998071 0.07528355 -0.023233475 0.134967
-0.04745101 0.1354736 0.17492591 0.18589707 -0.04382712 -0.23451455 -0.13609192 -0.07455355
-0.17898072 0.134229 0.09782329 -0.13290673 0.17817214 -0.195664 -0.1045026 0.1979689
-0.1565368 -0.18052089 0.10614105 0.090263635 -0.09153601 -0.017811868 -0.21617149 -0.087018035
-0.11958451 0.052654333 0.08386204 0.00037796586 -0.051324233 0.17039214 -0.10596115 -0.091151185
0.23651463 -0.024729487 0.16221462 0.04853489 0.040344276 -0.1923651 0.045840453 0.12160107
-0.08799375 0.062028207 0.07167189 -0.14509809 0.022937143 0.02274629 0.1569955 -0.20341147
0.09024671 0.06770576 0.20163581 0.06329687 -0.10448227 -0.21605988 0.053757392 -0.15657523
0.008313225 0.005524038 0.18032743 0.1214887 -0.15423337 0.17089933 -0.1476937 -0.17616957
0.20611416 -0.12250014 -0.03495584 -0.017002089 0.20028315 0.06406522 0.06402053 -0.16331235
-0.0077784797 -0.07267713 0.14834939 -0.10358355 -0.149697 0.07970566 -0.08016357 0.08882732
-0.030601276 0.069501445 0.19418824 0.087869026 -0.20534782 0.16419053 0.007820178 -0.0063008424
0.06759746 -0.07239286 0.024349442 0.07795397 0.13506988 0.028206745 0.14030045 -0.12256609
0.073333785 0.08724893 -0.072339065 0.17010611 0.12473436 -0.1507743 0.19854192 0.11485238
0.1663554 -0.069732584 0.16942382 0.10531085 0.19310132 -0.13430212 -0.1535799 -0.20550537
-0.05920885 -0.113968365 -0.1849087 -0.03813785 0.12984395 -0.20953432 -0.13807212 -0.15366782
-0.022993641 0.14795618 0.18347277 0.091445416 0.0016125867 0.06517315 -0.17736223 0.0027017223
-0.0063248225 0.008321363 0.019787816 -0.012629642 0.09783688 -0.17062958 -0.11825606 -0.0039050798
-0.0379005 -0.048704565 0.044417724 -0.009561898 -0.17454208 -0.08923426 0.017878206 -0.11471093
0.020246793 0.16343153 -0.0020847798 0.05999361 -0.16990271 0.07449216 0.0068348963 0.009822112
0.07693855 0.0863078 -0.10620439 0.049740944 -0.14824453 0.09361697 -0.12560718 -0.016241936

net.network.0.bias_0 f4 [128]
00000000: 7075 00be d606 57bd 6eed 1b3e 147a 4c3e
00000010: dc77 d83d 7259 98bd 15c7 40be 6d06 1a3e
00000020: 6c36 5e3e 87e7 43be 81ce 8d3d e424 333d
00000030: f189 d7bd afee 303d b219 8c3d c2dc e4bd
00000040: e277 69bd 02b6 3ebe d1c5 87bd b907 16be
00000050: f513 083c cd70 2abe 961d 1b3e b637 6bbd
00000060: 7bcf 173e 9b0b 1d3e 284b 8bbd 1753 efbd
00000070: 778a 44be 66ae 16be e922 a0bd a26e ddbd
00000080: 0f40 51be 9e63 c6bd bd00 30be 1593 ecbd
00000090: cc92 50be 0bb4 0b3e 4cc6 4b3e 3ade aa3d
000000a0: bf64 5e3e 15d6 29bd 6f26 cd3d 4555 013e
000000b0: bc90 32be ea1b 55bd 729f 2f3e 8784 d03d
000000c0: 95cd 873d b8fa 0e3e c65c 1f3e 58c4 8e3d
000000d0: debb ba3d 4780 613e e54e 153c 32ae 993d
000000e0: 069b 433e 92dd 0cbe d33b 2d3e b0a6 4e3e
000000f0: 1c94 5ebc 7f47 fd3d 1ef1 e0bd d121 0e3d
00000100: fe01 3f3e 9552 093e a4f8 f73c ea7f cdbd
00000110: 8d04 b23d 7bab f2bd 5908 1abe 4c77 0b3d
00000120: 6ae9 a7bd 6587 363c 9974 0cbe a919 273e
00000130: fcc3 afbd 4585 dd3d e52d f23a d55a 493e
00000140: 37bd 16bd b143 d4bd 0086 83bb c28a 023e
00000150: 2aa3 b23d b1f3 0bbd dd1c 8f3d 0adb fc3c
00000160: ea16 843c 71af fabd f5b1 dd3d ed75 fcbd
00000170: 69cf b8bd cb42 a6bd efaf 8cbd 29b3 cebd
00000180: ba1a 16be b1d0 923d 5199 46bd f838 653e
00000190: 172a 613d 7397 42bd 3ded 16be bf9f 4cbe
000001a0: 8ce0 e63d 2611 2f3e b477 20be a731 87bc
000001b0: 795a 45be 4d3b 1cbe 745f 0e3e bdad 15be
000001c0: 7f9a 94bd 471e 54bd 859c 0e3e d1e2 643e
000001d0: 7366 43bd 7dc8 b6bd a0fd f73c 9d10 03be
000001e0: 2822 4b3e c7b8 f63d 4a61 e83d d8cc 54be
000001f0: 7211 3bbe 4852 ce3d 27dd 9f3d f4d1 9f3d
-0.12544799 -0.052496754 0.15227291 0.19968444 0.10569736 -0.07438935 -0.18825944 0.15041514
0.21700448 -0.1913129 0.06924153 0.043736354 -0.10524357 0.043196376 0.068408385 -0.11174919
-0.056999095 -0.18624118 -0.06629527 -0.14651383 0.008305539 -0.16644593 0.15148005 -0.057426177
0.14825241 0.15336458 -0.06801444 -0.1168577 -0.19193445 -0.14714965 -0.078191586 -0.10812117
-0.20434593 -0.09686969 -0.17187782 -0.11551491 -0.20368499 0.136429 0.19899863 0.083431676
0.21718119 -0.04146393 0.10017096 0.12630184 -0.17438024 -0.052028574 0.17150667 0.101815276
0.066310085 0.13962829 0.15562734 0.06971043 0.09117864 0.2202159 0.009113048 0.07503928
0.19102105 -0.13756397 0.16917352 0.20180774 -0.013585117 0.123671524 -0.109834895 0.03470022
0.18653104 0.13410409 0.030269928 -0.10034163 0.08692274 -0.118491136 -0.15042247 0.034049317
-0.08198817 0.011140679 -0.13716353 0.16318382 -0.08582303 0.10816435 0.0018476812 0.19663556
-0.036801543 -0.103644736 -0.004013777 0.12748244 0.08722527 -0.03416795 0.06987927 0.030866165
0.016124208 -0.12240494 0.10824958 -0.1232718 -0.09023935 -0.081182085 -0.06869494 -0.10092766
-0.14658633 0.07168711 -0.048486058 0.22385013 0.05497178 -0.047507714 -0.14738937 -0.19982813
0.11273298 0.17096385 -0.15670663 -0.016503168 -0.19272794 -0.15256996 0.139036 -0.14617057
-0.0725603 -0.051786687 0.13926895 0.22352149 -0.047705125 -0.08924959 0.030272305 -0.12799306
0.19837248 0.12046962 0.113466814 -0.20781267 -0.18268374 0.10074288 0.07805853 0.07803717

net.network.0.bias_1 f4 [128]
00000000: bd1f 483e b6fc b4bd aea1 473d ff1f b43d
00000010: b583 c2bc b03a 583d 8d30 263e f0d8 48be
00000020: f82d 10bd b0f1 57bd 90e5 dcbc df68 d83c
00000030: 755b fb3d 070e 243e fe58 e73c 10b3 583b
00000040: 9b4d 05bd 25d5 0bbe 76ce 5e3d f328 253e
00000050: 5ab6 34bb 41be 2ebe 6ea8 423e 81db 35be
00000060: 4f0d 643d 4091 a13d be28 1f3e 022c 7fbd
00000070: 5bfe 323e e39c 59bd 1098 4d3d 894b 76bc
00000080: 207e e9bd 15e5 cd3c 7f3a c93d b778 563e
00000090: 90d1 353d 6267 21bd da3a 17be 3a0b 9bbd
000000a0: b6a5 c6bc 48f8 bebd 3b46 9bbd e685 da3d
000000b0: 517d 9d3d b8ef c7bd 1ba8 e3bd 385b 5a3d
000000c0: 3500 bf3d 06b8 a03c 68eb ef3d 3c95 96bd
000000d0: 3f79 423e c41c 583a 50d9 9ebd 93ca a6ba
000000e0: f250 003e 6bb1 fabc 9041 e5bc 7cb4 a53d
000000f0: d58d 7a3d 3c54 05ba e6ac 253e b4b8 e8bd
00000100: 018a edbc cceb 613e be2c 0dbe 3748 193e
00000110: 2dd4 a8bd ff87 19be 448e cf3c 416d 45bc
00000120: 1f8f e23d 9d99 67bd d3e8 08be e8eb 3a3e
00000130: d2fd 22be 6842 06be 45d4 5c3d 373b 19be
00000140: d967 e23d e712 debd dbc8 3fbe 2709 203e
00000150: 1cae 4f3e f51e 25be 286c d2bd b3b9 173d
00000160: fb52 903d bb4e 403c 0f49 dabc c8cc 983c
00000170: d2ef 55bc 5485 73bb f576 10bd 5394 363c
00000180: b384 393e 4740 16be ff5e a73d 33a5 053e
00000190: 018f 0e3e 9588 8cbd 7e15 223e 3732 4fbe
000001a0: ac35 f73d 202e eb3c f00d 903b 5873 1f3e
000001b0: 942c 053d 6996 47be 4065 8fbd 87fa 37be
000001c0: 17be 8bbd 196d 143d 0e73 273e 1eb1 86bd
000001d0: 1fa8 093e 1d43 e4bc ba9c 80bd cce1 a1bd
000001e0: dd89 cbbd 0b5f 0c3e c8ab 25be 278f d0bd
000001f0: d022 083e e47e 473e 0fd0 e4bd e148 763e
0.19543357 -0.08837263 0.048738174 0.08795165 -0.023744443 0.052790344 0.16229458 -0.19614005
-0.03520009 -0.052720726 -0.026964933 0.026417194 0.122733034 0.16020976 0.028240677 0.0033065714
-0.032544713 -0.13655527 0.054396115 0.16128902 -0.002757451 -0.17064764 0.19009563 -0.17759515
0.055676755 0.07889032 0.15542886 -0.06229783 0.17479841 -0.053128134 0.050193846 -0.015032657
-0.114010096 0.025133649 0.0982561 0.20944487 0.044389307 -0.039405234 -0.14768544 -0.07570501
-0.024248939 -0.093247 -0.07581755 0.1067007 0.07689918 -0.097625196 -0.11116048 0.05330965
0.09326211 0.019619 0.11714822 -0.07352683 0.18991564 0.00082440325 -0.07756293 -0.0012725167
0.12530878 -0.030602178 -0.027985364 0.08091065 0.061170418 -0.0005086099 0.16179237 -0.11363354
-0.02899647 0.22062606 -0.13786599 0.14968954 -0.08243594 -0.14993285 0.025336392 -0.012049974
0.110624544 -0.05654298 -0.13370065 0.18254054 -0.15917137 -0.1311127 0.053913374 -0.14963995
0.110549636 -0.10843449 -0.18728964 0.15628491 0.20281261 -0.1612509 -0.102745354 0.03704233
0.07047077 0.011737521 -0.026646165 0.018652335 -0.013057666 -0.0037158327 -0.035269696 0.011143762
0.18117027 -0.14672957 0.08172416 0.130513 0.13921739 -0.068619885 0.15828511 -0.20233999
0.12070784 0.028708518 0.0043961927 0.15571344 0.032513216 -0.1949097 -0.07001734 -0.17966662
-0.06823366 0.036236856 0.16352484 -0.06576751 0.1344304 -0.027864033 -0.06279893 -0.079043955
-0.09938405 0.13708131 -0.1617881 -0.10183554 0.1329453 0.19481999 -0.111724965 0.24051239

net.network.2.weight_0 f4 [64, 128]
00000000: 7273 a03c 4bd9 2e3d 2ee8 693d 666e 21bc
00000010: 6147 edbc 9099 a2bd 9adc 9e3d 49a2 58bc
00000020: 2504 003c 1b83 91bd 6d44 44bd bd6b 81bc
00000030: a6a7 f1bc e60c d7bb 7b03 bd3d bb89 08bd
00000040: 47bd b23d 967a a4bd 096d 1f3d d05d 8b3d
00000050: 0a88 543c cd20 9e3d 1663 5f3d 3fc6 b2bd
00000060: 113e a7bd 75f5 313e 13c9 15bd 8963 693d
00000070: 9eb4 663b e029 a5bd f94e d23c 7da1 d13c
00000080: 3a85 543d 037d 403d f13d debc d27b a93d
00000090: 790b 883c 12f5 2a3d 9e0c 0e3d 7f4a 81bd
000000a0: 3f94 c33d 263f 54bd ffee 19bd ad43 ecbc
000000b0: 0287 6bbd 65a3 bcbd 3d6e e6bc a906 48bb
000000c0: bbf2 d23c 426a 04bd af45 533d 5516 45bd
000000d0: 024d a3bd 658c d73d d586 e13c 3049 a9bd
000000e0: dd34 0b3d 9110 2d3d 9486 80bc ec7d 973d
000000f0: 0653 113e defc 8a3c 1b2c aa3b d724 053d
00000100: 7df5 b0bd 3d7c 233d efc9 7c3c f993 8cbd
00000110: 49cd a1bd aed1 d83c e859 d63d 7522 973d
00000120: c778 d2bb c881 35bd a8d9 893d 9ec2 923c
00000130: 478d 613d 3725 4dbd 8806 d6bc e79d b53c
00000140: f13d 24bd 3cd7 b1bd 21e4 97bb a54c 893d
00000150: c538 42bc dca3 6abd 8d17 5dbd e1f7 093d
00000160: f4f1 0f3d 210d 843d 6946 463d ce22 afbd
00000170: ac68 c8ba dfaa ad3d 1d3b 87bd 2391 843d
00000180: c732 863d 66f2 8d3d fef8 42bd e235 24bd
00000190: 52a5 053e 2a07 db3c 95f5 eb3b 935d 2fbc
000001a0: 3166 7fbd 8334 4ebd 243a 1ebd 9d31 59bd
000001b0: 9610 94bd 1df8 6bbd c5c3 463d dbda 9fbd
000001c0: b9d5 3a3c a77b 2e3b af18 cdbb 89e5 103c
000001d0: e561 94bd a5b7 adbd 302d 6a3c e4a1 48bd
000001e0: 0632 d33d c575 103d bf3f 32bd ecbb 19bd
000001f0: a3e8 3e3d 4bd0 9ebc 1280 9d3b 7183 ea3d
00000200: de37 3bbd fd4b b5bc dec3 f1bc 515d 1c3c
00000210: fc7c a83d 3a6e 033d f4a1 fdba ddf2 acbd
00000220: 1dfa 953c c1b9 a4bd 0eac 91bd 047f 82bd
00000230: 035c 693d 12d9 6fbc 540e 27bd c0d1 9b3d
00000240: d4e8 48bd d536 4dbc eafd 853c 8c28 dcbc
00000250: 7599 a8bd c137 f73c 9617 853d dd41 2fbd
00000260: f4eb 4cbd 6ce1 3e3c e173 453d 1aea 66bd
00000270: f4ce 8dbd 1a97 15bd 7da0 813c 98e8 a33d
00000280: ab69 f3bb b069 4b3d 0489 92bd 310a 89bd
00000290: 2cfc 5e3d bc55 a3bc b0a8 703d f627 5dbd
000002a0: 1835 643c 4f4d 9b3d 92a3 5a3d 1a97 f03c
000002b0: eae3 93bd 0442 463d 534e 2a3d 52e5 a63c
000002c0: 1e7d d83b 84d0 203d 8386 90bd b3b5 21bd
000002d0: 6244 7dbd ce29 0d3c 6c28 34bd 03c8 a53a
000002e0: 1d12 b83d 6985 93bd 2e9a 92bd 0c47 ad3d
000002f0: e1ce abbd 796a 3abc 0665 153d 0369 e93c
00000300: 272a adbd 8364 75bc 6611 1d3b 02a6 d83b
00000310: fc94 20b9 7348 423d 83fa 0dbb 851f 0bbd
00000320: 1e55 29bd ea10 68b9 ff80 813d 04ee a1bd
00000330: 9c7b 1fbd c289 b63c e3ca d5bc 2f24 cbbc
00000340: f9b3 883d fbe2 77bd e87f c53b 4aa3 903d
00000350: 2d41 943d 1650 5b3c 7545 553d ad74 b73d
00000360: b595 5fbc 5146 3fbd c027 aebd 0e87 84bb
00000370: 6716 1f3d 99bc 943d 44ad aebc cb20 17bd
00000380: 6b64 24bc d413 5639 ccd7 69bd 26b7 9c3d
00000390: 0a4a ab3d f105 743d 0909 d3bc b49b a43c
000003a0: e2cc c9bc 5790 46bd 9a2b 923d aa7d 9c3b
000003b0: 1c12 7d3d 6c13 7c3d a24b aa3c 15ce c9bc
000003c0: 3cde 903c 94bf 623c 3375 823c 337f a63d
000003d0: f8a4 933d 36f0 bbbc 554c aebd c33a e1bb
000003e0: c685 7ebd 41e7 4dbb 817b 54bc 17bd 69bd
000003f0: e20e 8ebd 9b75 f03c d188 d2bc 17f2 043c
0.019586299 0.042687695 0.05710619 -0.009852981 -0.0289647 -0.07939446 0.0775692 -0.013222286
0.007813488 -0.071050845 -0.04791682 -0.015798444 -0.029498886 -0.006562817 0.092291795 -0.033334475
0.08727508 -0.08031194 0.038922343 0.06805003 0.012971887 0.077211 0.054537855 -0.08729219
-0.08166135 0.1737879 -0.036568712 0.05697969 0.003520287 -0.08064628 0.025672423 0.025589699
0.051884867 0.04699422 -0.027129145 0.0827557 0.016607033 0.041737624 0.03468 -0.06313037
0.0954976 -0.051818036 -0.03758144 -0.028840864 -0.0575018 -0.092108525 -0.028128738 -0.0030521548
0.025750509 -0.032327898 0.051580127 -0.048117 -0.079736724 0.10524825 0.027530113 -0.082659125
0.03398596 0.042252127 -0.015689172 0.073970646 0.14191827 0.01696628 0.005193246 0.032505836
-0.08640573 0.039913405 0.015429004 -0.06864161 -0.07900483 0.02646717 0.10466367 0.07379619
-0.006423089 -0.044313222 0.06730968 0.017915066 0.055066373 -0.05008432 -0.026126161 0.02217002
-0.040098134 -0.08683631 -0.0046353494 0.06704072 -0.011854355 -0.057285175 -0.053977538 0.03368366
0.035142854 0.06447817 0.048406992 -0.0855156 -0.0015289984 0.08479857 -0.06603072 0.06472995
0.06552654 0.069309995 -0.04760074 -0.04009045 0.13051346 0.026736815 0.0072009065 -0.010703462
-0.062353317 -0.050343048 -0.038629666 -0.05302583 -0.07229726 -0.057609666 0.048526544 -0.07805415
0.0114034945 0.0026623996 -0.006259046 0.008843788 -0.072452344 -0.08482293 0.014293 -0.048982516
0.103122756 0.035268564 -0.043517824 -0.037532732 0.04660858 -0.019386431 0.004806527 0.11450852
-0.045707576 -0.02213096 -0.029512342 0.009543733 0.08226964 0.032087542 -0.0019350634 -0.0844476
0.01830774 -0.08043242 -0.07112895 -0.063718826 0.056972515 -0.014639156 -0.04078515 0.07608366
-0.049050167 -0.01252528 0.016356427 -0.026874803 -0.082323946 0.030177953 0.06498639 -0.04278742
-0.05002971 0.011650424 0.048206214 -0.0563756 -0.06924239 -0.036521055 0.015823597 0.08003348
-0.007428368 0.04966134 -0.0715504 -0.06691397 0.05443971 -0.019938342 0.058754623 -0.053993188
0.013928674 0.07583105 0.05337865 0.029368926 -0.072212055 0.0484028 0.041578602 0.02037302
0.006606712 0.039261356 -0.07056906 -0.039479923 -0.061832793 0.008615924 -0.04398386 0.0012648109
0.0898783 -0.0720318 -0.07158314 0.08460817 -0.083890684 -0.011377924 0.036473297 0.028492456
-0.084553055 -0.014977577 0.002396667 0.0066115865 -0.0001531429 0.047432374 -0.002166421 -0.033965606
-0.04134094 -0.00022131545 0.06323432 -0.07906726 -0.038936242 0.022282485 -0.02609772 -0.024797527
0.06674952 -0.0605192 0.0060272105 0.07062395 0.07238994 0.013385793 0.052068193 0.08957801
-0.013646533 -0.04669792 -0.085036755 -0.00404442 0.038839724 0.07262535 -0.021322854 -0.03689651
-0.010033707 0.00020416017 -0.057090566 0.0765212 0.08363731 0.05957598 -0.025761144 0.020093776
-0.024633829 -0.048477497 0.071372226 0.0047757225 0.06178485 0.06154196 0.020788018 -0.0246344
0.017684095 0.013839621 0.015925026 0.0812973 0.072092 -0.02294169 -0.08510653 -0.00687346
-0.062139295 -0.0031418356 -0.012968899 -0.057065096 -0.069364324 0.029352954 -0.025700005 0.008114359

net.network.2.weight_1 f4 [64, 128]
00000000: eff4 583d 17a1 9b3d 352a 3bbd 71ca a3bd
00000010: df48 abbc b2d9 51bd 1640 5bbc 2285 76bc
00000020: d3e5 d73d d96c 3e3d 58d4 aabd c77c 2c3c
00000030: dcf8 e73d 75b9 61bd 68b1 eb3c c8ec 90bd
00000040: 93b1 9c3d d576 d8bb b5e7 973d 2c5c 543d
00000050: d4cb 91bd 3c46 42bd c62f 1a3d 380a 59bd
00000060: e78e 563d 70b3 113e 6736 8b3d b44a dc3c
00000070: ee0b 1e3c dfca d93d 3709 4b3d 55bf b43d
00000080: 4949 96bd c575 2bbd 57ca 83bd 37fa f13d
00000090: 2312 2e3d 82d2 10bd e092 01bd 87d9 013e
000000a0: de86 2d3e 392d 663d 5526 cfbc 41d8 25bd
000000b0: 63e2 c4bc a1cf 8cbd b256 5bbd 8302 583d
000000c0: 35fa 403d 8547 d0bc 0568 a63c d386 1bbd
000000d0: 607c 9b3d a5d8 c33c 45a7 073d 8392 79bd
000000e0: 97f4 e73d e06c 7f3d 2707 873d 16d5 3cbd
000000f0: 4e91 9b3c 1a29 853c 377a 1fbc 67a1 9b3d
00000100: 520d 09bd 4da3 0abd 990f 043d 34d6 53bd
00000110: ab97 e83b 9df9 e63d 2160 0e3d f4fe f43c
00000120: bb5c f2bb 3cdb 443d badb 35bd ff76 b83b
00000130: 2243 303d c5e3 88bc c43a a6bd e226 a23b
00000140: e36f 0dbc 2f4a b5bd 0a14 063d 7a86 73bd
00000150: b37e 1b3b 3c87 61bd e073 09bd 6f0b e1bc
00000160: e247 3b3d 9c91 4cbd d03b 23bd 12df 863c
00000170: ea7e d2bd 33a3 3a3d c6ac 0bbd 5f21 83bd
00000180: 5f92 c63b f535 00bd a99c 99bd 7f55 0d3e
00000190: 69ee 033e 206e ba3d d743 1d3d 5958 903d
000001a0: f6c7 2a3c ea3d 9abd 566e 1f3b ed15 83bb
000001b0: b9b1 4ebd 51cd 5e3d 88dd 22bc a3f3 91bc
000001c0: 95cd 183d fd11 b93d aeda af3c 7855 0a3e
000001d0: e9ab b33a 88bc 95bd e9b7 0ebd a428 433d
000001e0: 7943 a8bd 838b 17bc a6fd 1ebd 4106 863d
000001f0: 103f bf3d 946a d0bb 310a 8b3c 3d12 983d
00000200: 1b53 a2bd c19d 23bd 5332 eebc e2f7 a3bd
00000210: b1ea af3d 5711 9cbd 4ea3 653c 7363 11ba
00000220: 2d87 653b b9df a3ba 16d7 863d f080 943c
00000230: 89e0 8aba 3a81 c0bc 45bd 4d3d eedf 09bd
00000240: b394 36bd 7515 c23c 3a17 ab3d 44e1 ccbb
00000250: 6db0 80bc 0db0 41bd 5683 853d 34b2 143d
00000260: d769 69ba 3967 813a 410e 593d 2aa8 ad3b
00000270: 3770 9e3d f77e 0a3c 36b5 aa3c 89d5 4bbd
00000280: e04b 6fbc 80d2 48ba ff32 573d e1be a43d
00000290: db90 bebc b559 b837 785c ed3c f1bf 363d
000002a0: fd9a 9bbd 188f a7bd 4a14 883d f825 f83c
000002b0: 6a89 6d3d a996 88bd b4c0 aabd ab43 0abc
000002c0: 3100 18bd ca2a 21bd 7216 14bc ef66 f7bc
000002d0: 524d 5e3c b546 22bd bf72 3ebd ac25 08bd
000002e0: 0688 25bc 7b76 083d b77e 39bd 0b1e 11bd
000002f0: c029 e1bc 7389 ac3d eb99 2c3d ecb1 9ebd
00000300: fbba 97bd 69f7 6e3d 87df 303d cb9e dfbc
00000310: 9eca 273d 343b 5f3c 2bdf a1bc 01e5 32bd
00000320: d6ec a2bc 83a1 893d b81a 0b3d a4f4 95bd
00000330: 8d63 a3bd f774 f8bc f15a 8d3c 020f 9a3d
00000340: b40e 0bbd 4c59 903d 61a7 35bd 662d ac3d
00000350: 1c9f 7bbd d162 593d fc51 b03d 5fa8 acbd
00000360: 6854 48bd 7342 b23c 1067 96bd df7a 8dbd
00000370: 41b3 16bd ad85 da3b dfcf abbc e1ad c03c
00000380: f23f 283d 1037 11bd 46c1 103c 753b 843c
00000390: 2025 1dbc 8fda 653d 652b 8a3d 470a a33b
000003a0: 46fb 38bd ce01 b33d 3f25 5b3c 6c01 4bba
000003b0: 90d3 3b3b 40c9 8abd 931a e73c fe16 973c
000003c0: c803 7fbd 8a2f 63bd db53 033d f6d5 3bbd
000003d0: 4bc1 b03d a8a7 813d 0e26 993d d535 543c
000003e0: 79b7 853d 64e5 94bd 32ff 4c3d 923d 30bd
000003f0: 6ebe a63d a735 02bd 42e9 a0bd fd8d 52bd
0.052967962 0.07599085 -0.04569455 -0.07997597 -0.020908771 -0.051233 -0.0133819785 -0.01504639
0.10541882 0.046490524 -0.083412826 0.010527796 0.11326763 -0.055108506 0.028771117 -0.070764124
0.07651057 -0.0066059628 0.074172415 0.051845714 -0.07118955 -0.047430262 0.037643217 -0.05298826
0.052382376 0.14228606 0.06797486 0.02689109 0.009646399 0.10634398 0.049569335 0.08825556
-0.07338197 -0.04186036 -0.06435078 0.11815303 0.042497765 -0.035357006 -0.03163421 0.12680636
0.16945979 0.05619547 -0.025286833 -0.04048944 -0.02403373 -0.068755396 -0.053549476 0.05273677
0.047113616 -0.025424728 0.020313272 -0.037970375 0.07592082 0.023907015 0.033118505 -0.06093074
0.11325949 0.06235969 0.06593161 -0.046101652 0.018990185 0.01625495 -0.009733728 0.075991444
-0.03345997 -0.033847142 0.032241438 -0.051717952 0.0070981584 0.11278079 0.034759644 0.029906727
-0.0073963082 0.04806064 -0.044399 0.00562942 0.043032773 -0.016710171 -0.081166774 0.004948483
-0.008632633 -0.0885204 0.032733954 -0.05945442 0.0023726642 -0.05506061 -0.033557773 -0.027471272
0.04572285 -0.04994355 -0.039851964 0.01646379 -0.10278113 0.045565795 -0.034100316 -0.064028494
0.0060599293 -0.031301457 -0.07500584 0.13802145 0.12883915 0.09103036 0.038394775 0.07048101
0.010423651 -0.075313404 0.002432724 -0.0040004165 -0.05046246 0.054395024 -0.0099405125 -0.01781637
0.037305433 0.09036634 0.02146658 0.13509166 0.001370785 -0.0731135 -0.03484336 0.04764618
-0.082159944 -0.009249571 -0.038816117 0.065441616 0.093382 -0.0063603614 0.016972633 0.07425354
-0.07926007 -0.039945368 -0.02907673 -0.08006264 0.08589686 -0.07620495 0.014015986 -0.000554613
0.0035023198 -0.0012502588 0.06583993 0.018127888 -0.0010595481 -0.02349912 0.05022933 -0.03366082
-0.044575404 0.023691872 0.083540395 -0.0062524397 -0.015709126 -0.047287036 0.06519191 0.03630276
-0.0008904016 0.0009872682 0.05299211 0.0052995877 0.07736247 0.008453122 0.020838361 -0.04976419
-0.014605492 -0.00076607615 0.052538868 0.0804422 -0.023262432 2.1976282e-05 0.028974757 0.044616643
-0.07597921 -0.0818159 0.06644495 0.030291542 0.057992376 -0.06669361 -0.083375365 -0.008438985
-0.037109558 -0.039347447 -0.0090385545 -0.03020045 0.013568239 -0.039618213 -0.04649615 -0.03323905
-0.010103231 0.033316117 -0.04528686 -0.03542904 -0.027485728 0.08424654 0.042138975 -0.0774878
-0.074087106 0.058341417 0.043181922 -0.027297398 0.040964715 0.013624955 -0.019759735 -0.043675426
-0.019888323 0.06720259 0.033961028 -0.07322052 -0.07977972 -0.03032921 0.017255278 0.07522394
-0.03394957 0.07048282 -0.044349078 0.084070966 -0.061431035 0.053072754 0.08609387 -0.08430552
-0.04890862 0.021760201 -0.07343876 -0.069082014 -0.036792044 0.0066687674 -0.020973144 0.023520412
0.041076608 -0.035452902 0.0088351425 0.016141633 -0.009591371 0.056116637 0.06746558 0.0049755904
-0.045161508 0.087405786 0.013375579 -0.00077440473 0.0028660037 -0.06776667 0.028210914 0.01844358
-0.062259465 -0.05546526 0.032062393 -0.045858346 0.08630618 0.06330806 0.074779615 0.012952288
0.06529135 -0.07270315 0.05004806 -0.043027468 0.0814179 -0.031789448 -0.078569904 -0.05140494

net.network.2.bias_0 f4 [64]
00000000: 9639 103e b6ea 57bd 553a 40bd 0021 4fbd
00000010: e205 d33d 3694 36bd 63ed 4a3d c4cc 48bd
00000020: e1f4 66bd 4b0c a43d 3d72 043e f3a2 bb3b
00000030: 7e0d ccbb fc55 0e3d d633 933d 23ec 963d
00000040: 3f62 4b3e fb67 a73d ce36 8b3d 7cb4 2ebd
00000050: da9f 103d 9ddf 22bd 5772 8b3d f410 9d3d
00000060: e302 353c 7cd2 2b3d 3c5d 013e 25b1 95bd
00000070: 9e2e 943d fc98 213d ef2c 6abd 7f01 b73c
00000080: 8761 e53a 7f3b 1a3d a129 3abd 349e 71bd
00000090: 0221 71bd 3eb2 cc3d af77 903a b52b 8f3d
000000a0: d714 c93d ab20 9a3b 5fd0 083e 86a5 e53d
000000b0: 0d5e d33c 7243 b03c 15c0 bc3d fe86 88bd
000000c0: 9c9c 77bc 7db2 8b3d 65d0 053e 94fd 0dbd
000000d0: 0461 58bd eb6d 3d3c bd08 263e 67cb d4bc
000000e0: 7488 0bbd de66 d2bb 241c b2bd de33 463d
000000f0: e98d fc3c f85b 5b3d 4917 1d3d e228 833c
0.14084467 -0.052714072 -0.04693063 -0.05056858 0.103038564 -0.04457494 0.049542796 -0.049023405
-0.05638588 0.08010157 0.12934203 0.005726212 -0.0062271943 0.03474997 0.07187621 0.07369258
0.19861697 0.081741296 0.067975625 -0.042652592 0.035308696 -0.039764035 0.06808918 0.07669249
0.0110480515 0.04194878 0.12633222 -0.07309178 0.07235454 0.039452538 -0.05717176 0.02233958
0.0017500379 0.037654396 -0.045449857 -0.058988765 -0.05886937 0.099949345 0.0011021997 0.06990758
0.09818428 0.0047036014 0.13360737 0.11213212 0.025801683 0.021516535 0.09216324 -0.06666373
-0.015113022 0.06821153 0.13067777 -0.03466566 -0.052826896 0.011561851 0.16214271 -0.025975896
-0.03406568 -0.006420954 -0.08696774 0.04838931 0.030829387 0.053554505 0.038352285 0.016010705

net.network.2.bias_1 f4 [64]
00000000: d2ce 383e fd63 683d 876f 5fbd f8e5 af3c
00000010: 2b7d cdbc b92f 563d 5134 b43c 10bf 803c
00000020: 61c0 1a3d 3482 eb3c 45b0 53bd 12e1 b0bc
00000030: ac1b 323d 4347 353d 64c8 01bd 6151 a53d
00000040: c941 c63d 64e1 e53d 09f5 e439 f72a c43d
00000050: e60c f83c f0ae 7abd 0f8a b03d 4f35 babc
00000060: c2fc 6fbd a813 273c 4afd 503d 04ee 51bc
00000070: fb95 e0bc 42ea ac3c 2679 a1bd b10b a7bd
00000080: 22c0 673c 58a2 94bd 1d41 1ebd 8cf1 bc3c
00000090: 3674 e6bb e718 0e3c 1266 24bd 5f52 b83c
000000a0: 2198 063e 4556 ab3d b6d9 c7bc 9471 82bb
000000b0: bf8c 923c 86c6 84bd bd35 a13d b4a7 5c3b
000000c0: b756 3ebd c1f6 2a3e 2418 a33c b3ae 6a39
000000d0: e587 aabc 7d08 0d3d e373 2a3e 2b9f f0bc
000000e0: 1083 b23d eb99 233e 74de 43bd fe76 2ebd
000000f0: 8c4d f53d 6dd8 a73d b57f e13d 749b 473d
0.18047646 0.05673598 -0.05454972 0.021471962 -0.025084099 0.052291606 0.021997603 0.015716106
0.037781123 0.02874861 -0.051681776 -0.021591697 0.04348342 0.044257414 -0.031685248 0.080721624
0.09680516 0.112246305 0.00043670114 0.095785074 0.030279588 -0.06120199 0.086200826 -0.022730498
-0.058590658 0.0101975575 0.051022805 -0.012813095 -0.027415266 0.021107797 -0.07884435 -0.08156527
0.014144929 -0.07257527 -0.038636316 0.023064397 -0.0070328964 0.008672929 -0.040136404 0.022500215
0.1314397 0.08366064 -0.024395805 -0.0039808247 0.017889379 -0.06483178 0.07871578 0.0033669295
-0.046469416 0.16695692 0.019908972 0.0002238106 -0.020816753 0.034431923 0.1664577 -0.029372772
0.087164044 0.15976684 -0.04781957 -0.04259395 0.119776815 0.08195577 0.11010686 0.048732236

net.network.4.weight_0 f4 [16, 64]
00000000: 4cd7 313d 2da6 8d3d c455 c53d 7e59 b0bc
00000010: 4c3b 453e 0225 bebd cfb0 933c e33c 2bbd
00000020: 8b73 eb3d e7aa 2e3c 4133 ce3c fa45 5f3c
00000030: fb44 2e3d adeb 023e 105a 21bb 3452 1b3b
00000040: 736b 25be c0b2 cc3d f0fb 7bbc 4abd 58bc
00000050: 079d 1c3b 7d12 70bc 0f5d ac3d 357f 433e
00000060: 7b91 c8bd 6581 123c ecbd c03c e12c a93d
00000070: d03c e63d 93a1 023e 056a a2bc 0c5d afbd
00000080: 0019 c83d 67dc a1bc 9a6c f1bd 80af 67bc
00000090: b1ed 83bd 4c27 f03d f773 333d cbb6 083d
000000a0: 529a d8bd 5753 7cbd a26e f83d 7c36 813e
000000b0: d964 483d fc26 2c3d 4281 7ebd b442 783d
000000c0: 44d4 6abd 42d7 ba3d 858b d0bd ade9 96ba
000000d0: c8e4 25bd d894 dc3d b749 8c3d ab7b 9f3b
000000e0: ecf3 24bd f3a2 0a3d 6e15 9d3b ce3c dbbd
000000f0: c8f2 6b3d 9810 ae3d 11a5 1bbd e89e f33d
00000100: 5595 813e c8bc e2bd 0e61 33bd a73e 1ebe
00000110: b820 eebb d633 b73d 28da 643d c41c 053e
00000120: 62a0 81bd 8408 aabd 4b3c a03d 591e 6cbd
00000130: 3d4b 98bd efce 3a3c 53da ab3d b015 a93d
00000140: e9cf 693e 2ac1 8abd e2cf 6dbc 2747 c9bd
00000150: c521 4f3d 9d4b 31bd d460 3bbd a66d d03c
00000160: 4de7 343d b3d4 bdbd ba9b bb3d 860c af3d
00000170: ee78 8b3b 7aae 933d 7c4c 473c e38a ce3d
00000180: 7098 9e3d 7557 dd3c dac3 b63c c859 93bc
00000190: 095d d23c 513f d93d b4fb d63d 71be 0fbc
000001a0: 96d6 403e 4940 33bc 396e 1cbd dbd0 54be
000001b0: 140b e7bd fbce 473d a3b8 673e bba6 62bd
000001c0: 94a1 cfbd 7f05 cd3d 9446 503e 9522 d63d
000001d0: c6ce 8ebd 5e7d 213e b54b 933e 9d5a 9b3b
000001e0: 45f0 323d 829e 913d 5f65 dc3c c56d 893d
000001f0: 3cd4 61bd ce08 06be e637 dd3d 2eab bcbd
00000200: 0a84 21bc f3a9 dcbd 78aa 33ba a509 18bd
00000210: 6943 073d 3ffa f1bd 47f9 aebb e9e5 9abb
00000220: b079 d6bd e538 32bd 69d6 fd3d 8ebc e4bd
00000230: f627 c93b ae1e a2bd 3d22 fc3d 9750 4e3d
00000240: 1a53 d63d fc20 fbbd 5c64 fdbd fb52 c63d
00000250: 2313 c73d 8487 acbd 7fa9 a73c 9486 edbb
00000260: 9f7b 75bd c60f d6bd 2ac2 ecbd fde3 efbd
00000270: 1c93 483d 5adb 0dbc ff06 133d c2ce c4bd
00000280: df39 ecbd a9fd e5bc a971 8f3d 709e a8bc
00000290: 2086 c5bd 5e43 91bd 8629 303d 53d5 f7bd
000002a0: 7345 a3bd cd2a e0bd 24bb cabd c7ec b93d
000002b0: 4e6c d1bc 0e72 cebd ef6a 323d 0513 813d
000002c0: 14ac d8bd b1df 6e3d 3382 7b3d 8c32 ec3d
000002d0: 326c c9bd e6bf 75bd 5f30 5c3d d8bc dc3d
000002e0: d8a5 a83d 6864 92bc 8b1c f8bd 8163 a0bc
000002f0: f46a c73d be04 5d3d 6a35 8dbd 475c f83d
00000300: dee2 0cbe dfb3 aa3c 5188 01be 5685 413e
00000310: e162 663e b3fa 043e fc3f 793d 5a40 e9bd
00000320: 5556 ad3b 6c96 123e c41d 833c de92 f03d
00000330: c22b 0ebd 4b96 b1bc be2c 0a3d 55f6 1bbd
00000340: 01bf b73c bf9f d33d 10ea 86bd 0d23 75bd
00000350: 8e03 ec3d 0def 1f3e 97a0 58bd 5964 fe3d
00000360: 2a10 73bd bbc7 023e 85a8 083d 4f78 c03d
00000370: 6e8f a03d 4517 993c 7f5b 9e3d cd75 733c
00000380: 13c4 e63c 1d24 d53d 325a ff3c f979 13bd
00000390: 4416 323b b77c 8fbd 213f f53c 7356 f1bd
000003a0: b780 913d 7833 143e 75ea bbbc f0c9 ab3e
000003b0: f02c 003e 6f95 573d ce9e dabd c44b ea3d
000003c0: cc72 8c3b 0b57 243d d2b9 a23d 195f d03c
000003d0: 1e85 5c3c a4af 9ebd d2bb 3ebb 0a77 6e3d
000003e0: a2a4 6bbd d255 343c 427b b23d 6c60 a4bd
000003f0: fec2 383e 3066 683e 0663 c3bd 12d9 84bd
0.043418214 0.06916461 0.09635499 -0.021527048 0.19260901 -0.092844024 0.018028645 -0.041806113
0.114966474 0.0106608635 0.025170924 0.013627524 0.042546254 0.12785216 -0.0024620332 0.002370012
-0.1615427 0.09995031 -0.015379891 -0.013228724 0.0023897307 -0.014652845 0.08416187 0.19091494
-0.09793373 0.008941983 0.023528062 0.08260513 0.11242068 0.12756948 -0.019825945 -0.08562669
0.09770393 -0.019758416 -0.11788292 -0.014140964 -0.064418204 0.11726245 0.043811765 0.03337745
-0.10576309 -0.061602917 0.121304765 0.2523688 0.0489243 0.042029366 -0.06213499 0.060610488
-0.05733134 0.091230884 -0.10182861 -0.0011513733 -0.040501386 0.10770577 0.068499975 0.0048670373
-0.040271685 0.033846807 0.0047938144 -0.10704957 0.05760458 0.08499259 -0.037999216 0.11895543
0.25309244 -0.110711634 -0.04379373 -0.15453587 -0.007267084 0.08945434 0.055872113 0.12999254
-0.06329419 -0.083024055 0.07824 -0.05764613 -0.074362256 0.011401876 0.083912514 0.0825609
0.22833218 -0.06775124 -0.014514895 -0.09828024 0.050569315 -0.043285 -0.04574664 0.02544291
0.044165898 -0.09269085 0.09160562 0.085473105 0.0042563593 0.07211013 0.012164231 0.10085084
0.07743919 0.027019242 0.022310186 -0.017987147 0.025679128 0.1060778 0.10497227 -0.008773432
0.18831858 -0.01094062 -0.038191054 -0.20782797 -0.1128141 0.048781376 0.22629027 -0.055334788
-0.101382405 0.10010814 0.20339423 0.10455815 -0.06973033 0.1577048 0.28768697 0.0047410266
0.04368617 0.07110311 0.026903806 0.0671039 -0.055134043 -0.13089296 0.108016774 -0.092123374
-0.009858141 -0.10774603 -0.000685371 -0.037118573 0.03302327 -0.11815309 -0.005339775 -0.0047271145
-0.10472429 -0.04351129 0.12394411 -0.111687765 0.006138797 -0.07916008 0.12311218 0.050369825
0.10465069 -0.12262151 -0.12372658 0.09683796 0.09720447 -0.08424285 0.020466564 -0.007248709
-0.059932347 -0.10452227 -0.11560471 -0.11713407 0.04896842 -0.0086582545 0.035895344 -0.096097484
-0.115344755 -0.028075056 0.07004101 -0.020583361 -0.09644723 -0.070929274 0.04300835 -0.12101235
-0.07972231 -0.109456636 -0.098989755 0.09078365 -0.025564339 -0.10080348 0.04355901 0.06302456
-0.10579696 0.058318797 0.061403465 0.115330786 -0.0983509 -0.05999746 0.053757068 0.107782066
0.08234757 -0.017870143 -0.12114819 -0.019578697 0.097371966 0.0539596 -0.068949535 0.121269755
-0.13758418 0.020837722 -0.12649657 0.1889852 0.22498657 0.12986259 0.060852036 -0.11389227
0.0052898326 0.14315194 0.016005404 0.11746763 -0.0347097 -0.02167811 0.033734076 -0.038076717
0.022429945 0.103332035 -0.06587613 -0.05984788 0.115241155 0.15618534 -0.052887525 0.124214835
-0.059341587 0.12771504 0.033363838 0.09397947 0.07839857 0.018687854 0.07732295 0.014859629
0.028169667 0.10407279 0.031170938 -0.036004994 0.0027173916 -0.07006209 0.029937329 -0.11784067
0.071046285 0.14472759 -0.022938946 0.33552504 0.12517142 0.052632745 -0.10674821 0.114402324
0.004286146 0.040122073 0.07945599 0.025435971 0.013459472 -0.077483445 -0.002910365 0.058218993
-0.057530053 0.011006789 0.08714916 -0.080262035 0.18043134 0.22695231 -0.095403716 -0.064867154

net.network.4.weight_1 f4 [16, 64]
00000000: 2fba dbbd dec4 e2bd 64d0 e7bd 8c96 083e
00000010: 2a66 a23c ea66 a0bd ac04 063e b1b3 c5bc
00000020: 171f ff3d a4b7 2f3d 5ffc c3bd 7f75 b2bd
00000030: b9ce e0bc f778 dcbd e028 f8bb caf6 b8bd
00000040: f133 98bd b6b1 723d 91f3 8cbd 8620 a63d
00000050: abbc a13d a01c 87bd 1e66 86bd e6ac bc3c
00000060: 7fc6 30bd 15fa 0b3d 0cbe f83d b9d2 98bd
00000070: d98f e63c 2680 d13c ee96 b6bd 4997 9bbd
00000080: 53dc 133e 5418 41bc c641 f73d 5ac6 c53c
00000090: 60e2 153a 8547 273d 7643 443d aeba 64bd
000000a0: b156 c6bd f4d7 133e b811 c33d e365 743e
000000b0: 571d 2f3d 9815 82bd 0928 48bd 3839 953c
000000c0: 45bb 92bd 08b9 ebbd 3994 5c3d 9258 0a3c
000000d0: d3ec eabc a20f 90bc 3e24 71bc 516c d73c
000000e0: cd25 393d 6fc0 efbd d696 e8bd 53a1 c8bd
000000f0: 46af 6dbd 5e1a 49bd e463 89bd f7cc 9abd
00000100: 6c09 943e 674d 9e3c 23f2 7c3d 3495 23be
00000110: c38a 6abc c07e 46bd fa49 47bd 385c aa3d
00000120: 6dd7 ce3c 4ed6 8e3c 06e7 cabd 4fae 85bd
00000130: 8611 ba3c 2001 c3bd 0446 95bc 88c7 163e
00000140: a01e db3d 1cc5 8b3d 4832 9fbd be4a a53d
00000150: bd32 93bd 6a0b 063d a0de d23d d7e4 2ebe
00000160: 91e6 2fbd 0e98 333d 273f 9c3d b37b 343b
00000170: 9285 a3bd 95cb 533e 1e2d c03d f7b1 cbbd
00000180: ae65 833c a045 67bd 5e3d e0bd 7829 143e
00000190: b11d efbd a890 c43d d8cb 51bd 3a2b 12bd
000001a0: 9553 123e 4f77 f93c d0b5 a43d c63b 57be
000001b0: ad9d a73d 66c2 0fbe 5bb9 da3d 1f05 b6bd
000001c0: 41cb 85bd da2a ad3e 63ce aa3d 9c90 753b
000001d0: e70d cf3d 357a 7fbb 1a3b 003e ac89 02be
000001e0: 620f 45bd d5c4 6f3e bad8 c33d 261c 9e3c
000001f0: 1ff8 3d3d 7465 23be b8a1 953d b57e 963c
00000200: 5372 5c3d 21bc a83d baf5 88bd 83e4 ab3d
00000210: 3d00 a2bd 6e47 d2bd 6239 62bd 15bc 94bd
00000220: 1e76 8abc 5304 2fbd 2b68 43bd 55c4 e13d
00000230: eefd daba 8c47 483d 2fa8 e1bd dc81 b03d
00000240: f645 83bd 0f48 74bd e375 0cbc a0c8 aa3c
00000250: 956b f4bd 5ae7 1dbd 1e68 21bb a73c 95bd
00000260: f1fb d93b a4bb 8bbc cbc5 bf3d a5da 94bd
00000270: 0979 0bbd d946 a33c e6ec e3bd 0a83 d4bc
00000280: a090 1c3d 7c27 823d ebed ec3c 38f4 da3d
00000290: c097 df3c 5f8a 20bd 13f8 c13d a15d d1bd
000002a0: 1bef d83d 957b ddba 58c7 d93d 7fe1 d93d
000002b0: 87ce 09bd 8df8 00be 1a2e dd3d 6a84 47bd
000002c0: 1d16 17bd 16b6 51bc 12a5 edbd 5a8a bcbb
000002d0: 91c3 6ebd 0f0a d5bd 8e37 933d 86a4 8b3c
000002e0: 58a9 d7bd 113b 883d 3cb5 df3d b77a 3dbc
000002f0: 6870 973c df56 273c 765b e7bc f81c aa3d
00000300: 3c22 c0bd 7edd af3c 1905 a13b a037 603e
00000310: 960e 373e 72ea c1bd 9946 3c3d 8dbb 323d
00000320: b074 60bd 9eea 573d 5f15 eb3c efd6 c3bd
00000330: 322e 1f3d 8211 47bd ac60 bbbb e53a cebd
00000340: d621 c6bd bae9 643e f0c8 5b3d d6de 283e
00000350: f606 96bc 24ba f23d fa77 303d 9b7b c23d
00000360: d250 2ebb 2eb5 583d 0de2 793d 179a 793d
00000370: 20df 48bd 0937 bf3d a43d f0bd fecb 12bd
00000380: a1e8 183e cdf2 c3bd 73a5 373d 3ec0 ea3c
00000390: 21e9 f33c f2a5 683b 87d9 b0bd 2af0 5d3d
000003a0: 14d8 923c f990 723b ec63 c3bd 3967 343e
000003b0: 9fcc 983d c17e 453d 9ce7 b23d 022e 8fbb
000003c0: d97d ca3d f701 2fbd e2d7 8d3d 35ca d7bd
000003d0: fb09 08be cfc0 aa3c 0878 0dbd caf3 a73c
000003e0: 6b0f 3abc f909 843c 7c61 333d c1a3 563a
000003f0: 726b 593e e614 2a3e fbc0 d2bd 4128 94bd
-0.10728871 -0.11072706 -0.11319044 0.13338679 0.019824106 -0.07832129 0.1308772 -0.024133535
0.12457102 0.042899743 -0.0956962 -0.08713817 -0.027442323 -0.1076526 -0.007573232 -0.09031446
-0.07431782 0.05925151 -0.06882394 0.08111672 0.07897314 -0.06597257 -0.06562446 0.023031663
-0.04315805 0.034174044 0.121456236 -0.07462067 0.028144764 0.025573801 -0.08915506 -0.07597215
0.14439516 -0.011785585 0.12073092 0.024142433 0.00057176314 0.04083969 0.0479159 -0.055842094
-0.09684504 0.14437848 0.09524864 0.23866992 0.04275259 -0.06351775 -0.048866306 0.01821576
-0.07164625 -0.11509901 0.053852294 0.008443968 -0.02867738 -0.01758558 -0.0147181135 0.026296766
0.045202065 -0.11706626 -0.11356895 -0.09796395 -0.058028482 -0.04909741 -0.06708506 -0.07558625
0.28913438 0.019324018 0.061754357 -0.15974885 -0.01431531 -0.048460722 -0.048654534 0.083183706
0.025249207 0.017436173 -0.099073455 -0.06527387 0.022713434 -0.09521699 -0.018221863 0.14724553
0.10699201 0.06824705 -0.07773262 0.080708966 -0.07187412 0.03272573 0.102963686 -0.17079483
-0.042944495 0.043846183 0.07629233 0.002753955 -0.07984461 0.20683129 0.093836054 -0.099460535
0.016039696 -0.056462884 -0.10949205 0.14468944 -0.11675585 0.095979035 -0.05121979 -0.035685755
0.14289697 0.030452399 0.080424905 -0.21018896 0.08184371 -0.14039001 0.10679885 -0.088876955
-0.06532908 0.33821756 0.083401464 0.0037470227 0.101100735 -0.0038982753 0.12522545 -0.1274783
-0.048110373 0.23414929 0.09562822 0.019300532 0.046379205 -0.1595667 0.07306236 0.018370965
0.053819966 0.08239008 -0.066874936 0.083931945 -0.07910202 -0.102675304 -0.055230506 -0.07262436
-0.016902026 -0.042728733 -0.047706764 0.110237755 -0.0016707757 0.048896357 -0.110184066 0.08618519
-0.06409828 -0.059639033 -0.008573028 0.020847619 -0.11934582 -0.038550712 -0.002462871 -0.07286959
0.006652348 -0.017057247 0.09363898 -0.07268266 -0.034050975 0.019931244 -0.11129169 -0.02594139
0.038223863 0.06355187 0.028922042 0.10691112 0.02729404 -0.03919446 0.094711445 -0.102229364
0.10592481 -0.0016897792 0.10633725 0.10638713 -0.033644225 -0.12594815 0.10799809 -0.048710264
-0.036886323 -0.01279976 -0.1160375 -0.0057537975 -0.058291975 -0.10402309 0.071883306 0.017046224
-0.10530347 0.06651891 0.109232396 -0.011564902 0.018486217 0.010213583 -0.028241854 0.083063066
-0.0938153 0.02146792 0.0049139378 0.21896219 0.17876658 -0.09468545 0.045965765 0.043635894
-0.054798782 0.052713983 0.028696714 -0.0956248 0.038862415 -0.04860068 -0.0057183113 -0.10069827
-0.096744224 0.22354785 0.053658426 0.16491255 -0.018313866 0.1185191 0.04308317 0.09496232
-0.0026598466 0.05290716 0.061006594 0.060937967 -0.049040914 0.09336669 -0.11730507 -0.035839073
0.14932491 -0.09567795 0.04483552 0.028656121 0.02977425 0.0035499302 -0.0863524 0.054184116
0.0179253 0.003701268 -0.09540543 0.17617501 0.074609034 0.048216585 0.08735582 -0.004369498
0.09887285 -0.042726483 0.06925942 -0.10536615 -0.13285057 0.020843891 -0.0345383 0.02050199
-0.011356215 0.016118037 0.04379414 0.00081878534 0.21232393 0.16609535 -0.10290714 -0.0723424

net.network.4.bias_0 f4 [16]
00000000: 9f1c 8f3d 1740 943e bf79 74bc 8c7c 703d
00000010: 2e4a 0e3e 767c 003e 4aad a53e 132b 553e
00000020: 8bae 1d3e 564c 9a3d f23c 97bd e8e6 f93d
00000030: 5a30 fc3d 6ede 58bd 1dda 76bd e7f0 3f3e
0.06987881 0.28955147 -0.014921605 0.058712527 0.13895485 0.12547478 0.32358772 0.20817213
0.15398614 0.07534091 -0.07384671 0.12202245 0.1231391 -0.0529465 -0.060266603 0.1874424

net.network.4.bias_1 f4 [16]
00000000: 1024 083e 8582 9b3e a9d0 c53d 4c0c dd3d
00000010: acaa 353d 538b 02be 21b2 5f3d 39d0 d93d
00000020: 1c7f 163e e063 093d 70ff 56bc be46 e03c
00000030: fdfd acbd 7865 ff3d d3c2 96bd be73 1b3e
0.13295007 0.30373016 0.096589394 0.10793361 0.04435222 -0.1274846 0.054613236 0.106354184
0.14696926 0.033542514 -0.0131224245 0.027377483 -0.08446882 0.124705255 -0.073613785 0.15180871

net.network.6.weight_0 f4 [2, 16]
00000000: bf17 b23e 2a19 eebe 390a 64be facc 113f
00000010: eef7 eebe a0d0 49be 5a90 eabe 4c7d b3be
00000020: 3aeb 263f f8d9 21be c1a1 673e 1156 943e
00000030: e5f9 c03e 5ab1 63be f0bb f7bd f685 07be
00000040: 9fe4 a9be 0226 fb3e ad7f f3bd 8cb3 25be
00000050: 309b db3d fdde e13c ffd5 123f d535 e13e
00000060: da8b d9be be0a 933e 382d a03c d784 dfbd
00000070: 7276 28bd b818 75be 0384 aabd 67a0 413e
0.34783742 -0.46503574 -0.22269525 0.56953394 -0.4667353 -0.1970849 -0.45813257 -0.3505653
0.6520268 -0.15805805 0.22620298 0.28971913 0.37690654 -0.22235623 -0.12096393 -0.13234696
-0.33182237 0.49052435 -0.118895866 -0.16181773 0.10722959 0.02757215 0.5735778 0.43986383
-0.4248951 0.28719133 0.019552812 -0.10914009 -0.041128583 -0.2393521 -0.083259605 0.18908845

net.network.6.weight_1 f4 [2, 16]
00000000: 11fc 5b3d 14b0 0ebf db79 0c3d d2d2 c63e
00000010: bc9c f4be f49f d13d 50ed 0cbe ea92 10bf
00000020: 350d b43e 60fd 8f3d bbfb 3fbe 02c2 c43e
00000030: 9a34 db3d 3880 b7bc 7799 3e3e a55c d4be
00000040: 1b0d 51be 77c6 1a3f a554 ee3c 3ca4 bdbe
00000050: bb3e 713e d092 d9bd ead3 733e 4399 9b3e
00000060: bc16 16bf 2485 6c3e 01f6 08be 471c a3be
00000070: 2f42 c63d b8c7 bd3d 712b b03d 9f3f d53e
0.053707186 -0.55737424 0.034295898 0.38832718 -0.4777583 0.10235587 -0.13762403 -0.56474173
0.35166326 0.07030749 -0.18748371 0.38429266 0.10703392 -0.022400007 0.1861323 -0.41476932
-0.20415156 0.60459083 0.029093096 -0.37039363 0.23559086 -0.106237054 0.23811308 0.30390367
-0.5862844 0.23097664 -0.13375093 -0.3185751 0.09680592 0.09266609 0.08602036 0.41650102

net.network.6.bias_0 f4 [2]
00000000: ae71 803d 1082 ccbe
0.06271683 -0.3994298

net.network.6.bias_1 f4 [2]
00000000: 8e18 833e ae1f d0be
0.2560467 -0.4064917
